src/learning/models/128_128_128_touch_800ep_8802.pt (torch, 142159 bytes, 8 tensors)

weight f4 [128, 6]
0	0x3e9ffcf5	0.31247678
1	0x3ebb3a03	0.36567697
2	0x3e30f424	0.17280632
3	0x3e0f2fdf	0.13983105
4	0xbe8142f1	-0.25246385
5	0x3f3abfb3	0.7294876
6	0x3dc9a7a4	0.09846428
7	0x3d109ad1	0.035303894
8	0x3e100b86	0.14066896
9	0x3de5d5c7	0.112224154
10	0x3f9a2c22	1.2044718
11	0x3e0255ce	0.12728044
12	0xbda778dc	-0.08177349
13	0x3e299fe8	0.16564906
14	0xbe0acfbe	-0.1355581
15	0x3f0c8b86	0.54900396
16	0x3e588bb7	0.21147047
17	0x3ebcae0d	0.3685154
18	0x3d6e82bf	0.058230158
19	0xbdc70101	-0.09716988
20	0xbcfeaaf5	-0.031087378
21	0xbf80fbfe	-1.0076902
22	0xbf1f6b55	-0.6227315
23	0x3e3bb4dc	0.18330711
24	0xbd2c7ad4	-0.042109326
25	0x3df1b9f6	0.11803047
26	0x3e191765	0.1495033
27	0xbd5c7e25	-0.05383124
28	0x3f0fd290	0.5618067
29	0x3ec5dd96	0.3864562
30	0xbe34837e	-0.17628285
31	0xbe0ccc4b	-0.13749807
32	0x3e65b611	0.22432734
33	0xbd24aa52	-0.040201493
34	0xbe5a9bd9	-0.21348514
35	0xbd32dfbc	-0.0436704
36	0xbe19c79e	-0.15017554
37	0x3e9eb139	0.30994585
38	0x3d72e1b0	0.059297264
39	0xbf27d1b7	-0.65554374
40	0xbd035e37	-0.032072272
41	0xbe89d921	-0.2692347
42	0xbf1e1630	-0.61752605
43	0x3dcd113a	0.10013051
44	0x3da625b4	0.0811266
45	0xbe3c6d50	-0.18401074
46	0x3f0b972a	0.54527533
47	0x3f077ada	0.5292183
48	0xbda046b9	-0.07825989
49	0x3f249bec	0.6430042
50	0xbe0c3fa0	-0.13696146
51	0x3db476e7	0.08811741
52	0xbf0ede05	-0.55807525
53	0x3e7ab0ba	0.24481478
54	0xbf1c4c8d	-0.6105431
55	0xbee0a429	-0.43875244
56	0xbe43b219	-0.19110908
57	0x3e02c667	0.12770997
58	0x3c45a14b	0.012062381
59	0xbda0b405	-0.07846836
60	0x3d2ae992	0.041726656
61	0xbe08a7ec	-0.13345307
62	0xbcbd6552	-0.023119602
63	0xbce603cc	-0.028077982
64	0xbf65f077	-0.89820045
65	0x3e6d74f2	0.23189142
66	0xbda71014	-0.081573635
67	0xbe850edb	-0.25987896
68	0xbe69a199	-0.22815551
69	0xbf0cd0dc	-0.55006194
70	0xbe9e13a7	-0.3087437
71	0x3ed4acdf	0.4153814
72	0xbd389231	-0.045061294
73	0xbe836945	-0.25666252
74	0x3f1b9acd	0.6078308
75	0xbe604a73	-0.219034
76	0x3f046db1	0.51729876
77	0xbe6c5f47	-0.2308322
78	0xbe3fe54c	-0.18739814
79	0xbea49f93	-0.32152995
80	0xbe16df53	-0.14733629
81	0xbee2751d	-0.44229975
82	0x3ec45cc1	0.38352016
83	0x3d7ce591	0.06174237
84	0x3bfb1f55	0.007663647
85	0xbd9198e1	-0.071092375
86	0xbda24fc0	-0.07925367
87	0x3e9616f6	0.29314393
88	0xbf37aabe	-0.71744907
89	0x3ed56ef0	0.416862
90	0x3f8127e9	1.0090305
91	0x3e4a7853	0.19772463
92	0xbea544f6	-0.32279176
93	0xbdb1c9b1	-0.08681048
94	0x3e1bc15a	0.15210477
95	0x3c8459d8	0.016156122
96	0x3d186ad5	0.037211258
97	0xbf001006	-0.5002445
98	0xbb59d19f	-0.0033236516
99	0x3d17d4b0	0.03706807
100	0x3f025bc8	0.509213
101	0xbeb6926f	-0.35658595
102	0x3e84c6ee	0.2593302
103	0x3e5e6037	0.2171639
104	0xbe924f5f	-0.2857618
105	0xbd6f492b	-0.058419388
106	0x3ecf2c61	0.40463546
107	0x3ed31f06	0.41234607
108	0x3f2a5ce1	0.6654797
109	0x3dbaea79	0.09126753
110	0xbed5b805	-0.41741958
111	0xbd5fbadc	-0.054621562
112	0x3f012de2	0.50460637
113	0x3e658f4a	0.22417942
114	0x3e69b3e9	0.22822537
115	0xbee6e8bf	-0.45099446
116	0xbccaa353	-0.024736082
117	0x3f0edf85	0.55809814
118	0xbe538908	-0.20657742
119	0xbc9047ca	-0.017612357
120	0xbd03874d	-0.032111455
121	0x3d6200c3	0.055176508
122	0xbe242e6e	-0.16033337
123	0xbdaf621b	-0.08563634
124	0x3f54f042	0.83179104
125	0xbf187ce3	-0.5956556
126	0x3ea03a39	0.3129442
127	0x3dca0a2e	0.09865223
128	0x3f00442c	0.5010402
129	0x3e169471	0.14705063
130	0xbd499251	-0.049211804
131	0xbedd511e	-0.4322595
132	0x3db6ed83	0.089320205
133	0xbd9117c3	-0.0708461
134	0xbdc0c1d1	-0.094119675
135	0xbc41f401	-0.01183796
136	0xbec8eb73	-0.39242133
137	0x3f59d8fd	0.8509672
138	0xbe5d230f	-0.21595405
139	0xbc40c1fd	-0.011765
140	0xbd923352	-0.07138695
141	0xbe0cd261	-0.13752128
142	0x3f40e010	0.7534189
143	0x3c27d2bd	0.010243115
144	0xbdd8c53c	-0.105844945
145	0xbe397ce2	-0.18114045
146	0xbbc21182	-0.0059224973
147	0xbeca218a	-0.39478713
148	0x3ed4325e	0.41444677
149	0x3f5cea6b	0.86295193
150	0xbe89942c	-0.2687086
151	0x3e8b7c26	0.27243155
152	0xbe3e7f85	-0.18603332
153	0x3e08bfa9	0.13354363
154	0x3db7a5fd	0.089672066
155	0xbf1b9c42	-0.60785306
156	0x3f2fa0f0	0.68604946
157	0xbe519aa1	-0.20469142
158	0xbc5d9bd6	-0.013525924
159	0x3e8d2c0b	0.27572665
160	0x3e65ec2f	0.22453378
161	0x3c9bb6d7	0.019008083
162	0x3d89162f	0.06693684
163	0xbc9db10f	-0.019249467
164	0xbe026e07	-0.12737285
165	0x3f1fab37	0.6237063
166	0x3ed29f4e	0.41137165
167	0xbdb5d400	-0.088783264
168	0x3edab3cd	0.42715302
169	0xbd73f7a1	-0.05956233
170	0xbed59fdd	-0.41723529
171	0xbf057baf	-0.5214185
172	0xbe8fc60f	-0.28080794
173	0x3f1a3581	0.6023789
174	0x3f10d582	0.5657579
175	0xbe58b0da	-0.21161214
176	0x3e6d2b74	0.23161107
177	0xbebb81aa	-0.36622363
178	0xbeac62cc	-0.33669126
179	0xbe37d2b2	-0.17951468
180	0x3e7ce41d	0.24696393
181	0x3eb721cb	0.3576797
182	0x3e7d411e	0.24731871
183	0x3c27b4aa	0.010235945
184	0x3f0ed23e	0.55789554
185	0xbf1c18fd	-0.6097563
186	0xbf66f22c	-0.90213275
187	0xbc15cc14	-0.009142894
188	0xbba0eaaa	-0.0049107866
189	0xbd29811d	-0.041382898
190	0x3f4c7ff8	0.79882765
191	0xbdca28f6	-0.09871094
192	0xbd8222f1	-0.06354321
193	0x3ec781c5	0.38966194
194	0xbeb0bb2a	-0.34517795
195	0x3ecc67c1	0.39922908
196	0x3e99f50b	0.30069765
197	0x3f2708ad	0.65247613
198	0x3ea24f4a	0.31701118
199	0x3d438114	0.04773052
200	0x3e8cf4fd	0.2753066
201	0x3e2c7c03	0.16844182
202	0x3d12c837	0.03583547
203	0x3e434e9e	0.19072959
204	0x3f3537ad	0.7078808
205	0x3d737372	0.05943627
206	0xbee2d961	-0.44306472
207	0xbe9965db	-0.29960522
208	0x3e2b5dec	0.16735047
209	0x3ee049ac	0.43806207
210	0x3cb90217	0.022584004
211	0x3e418fcc	0.1890251
212	0x3e3b07db	0.18264715
213	0xbe598743	-0.21243005
214	0x3f10eab4	0.5660813
215	0xbeecaf0c	-0.462273
216	0x3e4cc191	0.19995715
217	0xbeacffc6	-0.3378889
218	0xbe9fdd44	-0.312235
219	0x3d938550	0.07203162
220	0x3ed1c4b1	0.40970376
221	0x3e38c072	0.18042162
222	0x3bbc7b2e	0.005751989
223	0x3c0f4945	0.008745496
224	0xbda0316f	-0.07821929
225	0x3e29ff3f	0.16601275
226	0xbf0b1310	-0.5432596
227	0x3f4d1c66	0.8012146
228	0x3dd0c27e	0.101933464
229	0xbe59345f	-0.21211384
230	0xbebec519	-0.3725975
231	0x3e0d6355	0.13807423
232	0x3f1b15b9	0.6058002
233	0x3ec1af1d	0.37828913
234	0x3ef413f2	0.47671467
235	0xbdfd4b6a	-0.123679
236	0x3d76d4a5	0.060261387
237	0x3eabb5d5	0.33537164
238	0xbf33cf00	-0.7023773
239	0xbe76f86e	-0.24118206
240	0xbeeeee0c	-0.4666599
241	0xbe9deb9b	-0.30843815
242	0x3e1710cf	0.14752506
243	0x3ed60ee1	0.41808227
244	0xbf0672b6	-0.52518785
245	0xbf068788	-0.52550554
246	0xbddb7eca	-0.107175425
247	0xbe9efbe0	-0.3105154
248	0xbe28e00b	-0.16491716
249	0xbe50b34a	-0.20380893
250	0xbf5e4088	-0.86817217
251	0x3f76953d	0.9632147
252	0x3df408e8	0.11915761
253	0xbdc24766	-0.094862744
254	0x3e091df5	0.13390334
255	0xbe4c291f	-0.19937561

bias f4 [128]
0	0xbed1bc1d	-0.40963832
1	0xbeda738b	-0.42666277
2	0xbf28642a	-0.6577784
3	0x3f26d68d	0.6517113
4	0xbf09e3ec	-0.53863406
5	0x3e9fa48f	0.31180236
6	0x3e87ff41	0.2656193
7	0xbf810389	-1.0079204
8	0x3e867432	0.26260525
9	0x3ee95226	0.45570487
10	0x3f159225	0.58426124
11	0x3e3d7fa2	0.1850572
12	0xbf54bdac	-0.83101916
13	0xbd25cfd0	-0.04048139
14	0x3eeaa2a5	0.45827213
15	0xbeb9fc4b	-0.36325297
16	0xbf1ef6da	-0.62095416
17	0xbed868d7	-0.42267486
18	0xbeff8cd4	-0.4991213
19	0x3e7103c6	0.23536596
20	0xbbcaedb8	-0.006192889
21	0x3e8d987d	0.27655402
22	0xbf27f395	-0.6560605
23	0xbf643afb	-0.891525
24	0xbf756980	-0.95864105
25	0xbe2cd38c	-0.16877574
26	0xbef0e05e	-0.4704618
27	0xbf184e8e	-0.59494865
28	0x3d4fc53a	0.0507252
29	0xbd135767	-0.035972025
30	0xbeda7d68	-0.42673802
31	0xbf40e1a3	-0.75344294
32	0xbedbe010	-0.42944384
33	0xbd9c82cc	-0.07642135
34	0xbcd9ab8f	-0.026571063
35	0xbf0ca891	-0.5494471
36	0x3e3becfe	0.18352124
37	0xbe937af1	-0.28804734
38	0xbee65060	-0.44983196
39	0x3f4dfd92	0.8046504
40	0x3e6ca1f5	0.23108657
41	0x3f47b659	0.78012615
42	0xbea76d6f	-0.3270068
43	0xbe8c6dd5	-0.27427545
44	0xbe3b3d9e	-0.18285224
45	0x3ea8cba0	0.32967854
46	0x3dfebc26	0.1243823
47	0x3e9225b7	0.285444
48	0x3dfb6b9c	0.12276384
49	0xbefb2b86	-0.49056643
50	0xbaeb84d9	-0.0017968669
51	0xbe650809	-0.22366346
52	0xbf37b9dc	-0.71767974
53	0xbe047bd6	-0.12937865
54	0x3e958fb7	0.29211208
55	0x3e8799e1	0.26484588
56	0x3ec1c700	0.37847137
57	0x3e8e7dd6	0.2783038
58	0xbf80592d	-1.0027214
59	0xbe85c512	-0.26126915
60	0xbec2a348	-0.380152
61	0xbd8590b6	-0.06521742
62	0x3a51d930	0.0008005081
63	0xbe7cf29e	-0.24701926
64	0xbe53d812	-0.20687893
65	0x3e121f2b	0.14269702
66	0x3f8d0ccc	1.101953
67	0x3eaf50df	0.34241387
68	0xbf686598	-0.9078002
69	0x3f2d6576	0.6773294
70	0xbf291642	-0.6604959
71	0xbe9f3b19	-0.31099775
72	0x3f26c33e	0.65141666
73	0x3f235349	0.6379896
74	0xbd4d7d47	-0.050168302
75	0xbf1b1d6e	-0.6059178
76	0x3d555a6c	0.052088186
77	0x3c8c35f6	0.017115574
78	0xbe81a5c5	-0.25321785
79	0x3f59170b	0.84800786
80	0xbed9e141	-0.42554668
81	0xbf1ab395	-0.6043027
82	0x3f568e7a	0.8381115
83	0xbeda3428	-0.42617917
84	0xbf0ca5cb	-0.5494048
85	0xbf20f440	-0.62872696
86	0xbe0bd29f	-0.13654564
87	0xbe4bbc59	-0.19896068
88	0x3c42be85	0.011886244
89	0xbed49b50	-0.41524744
90	0x3ec44f2c	0.38341653
91	0x3ec3ba25	0.38227955
92	0xbe054daa	-0.13017908
93	0xbd9ee42c	-0.07758364
94	0x3ea85277	0.32875416
95	0xbf135007	-0.5754399
96	0x3f536821	0.82580763
97	0x3f3e8fdb	0.74438256
98	0xbf1a684b	-0.6031539
99	0xbe9dff07	-0.30858633
100	0xbec5f649	-0.38664463
101	0x3c5daedc	0.013530459
102	0x3edfd254	0.43715155
103	0xbf15f61d	-0.58578664
104	0xbf107b30	-0.5643797
105	0xbeea9e36	-0.4582383
106	0xbf7df56a	-0.992026
107	0x3f464a12	0.7745677
108	0xbf5772d2	-0.84159577
109	0xbe18a208	-0.1490556
110	0xbe9f582d	-0.3112196
111	0xbe6b4162	-0.2297416
112	0xbed047b7	-0.40679714
113	0x3efdd3de	0.49575704
114	0xbea025d0	-0.3127885
115	0x3d5c2927	0.053750183
116	0x3e1297a1	0.14315654
117	0x3ed5c6c5	0.41753212
118	0x3e830752	0.25591522
119	0x3c6f4ceb	0.014605741
120	0x3f4b78e9	0.7948137
121	0xbf207958	-0.62685156
122	0x3ef038e2	0.46918398
123	0x3e1eaff7	0.15496813
124	0x3f5a4a65	0.8526977
125	0x3f08bf36	0.53416765
126	0xbde247f7	-0.110488825
127	0xbe91c6b1	-0.28471902

weight f4 [128, 128]
0	0x3d1b9481	0.03798342
1	0x3ea4c578	0.32181907
2	0x3d9add47	0.075617366
3	0xbe80631c	-0.25075614
4	0xbc2978d6	-0.010343751
5	0xbe218e03	-0.1577683
6	0x3dfab10f	0.122408025
7	0xbe02ec5c	-0.12785476
8	0x395da937	0.0002113924
9	0xbd8a1bee	-0.067436084
10	0xbee17b7f	-0.44039533
11	0x3e951893	0.2912031
12	0xbe4b45d7	-0.1985086
13	0x3ef2cbb3	0.47421035
14	0xbeae70b2	-0.34070355
15	0x3e71aea9	0.23601784
16	0x3e4ddec8	0.20104516
17	0x3e91193f	0.28339574
18	0x3eb34737	0.3501527
19	0xbe6b05a2	-0.22951367
20	0x3eadf9a2	0.33979517
21	0x3e7abd11	0.24486186
22	0xbd721c20	-0.059108853
23	0xbd280cb2	-0.041027732
24	0xbd592f57	-0.053023662
25	0x3de76cf9	0.11300082
26	0x3e45a53e	0.19301316
27	0xbe0558ba	-0.13022128
28	0xbe0afe41	-0.13573553
29	0x3ddb1fca	0.10699423
30	0xbb8eb497	-0.004355024
31	0xbe3adfff	-0.1824951
32	0x3ea3dd45	0.32004753
33	0xbbf91ec7	-0.007602546
34	0x3c733130	0.01484327
35	0x3e291b07	0.16514216
36	0xbd9d502c	-0.07681307
37	0x3e468812	0.19387844
38	0xbe2b96f7	-0.16756807
39	0x3e3b3069	0.18280186
40	0xbec6ba18	-0.38813853
41	0x3e097aba	0.13425723
42	0xbccb0b5f	-0.024785696
43	0x3bbe3ddd	0.0058057145
44	0x3de2d507	0.11075788
45	0xbe45adbe	-0.19304559
46	0x3b4f44d1	0.003162671
47	0x3df19d67	0.117976
48	0xbe70411c	-0.23462337
49	0xbd755172	-0.059892125
50	0x3d02519e	0.031816117
51	0x3ee54a32	0.4478317
52	0xbedb2de5	-0.42808452
53	0xbd943995	-0.072375454
54	0x3e2d77d7	0.16940247
55	0x3e0780c3	0.13232712
56	0xbee7a049	-0.45239475
57	0x3ccd5af0	0.025067776
58	0x3d5732fd	0.05253886
59	0x3d32918f	0.043595847
60	0x3dea158e	0.114298925
61	0x3d863be4	0.06554392
62	0xbdfad97c	-0.12248513
63	0xbe51c5a2	-0.20485547
64	0x3d83cabe	0.064351544
65	0xbde91830	-0.113815665
66	0xbe0592f0	-0.13044333
67	0xbd2cb394	-0.042163447
68	0x3d01e02c	0.031707928
69	0x3b3cde99	0.0028819202
70	0xbbbc6bdb	-0.005750162
71	0x3e8f2beb	0.27963194
72	0xbdf8bda2	-0.121455446
73	0x3ea334c6	0.318762
74	0x3d392d5b	0.04520927
75	0x3e40f52b	0.18843524
76	0x3e2627b9	0.1622609
77	0xbcfe043f	-0.031007884
78	0x3e21a178	0.15784252
79	0xbe7f912b	-0.24957721
80	0xbd5f49ea	-0.05451385
81	0xbe29a28a	-0.1656591
82	0xbe1363f3	-0.14393596
83	0x3e3c0481	0.18361093
84	0xbe5cda85	-0.21567734
85	0x3d53c759	0.051703785
86	0x3e7e1587	0.248129
87	0xbe32ad64	-0.17448956
88	0xbe821515	-0.2540671
89	0xbc4193c1	-0.011815012
90	0xbdb79dc7	-0.089656405
91	0x3e191070	0.14947677
92	0xbcfc4633	-0.030795192
93	0x3e803686	0.25041598
94	0x3de5ad77	0.112147264
95	0x3e08b594	0.13350517
96	0xbbea3a97	-0.0071480977
97	0x3f02cae6	0.5109085
98	0x3c826c2b	0.01592072
99	0x3de6bf3f	0.11266946
100	0xbdbc6fa0	-0.09200978
101	0xbd4588e6	-0.04822626
102	0xbe3033ec	-0.17207307
103	0x3dfb1b90	0.122611165
104	0xbe18691f	-0.1488385
105	0x3d9d4edc	0.07681057
106	0xbe15f2df	-0.14643429
107	0xbd4ab3d7	-0.049487915
108	0xbdd8d4ba	-0.10587449
109	0xbe374d37	-0.17900549
110	0xbe210e78	-0.15728176
111	0x3db7d262	0.08975674
112	0x3e2d570c	0.16927737
113	0xbdf2a8ba	-0.11848588
114	0x3e4bfc57	0.19920479
115	0x3efa2fa6	0.48864478
116	0x3e164285	0.14673813
117	0x3e828614	0.25492918
118	0xbe841387	-0.25796148
119	0x3b323223	0.0027190528
120	0x3cf10298	0.029420182
121	0x3e03d4b1	0.12874104
122	0xbd54fc88	-0.051998645
123	0x3e2a62e0	0.1663928
124	0x3ef9b91b	0.48774037
125	0x3cea3635	0.028590301
126	0x3d867267	0.06564789
127	0xbf225c0c	-0.634217
128	0x3de4af59	0.111662574
129	0xbe4d5deb	-0.20055358
130	0xbd2a0182	-0.041505344
131	0x3c4a49bf	0.012346684
132	0xbd5c9a8f	-0.053858336
133	0xbe26ba0b	-0.16281907
134	0xbe8e04c4	-0.2773801
135	0x3e3180c3	0.17334275
136	0xbe18eb12	-0.14933422
137	0xbb47feac	-0.0030516787
138	0x3db491ae	0.08816849
139	0x3f22dc55	0.6361745
140	0x3e4b6ff4	0.19866925
141	0x3dd7dd72	0.10540284
142	0xbe4b5267	-0.19855653
143	0xbeba49da	-0.3638447
144	0x3c24bb7f	0.010054468
145	0xbd61bb1a	-0.055110075
146	0xbe925a43	-0.2858449
147	0xba8de38e	-0.0010825263
148	0xbd8411c3	-0.064487
149	0x3e4b8ca7	0.19877873
150	0xbdc687e3	-0.09693887
151	0xbe854f83	-0.26037225
152	0xbc85c528	-0.016329363
153	0xbd064c3a	-0.03278754
154	0xbd4b7d5c	-0.0496801
155	0xb9c85a31	-0.0003821417
156	0xbe2d240f	-0.16908287
157	0x3d2fda90	0.042933047
158	0xbe88ec99	-0.2674301
159	0x3f3277a7	0.69713825
160	0x3e2081e2	0.15674546
161	0x3b82faa8	0.0039971657
162	0xbddc88b5	-0.10768262
163	0xbdd9dd4b	-0.106379114
164	0xbe8882cd	-0.26662293
165	0xbd2fec00	-0.042949677
166	0xbed3b826	-0.41351432
167	0xbe4548f2	-0.19266108
168	0x3e722461	0.2364669
169	0x3ed3dcae	0.41379303
170	0x3e295c3a	0.16539088
171	0xbd462837	-0.048378196
172	0xbc8ce821	-0.017200531
173	0xbde355c7	-0.11100345
174	0x3e447ef1	0.1918905
175	0xbe864298	-0.26222682
176	0x3bb7bb0e	0.0056070155
177	0xbf49effb	-0.78881806
178	0xbe0b3701	-0.13595201
179	0xbe85fdc5	-0.26170173
180	0xbe0bda5d	-0.13657518
181	0xbeadb190	-0.33924532
182	0xbdd888bb	-0.10572954
183	0x3dcefc22	0.10106684
184	0xbde63829	-0.112411804
185	0xbcf4e1a2	-0.029892746
186	0xbdc8a7fd	-0.09797666
187	0xbce2aa92	-0.027669225
188	0xbe34d310	-0.17658639
189	0x3e9c868f	0.3057141
190	0x3e16a25e	0.14710376
191	0x3d986f12	0.0744306
192	0xba28724d	-0.00064257235
193	0x3e28596f	0.16440366
194	0xbe537038	-0.20648277
195	0x3e3fa934	0.1871689
196	0xbd7ad9db	-0.06124292
197	0xbe478627	-0.19484769
198	0xbcd4f1cb	-0.025994202
199	0x3e5f4924	0.21805245
200	0xbe879ba2	-0.26485926
201	0xbe6ad28d	-0.22931881
202	0xbea48625	-0.32133594
203	0x3eb56c1e	0.3543405
204	0xbb7627ee	-0.003756042
205	0x3e08b89c	0.13351673
206	0xbd568481	-0.05237246
207	0x3e4f382d	0.20236273
208	0x3e53931c	0.20661587
209	0xbe9c2027	-0.3049328
210	0xbd80e496	-0.06293599
211	0xbe98a036	-0.2980973
212	0xbdb340ed	-0.08752618
213	0xbe666118	-0.22497976
214	0xbd2321ea	-0.039827265
215	0x3ddf42fb	0.109014474
216	0xbe77721a	-0.2416462
217	0x3c9947f2	0.018711064
218	0x3d3bc280	0.045839787
219	0xbd09b415	-0.033619005
220	0x3f058aee	0.52165115
221	0xbcc80480	-0.024416208
222	0x3d934553	0.07190957
223	0x3d68eeea	0.05686847
224	0xbc8c1de4	-0.017104097
225	0xbc7a5a09	-0.015280255
226	0x3c9092e3	0.017648166
227	0x3dd9f09e	0.10641597
228	0x3d07bf9d	0.03314172
229	0xbe68a2ea	-0.22718397
230	0xbe7bc7b8	-0.24587905
231	0x3dea8559	0.11451215
232	0xbd158d49	-0.036511693
233	0xbe8a5c0a	-0.27023345
234	0x3e4e98b1	0.20175435
235	0x3c851c3c	0.016248815
236	0xbc73897b	-0.014864321
237	0x3d439802	0.047752388
238	0x3dffd602	0.124919906
239	0x3e0ffbe0	0.14060926
240	0x3dcd2333	0.10016479
241	0x3ed07fb0	0.40722418
242	0xbd205602	-0.039144523
243	0xbdc4627c	-0.09589097
244	0x3dc49712	0.09599127
245	0x3e176389	0.14784063
246	0xbf10e9a5	-0.56606513
247	0x3f5fd0f3	0.87428206
248	0xbe69371a	-0.22774926
249	0xbdfb160b	-0.12260064
250	0xbead1e97	-0.338124
251	0xbe88465f	-0.2661619
252	0x3e0e7963	0.13913493
253	0x3e0703e8	0.13185084
254	0x3e8a9c77	0.27072498
255	0x3e14ccda	0.1453127

bias f4 [128]
0	0xbdf32707	-0.11872678
1	0x3e8fb587	0.28068182
2	0x3d7bc601	0.061468128
3	0x3e1d0502	0.15333942
4	0x3ea17e3c	0.31541622
5	0x3ddc4002	0.10754396
6	0x3c7cbdfd	0.015426156
7	0x3e10aeac	0.14129132
8	0xbe183df5	-0.14867385
9	0x3e0e668a	0.13906303
10	0xbe52f978	-0.20602977
11	0xbd555025	-0.052078385
12	0x3ea07700	0.3134079
13	0xbe32faf8	-0.1747855
14	0x3e0745fd	0.13210292
15	0xbe1e8c2c	-0.15483159
16	0xbded6dbb	-0.11593195
17	0xbe644b65	-0.22294386
18	0xbdd26919	-0.10273952
19	0xbe242258	-0.16028726
20	0x3e53ed45	0.2069598
21	0x3c4569e5	0.012049173
22	0xbd26082f	-0.04053515
23	0xbe94975e	-0.29021734
24	0x3d84cc90	0.0648433
25	0x3d049f64	0.03237857
26	0xbe2a4683	-0.1662846
27	0x3d27b9cc	0.040948674
28	0x3eb19c06	0.3468935
29	0x3e1159b7	0.1419438
30	0x3bf80763	0.00756924
31	0xbe19fae2	-0.1503711
32	0x3d1f2f9c	0.038863763
33	0x3dd18011	0.10229505
34	0xbd513605	-0.051076908
35	0x3c6b7d7d	0.01437318
36	0x3e24e8b1	0.1610439
37	0x3d85a9b2	0.065265074
38	0x3de1bc41	0.11022235
39	0x3e2fd912	0.1717265
40	0x3ce2a151	0.027664812
41	0x3e2e131e	0.1699948
42	0xbbc5153f	-0.0060144956
43	0xbc954d49	-0.018225329
44	0xbe1cc145	-0.15308101
45	0xbe068c49	-0.13139452
46	0xbe2ea68c	-0.1705572
47	0xbce5bfa9	-0.028045492
48	0x3ccec3b2	0.0252398
49	0x3ce2940b	0.027658483
50	0xbd4bb413	-0.04973228
51	0x3d3d2def	0.046186384
52	0xbd17a734	-0.03702469
53	0x3e8346ac	0.25639856
54	0xbe8c4d7e	-0.27402872
55	0xbdd44195	-0.10364071
56	0xbe56aa12	-0.20963314
57	0x3e81de05	0.253647
58	0x3e814145	0.2524511
59	0xbe04017d	-0.12891193
60	0xbdc477e3	-0.09593179
61	0xbd71435d	-0.058902133
62	0xbe97cd2d	-0.29648724
63	0x3ad9f87b	0.0016629839
64	0xbea58d5d	-0.32334414
65	0x3bd46a6a	0.006482412
66	0xbc96c4a1	-0.018404307
67	0x3c92c468	0.01791592
68	0x3dc563ca	0.09638174
69	0xbe6092c9	-0.21930994
70	0x3de19652	0.110149994
71	0x3ea1ab4a	0.31575996
72	0x3e2c5018	0.16827428
73	0xbe093d59	-0.13402309
74	0xbe9140dc	-0.28369796
75	0x3e0256e4	0.12728459
76	0x3b81527d	0.003946601
77	0xbe338e66	-0.1753479
78	0xbded94d4	-0.11600652
79	0xbc9722d1	-0.018449219
80	0xbdb725f6	-0.08942787
81	0xbe01141f	-0.12605332
82	0xbd5e2a78	-0.05423972
83	0x3ed594d6	0.41715115
84	0xbd34b864	-0.04412116
85	0x3dd332d8	0.10312432
86	0x3d724caf	0.059155162
87	0xbd9d5577	-0.07682317
88	0x3e1d149d	0.15339895
89	0xbe5552f6	-0.20832428
90	0xbecfdaae	-0.40596527
91	0xbe4e9490	-0.2017386
92	0x3df175b4	0.11790028
93	0xbc6d0df7	-0.0144686615
94	0xbe217754	-0.15768176
95	0xbd3ed336	-0.046588145
96	0xbad30c01	-0.00161016
97	0xbbffd875	-0.007807786
98	0xbe28bc94	-0.16478187
99	0xbdb7756b	-0.089579426
100	0x3c71c320	0.014755994
101	0x3e3b1ddf	0.18273114
102	0xbe8d820b	-0.27638277
103	0xbdc758d4	-0.097337395
104	0x3d6b1038	0.057388514
105	0xbe9dcd47	-0.30820677
106	0xbe379256	-0.17926916
107	0xbe6bb700	-0.23019028
108	0xbae3f8df	-0.0017392895
109	0xbdeccbf6	-0.1156234
110	0x3cc82832	0.02443323
111	0x3d121bf0	0.035671175
112	0xbe302aab	-0.17203777
113	0xbc0ac782	-0.008470418
114	0x3e1fcf4c	0.15606421
115	0xbe3cd182	-0.18439296
116	0x3e979918	0.2960899
117	0x3eda8fb0	0.4268775
118	0x3d80afe7	0.06283551
119	0xbd5e6e79	-0.054304574
120	0xbe8b2f24	-0.27184403
121	0x3da7cbee	0.081931934
122	0x3d8a0ca5	0.06740693
123	0xbd0d9de3	-0.0345744
124	0xbc219997	-0.009863279
125	0xbe18da41	-0.14927007
126	0x3e2951e3	0.16535144
127	0xbea171b2	-0.31532055

weight f4 [128, 128]
0	0x3de155ec	0.110027164
1	0xbe014080	-0.12622261
2	0x3d147ce6	0.036251925
3	0xbe154e05	-0.14580543
4	0x3e2480f6	0.1606482
5	0x3ec9727a	0.3934515
6	0x3dd18465	0.102303304
7	0xbeabe30b	-0.33571658
8	0xbdb39b44	-0.08769849
9	0xbd25b5a4	-0.04045643
10	0xbdbe2a7a	-0.092854455
11	0xbde1283a	-0.10994001
12	0x3ea181d2	0.31544358
13	0x3ded4f6d	0.11587415
14	0x3f00dabf	0.5033378
15	0xbe3a1472	-0.18171862
16	0xbdd76e79	-0.10519118
17	0x3e312258	0.17298257
18	0x3dcbdbc1	0.09954024
19	0x3e92239e	0.285428
20	0xbddbe9b5	-0.107379355
21	0xbe16c578	-0.14723766
22	0xbe5c9a69	-0.21543278
23	0xbe35da5e	-0.17759082
24	0xbd238549	-0.039922033
25	0xbde0aa91	-0.10970033
26	0xbe757318	-0.23969686
27	0x3cf3e6e8	0.02977319
28	0xbe801f3e	-0.25023836
29	0xbe814299	-0.25246122
30	0xbd0fc902	-0.035103805
31	0x3dfd6d3b	0.1237435
32	0xbdf8c962	-0.12147786
33	0xbebfca03	-0.3745881
34	0xbe41d2f1	-0.18928124
35	0xbe226355	-0.15858205
36	0xbea40432	-0.3203445
37	0x3de48434	0.11158028
38	0xbcf6d25b	-0.030129602
39	0xbea8af28	-0.32946134
40	0x3d91a7fd	0.07112119
41	0x3e137788	0.14401066
42	0x3f0d89ba	0.5528828
43	0x3ead5d01	0.3386002
44	0xbda775ff	-0.08176803
45	0xbebe54d3	-0.3717409
46	0x3d9993b0	0.07498872
47	0xbe42602a	-0.18981996
48	0xbe0a58f6	-0.13510498
49	0xbf09d59a	-0.53841555
50	0xbd69c84b	-0.05707578
51	0xbe0ab684	-0.13546187
52	0x3d6e763f	0.058218237
53	0xbd526129	-0.05136219
54	0xbd66f837	-0.05638906
55	0xbe80896f	-0.25104854
56	0xbd213e97	-0.03936633
57	0x3d2065d3	0.039159607
58	0x3d688a64	0.056772605
59	0xbdee06eb	-0.11622413
60	0xbe8897a0	-0.2667818
61	0x3c0a6858	0.008447729
62	0x3e3115e8	0.17293513
63	0x3eb0e273	0.34547767
64	0x3e1e9e1b	0.1549
65	0x3c7584d5	0.014985283
66	0xbea819b4	-0.3283211
67	0xbcaaff4d	-0.02087369
68	0xbca18a78	-0.019719347
69	0xbec67deb	-0.38767943
70	0xbf09a914	-0.5377362
71	0x3d1ec51d	0.0387622
72	0x3f3a1754	0.72691846
73	0xbcf8ac51	-0.030355604
74	0xbd2d2f4b	-0.04228143
75	0x3ec9898f	0.3936276
76	0xbc8c9247	-0.017159594
77	0x3ccd90fe	0.025093552
78	0xbebeba4f	-0.37251517
79	0xbe2a0542	-0.16603568
80	0x3e259bea	0.16172758
81	0x3acb1761	0.0015494638
82	0xbbeff34a	-0.0073227035
83	0xbeb1b591	-0.34708837
84	0x3ecbd68b	0.3981212
85	0x3e8d8b41	0.27645305
86	0xbda2e5be	-0.07953976
87	0x3d7ce275	0.061739404
88	0xbdfe1dd4	-0.12408033
89	0x3e1da18c	0.15393656
90	0xbd38d1ed	-0.045122076
91	0x3c7ed37f	0.015553354
92	0x3ea2cc54	0.31796515
93	0x3d8fc60f	0.070201986
94	0xbc4b4cf9	-0.012408488
95	0x3ea3cb78	0.31991172
96	0xbea403bf	-0.32034108
97	0xbec0b0e1	-0.37634948
98	0x3d9479c1	0.07249785
99	0x3e9f3b4d	0.3109993
100	0x3eba259b	0.36356816
101	0xbf4a9bc1	-0.7914391
102	0xbdb1f10c	-0.08688554
103	0xbe926821	-0.2859507
104	0x3ec6dcee	0.3884043
105	0xbe0e4e35	-0.13897021
106	0xbe45e973	-0.19327335
107	0x3e8b05d9	0.271529
108	0xbe175451	-0.14778258
109	0xbe5ccbe3	-0.21562152
110	0xbe1cea0c	-0.15323657
111	0x3e371fb2	0.17883185
112	0x3c9891e3	0.018624252
113	0xbf0c5ccc	-0.54829097
114	0xbd4ee5b8	-0.050512046
115	0x3dfeb13b	0.12436148
116	0x3e4c254b	0.19936101
117	0x3d24d085	0.040237922
118	0x3d99b2bc	0.07504794
119	0xbe8604e9	-0.2617562
120	0x3c8888b7	0.016666753
121	0xbe4894d3	-0.19588022
122	0xbd2482c9	-0.04016379
123	0x3c0fef8e	0.008785142
124	0xbdb5cfc1	-0.088775165
125	0xbd06c4ff	-0.032902714
126	0x3d01c50e	0.031682067
127	0xbc874115	-0.016510526
128	0xbe8c83cd	-0.27444306
129	0xbded2f9f	-0.11581349
130	0x3e0896a6	0.13338718
131	0x3e306fa2	0.17230085
132	0xbe42b9f0	-0.19016242
133	0x3e1bbb6b	0.15208213
134	0x3e4b85a7	0.19875203
135	0x3e452b04	0.1925469
136	0xbdad71b0	-0.0846895
137	0xbd3d89d9	-0.04627404
138	0x3ce6a8d6	0.02815668
139	0xbdf75fc3	-0.12078812
140	0x3d393ced	0.04522412
141	0x3dd47e8f	0.10375702
142	0xbdcd8101	-0.10034371
143	0x3dfbee09	0.12301261
144	0x3e07bd91	0.13255908
145	0x3b889287	0.004167858
146	0x3df228a3	0.11824157
147	0x3ea00d4a	0.3126014
148	0x3e6e9535	0.23299105
149	0xbdd7740c	-0.10520181
150	0x3ca01613	0.019541776
151	0xbeab522c	-0.3346113
152	0x3e8897e7	0.26678392
153	0xbddd1aae	-0.10796104
154	0x3ccfdb4f	0.02537313
155	0xbe850c9b	-0.2598618
156	0x3dd39d44	0.103327304
157	0xbe8d4b28	-0.27596402
158	0x3ebcec1a	0.3689888
159	0xbe86e5f2	-0.2634731
160	0xbe5ce06f	-0.2156999
161	0x3d3e9900	0.04653263
162	0xbd6fb2d7	-0.058520164
163	0xbf13cdf8	-0.5773616
164	0xbee0a102	-0.4387284
165	0xbdefdebc	-0.11712405
166	0x3de28e40	0.11062288
167	0x3d124814	0.03571327
168	0x3e2729a9	0.16324486
169	0x3f0a6a26	0.5406822
170	0x3f49b59d	0.78792745
171	0x3e0e5072	0.13897875
172	0xbd57693e	-0.0525906
173	0x3e3cb4ba	0.18428317
174	0x3e8d705e	0.27624792
175	0xbd71f664	-0.059072867
176	0x3e1a129a	0.15046158
177	0xbdb4ac01	-0.0882187
178	0xbf0f0046	-0.5585979
179	0xbeb1b609	-0.34709194
180	0x3db10ff4	0.08645621
181	0xbe464148	-0.1936084
182	0x3d59f08d	0.053207923
183	0xbe621a81	-0.22080423
184	0xbbecf713	-0.007231602
185	0xbd9472b7	-0.072484426
186	0x3e8ff629	0.28117493
187	0xbda37e0b	-0.07983025
188	0xbcce2cc0	-0.025167823
189	0xbdba778b	-0.09104832
190	0xbe654e60	-0.22393179
191	0x3e0f6db3	0.1400669
192	0x3e7126da	0.23549977
193	0x3dea137f	0.114295
194	0xbeaf0cf3	-0.34189567
195	0xbe98dabf	-0.2985439
196	0x3d949fa0	0.072570086
197	0x3ec9290c	0.3928913
198	0x3d956493	0.07294574
199	0x3dd9af26	0.1062911
200	0xbe29cdd5	-0.16582425
201	0x3e34b6bd	0.17647834
202	0x3dd55aa1	0.10417677
203	0x3ca0cae7	0.019628001
204	0x3d038285	0.032106895
205	0xbe5fea25	-0.21866663
206	0xbd01f988	-0.031732112
207	0x3ed205f9	0.41020182
208	0xbe0f6c72	-0.14006212
209	0x3e3160b1	0.17322041
210	0x3f2dc8f9	0.67884785
211	0x3e2d52b0	0.16926074
212	0x3e858524	0.2607814
213	0xbe0563a4	-0.13026291
214	0xbf20414e	-0.6259965
215	0xbe1834c0	-0.14863873
216	0x3e1f86b6	0.15578732
217	0xbe67a25c	-0.22620529
218	0x3c2303cd	0.009949637
219	0xbe1c19d0	-0.15244222
220	0xbe6eb85e	-0.23312518
221	0xbd169491	-0.036762778
222	0xbc9b2f89	-0.018943565
223	0xbe87f896	-0.26556844
224	0x3cc0a8cb	0.023517987
225	0xbe238c73	-0.15971546
226	0x3f1c970d	0.61167985
227	0x3e80cd9f	0.25156876
228	0x3d17994a	0.037011422
229	0xbed143fc	-0.4087218
230	0x3d344132	0.044007488
231	0xbedb5903	-0.42841348
232	0xbdf93919	-0.12169094
233	0x3db29df2	0.08721532
234	0xbe6fc5b4	-0.23415262
235	0x3dd34e41	0.1031766
236	0x3e5e6232	0.21717146
237	0x3e742ed5	0.2384599
238	0x3dec34f7	0.1153354
239	0xbcbc5ddd	-0.022993976
240	0xbc98e95f	-0.018665968
241	0x3ce9e0d7	0.028549595
242	0xbe34de9e	-0.17663047
243	0x3e0c6650	0.13710904
244	0xbec52149	-0.38501957
245	0x3eae32f7	0.34023258
246	0xbd9b7eeb	-0.07592567
247	0x3e9fae34	0.31187594
248	0x3e0bd77e	0.13656422
249	0x3ddb7876	0.107163355
250	0x3e2f7b58	0.17136896
251	0x3e884aad	0.26619473
252	0x3ebb8995	0.36628404
253	0xbe77927a	-0.2417697
254	0x3e8fc96b	0.28083357
255	0x3e0f992b	0.14023273

bias f4 [128]
0	0x3e78f71f	0.24313019
1	0xbd800390	-0.062506795
2	0x3dec384b	0.115341745
3	0x3e605db7	0.2191075
4	0xbe113f61	-0.14184333
5	0x3e7dcb6b	0.24784629
6	0xbe09111f	-0.13385437
7	0xbf09d45b	-0.53839654
8	0x3e9fbbc1	0.31197932
9	0xbe1aeabf	-0.15128611
10	0x3e870607	0.26371786
11	0x3ece61d2	0.40309006
12	0x3d203fef	0.03912347
13	0xbbf06fce	-0.007337547
14	0xbd810b10	-0.06300938
15	0x3dcf755a	0.10129805
16	0xbea29305	-0.31752792
17	0x3ea89dfb	0.3293303
18	0xbe1d369d	-0.15352865
19	0xbe18f794	-0.14938194
20	0x3e898603	0.26860055
21	0xbe8615f5	-0.26188627
22	0x3e64d613	0.22347288
23	0x3d89079e	0.06690906
24	0xbdcdf96e	-0.100573406
25	0xbe1ce3bf	-0.15321253
26	0x3e8969a6	0.26838416
27	0xbc69fe03	-0.0142817525
28	0x3dfd9218	0.12381381
29	0x3d327041	0.043564085
30	0x3db1abee	0.08675371
31	0xbe418da9	-0.18901695
32	0x3e828a93	0.2549635
33	0x3d9dea2f	0.077106826
34	0xbcf53e7b	-0.02993702
35	0x3e86cf8a	0.26330215
36	0x3d1fd1c7	0.03901842
37	0xbdc0422e	-0.09387623
38	0x3e24be7d	0.1608829
39	0xbdb3b568	-0.08774835
40	0x3e140bcb	0.14457624
41	0x3d83e235	0.0643963
42	0xbc27b967	-0.010237074
43	0x3de56c99	0.11202354
44	0xbd235037	-0.03987142
45	0x3d969f54	0.07354608
46	0xbe312455	-0.17299016
47	0xbc94b9f7	-0.018155081
48	0xbe043486	-0.12910661
49	0xbe09c4a6	-0.13453922
50	0xbda04923	-0.0782645
51	0xbd904e9f	-0.07046246
52	0x3e87f8a9	0.265569
53	0x3d9a39d6	0.075305626
54	0x3d9bfb4b	0.0761629
55	0xbcfa0825	-0.030521462
56	0x3e0a3fd2	0.13500908
57	0xbe7554cc	-0.23958129
58	0x3e93dcdf	0.2887945
59	0x3dfb8985	0.12282089
60	0xbe8917a6	-0.26775855
61	0xbe560cc5	-0.20903309
62	0x3d5d6417	0.05405053
63	0xbd29af58	-0.041426986
64	0x3dae0d17	0.084985904
65	0x3df380a6	0.11889772
66	0xbe71b3eb	-0.2360379
67	0xbe97f298	-0.29677272
68	0x3e549573	0.20760135
69	0xbd9bf5e1	-0.07615257
70	0x3e6ef83c	0.23336881
71	0x3de5113b	0.11184927
72	0x3e901c63	0.28146657
73	0xbd6fc41f	-0.058536645
74	0x3dbf1e31	0.093319304
75	0xbd7c294d	-0.061562825
76	0x3e2fbb2a	0.17161241
77	0x3d865a38	0.065601766
78	0xbec0a870	-0.37628508
79	0x3d3bb586	0.04582741
80	0xbe74714f	-0.23871349
81	0xbe9ae19e	-0.30250257
82	0xbe03f060	-0.12884665
83	0xbd3343e3	-0.043765914
84	0xbe4382ac	-0.19092816
85	0xbe03007e	-0.12793157
86	0x3c390d1a	0.011294628
87	0xbe1cb94a	-0.15305057
88	0xbe1971ff	-0.14984892
89	0xbdc37afd	-0.095449425
90	0x3d9e7318	0.07736796
91	0xbdca4cfc	-0.09877965
92	0xbc95c438	-0.018282041
93	0x3cbb48db	0.022861889
94	0x3db7c23b	0.089725934
95	0x3e83ed6c	0.25767076
96	0xbdae96bc	-0.08524844
97	0xbd054378	-0.032535046
98	0x3e952c6f	0.29135463
99	0xbd55de07	-0.052213695
100	0xbe4422ff	-0.19153975
101	0xbe10ebf4	-0.14152509
102	0xbe7ad133	-0.24493866
103	0x3e86eacc	0.2635101
104	0xbe46085a	-0.19339123
105	0x3e7e5a60	0.24839163
106	0xbe89cd08	-0.2691424
107	0x3dd10ca6	0.102074906
108	0xbdeb8682	-0.11500265
109	0x3e20d945	0.15707882
110	0x3e80c4f8	0.25150275
111	0x3ea562bb	0.32301888
112	0x3de218c7	0.11039882
113	0xbe0d9035	-0.13824542
114	0xbd0c4ca0	-0.034252763
115	0x3e77d8bc	0.24203771
116	0x3e5bd4ae	0.2146785
117	0x3dd57124	0.104219705
118	0x3e34c649	0.17653765
119	0x3dfbd3c8	0.122962534
120	0xbe1ac4b9	-0.15114106
121	0x3ea13550	0.31485987
122	0xbe5c28ec	-0.21499985
123	0x3e307950	0.17233777
124	0xbddaf443	-0.106911205
125	0xbea2b553	-0.31778964
126	0x3e3290ad	0.17438002
127	0xbd437931	-0.047723

weight f4 [6, 128]
0	0x3e17c5db	0.1482157
1	0xbecbccb1	-0.39804605
2	0x3de9c491	0.11414445
3	0x3e8b2335	0.27175298
4	0xbedc9c18	-0.4308784
5	0x3d422d12	0.047406264
6	0xbe5147a6	-0.20437488
7	0xbe760a7a	-0.24027434
8	0x3e52bc0f	0.20579551
9	0x3e2b58fd	0.16733165
10	0xbe61406e	-0.21997234
11	0x3f3f2bf9	0.7467647
12	0xbec5aa48	-0.38606477
13	0x3e38244f	0.179826
14	0xbd430fcd	-0.04762249
15	0x3e6afdea	0.22948423
16	0xbc638323	-0.013886246
17	0x3ea3e50a	0.3201068
18	0xbe75c7c2	-0.24001983
19	0xbdda0318	-0.10645121
20	0x3dcb606f	0.099305026
21	0x3dcb3a3f	0.09923219
22	0xbe8149bd	-0.2525157
23	0x3ed6a8df	0.41925713
24	0xbf0ed4d4	-0.557935
25	0x3ecfbae1	0.40572265
26	0x3e205cae	0.15660354
27	0x3f34fd20	0.7069874
28	0x3e01da03	0.12680821
29	0xbda42c22	-0.0801623
30	0xbe57624f	-0.21033596
31	0xbed4f794	-0.41595137
32	0x3e487bea	0.1957852
33	0x3f3ff8fe	0.74989307
34	0x3e83469a	0.25639802
35	0xbb20e706	-0.0024551763
36	0xbdcd30df	-0.10019087
37	0xbe2efcd3	-0.17088632
38	0xbe333f82	-0.17504695
39	0x3d59bbdc	0.053157672
40	0x3e0e9880	0.13925362
41	0x3d5953c3	0.053058397
42	0xbe3bc24f	-0.18335842
43	0x3d08bf95	0.033385832
44	0xbda3f17e	-0.08005045
45	0xbe85cd5b	-0.26133236
46	0x3d57101f	0.05250561
47	0xbeff045d	-0.49808016
48	0xbed07891	-0.40716985
49	0xbea4b694	-0.32170546
50	0xbe325463	-0.17415003
51	0x3eb1f490	0.347569
52	0xbd306d7b	-0.04307316
53	0x3ec166b0	0.37773657
54	0xbe2adb58	-0.16685236
55	0xbdf421e8	-0.119205296
56	0xbee9d710	-0.45671892
57	0x3e022006	0.12707528
58	0x3d19666b	0.03745119
59	0x3e35b86e	0.17746136
60	0xbe493ffa	-0.19653311
61	0xbd9e7b73	-0.0773839
62	0xbda3abc7	-0.07991748
63	0xbea425f5	-0.3206021
64	0xbe421c54	-0.18956119
65	0xbe8a5996	-0.27021474
66	0xbe5f33b3	-0.21797065
67	0xbe7e02c1	-0.24805738
68	0x3e7779ec	0.24167603
69	0xbd097ee7	-0.03356829
70	0x3e0f9534	0.1402176
71	0xbe97a3fb	-0.29617295
72	0x3e0c4a51	0.13700224
73	0xbeb9d530	-0.36295462
74	0xbabb996e	-0.0014312693
75	0x3ee3be59	0.4448116
76	0x3e741826	0.23837337
77	0x3f49456f	0.7862157
78	0x3d0db7f4	0.03459926
79	0xbcff254c	-0.031145714
80	0x3dd51f46	0.104063556
81	0xbe905b10	-0.28194475
82	0xbe2d516c	-0.16925591
83	0x3ec16de5	0.37779155
84	0xbe96612a	-0.29371005
85	0xbd60a6df	-0.05484664
86	0x3d0a3a7e	0.03374719
87	0xbe521ef5	-0.20519622
88	0xbb806e6f	-0.0039194147
89	0xbf25c0e1	-0.64747435
90	0xbe594a8e	-0.21219847
91	0xbeba4509	-0.36380795
92	0x3f0656d0	0.52476215
93	0x3e134fc2	0.14385894
94	0x3eeaef39	0.45885637
95	0xbcc41236	-0.023934465
96	0xbeb76669	-0.3582032
97	0x3eb6d179	0.3570669
98	0x3e57e804	0.210846
99	0x3e825f93	0.25463542
100	0xbebad2f2	-0.36489064
101	0xbf002620	-0.50058174
102	0xbd56816c	-0.05236952
103	0x3ec71c0a	0.3888858
104	0x3e029acf	0.12754367
105	0x3e949796	0.290219
106	0x3e856d1a	0.260598
107	0xbea61687	-0.32439062
108	0x3e06356d	0.13106318
109	0xbe78e673	-0.2430666
110	0x3e84dece	0.25951236
111	0xbd4badab	-0.04972617
112	0x3da69e37	0.08135646
113	0x3daa688a	0.083207205
114	0x3d868bc7	0.06569629
115	0x3d11d62c	0.03560464
116	0x3d51ebbf	0.051250216
117	0x3d71f868	0.05907479
118	0x3e3bd57e	0.1834316
119	0x3cbe7c40	0.023252606
120	0x3dc3ebef	0.09566485
121	0x3e2253eb	0.15852325
122	0xbe89d934	-0.26923525
123	0xbc73f8b2	-0.014890837
124	0x3e453077	0.19256769
125	0x3f129255	0.57254535
126	0xbe683196	-0.22675166
127	0x3ec07cd4	0.37595236
128	0x3db8f57d	0.09031198
129	0x3caa0067	0.020752145
130	0x3d08b969	0.033379946
131	0x3d4ab68a	0.04949049
132	0xbcdc63e6	-0.026903104
133	0x3e9d3f23	0.30712232
134	0xbe80ad26	-0.25132102
135	0xbd8f24af	-0.06989419
136	0x3e966aa4	0.29378235
137	0xbe9b44a0	-0.30325794
138	0xbe1914b9	-0.14949311
139	0xbe8a0a5d	-0.26961032
140	0xbd33eaa0	-0.043924928
141	0xbeca9243	-0.39564714
142	0xbe56119d	-0.20905156
143	0x3df019c4	0.117236644
144	0xbe984bfe	-0.29745477
145	0x3e9576f6	0.29192322
146	0xbe09da87	-0.13462268
147	0xbe880fd8	-0.26574588
148	0x3e866353	0.26247653
149	0xbe99f0e5	-0.300666
150	0xbe1ddef4	-0.15417081
151	0xbdea79dc	-0.11449024
152	0x3d9ad724	0.07560566
153	0xbefdb04a	-0.4954856
154	0x3eb92464	0.36160576
155	0xbeab3eea	-0.33446437
156	0x3eb88631	0.3603988
157	0x3e951f8d	0.29125634
158	0x3e9e0fba	0.30871373
159	0x3ecc5a38	0.3991258
160	0x3e1849ad	0.14871855
161	0xbe6debe0	-0.2323451
162	0xbdf607a4	-0.12013176
163	0x3e96cbf4	0.2945248
164	0xbd4d2c18	-0.05009088
165	0xbdc9a514	-0.09845939
166	0x3dd99380	0.106238365
167	0xbeb84547	-0.35990354
168	0x3df17f52	0.117918625
169	0xbec4e089	-0.38452557
170	0xbe063ac4	-0.13108355
171	0x3e7d021b	0.24707834
172	0xbda6a676	-0.08137219
173	0x3ef821c6	0.48463267
174	0xbe91295c	-0.28351867
175	0x3ed90d66	0.42393035
176	0x3df1db0f	0.1180936
177	0xbe4a5fc3	-0.19763093
178	0xbdd85b96	-0.10564344
179	0xbe84d657	-0.25944778
180	0x3eba4656	0.36381787
181	0xbe8adaaf	-0.27119967
182	0x3e3b307d	0.18280216
183	0xbe1f8a4a	-0.15580097
184	0x3f02cc37	0.5109286
185	0xbe853a35	-0.2602097
186	0xbeb83a22	-0.35981852
187	0x3dc9e439	0.09857983
188	0x3e57b8a9	0.21066536
189	0x3ec25926	0.3795864
190	0xbe3fbd44	-0.18724543
191	0xbdb2f295	-0.08737675
192	0x3f0b226a	0.54349387
193	0x3f0fccd6	0.5617193
194	0x3ea8d144	0.32972157
195	0xbe6947cb	-0.22781293
196	0x3ebedf84	0.37279904
197	0x3e654559	0.22389735
198	0x3e77f432	0.24214247
199	0x3ecc5d9e	0.39915174
200	0x3d3eaf80	0.04655409
201	0x3e28a6b1	0.16469838
202	0xbea5dcf4	-0.32395136
203	0xbe9d2f42	-0.30700117
204	0x3e3abf5c	0.1823706
205	0xbe694127	-0.2277876
206	0x3e1d9c46	0.15391645
207	0xbf001c87	-0.5004353
208	0x3d0b08d3	0.033943962
209	0xbec1fca5	-0.37888065
210	0x3d4ea868	0.050453573
211	0xbf127a96	-0.572183
212	0xbe262ff5	-0.16229232
213	0xbec3e186	-0.38257998
214	0xbe645530	-0.22298121
215	0xbe33b5d1	-0.17549826
216	0xbe6e6978	-0.2328242
217	0x3dfee682	0.124463096
218	0x3dae04f3	0.08497038
219	0xbdda2b56	-0.10652797
220	0xbed5f88f	-0.41791198
221	0xbec21664	-0.37907708
222	0xbd8bab75	-0.06819812
223	0xbc31237e	-0.010811685
224	0xbdd6942c	-0.1047748
225	0xbedf3373	-0.4359394
226	0x3e86706d	0.2625765
227	0xbf01ba6c	-0.5067508
228	0x3bc9cd19	0.0061584827
229	0x3ebca67a	0.36845762
230	0x3e405297	0.18781506
231	0x3e454f60	0.1926856
232	0x3ad6abc3	0.0016378093
233	0x3c2c48c5	0.0105153965
234	0xbe5853c8	-0.2112571
235	0x3e6c134e	0.23054239
236	0x3e49bcec	0.19700974
237	0x3f290f02	0.66038525
238	0x3eb418c0	0.35175133
239	0x3e7e2e57	0.24822365
240	0x3dec7655	0.115460075
241	0xbd8c8a64	-0.068623334
242	0xbe17d5fd	-0.14827724
243	0xbe347bb4	-0.17625314
244	0x3e2b04e4	0.16701084
245	0xbcc3124e	-0.02381244
246	0x3e362aff	0.17789839
247	0x3ebc4dde	0.36778158
248	0xbe9642e4	-0.29347908
249	0x3ec0e3bc	0.37673748
250	0x3db72d98	0.08944243
251	0x3ea3c7fa	0.31988508
252	0xbef3ec07	-0.47641012
253	0xbefcaa49	-0.49348667
254	0xbdb83fb0	-0.089965224
255	0xbeb12bc3	-0.346037

bias f4 [6]
0	0x3dfd8647	0.12379127
1	0x3db7bacc	0.089711756
2	0xbd4e74e0	-0.05040443
3	0xbce6e7cd	-0.028186703
4	0xbebf9fec	-0.37426698
5	0xbe322b77	-0.17399393
