src/learning/models/128_128_128_touch_800ep.pt (torch, 142159 bytes, 8 tensors)

weight f4 [128, 6]
00000000: 5c04 dcbd 0f27 363e 1af1 193f 293e e73e
00000010: c131 fb3d bb62 263f aff6 4ebd 7f19 493e
00000020: af7c 183d f742 403e 4b13 2d3f 15d6 873f
00000030: 8694 bd3c 04ab b7be 3a68 3c3d bfc6 9ebe
00000040: 3b0d e83e 4e4f 0ebf b836 013f adeb 3fbe
00000050: ddc9 9a3e 3099 6e3d d1b7 33be 0cde 893b
00000060: 97d3 793d 035b 09bf 0914 d73d a5e7 73be
00000070: 35c0 003f 9d70 a73f 147c b2bd fac8 0e3e
00000080: 2065 14be edc7 7c3d e6bb 453f 7d4f 83bb
00000090: 3ca0 cb3d 0559 2bbf e4ca 4dbe 3166 d53d
000000a0: ee21 b53e 8b56 0abe 3127 93be d71b 803e
000000b0: e0bd e53c 3249 d63e 33f3 07be bf96 48bf
000000c0: 0e17 e93c 6970 edbe 4e21 37be 28cf 0d3e
000000d0: b45d eebd 4332 24bf 4499 c13e 4677 ff3e
000000e0: e920 32be 9df0 f13e e243 b53e 7c89 84be
000000f0: 32ca 913c 0349 903e 5002 a3bc 291e b03e
00000100: 9994 42bf 1b84 593e a4c3 a93c 4a20 1abd
00000110: 0cdc 87bc a4fc d5bc b76e 463b 33f2 683e
00000120: 3235 af3c d808 7c3e 2f46 73bd e51e 5e3e
00000130: ddd9 7dbf 9eba bdbe d9ff 90be ecd3 923e
00000140: 7837 e53e 9a99 a03e ddb4 40be c731 71bf
00000150: 7806 12be 7a85 aa3e 5dfa 943e 3185 aebc
00000160: 4eee d1be 1a8b acbe 9a5b b4be 191f b3bd
00000170: 836b 75be aaf9 673d a9c9 61be 5b96 123f
00000180: d4a3 f83d c0d3 9abc 88ea 4dbf 5e0b 093f
00000190: 0938 37be a46a d53c ff84 393e 07c9 acbe
000001a0: 5209 3fbf 8fb1 b13e 8434 e1bd 3f9a a7be
000001b0: d742 f63e 6a3b b4be d027 7ebc cdd5 28be
000001c0: 7854 ea3d 4090 69bf c343 e0bd c86a 5cbd
000001d0: 1b5a 60bd 0990 bfbe 88ff a83d 3460 4c3e
000001e0: c48b 483e 676a 3abe d509 ed3e b091 80bd
000001f0: ccb0 173f c9ac ad3e f297 033e 24aa eebe
00000200: c5f0 97bd 97d7 233f 1fa4 213e c449 2dbf
00000210: e95e f93d 74aa 643f 8975 16bd 835f cdbe
00000220: 4897 79be ae68 74be bdff f23b 7b90 bb3e
00000230: 328b d03c c8c0 fd3e 6766 e2be e5c6 aabd
00000240: 4a13 a0bf 683d 063e 404d 65be dd8c b63e
00000250: 88e6 1bbf 797c a5be 4df8 42bf 1897 76bd
00000260: e1d0 ba3e 3b06 313e 46a0 31be da71 3abd
00000270: e22b 933f 350e 55be 7d1c 98bc 8ccc 55be
00000280: f7e7 37be 943e 513f ac8a 67be 9f4e e0be
00000290: 97ac 5bbe e3dc 90be 59e4 c2be ca63 0c3f
000002a0: 56f6 81be 4e98 b4bd 8ba3 783f 0dd7 843d
000002b0: d61c 1fbe 4eb9 4abf 45f5 663e 9d5c abbd
000002c0: 24ab 6d3e 637d 48be e917 143f 890e a0bd
000002d0: 0160 debc bb0e 64be dea6 4d3d d34b 173f
000002e0: efb0 573f 46ad c4bd 687c 2d3f ccb8 e6bd
000002f0: 45dd 43be d8b5 5dbe c70b 0e3f 4e39 053f
00000300: 8717 45bb f2d4 933e 325b 0dbd a075 9d3e
00000310: 0971 34bf 0886 ff3d 5ded 54bd 13c3 933d
00000320: 0a80 1c3f a6b9 88be 7851 dfbd d0f2 0cbf
00000330: 3ea7 843f 9ef3 d03e b420 63be 2b36 61bb
00000340: a294 3ebe ca5e 2abd 621b 95be 24d4 bd3e
00000350: 875d 1abd a50b 9e3e 4df2 b03e d490 d93d
00000360: 0366 babe 51c1 6a3e c238 613d 9860 bebe
00000370: 5112 02bf 2524 8fbe a7da 5abe 9239 da3e
00000380: 2aa9 133e 53d4 81bd a414 053b 9bf1 cc3e
00000390: 4bbb 04be ed5b cb3e 94fa 89be e7ff 723d
000003a0: 93f3 fabe 35a0 913e 92c7 763e aeff b9bd
000003b0: 8048 533e 9dca 013f dd29 853e 366d 443e
000003c0: 1111 ec3c 7512 7cbe dada 3fbd a925 6dbe
000003d0: 3e26 b2be 6006 24bd 6b2c 41be e226 80be
000003e0: 16eb 1dbe b191 a8be b644 ab3e 0cbf d8be
000003f0: 9494 923e 8bce 5a3e 4192 4f3e 2176 85be
-0.10743019 0.17788337 0.60133517 0.45164612 0.12265349 0.649944 -0.050528225 0.19638632
0.037228283 0.18775545 0.67607564 1.0612208 0.02314211 -0.35872662 0.045997836 -0.31011006
0.45322594 -0.5558976 0.5047412 -0.18742247 0.30232134 0.05825156 -0.17550589 0.0042073783
0.060992803 -0.536545 0.10501868 -0.23818834 0.50293285 1.3081242 -0.08715072 0.13943854
-0.14491701 0.0617141 0.77239835 -0.0040072785 0.09942672 -0.6693271 -0.20096928 0.10419882
0.3537745 -0.13509576 -0.28740838 0.2502124 0.028044641 0.4185272 -0.13276367 -0.7835502
0.028453376 -0.46374825 -0.17883798 0.13848555 -0.11638966 -0.64139193 0.37812245 0.49895686
-0.17395367 0.47253886 0.35403353 -0.25886142 0.01779661 0.28180704 -0.019898564 0.3439801
-0.7600799 0.212418 0.020723172 -0.03762845 -0.016584419 -0.026121445 0.0030278394 0.22748642
0.02138767 0.24612749 -0.059393104 0.21691473 -0.9916056 -0.3705644 -0.28320196 0.2867731
0.44768882 0.3136719 -0.18818994 -0.9421658 -0.1426028 0.3330496 0.29097262 -0.021303745
-0.41002125 -0.33699876 -0.35226136 -0.08746166 -0.23966794 0.056634583 -0.22049583 0.57260674
0.12140623 -0.018899798 -0.8043599 0.5353297 -0.1789247 0.026051827 0.1811714 -0.33747122
-0.74623597 0.3470578 -0.10996345 -0.32734868 0.4809787 -0.3520158 -0.015512422 -0.16487809
0.114418924 -0.91235733 -0.109504245 -0.053812772 -0.05477343 -0.37414578 0.08251864 0.19958574
0.19584566 -0.18204652 0.46296564 -0.06277788 0.59254146 0.33920887 0.12850931 -0.46614182
-0.0741897 0.6400084 0.15785263 -0.6769068 0.12176306 0.8932259 -0.036733184 -0.40111932
-0.24374115 -0.23868057 0.0074157403 0.36633667 0.025456998 0.49561143 -0.44218752 -0.08338717
-1.2505887 0.13109362 -0.2239275 0.35654345 -0.6089864 -0.32321528 -0.76160127 -0.060202688
0.36487487 0.17287533 -0.17346296 -0.045518734 1.1497767 -0.20806201 -0.018568272 -0.2087881
-0.17959581 0.8173611 -0.22611493 -0.43809983 -0.21452557 -0.28293523 -0.3806484 0.54839766
-0.25383252 -0.08818112 0.97124547 0.0648633 -0.15538344 -0.79189 0.225545 -0.08367274
0.23209816 -0.19579081 0.57848984 -0.07815272 -0.027145388 -0.22271244 0.050207965 0.59100074
0.84254354 -0.09603362 0.67767954 -0.11265716 -0.19127376 -0.21651399 0.5548672 0.52040565
-0.0030073838 0.28873402 -0.0345108 0.30753803 -0.7048498 0.12476736 -0.05198418 0.07214942
0.6113287 -0.2670414 -0.10904211 -0.55058 1.0363538 0.40810865 -0.22180444 -0.0034364562
-0.18611386 -0.041594304 -0.29122454 0.37075913 -0.03768685 0.3086826 0.3455986 0.10623327
-0.36405954 0.22925307 0.05498577 -0.3718307 -0.508092 -0.27957264 -0.21372472 0.42622048
0.1442 -0.06339326 0.0020306492 0.4002808 -0.12962072 0.3971857 -0.26948988 0.05932608
-0.49013957 0.2844254 0.24099568 -0.0908197 0.20633125 0.5069979 0.26008502 0.19182286
0.028816732 -0.24616416 -0.046839572 -0.23158897 -0.347948 -0.040045142 -0.188646 -0.25029665
-0.1542171 -0.32923654 0.3345086 -0.42333257 0.2862898 0.21367852 0.20270635 -0.26066688

bias f4 [128]
00000000: fd2d 0ebf 696d 23bf d24c 72be df20 053f
00000010: abfd 24bf e2ee 42bf b4eb c4be 3140 c43e
00000020: c180 ea3d 5024 16bf c9cc da3e c051 61be
00000030: 5761 993e 4569 9ebc 94b0 d03e ab2b 263f
00000040: 3294 68be 5212 d63d 7fda 86be 0041 733d
00000050: edb6 67bd 9a7c f4be 3b49 21bf 081c 9abe
00000060: 7e07 1b3f 4e7d f63e feab d53d 8fef e0be
00000070: 7f00 6d3f a96e 1cbf 7c8f 8fbf 6cd2 cbbe
00000080: ee05 ca3e d7ad 62be b200 053f fb2d 15bf
00000090: 47b2 f13e c6bf 7ebe bd3a 4b3f 8612 fcbe
000000a0: 8601 5abe 4c38 553d b8cc f83e df27 25bf
000000b0: bc10 38bd 2e8c f33e a863 c1bd 42b4 24be
000000c0: 6449 04be eefd 823e 2cfb 8e3d 2a58 2b3f
000000d0: 8948 413f c701 93bf f775 11bf 4c0d bdbe
000000e0: b747 073f 04cf 45bf 001b 94be 02e7 8abe
000000f0: 4733 b83e 9321 2e3f bb98 f73e b3fa 0e3e
00000100: 6b0f d93e 8df0 02bf 6286 c83d bb14 433b
00000110: edce 523e 900a f1be 18f2 fe3e 5acb bf3e
00000120: 0e0e 063e 20e9 97bd a5f8 1bbf fca8 593f
00000130: acd5 57bd 84a8 3f3f 57d2 cebe 9429 f7be
00000140: cfe0 3abf ba2c b8bd 7444 943e da58 1bbf
00000150: 9e9c 21bf bec0 07bd 0db2 9fbe 84b0 0dbf
00000160: eabc fc3e c03c e13e 2e1b bdbe e1c8 003f
00000170: a3d0 953c f01b 493f 9cbb da3b 7e19 d53e
00000180: c977 adbe a1e5 60be daa4 493f 013e 843d
00000190: 9fba 013f f188 04bf a14d 0cbf 9235 743f
000001a0: d817 633f d405 bbbe 33ab 91bd 49b0 1d3f
000001b0: a13c 8b3e 2989 03bf 72a4 923e 1f53 10bd
000001c0: b690 03bf 1531 3cbf 34c1 04bf 1988 8ebe
000001d0: 2e97 443e 435c a13e 7c41 c9be b094 983c
000001e0: c5d0 80be c028 0e3f a5d8 52be d39b 11be
000001f0: 8da7 0b3f 9856 393e fbe2 28bf fc5a 533f
-0.5553892 -0.6383882 -0.23662117 0.5200328 -0.64449567 -0.76145756 -0.38461077 0.38330224
0.11450339 -0.5864916 0.42734364 -0.22003841 0.29957077 -0.019337306 0.40759718 0.6491038
-0.22712782 0.10452713 -0.26338574 0.05938816 -0.056570936 -0.47751313 -0.63002366 -0.3009951
0.6055831 0.48142475 0.104331955 -0.4393277 0.9257888 -0.61106354 -1.1215663 -0.39808977
0.3945765 -0.22136627 0.51954186 -0.58273286 0.47206327 -0.24877843 0.793865 -0.49232882
-0.21289644 0.052055642 0.48593688 -0.64513963 -0.044937834 0.47567886 -0.09442836 -0.16084388
-0.12918621 0.25584358 0.06981501 0.669314 0.75501305 -1.1484917 -0.56820625 -0.36924207
0.52843803 -0.77269006 -0.2892685 -0.2712937 0.35976622 0.6801998 0.48358712 0.13962822
0.42394575 -0.511483 0.097912565 0.0029766995 0.20586748 -0.4707837 0.49794078 0.37459832
0.13091299 -0.07417512 -0.60926276 0.85023475 -0.052694008 0.7486651 -0.40394852 -0.4827391
-0.7299928 -0.08992906 0.28958476 -0.6068245 -0.63129604 -0.033142798 -0.3119053 -0.55347466
0.4936288 0.4399166 -0.369348 0.50306517 0.018287962 0.78558254 0.006675197 0.41621011
-0.3388045 -0.21962596 0.7876717 0.06457139 0.50675386 -0.51771456 -0.5480595 0.9539424
0.8870826 -0.36527884 -0.07112732 0.61597115 0.27194694 -0.51381165 0.28641087 -0.03523552
-0.51392686 -0.73512393 -0.51857305 -0.2783821 0.19198295 0.31515703 -0.39307773 0.018625587
-0.2515928 0.5553093 -0.20590456 -0.14219598 0.5455254 0.18099439 -0.65971345 0.82560706

weight f4 [128, 128]
00000000: 553b 95be 5f89 8cbe cf79 72be 1007 ee3b
00000010: 3c86 cb3e 4925 493e 6870 e2bd 1ab1 c0bc
00000020: 4ae7 95be 9c15 ed3d 5175 a73e 8dc5 f63d
00000030: 31ee b13e d3ff df3c 7515 7ebd 722d dbbd
00000040: d1fd 3cbe 9b5a a83c ec24 4b3e 997a 493b
00000050: cbc6 02be 4859 f0be e4ad c8be 9f4f 3cbc
00000060: ea7b a9be 2152 a7bd 1d69 98bd 30e0 793e
00000070: 7fdf bebb 93e4 c3be cadc 563e 1a81 a1bd
00000080: 7866 733e a692 d63c 196c 26be 0724 36be
00000090: 0413 703d 25f5 4e3d ed30 afbe 4d16 cebe
000000a0: 7c18 a33d 0783 de3c fa7a 2dbf 6d5c 6bbe
000000b0: f244 e73b bf1b 88bd 4645 a4bd 68cf 823e
000000c0: d583 06be a3fc 25be 1e34 6f3e 466b 40bd
000000d0: cd46 363e a041 043d 1330 823e 4598 3dbd
000000e0: 5fb9 dc3c eaa5 4d3e eea1 91be 0580 4bbd
000000f0: fd36 62be cb2c c2bd 594a 1bbe 28f1 00bd
00000100: a0a8 463e d2f6 bfba 44e7 67bd 85ca e93d
00000110: c6cc a63e 540c 7abd f6e4 11bd 337a bd3e
00000120: 4d46 f5be b638 45be e078 093e 1b5c bf3c
00000130: 9d5e bfbd c2e3 2ebe 92b9 ac3e e758 053f
00000140: 9104 0d3e cf72 b33e f336 ee3c 421f 71bb
00000150: 5a02 82be c2f4 7bbe eaba da3d 7cfb 4a3d
00000160: 6c61 373e 7d0d 4c3e 88ec 113e b1fe bc3e
00000170: 481a 343f 9568 453e 0695 d3bc d869 59be
00000180: 5105 283e db1a 713d 0b4d ce3e 1a19 c0be
00000190: 89fc 7bbd 18b7 303d 295b a7bc 44ad 48bd
000001a0: f98e aabc 272d 9bbd 7f93 02bd 58d7 4c3c
000001b0: 934b 623d ca30 bdbc be1e 39bd e054 153e
000001c0: 2295 a0bd c346 1c3e 0d23 883e 1a9a d33d
000001d0: ca98 72be d7ff 263e b211 8b3e 9fb0 c9bd
000001e0: 16da 43be b8ed 40be edc7 b3bd 2a52 333e
000001f0: 2183 8dbe 1a98 4a3e a9fc d33d 48ee a6be
00000200: 3bde c0bd 7038 823e 1034 823e 10a5 923e
00000210: 00e5 9fbd 9057 2c3e 00b1 32bd 6454 803e
00000220: d7b5 ea3d e490 cc3c 733b 2fbe 6e1a a03c
00000230: 7617 9cbe d56c d7bd 4bb7 24be b2bc 1b3e
00000240: 2c25 913e 9c3a 9f3e 5361 56be 2e78 21be
00000250: 31cf 95bc 1b1d c73d f945 c9bd 3c46 31bc
00000260: 6323 92be b700 57be d98b 163e 6418 21bf
00000270: 6ade 0bbc da65 383f 075d 643d 3b52 d93d
00000280: e466 98be 3119 32bd 938c 19bd 25ae 4a3e
00000290: d385 5ebe 4816 81bd 93a8 853e 2f6f 073f
000002a0: f0d3 dcbc 1d5f bdbd fa59 1dbe 1bb2 64be
000002b0: bd09 8c3e ff6e 97bd 2efa dabe c4d8 f7bd
000002c0: e98e 82bd ed31 5d3e dbb7 3b3e f56d 5b3d
000002d0: b77a 583d 418e 98be 6174 edbd 8eab d8bd
000002e0: f417 813e 7d48 463e 9fd7 593d d83a ec3e
000002f0: 1f5d d63e 106d e2bc 80b3 683e 5659 853e
00000300: b335 60bd 7074 063c 0683 f33e 4fea a03e
00000310: ecb8 ac3e b6f0 f9bd 13ab 8dbc a5bf 283d
00000320: 4047 a0bc 5dec 37bc 7406 0cbc ee9f 293e
00000330: 1afb 413d e3ad 09be 7747 ffbd 2ee0 a4bd
00000340: 0041 85be 2dac 233e e0a2 12bd 1027 643e
00000350: d5b1 bdbc c8b9 3c3e be2d 0d3f 53ec 25bd
00000360: 84eb 2dbe ffa3 e0bd 6cf7 c53c 3edc 353e
00000370: 26ca 1d3d e154 95be ad99 633d a48d 5b3e
00000380: 5458 1e3d 6873 093e 339f 6fbe 6c90 323f
00000390: ce4c 2dbd 69d1 283e eb93 e83d e8fe 0a3d
000003a0: 5af6 403e f90c 0fbe 2be1 663e 7111 b5bc
000003b0: 2b04 0a3e 6018 a03e 4a1a 883c 4470 683c
000003c0: f131 283d e411 4abe eabb c8bb 776f 693c
000003d0: 92a6 ac3c a9b2 85be f980 9abc ffd1 e03c
000003e0: e455 20bd 0945 8d3e 2eda 3cbe 4df2 513d
000003f0: b740 fb3e a21e 213e ab5d dfbd d3bf 60bd
-0.2914683 -0.27448556 -0.23679279 0.0072640255 0.3975085 0.1964313 -0.11056596 -0.023521949
-0.29278022 0.11576387 0.32706693 0.120493986 0.34752038 0.027343666 -0.06203218 -0.107020274
-0.18456198 0.020551017 0.19838303 0.003074324 -0.12771146 -0.46943116 -0.39195168 -0.0114935925
-0.3310235 -0.08169962 -0.07441924 0.24401927 -0.0058249827 -0.38260326 0.20982662 -0.07885952
0.23769557 0.026192974 -0.16252173 -0.17787181 0.058611885 0.050526757 -0.34217015 -0.4025139
0.079636544 0.027162088 -0.6776577 -0.22984476 0.0070577795 -0.06645917 -0.08021025 0.25548863
-0.13136227 -0.16209655 0.23359725 -0.046977304 0.17800446 0.032289147 0.25427303 -0.046287794
0.02694386 0.20082822 -0.28443855 -0.049682636 -0.22091289 -0.094812 -0.1516508 -0.031479985
0.19400263 -0.0014645702 -0.056617036 0.11415581 0.32578105 -0.061046913 -0.035618745 0.37007293
-0.47905198 -0.19259915 0.13425016 0.023359349 -0.09344218 -0.1707907 0.3373533 0.5208878
0.13771273 0.3504853 0.029078936 -0.0036792313 -0.2539242 -0.24605086 0.10680182 0.04955624
0.17908257 0.1992702 0.14250386 0.36913064 0.703526 0.19278176 -0.025827896 -0.21231782
0.16408278 0.058863502 0.40293154 -0.3751915 -0.061520133 0.04314336 -0.02042921 -0.048993364
-0.020820128 -0.075769715 -0.031878944 0.012502514 0.055247854 -0.023094554 -0.045195334 0.14583158
-0.07840945 0.15261368 0.26589242 0.10332127 -0.23691097 0.16308533 0.27161938 -0.09848141
-0.19126162 -0.18840683 -0.08778367 0.17511812 -0.27639106 0.19784585 0.103509255 -0.3260367
-0.09417387 0.25433683 0.25430346 0.28641558 -0.0780735 0.16830277 -0.04362583 0.25064385
0.114604644 0.024971433 -0.17112522 0.019543853 -0.3048665 -0.10518805 -0.16085546 0.152087
0.28348672 0.31099403 -0.20935564 -0.15768501 -0.018287273 0.09722348 -0.09827799 -0.010819968
-0.28542623 -0.20996366 0.14701785 -0.6292784 -0.008536914 0.72030413 0.05575278 0.10611387
-0.29766 -0.043481056 -0.037487578 0.19792993 -0.21730737 -0.06303078 0.26105174 0.5290403
-0.026956528 -0.09246657 -0.15366355 -0.22333567 0.2735118 -0.07394218 -0.42768997 -0.12101892
-0.06374914 0.21601076 0.18331854 0.05357166 0.052851405 -0.2979603 -0.11594463 -0.105795965
0.25213587 0.1936359 0.053184148 0.46138644 0.4186792 -0.027639896 0.22724724 0.2604472
-0.05473871 0.008206472 0.475609 0.31428763 0.33734834 -0.12204115 -0.017293489 0.04119839
-0.019565225 -0.011225787 -0.00854646 0.16564915 0.04735861 -0.13445239 -0.12464803 -0.080505714
-0.26026154 0.15983649 -0.03579986 0.22280526 -0.023156086 0.18430245 0.5514792 -0.04050858
-0.16984373 -0.1096878 0.024165832 0.17759797 0.038522862 -0.2916632 0.05556648 0.2144075
0.038658455 0.1342293 -0.23400573 0.6975162 -0.042309575 0.16486134 0.11356338 0.033934504
0.18843976 -0.13969792 0.22546832 -0.022103043 0.13478152 0.31268597 0.016614098 0.014186922
0.041063253 -0.19733387 -0.0061259167 0.014247767 0.02107552 -0.2611287 -0.018860327 0.027443884
-0.03914441 0.27591732 -0.18442604 0.051256467 0.4907281 0.15734342 -0.109065376 -0.054870438

bias f4 [128]
00000000: 1c06 c7be abf7 13be e9f9 3c3d b810 80bd
00000010: b98c bbbd b81b f23d a790 10bd 9d3d 063d
00000020: 12f1 78be 3a45 1fbe 616d cabd 0e30 4c3d
00000030: 4595 153c f2a3 6ebe 8004 90be 7b0e ac3d
00000040: f05a 8fbe 44bd 093d a0e6 913e 456e 8f3d
00000050: ec2c 043e d2da d9bc 9457 3abe 9e29 563e
00000060: ea13 3d3e 2a92 943e 0e27 833d c7bd 093d
00000070: cc37 23be 5e77 04bf 4dbe a2bd 7d27 e83d
00000080: 5cc4 4a3d a10e 213e 64d5 623e 1a52 0dbe
00000090: 215b b9bc 7cd8 11be 7798 a8bd 5c83 1c3e
000000a0: 11a1 623e aa00 933e 054f 81be aaf8 d6bd
000000b0: 30cd 6c3d 1db5 023d a6ea 2ebe 2cf2 443e
000000c0: 16cf a53e 158e bfbd 1743 573d b326 ec3d
000000d0: 2841 75be 80bf 013e 42cf b8bd cd29 9abc
000000e0: 405f 043e 43e1 fabd 3c5e e8be c103 b4be
000000f0: 4447 9e3d 8907 2ebe b2d8 0ebc c3c7 4c3e
00000100: 786e 6abe 2773 14be 3fce 7dbe bebe 57be
00000110: 1b62 8a3d 882c 883c 1f0c 933e f114 1abe
00000120: e091 3fbe 6f9c 5f3d d726 193e c5df 333e
00000130: 3cac 82be 10c7 56bc 3131 2d3e 9bad a4bb
00000140: 1a43 5cbd 7e28 32be f3f2 73be 746e a03e
00000150: a372 b5bc 7b94 533e 105d 0a3e e3d8 5f3e
00000160: 3052 693e 39ef 8f3d 0179 a73d 3569 c8bc
00000170: 228e 903e 4d2a 9c3e cd02 a93d f2b3 cd3d
00000180: 10df b03e 3046 99be e77a 05be 2dec 39be
00000190: 78e2 07be 7be0 bcbe ca9b 003d 8f9e a4bc
000001a0: 548f d4bc b72f 9e3d 7ef4 1c3d 8290 03be
000001b0: e049 77bd a1e5 2a3c a467 20be db57 023e
000001c0: 997b 9abe 00ac 3c3e ccd9 00be 297a 173e
000001d0: ed26 e73d 9302 bcbd da5d 703d 86ae 883e
000001e0: 405a c43c e82f a2be bb25 51bd f3b7 47be
000001f0: ef7b 343e e389 203d 978a 23be e14b 32bd
-0.3887185 -0.14449947 0.04613677 -0.06253189 -0.091577 0.11821693 -0.0352942 0.032773603
-0.24310711 -0.15553752 -0.098841436 0.049850516 0.009129827 -0.23304728 -0.28128433 0.084011994
-0.27999067 0.033627763 0.28496265 0.07003454 0.12907761 -0.0265936 -0.18197471 0.20914313
0.18464628 0.29017764 0.064039335 0.03362825 -0.15939254 -0.5174464 -0.07946453 0.11335657
0.04950367 0.15728237 0.22151715 -0.1380085 -0.022626461 -0.14242738 -0.08232205 0.15284485
0.22131754 0.28711444 -0.252556 -0.10496648 0.05781287 0.031911004 -0.17081699 0.19233006
0.32384557 -0.09353272 0.052554216 0.11530819 -0.23950636 0.12670708 -0.09023906 -0.01881876
0.1292696 -0.122499965 -0.45384395 -0.35159114 0.077284366 -0.16995062 -0.008718656 0.19998078
-0.22893703 -0.14497052 -0.24785708 -0.21068856 0.067569934 0.016622797 0.28720185 -0.15047051
-0.1870799 0.054592546 0.14956222 0.1756583 -0.2552203 -0.013108984 0.16913296 -0.005025578
-0.05377493 -0.17398259 -0.23823147 0.3133427 -0.02214939 0.2066211 0.13512063 0.2186008
0.22785258 0.0702805 0.081773765 -0.02446423 0.2823344 0.30501023 0.08252487 0.100440875
0.34545183 -0.2993636 -0.13035165 -0.181565 -0.13269985 -0.36890015 0.031398572 -0.020095138
-0.02594725 0.07723945 0.038319103 -0.12848094 -0.060373187 0.010430724 -0.15664536 0.12728827
-0.30172423 0.18424988 -0.12583083 0.14792694 0.112867214 -0.091801785 0.058683254 0.2669565
0.023968816 -0.31677175 -0.051061373 -0.19503765 0.17625402 0.039194 -0.15970837 -0.043529395

weight f4 [128, 128]
00000000: 7494 1dbe 0f59 abbd e567 f63d 1d1a 8e3e
00000010: 495d 07bf 5b84 68bd df78 783e a0dc 0fbe
00000020: d4a1 1e3e 9398 173e 2cdd 3e3e db24 ba3d
00000030: d414 6dbe 85e4 b23d 909e 353c 21d1 22bd
00000040: f520 2a3f ed64 8b3e ce37 2f3d a10f a6be
00000050: a342 75be c774 3abc 7d22 54be 4d30 9abd
00000060: 4e96 993e 5bdd 43be ccd8 d0bd d571 76bd
00000070: 353f 573e 82e5 3a3e a267 a8be 8d12 b7bc
00000080: 7661 573e 8fc4 843b 0810 883e 29d0 dbbd
00000090: 05bc b1bd 2349 633d 1e40 8fbe 3239 6e3e
000000a0: 276b d4be 927d d93e b05d b3be b53b fbbe
000000b0: aa21 87be 7332 69be f08b dbbd bbe4 093f
000000c0: ed3e 9d3e a143 66bd 7cd7 823e 620b 18bd
000000d0: 4953 bc3e 087b 603e d6e7 103f d063 033f
000000e0: 631d 78be 0d29 02be 1cfe 7a3f f5a2 4f3e
000000f0: f122 7d3d c19c 2d3d afdb d03d eab8 a13e
00000100: ccde 06bf e2a3 c33e 58e0 a93c abaa f8bd
00000110: 2dcf 5fbe 0451 8cbd 064d d6bc 62f4 11be
00000120: c7a3 d83d 4ab2 573e 7c80 3dbe 9a5c ae3d
00000130: d881 cfbc 383b 78be 83c0 913c 5b24 06bc
00000140: 8dbb 13be 631d 873d 8be8 fb3e 8e97 88be
00000150: 6764 7a3e 40b9 563e ef1b 413e f4ca b1be
00000160: 9f4c b0bd 10f6 a03e ca76 a33e 921d e43e
00000170: 8a7f 3cbe 2b7f 9dbe b620 9bbd 5a3f cb3e
00000180: d9b8 b0be eb11 6c3e 2522 bf3d 479e 923c
00000190: f311 903d 3561 9f3d 82f1 383d 678f c83d
000001a0: 5b4a 9b3d fa71 463e 3191 3c3e 427f 2ebe
000001b0: d8a3 0b3d 9da9 803e 47d2 4b3e 5410 6dbd
000001c0: a4cb 0e3d 825c 893e 268c f6be fa23 d43e
000001d0: d648 463d efaa 5cbe 83c9 723e dea5 73bd
000001e0: a708 8ebd 52cf 883e b6e9 21be 6be8 9d3d
000001f0: c7ad e5bc fb8f ffbc b33d e9bb 04a3 253c
00000200: 1af9 713b ca06 803c 8672 453e cadb 92be
00000210: a34b 44be a5bc 3b3e 52d4 00bb 00b8 adbc
00000220: c582 903d a64f 753e 4ac9 a1be fa32 ad3b
00000230: eae2 17be bd2b 13be 3a79 2d3e 52b7 ad3d
00000240: 948e 58bb 8e8b 6fbe 660f 213f 5a94 253e
00000250: 954d 9dbe 1143 de3d d50a b83d 883f a3bd
00000260: 5c9a 0c3d 6166 45be f91f bebd f910 6e3d
00000270: dbca cc3e f72c 133d 8abd 423e 6fe9 89bd
00000280: 1e73 f9bd 0ffd 06bd 3842 32bd d4df 5d3e
00000290: 5385 363e 8abf 2d3e 6121 833e 6cea ecbd
000002a0: e640 82be a1ec 9dbe f1e1 8b3d a7f8 5fbd
000002b0: 452f 9d3d 9393 f63d 2939 91bc 523d d5bd
000002c0: 4262 9a3d f2cf 913d 5955 dfbd b0fd 243d
000002d0: 2bc3 fabd 4307 383e d24f 40bd 70ab ae3d
000002e0: bcf3 93bd f3e8 c4bc 4693 04be 66cd 803d
000002f0: 79cd 3cbd beec 7d3e 3740 7f3e 1795 05be
00000300: b9b2 bcbd c753 92be 385a 37be 8023 be3d
00000310: 3595 bbbe 9e2e a3bd cc30 8a3e 13e7 cabe
00000320: 79b0 7b3e f00b 09be 7211 873b 16ea 18be
00000330: 4e69 ef3d 957b e73e c772 8b3e 0436 58be
00000340: b3c5 2fbe 0d54 6c3d f22a 8cbd ee80 a63d
00000350: 522d 333d 0ef2 2e3e a9bf b6be 9a69 763e
00000360: 127b 9c3d 31ee b1be 421c 3cbe 83f9 353e
00000370: 5f8c 9d3e 738f d1bd cb96 de3d 2a9d a8be
00000380: 9249 ae3d 4cd0 993d 332e 393d aeb7 3c3e
00000390: 6165 8cbd dfaa f03e a591 27be 8bc6 633d
000003a0: 9e04 ea3d 4d69 08bc b3f3 633d 0564 ee3d
000003b0: 5718 f9bd 574a 193e fb46 1dbe 4941 45be
000003c0: a59b 9e3e 4ed8 a9be 3e95 4b3e e805 9dbe
000003d0: 6c79 fe3d 752c 1cbd 27ae 0b3e ade3 2fbe
000003e0: 4f43 bd3e 8d68 463e d5d5 02be b6b0 8dbd
000003f0: 6d89 b13b c339 3e3e 946d 983e 2db8 ac3d
-0.15388662 -0.08366596 0.12031535 0.27754298 -0.52876717 -0.05676685 0.24264859 -0.14049006
0.1549142 0.14804296 0.18639058 0.09089061 -0.23152477 0.08734993 0.0110851675 -0.039750222
0.6645654 0.27225438 0.04277783 -0.324338 -0.23951201 -0.011380381 -0.20716281 -0.07528744
0.29997486 -0.19127409 -0.10197601 -0.060167152 0.21020205 0.18251613 -0.32891566 -0.022347713
0.21033272 0.004051752 0.2657473 -0.10733063 -0.0867844 0.05548967 -0.27978605 0.23264006
-0.41488 0.42478615 -0.35032415 -0.4906899 -0.2639287 -0.22773151 -0.1072005 0.5386464
0.3071207 -0.05621684 0.25555027 -0.03712023 0.36782292 0.21921933 0.56603754 0.51324177
-0.2422996 -0.12710972 0.9804399 0.20277007 0.0618009 0.04238582 0.10198151 0.3158639
-0.5268371 0.3821097 0.020736858 -0.12141927 -0.21856375 -0.0685139 -0.026159775 -0.14253381
0.10578113 0.21064106 -0.18506044 0.08513756 -0.025330469 -0.2424134 0.017791992 -0.008187379
-0.14427014 0.06597402 0.49200854 -0.26678127 0.24452363 0.20969105 0.18858312 -0.34725153
-0.08608364 0.3143773 0.31926566 0.4455381 -0.18408027 -0.30761084 -0.075745985 0.3969677
-0.34516028 0.2305371 0.093326844 0.017897738 0.070346735 0.07782213 0.045152195 0.09792977
0.075825416 0.19379416 0.18414761 -0.17040733 0.0340918 0.25129405 0.19904433 -0.0578769
0.034862176 0.2682839 -0.481538 0.41433698 0.048409306 -0.21549581 0.23709683 -0.059484355
-0.06935244 0.26720673 -0.1581181 0.07710346 -0.028036965 -0.031196585 -0.007117951 0.010109667
0.0036922158 0.015628237 0.19281968 -0.2868331 -0.19169478 0.18333681 -0.0019657803 -0.021205902
0.07056192 0.23956165 -0.31598884 0.005285618 -0.14832655 -0.14372154 0.16940776 0.08482231
-0.0033043968 -0.2339308 0.6291412 0.16169873 -0.30723253 0.10852636 0.08986441 -0.07971102
0.034326896 -0.19277336 -0.09283442 0.058121655 0.39998516 0.035931554 0.19017616 -0.06733977
-0.1218016 -0.03295618 -0.043520182 0.21667415 0.17824297 0.16967598 0.25611404 -0.1156815
-0.2544014 -0.30844596 0.06830204 -0.054680493 0.076750316 0.12039866 -0.017727451 -0.104120865
0.075382724 0.071197405 -0.10904951 0.040280998 -0.122442566 0.1797152 -0.046951123 0.08528793
-0.07224223 -0.02403686 -0.12946805 0.06289177 -0.04609439 0.24797341 0.2492684 -0.13045155
-0.09213776 -0.28579542 -0.1790551 0.09284115 -0.36637273 -0.07967876 0.26990354 -0.3962942
0.24579038 -0.1338346 0.0041219527 -0.14933047 0.11690007 0.45211473 0.27236006 -0.21114355
-0.1716526 0.057697345 -0.06844129 0.0813006 0.043744393 0.17084524 -0.356931 0.24063721
0.07640661 -0.34752038 -0.18370155 0.17770962 0.30771157 -0.10232439 0.10868605 -0.32932407
0.08510126 0.075104326 0.045210075 0.18429443 -0.06855274 0.47005364 -0.16364153 0.055609267
0.11426662 -0.008325887 0.05565233 0.11640171 -0.121628456 0.14969765 -0.15359108 -0.19263186
0.30978122 -0.3317284 0.1988115 -0.3066857 0.12425503 -0.038128335 0.13640653 -0.17176695
0.36965415 0.1937582 -0.12776883 -0.069184706 0.0054179938 0.18576722 0.297711 0.08433566

bias f4 [128]
00000000: 2398 ca3d 61cd 16be 06cb 4fbe dd19 753d
00000010: d3d1 7b3d 46f5 023e fb55 13be a096 fa3d
00000020: 5e79 5f3e bae8 513d 3553 aabc b638 54bd
00000030: fd53 cb3d 26ba 85be bff9 30be 649c 29be
00000040: b8b1 b8bc 1153 c6be 8a20 213e 607f 0c3e
00000050: bcc9 f4bd 46f6 3c3e 5276 2fbe 5529 9c3e
00000060: f051 45be e966 dfbc eb32 383e f01f 9bbe
00000070: 4765 98be 675f a23e 1564 b6bd eaed 3abe
00000080: 1e0d 8e3d f197 223e a700 5a3d e44b b7bd
00000090: b38a 563d 4cac a2be 5015 e53d 1faf 53bd
000000a0: 8c0e 933e ca3d 233d 91b7 bebd bd54 463e
000000b0: b619 9cbd bb2f 30be 66e4 573e ec5c 8d3e
000000c0: f2ad 43be 2a2d 67be 663b 9b3e 87a7 49be
000000d0: 7bfb b5be 4820 88bd e26d 4a3e 0952 a23d
000000e0: 025c c5bd 6c98 a13e e026 03be 4f81 d4bb
000000f0: a20d 78bd 0a24 febd b001 e33d 4f5d 8ebe
00000100: 89de 0c3e 3749 27be 98a7 713b 79eb b0bd
00000110: 112f 173e 7003 8b3d 3ab6 973e e656 21bc
00000120: 8958 ddbc 696f aebe 9e0a fe3e 4426 0d3e
00000130: bea3 623d 2cc9 033e 4682 87be 8007 1bbd
00000140: 1577 1e3b ea91 e23c f596 71be 17a4 2bbe
00000150: 734d b93d b6ec 82bc 3c73 583d faf5 f9bd
00000160: 698d d93d d668 3bbe 2df5 183e b749 403d
00000170: 4235 84be bcd2 14bd 5462 1bbe 4ac6 183e
00000180: 0ca1 e7bd 2d36 8e3c 0123 a2bd 746b fc3d
00000190: ee03 cabd 1cd7 35be 7ec3 8b3e a3f3 0abd
000001a0: 194a 20be af47 b43c d061 90bd 9989 3f3d
000001b0: d66f 5ebe fb7a d33e 1bf6 3dbb 5d6f f63d
000001c0: 37b8 723d a270 f43d 1b27 2abe 341d 76be
000001d0: c50e 4a3e ebb4 823d 18b6 fa3d 8769 25be
000001e0: 9589 babe c208 40be 6d09 65be 32bd 05be
000001f0: fb43 af3b 218b 413e e2d2 51be f638 2c3e
0.09892299 -0.14726783 -0.20292291 0.05983912 0.0614794 0.12788877 -0.14388268 0.12235761
0.21823642 0.051247336 -0.02079163 -0.051811896 0.09928129 -0.26118582 -0.1728277 -0.16563565
-0.02254568 -0.3873525 0.15735069 0.13720465 -0.1195254 0.18453321 -0.1713498 0.30500284
-0.19269538 -0.027270751 0.17988174 -0.30297804 -0.29764768 0.3171341 -0.08905808 -0.1825482
0.06936096 0.15878274 0.05322328 -0.08950022 0.052378368 -0.31772077 0.11185706 -0.05168068
0.28722036 0.03985385 -0.09312356 0.19368263 -0.076220915 -0.17205708 0.21083221 0.27609956
-0.19109324 -0.22575822 0.30318755 -0.19692813 -0.35543427 -0.06646782 0.1976848 0.07925803
-0.0963669 0.315616 -0.12807798 -0.0064851413 -0.060559876 -0.12409218 0.11084306 -0.27805564
0.13756765 -0.16336523 0.0036873575 -0.08638663 0.14764048 0.06787765 0.29631215 -0.009847378
-0.027019756 -0.34069374 0.49617475 0.13784128 0.055331938 0.1286971 -0.26466578 -0.03784895
0.0024179865 0.027657468 -0.23592742 -0.16761814 0.090479754 -0.015982013 0.05284427 -0.122051194
0.10622675 -0.1830171 0.14937277 0.0469453 -0.25821882 -0.036333784 -0.15174228 0.14919391
-0.11310014 0.017359817 -0.07916833 0.123251826 -0.09864031 -0.17757839 0.27297586 -0.033923756
-0.15653266 0.022006838 -0.07049906 0.046762083 -0.2172235 0.41304764 -0.0028985802 0.120329596
0.059257712 0.119355455 -0.1661648 -0.24034578 0.19732197 0.063821636 0.12241763 -0.16153537
-0.36433092 -0.18753341 -0.22366877 -0.13060454 0.00534868 0.1890073 -0.20490602 0.16818604

weight f4 [6, 128]
00000000: 6aa7 00be a445 c5bd b64b f0bd f87d f73d
00000010: 530b cd3e c8a7 17be 29b5 ccbc 3bc0 963e
00000020: ed5b b23d 4351 c53e 6bf1 dbbc 5e89 743e
00000030: ee7e a93e 8701 37be 3bf1 6bbc 1074 26be
00000040: 54bc 18bf f460 cdbc 83b6 0e3f a03a 06be
00000050: e694 b2be 1585 243f 013c d1be 78dd aa3d
00000060: 3e9c d0bd 8f53 debe 3f2b 293e ff6a 9b3d
00000070: 0b91 e6bd 5cb2 f13e c2f2 91be 9389 1cbe
00000080: 55b2 97be 9a77 4ebe 2533 c7be 1c33 9b3c
00000090: 4c60 093e eb5f d3be a024 4e3e 4328 c83e
000000a0: 76fc e9bd d198 55be f56e 9fbd a794 eb3e
000000b0: 7b68 a5be 5ea7 a2be 5363 b8bd e09f 19bc
000000c0: 0549 2ebd 12c6 97be 2af8 063e 0dd6 97be
000000d0: 333c 153e 8203 0d3e 5ca3 b93e 3194 f5be
000000e0: e076 753e 2730 b43e 7762 543e ef2c cdbc
000000f0: 8715 8fbe f0ab e03e 0562 49be c21d 35bf
00000100: 0437 4f3e 768e 80be 2527 003e 6eb3 ca3e
00000110: e803 a23e 4c31 b93e 8058 383e 0574 e4bd
00000120: 3c64 c8bd 8401 6fbe 5dfc f53d a9ae d3be
00000130: a4c8 76be 0dc8 78bd d9d4 033d 6087 bbbe
00000140: 6eb4 d83e 7a7e 243d d23f e6bd 8316 cebc
00000150: 3c2a 1e3e 33db a73c 8da4 043e ee24 923d
00000160: a035 113f 1eb8 683e c8ee dd3a f832 b13e
00000170: 12bc 4bbe 98d9 213f 6281 c53e 888e fa3d
00000180: 5d67 4a3c c1b9 bf3e a8c5 4d3e fc80 183f
00000190: 427f 64be 9163 c8be 9281 1bbe 9d93 dcbe
000001a0: 1c5c 63be 36ea 1f3e 4618 943d 437e e43e
000001b0: 74cd 1b3d b381 6b3e 5d79 373e 3568 143e
000001c0: 3078 783e cbc8 cebd 3c9e 97be 594f 233e
000001d0: 0860 ad3e 550a bd3d 54bc 1ebe e190 f0be
000001e0: 5da1 cf3d eeb7 62be 8bb5 f8be 2bdb 24bd
000001f0: 6a8a 35be ce03 7dbd 9c1a 8abe 3969 85be
00000200: eb88 b63e a093 873c 8337 92be f5d4 ecbd
00000210: c6b2 8ebe c80c c53e 2760 9dbe 9cef 45be
00000220: abd2 233e 04b3 b2be ba43 d6be 325e 21bf
00000230: e5df 6a3e 306a 13be 60a3 b03e 5693 3b3e
00000240: 6453 e23b 1398 c3bc 2eca c5be e6b4 3ebe
00000250: 7b38 8a3d bb28 84be 0681 5ebc a915 8f3e
00000260: d9ed 69bd 97d6 ac3e e290 813e c3b8 0cbf
00000270: 20e3 10be 7958 b33e fdd3 85be 1234 f6be
00000280: 6886 b2bc 41e7 903e b616 dc3c 32f9 73be
00000290: ca64 323e be92 6abc 6c5c 34bd ec91 bfbe
000002a0: cb24 593e 8f46 853e 7260 3dbe 7b00 81be
000002b0: 21e9 913d 0029 2e3e 3b2c ef3e 0076 803e
000002c0: 08ed 83be 6691 e0bd 7ae3 813e 4a73 b03c
000002d0: bc5b 35be 19b9 823e 0d01 4b3d c987 16bd
000002e0: a2ce 29be fc11 753e 5ede 84be f392 53be
000002f0: f368 a83d dfa9 19be 5b7a de3e 5cb5 e03e
00000300: 4f01 1c3e 2d95 cbbe 35bb 60be 495c 19be
00000310: db49 1fbf c0a9 a1be 0cdf 783e dc0c c23e
00000320: a61a 71be c9f5 bbbd e85c 2d3e a933 3e3e
00000330: ca07 613e 2f33 7bbd 772c a0be f1bf 803e
00000340: 9e21 73be 830b 4a3e 9d5a 92be 98d0 2bbe
00000350: ca7a 693e 2fba 07bf 27dc 0b3f 8e85 2cbb
00000360: ad0e e73d efdc bfbe a0e7 6b3e a815 1ebd
00000370: 650a 103d ad02 fbbe 2e1b 25be b3cb c1bd
00000380: 542c 48bd eb7c 003e 057b 163e 343e 7abe
00000390: 953c 48be 75ce 7cbd ebe4 0c3e 421f 3f3e
000003a0: 07fd 52be 2935 3cbd 8465 02be 89e3 6dbe
000003b0: fd7e 9bbe d567 7d3d 2dc4 d6bd 4848 80be
000003c0: ee24 7e3e 93aa 9e3e c10c 493e 3469 bdbe
000003d0: 34b3 a23e 44c1 3e3d be31 8a3d fcef 5a3e
000003e0: 2370 b7be 61c3 82bd ca6f 3bbc 0ba5 263e
000003f0: 7a64 783e 33f3 a63e 85f2 7fbe 143c b33e
-0.12563863 -0.096324235 -0.11733191 0.120845735 0.40047702 -0.14810097 -0.024988728 0.29443535
0.0870894 0.3853856 -0.026848515 0.23880526 0.33104652 -0.17871676 -0.014400776 -0.16255212
-0.59662366 -0.025070645 0.5574724 -0.13108301 -0.34879225 0.6426557 -0.40866092 0.08343023
-0.10186051 -0.43423125 0.16520403 0.07588767 -0.112581335 0.4720639 -0.28505522 -0.15286855
-0.29628244 -0.20162812 -0.38906208 0.01894527 0.1341564 -0.41284117 0.20131159 0.39093217
-0.11425106 -0.20859076 -0.07784835 0.4601185 -0.32306275 -0.31768316 -0.090033196 -0.009376496
-0.042550106 -0.29643303 0.13180605 -0.29655495 0.14573745 0.1377087 0.36257446 -0.47964624
0.23971128 0.35192987 0.20740686 -0.02504584 -0.27946112 0.43881178 -0.19666298 -0.7074853
0.2023583 -0.2510869 0.12514932 0.3959002 0.31643605 0.36170423 0.1800251 -0.111549415
-0.09784743 -0.23340422 0.12011025 -0.41344193 -0.24099976 -0.06073766 0.03218541 -0.3662672
0.42325157 0.04015968 -0.112426415 -0.025157219 0.15445799 0.020490265 0.12953396 0.0713595
0.5672245 0.22726485 0.0016932124 0.346092 -0.19895962 0.63222647 0.38575274 0.12234217
0.012353745 0.37446406 0.20094931 0.59571815 -0.2231417 -0.39138463 -0.15186146 -0.4308137
-0.22203106 0.15616688 0.07231192 0.4462758 0.038037732 0.22998695 0.1791739 0.14492877
0.24264598 -0.10096892 -0.2961291 0.15948237 0.3386233 0.09230486 -0.15501529 -0.46985534
0.101381995 -0.22140476 -0.48576006 -0.040248077 -0.17728582 -0.061771207 -0.26973426 -0.2605684
0.35651335 0.016549885 -0.28557977 -0.11564056 -0.27870768 0.38486314 -0.3073742 -0.19329685
0.15998332 -0.34902203 -0.41848546 -0.63034356 0.22936971 -0.14395976 0.34499645 0.18317923
0.0069069136 -0.023876226 -0.38630813 -0.18623695 0.06749054 -0.25812325 -0.013580566 0.27946213
-0.057111595 0.3375747 0.2530585 -0.54969424 -0.14149141 0.35028437 -0.26138297 -0.48086601
-0.021792606 0.28301433 0.026866298 -0.23825529 0.1742126 -0.014317213 -0.044033453 -0.37416017
0.21205442 0.26030394 -0.18493822 -0.2519568 0.07124544 0.17007828 0.46713433 0.25090027
-0.25766778 -0.109652326 0.25368863 0.02153935 -0.17710775 0.25531843 0.04956155 -0.03675059
-0.1658273 0.23932642 -0.25950903 -0.20661525 0.082231425 -0.15006207 0.43452725 0.43888366
0.15234874 -0.3976225 -0.21946414 -0.1497661 -0.6222207 -0.3157482 0.24303836 0.37900436
-0.23545322 -0.09177739 0.16929972 0.18574394 0.21975628 -0.06132811 -0.31283924 0.2514644
-0.23743293 0.19730954 -0.28584757 -0.16778791 0.22800747 -0.5301847 0.546328 -0.0026324722
0.11282096 -0.37473246 0.23037577 -0.03859487 0.035166163 -0.4902548 -0.1612365 -0.09462681
-0.0488704 0.12547652 0.14695366 -0.24437791 -0.1955436 -0.06172033 0.137592 0.18664268
-0.20604335 -0.045949135 -0.12734038 -0.23231329 -0.30370322 0.0618666 -0.10486636 -0.25055146
0.24818775 0.30989513 0.19633771 -0.36994326 0.31777346 0.04657103 0.06747769 0.2138061
-0.3582774 -0.06384922 -0.011440227 0.16273896 0.24257079 0.3260742 -0.24994858 0.35006773

bias f4 [6]
00000000: 6159 1a3e 93b3 073e b17e c0bd 6066 3c3c
00000010: 57fb d8be 97c6 3dbe
0.15073158 0.13252096 -0.093991645 0.0114990175 -0.42379257 -0.18532787
