src/learning/models/128_128_64_notouch_800ep_8913.pt (torch, 107087 bytes, 8 tensors)

weight f4 [128, 5]
-0.108540535 0.009418865 0.81011146 -0.41755652 -0.06496799 -0.10113268 -0.138481 -0.18935426
0.6724189 -0.16375458 -0.14937879 0.5637591 -0.29258305 0.007918582 -0.11005877 -0.3347518
0.31011003 -0.23978704 -0.0857118 -0.06768538 -0.21247245 0.46274167 -0.11780653 -0.42163256
-0.056540783 0.37971196 0.032764677 -0.06862753 -0.8337524 0.5948265 0.029335704 -0.11924798
-0.38958997 -0.7653522 -0.5827969 2.3222015 0.13262928 -0.15664236 -0.4051833 0.22119094
0.32690758 0.030012146 -0.6173443 0.0013163823 -0.12080645 0.018119415 0.005858992 0.06356107
0.030932156 0.8330782 -0.002717834 0.6533626 0.124662384 0.028330281 -0.13069214 0.20441392
-0.14535977 -0.11145774 0.54126036 -0.17206211 0.02275711 -0.01580399 0.0039545125 -0.05857397
-0.53051585 0.19752528 -0.20529282 -0.44602922 -0.2968954 -0.3701214 0.09516652 0.09667447
-1.09707 -0.39038664 0.18860054 0.3344192 0.15104535 0.1935379 -0.6012403 0.31545782
-0.066839784 -0.33713427 -0.096928135 0.8883986 0.8018728 0.015423546 -0.020723298 -0.00039738545
-0.04658088 -0.5286304 0.2753191 -0.09158544 -0.19531743 0.113300934 0.8784126 -0.0876027
-0.5965248 0.16161904 0.7309086 0.43263707 0.034955263 -0.028984983 -0.5219886 -0.32989258
-0.04277259 0.051691186 -0.12018269 0.00055587885 0.000743106 -0.88757175 0.30393392 0.24632736
0.13009757 -0.30210543 -0.21002337 0.05194228 0.26198086 0.24008179 -0.29772288 0.057700485
-0.072380655 -0.28548086 0.3385036 -0.25350994 0.8253861 -0.17188698 0.035568368 0.050006304
0.56431806 -0.24470101 -0.19230278 -0.24228615 0.47341016 0.0017669909 -0.9498747 0.29216722
0.39271227 -0.07803178 0.32066348 0.18471032 0.5893016 -0.046107646 -0.31522834 -0.15189496
-0.45749748 0.26315308 -0.21495712 0.42898363 -0.17013128 -0.19201428 -0.278414 -0.37314716
-0.27825755 -0.4218101 0.26690975 0.28918287 0.17792198 -0.1934459 -0.499838 0.31348938
0.056102093 0.096508145 0.05400873 0.34101897 0.8470484 0.022551445 -0.42083803 -0.039726313
-0.39000013 -0.7111535 -0.16870128 0.10871199 0.06694113 -0.41505846 0.44847152 -0.2282867
0.063521676 -0.013936044 0.68841225 0.7758245 0.31995708 -0.27967018 -0.45044342 -0.21418846
-0.42615795 -0.014059409 -0.034836285 -0.8875298 0.4479366 -0.14600904 -0.33935213 0.024264215
-0.26644093 0.51443154 -0.46838635 0.011078986 0.16549493 0.304582 -0.4828178 0.24725091
-0.062183183 0.1393722 0.09815622 0.046186637 0.74695283 -0.24392915 -0.5753235 -0.09473798
-0.41480714 -0.24403492 0.2693872 -0.24735431 -0.435849 0.14189321 0.59522307 0.019735957
-0.00698225 0.0058444394 -0.018536216 -0.59351885 0.070385516 -0.15364023 -1.5009655 0.19752714
0.3532312 -0.029214269 -0.36027136 -0.70736015 -0.057526466 0.40526438 0.53676957 0.10779144
-0.21866305 -0.2626349 0.39528286 0.068921775 -0.35633534 -0.15566765 -0.21690115 -0.050773542
-0.04617884 -0.213004 0.11904061 -0.18069011 0.7815003 -0.37276495 0.42474136 -0.112309135
-0.44910824 0.27531713 0.27936327 0.12590265 0.06455191 0.3533528 -0.14117564 -0.091693446
00000000: 804a debd 9551 1a3c 7763 4f3f f8c9 d5be
00000010: f00d 85bd a71e cfbd f7cd 0dbe 15e6 41be
00000020: a523 2c3f 48af 27be c1f6 18be 8452 103f
00000030: 72cd 95be f1bc 013c 7e66 e1bd 9764 abbe
00000040: bec6 9e3e bc8a 75be ab89 afbd a29e 8abd
00000050: 6192 59be 7aec ec3e 8d44 f1bd 39e0 d7be
00000060: 4f97 67bd 9b69 c23e 4134 063d 978c 8cbd
00000070: cc70 55bf 8d46 183f 6e51 f03c 4938 f4bd
00000080: 5678 c7be 1fee 43bf 2d32 15bf f39e 1440
00000090: f8cf 073e db66 20be 2f74 cfbe e17f 623e
000000a0: 6e60 a73e 08dc f53c 470a 1ebf 768a ac3a
000000b0: 5f69 f7bd 2b6f 943c cafc bf3b 4e2c 823d
000000c0: 6f65 fd3c 9d44 553f b01d 32bb c542 273f
000000d0: fe4e ff3d e814 e83c 29d4 05be e251 513e
000000e0: 31d9 14be f543 e4bd 0a90 0a3f 0d31 30be
000000f0: 1e6d ba3c 5f77 81bc db94 813b 42eb 6fbd
00000100: e3cf 07bf 1144 4a3e 4838 52be f15d e4be
00000110: ad02 98be 8d80 bdbe aae6 c23d 44fd c53d
00000120: ca6c 8cbf c2e0 c7be 8020 413e fe38 ab3e
00000130: a2ab 1a3e cd2e 463e e2ea 19bf b083 a13e
00000140: 4ce3 88bd dd9c acbe 4282 c6bd 176e 633f
00000150: 8947 4d3f 0ab3 7c3c e8c3 a9bc 2c58 d0b9
00000160: 98cb 3ebd 5254 07bf a0f6 8c3e 2691 bbbd
00000170: 4b01 48be 520a e83d a6df 603f 0b69 b3bd
00000180: d9b5 18bf 767f 253e d31c 3b3f 9b82 dd3e
00000190: 402d 0f3d ea71 edbc 0ba1 05bf aee7 a8be
000001a0: 5032 2fbd 23ba 533d 5822 f6bd 66b8 113a
000001b0: 00cd 423a e737 63bf 3a9d 9b3e 3d3d 7c3e
000001c0: 4c38 053e 90ad 9abe 5e10 57be 6ec1 543d
000001d0: 5b22 863e 00d8 753e 226f 98be 5857 6c3d
000001e0: 4f3c 94bd 8c2a 92be 5850 ad3e 0ecc 81be
000001f0: 814c 533f 2403 30be 23b0 113d 69d3 4c3d
00000200: 2677 103f e792 7abe 05eb 44be dc19 78be
00000210: d162 f23e 609a e73a fd2a 73bf f196 953e
00000220: 9511 c93e 20cf 9fbd 012e a43e b424 3d3e
00000230: 78dc 163f 5fdb 3cbd 9c65 a1be 5a8a 1bbe
00000240: 1c3d eabe 00bc 863e b81d 5cbe bea3 db3e
00000250: e536 2ebe 649f 44be 488c 8ebe 250d bfbe
00000260: c677 8ebe 7ef7 d7be 65a8 883e c70f 943e
00000270: 2e31 363e af16 46be c4ea ffbe ae81 a03e
00000280: 4fcb 653d 10a6 c53d 4238 5d3d 0a9a ae3e
00000290: 2ad8 583f cfbd b83c 1578 d7be 0fb8 22bd
000002a0: 19ae c7be 280e 36bf 07c0 2cbe 64a4 de3d
000002b0: 6e18 893d 8b82 d4be 0f9e e53e fdc3 69be
000002c0: a717 823d 0154 64bc c93b 303f 6f9c 463f
000002d0: 6ad1 a33e ee30 8fbe 85a0 e6be 3854 5bbe
000002e0: 6031 dabe 6f59 66bc 7eb0 0ebd 2735 63bf
000002f0: f257 e53e 6583 15be 90bf adbe bfc5 c63c
00000300: f26a 88be c9b1 033f 56d0 efbe a384 353c
00000310: 8177 293e 2cf2 9b3e e533 f7be 582f 7d3e
00000320: cbb3 7ebd 96b7 0e3e 2106 c93d 332e 3d3d
00000330: 4d38 3f3f 90c8 79be 6748 13bf fc05 c2bd
00000340: 9a61 d4be 4ae4 79be 1eed 893e 734a 7dbe
00000350: 9a27 dfbe 744c 113e 8a60 183f 4dad a13c
00000360: 5ccb e4bb b682 bf3b 43d9 97bc daf0 17bf
00000370: 4826 903d dd53 1dbe a31f c0bf 8e44 4a3e
00000380: b8da b43e c352 efbc 7d75 b8be 8e15 35bf
00000390: dfa0 6bbd d07e cf3e bb69 093f c2c1 dc3d
000003a0: 35e9 5fbe 1578 86be 8462 ca3e dc26 8d3d
000003b0: 9671 b6be 5767 1fbe 561b 5ebe ebf7 4fbd
000003c0: 0626 3dbd b81d 5abe 90cb f33d d406 39be
000003d0: 6710 483f 0cdb bebe b377 d93e 5502 e6bd
000003e0: 84f1 e5be 5ef6 8c3e b408 8f3e a0ec 003e
000003f0: cb33 843d a8ea b43e 5990 10be c6c9 bbbd

bias f4 [128]
0.6399652 0.11730831 -0.55124104 0.177624 -0.051694177 -0.85723615 0.43779242 -0.5003034
-0.40659842 -0.4025336 -0.042378303 0.26140726 -0.81320125 0.52970856 -0.08919585 0.39260155
-0.3485567 -0.8595026 -0.7194912 -0.67849433 0.17597772 0.25201192 -0.79442585 -0.1907972
-0.9211882 -0.21136992 0.6574801 -0.4737789 0.97296435 0.21023054 0.13492432 -0.09902493
-0.787165 0.11055604 -0.84910077 -1.0840496 0.29575962 -0.31884187 0.8030652 -0.8066259
-0.67314994 -0.11190221 -0.90888935 -1.0694143 0.2523335 -0.66432947 -0.2900758 -0.07257898
-0.38112387 -1.0723802 0.86674094 1.0375487 -1.1989964 -0.29791284 0.16727787 -0.23355198
-0.29850936 0.4756604 -0.7287454 -0.02708492 0.037631996 0.042790577 0.05600241 -0.3266717
0.63585216 -0.988855 -0.20163088 0.899465 -1.0945092 0.602974 0.71255386 -0.8849682
-0.84683967 0.6218818 0.71408695 0.49979275 -0.699248 -0.6697159 0.07060322 -0.5180761
-1.0662233 -1.0028106 -0.5837738 0.9700171 -0.19911803 0.030924866 0.55629206 0.7881367
0.1367121 -0.6332511 0.6059229 0.42635855 -0.5209028 0.40892255 0.12271386 -0.13263194
0.15490997 -0.4375267 0.64729744 0.1984101 -0.9925041 -0.57693475 -0.87780136 -0.23647131
-0.40637416 -0.2901627 -0.8692607 0.116129704 -0.2058146 -1.0076516 -0.49689034 -0.896694
0.7545983 -0.39077613 0.44073433 0.5849407 0.73386675 -0.32123798 -0.45536777 0.22415432
0.61424464 -0.21199815 -0.96531105 0.48695987 0.26112527 -0.2742366 -1.1035106 -0.060562167
00000000: c2d4 233f 573f f03d 221e 0dbf 11e3 353e
00000010: 46bd 53bd d473 5bbf 5426 e03e e213 00bf
00000020: ab2d d0be e218 cebe df94 2dbd 2cd7 853e
00000030: f52d 50bf fb9a 073f 50ac b6bd 1203 c93e
00000040: 0676 b2be 5d08 5cbf 9330 38bf ceb1 2dbf
00000050: 8133 343e b507 813e 7e5f 4bbf 5760 43be
00000060: fdd2 6bbf 5b71 58be 9e50 283f 2693 f2be
00000070: 3114 793f ad46 573e 9a29 0a3e 95cd cabd
00000080: a583 49bf 356b e23d ab5e 59bf 23c2 8abf
00000090: ce6d 973e 3e3f a3be ae95 4d3f 097f 4ebf
000000a0: 8e53 2cbf fc2c e5bd f9ac 68bf 91e2 88bf
000000b0: db31 813e 7f11 2abf d184 94be 4aa4 94bd
000000c0: ab22 c3be c143 89bf bce2 5d3f 65ce 843f
000000d0: b778 99bf 0888 98be e44a 2b3e 4028 6fbe
000000e0: 38d6 98be c389 f33e 0f8f 3abf 32e1 ddbc
000000f0: 0224 1a3d 2c45 2f3d c862 653d 8341 a7be
00000100: 35c7 223f 9a25 7dbf 5378 4ebe 5743 663f
00000110: e118 8cbf 815c 1a3f ee69 363f 478d 62bf
00000120: 7cca 58bf a533 1f3f 67ce 363f d6e4 ff3e
00000130: eb01 33bf 8072 2bbf 6c98 903d a3a0 04bf
00000140: 017a 88bf 195c 80bf 3372 15bf 0a53 783f
00000150: 99e5 4bbe 2556 fd3c 2869 0e3f 54c3 493f
00000160: 42fe 0b3e be1c 22bf c31d 1b3f ab4b da3e
00000170: e359 05bf 4c5e d13e 6751 fb3d abd0 07be
00000180: b8a0 1e3e 8003 e0be 49b5 253f 042c 4b3e
00000190: c014 7ebf ffb1 13bf 97b7 60bf 8925 72be
000001a0: 4610 d0be 3590 94be df87 5ebf 69d5 ed3d
000001b0: 10c1 52be bafa 80bf 6968 febe bd8d 65bf
000001c0: 5b2d 413f cf13 c8be eea7 e13e acbe 153f
000001d0: b1de 3b3f 4e79 a4be f725 e9be b688 653e
000001e0: 233f 1d3f 0b16 59be a01e 77bf ce52 f93e
000001f0: 36b2 853e bd68 8cbe d63f 8dbf 0910 78bd

weight f4 [128, 128]
0.24252099 0.09995536 0.1312872 0.3081262 0.27158615 -0.23953839 0.18356806 -0.03257449
-0.050399676 -0.0647813 -0.034117687 0.047634248 -0.20294127 -0.014456852 -0.043921117 -0.064041205
-0.0633786 0.012676284 0.07345432 -0.044026606 0.038126335 0.13189898 0.20947108 0.028696205
-0.20184949 -0.27001342 0.31144765 0.078466594 0.10005468 -0.16489698 -0.027479168 -0.0060516214
-0.1822 0.36861727 -0.14688955 0.22524218 -0.14985196 -0.02834278 0.16744582 -0.08274396
0.043028865 0.18092418 -0.012863095 -0.28479302 -0.17306973 0.054652438 -0.20753376 -0.010136408
-0.035186663 0.2847938 -0.060104985 0.39751747 -0.13103443 0.12281938 0.21833536 -0.059664052
-0.15711616 -0.45204073 -0.5272321 0.065784924 -0.08212877 -0.17932954 0.2946509 -0.28543794
0.0154092815 0.23736358 0.14238393 0.25662634 0.118407235 0.2114464 0.35044986 0.23880938
-0.26810426 0.4741579 0.012818839 -0.37753388 -0.061624967 -0.51642966 0.06246036 -0.07198382
-0.090647645 -0.4310716 0.008393523 0.05947403 -0.067231216 0.036158204 0.30146793 0.055384416
-0.08263094 -0.082551315 -0.32944152 0.13853057 0.11245352 0.2667654 0.04018716 -0.18884732
0.09599576 -0.020729782 0.0875214 -0.1592396 0.21214344 0.29302236 -0.359792 -0.14108795
0.16025971 0.14845401 -0.21695739 0.009455903 0.08595979 0.06813648 -0.009652646 0.062431995
-0.088425875 0.12960413 -0.2237742 -0.0320643 0.19919838 0.34095317 -0.11576639 0.2940776
0.12535466 0.09188777 -0.038573425 -0.25327477 -0.34155187 0.27514625 -0.31865796 0.23008193
-0.15315437 0.06921964 0.15283291 0.17117722 0.5214285 0.19456919 -0.09362568 -0.2293058
-0.17659746 -0.031448077 0.14567919 0.122287095 0.10339085 -0.06439816 -0.07054268 0.27519763
0.6340604 0.09353157 0.077492416 0.050876085 -0.19258113 -0.10598401 0.04268683 0.2499776
-0.010745154 0.060242683 -0.06299583 0.13556528 -0.067570165 0.076538324 -0.12630701 0.11671503
0.28902492 0.39877626 0.09560044 -0.14748216 -0.038002398 0.030937845 0.095122166 -0.022280004
0.29469144 0.15184732 0.19634055 0.3029293 0.37701482 -0.22660606 -0.013961606 -0.26451883
0.008605489 -0.010962335 0.18326136 -0.18558651 -0.25079897 0.34742954 -0.066284716 -0.025893029
0.09587654 -0.09833035 0.07193959 -0.00010757356 0.26230815 0.02301035 -0.018241478 0.2833482
-0.05959666 -0.0071955603 0.09367371 0.06708388 0.13141428 0.11687121 -0.19056366 0.0038297365
-0.14600343 -0.0403076 -0.20894067 0.0936909 0.007760993 0.08064943 0.051364373 0.4266634
0.25628632 0.05663769 0.30861616 0.19870749 0.014298431 -0.05831737 -0.36749005 0.04025203
0.28576395 0.0728208 0.17336006 0.1299353 0.200817 -0.29022703 0.16672176 0.04910136
0.2709502 -0.24414395 -0.15906785 -0.2406592 0.16051346 -0.12321838 -0.012515663 0.28269333
-0.51574516 -0.08274202 0.07836169 0.110370226 -0.21115784 0.28392684 0.2548758 0.00806215
-0.2581514 -0.1426419 -0.10327841 0.09497623 -0.12552907 -0.23452131 0.16723885 0.199139
-0.17137465 -0.029704537 -0.2807649 -0.12672593 0.038481817 0.18586633 0.2278852 0.15032585
00000000: 6c57 783e 65b5 cc3d 2770 063e b8c2 9d3e
00000010: 570d 8b3e 8d49 75be 44f9 3b3e d46c 05bd
00000020: e46f 4ebd 0fac 84bd fdbe 0bbd 211c 433d
00000030: d6cf 4fbe 6fdc 6cbc a1e6 33bd 0928 83bd
00000040: a4cc 81bd 30b0 4f3c 386f 963d 3e55 34bd
00000050: 5c2a 1c3d 8710 073e 967f 563e 4e14 eb3c
00000060: a2b1 4ebe 333f 8abe 1176 9f3e 18b3 a03d
00000070: 78e9 cc3d c1da 28be fe1b e1bc ae4c c6bb
00000080: a392 3abe 67bb bc3e 376a 16be e3a5 663e
00000090: cb72 19be 1e2f e8bc eb76 2b3e aa75 a9bd
000000a0: 093f 303d 3044 393e bbbf 52bc 64d0 91be
000000b0: 3139 31be 3cdb 5f3d bb83 54be 2d13 26bc
000000c0: e41f 10bd 7ed0 913e a530 76bd 6987 cb3e
000000d0: e42d 06be ba88 fb3d 4e93 5f3e 4b62 74bd
000000e0: 0fe3 20be e271 e7be aff8 06bf 3fba 863d
000000f0: 2133 a8bd 2aa2 37be 7cdc 963e ec24 92be
00000100: 3677 7c3c 700f 733e 18cd 113e 8764 833e
00000110: 7e7f f23d 6885 583e 2a6e b33e 728a 743e
00000120: f644 89be d3c4 f23e 1c06 523c 1f4c c1be
00000130: 766a 7cbd bc34 04bf 6fd6 7f3d 416c 93bd
00000140: 79a5 b9bd 6bb5 dcbe fd84 093c 0a9b 733d
00000150: 85b0 89bd a01a 143d 015a 9a3e c5da 623d
00000160: 693a a9bd aa10 a9bd 8fac a8be f5da 0d3e
00000170: 084e e63d 7995 883e 4b9b 243d 3161 41be
00000180: 6d99 c43d 81d1 a9bc 6b3e b33d b50f 23be
00000190: 213c 593e 0707 963e a836 b8be 5c79 10be
000001a0: 1f1b 243e 5404 183e 142a 5ebe efec 1a3c
000001b0: b00b b03d 248b 8b3d 2226 1ebc b1b8 7f3d
000001c0: a018 b5bd f2b6 043e 1025 65be db55 03bd
000001d0: a9fa 4b3e 6a91 ae3e ee16 edbd 5791 963e
000001e0: f95c 003e a82f bc3d 2bff 1dbd 3bad 81be
000001f0: e3df aebe f8df 8c3e 2327 a3be 999a 6b3e
00000200: 80d4 1cbe 07c3 8d3d 3b80 1c3e 1549 2f3e
00000210: 577c 053f 253d 473e d2be bfbd 24cf 6abe
00000220: f7d5 34be b3cf 00bd ed2c 153e a871 fa3d
00000230: 95be d33d 2fe3 83bd ae78 90bd b4e6 8c3e
00000240: c851 223f 7b8d bf3d 58b4 9e3d 7163 503d
00000250: fd33 45be 250e d9bd 63d8 2e3d 21fa 7f3e
00000260: 710c 30bc 08c1 763d f503 81bd a0d1 0a3e
00000270: 3a62 8abd 20c0 9c3d a056 01be 4a08 ef3d
00000280: 13fb 933e 672c cc3e 2aca c33d 9005 17be
00000290: 67a8 1bbd 5d71 fd3c 69cf c23d 8e84 b6bc
000002a0: cce1 963e dd7d 1b3e 7f0d 493e 8d19 9b3e
000002b0: 1608 c13e 6b0b 68be 38bf 64bc 036f 87be
000002c0: 09fe 0c3c 5e9b 33bc dea8 3b3e 640a 3ebe
000002d0: b968 80be 49e2 b13e 48c0 87bd 9e1d d4bc
000002e0: eb5a c43d 6c61 c9bd 1055 933d 1e99 e1b8
000002f0: 414d 863e 3480 bc3c 276f 95bc 0413 913e
00000300: a11b 74bd bcc8 ebbb 01d8 bf3d 4663 893d
00000310: 7791 063e 2c5a ef3d 1f23 43be 51fc 7a3b
00000320: ec81 15be 9519 25bd 8bf4 55be 04e1 bf3d
00000330: ee4f fe3b 872b a53d 7363 523d a073 da3e
00000340: f637 833e ecfc 673d f002 9e3e fa79 4b3e
00000350: f743 6a3c 32de 6ebd a827 bcbe 50df 243d
00000360: a74f 923e 1223 953d 4d85 313e c20d 053e
00000370: f9a2 4d3e a398 94be 1cb9 2a3e 821e 493d
00000380: fcb9 8a3e df00 7abe afe2 22be 5e6f 76be
00000390: a45d 243e eb59 fcbd 7f0e 4dbc 2ebd 903e
000003a0: e007 04bf a674 a9bd 187c a03d c909 e23d
000003b0: c339 58be dc5e 913e 157f 823e 1c17 043c
000003c0: 6c2c 84be b810 12be a283 d3bd e682 c23d
000003d0: b18a 00be 5b26 70be a940 2b3e 18eb 4b3e
000003e0: d67c 2fbe ee56 f3bc 6bc0 8fbe 71c4 01be
000003f0: 1c9f 1d3d be53 3e3e bd5a 693e 05ef 193e

bias f4 [128]
-0.13698357 -0.20988204 -0.076421276 -0.2850385 -0.16601522 -0.033373408 0.29096416 0.14892522
0.04121205 -0.20023368 -0.10575664 -0.068472594 0.093639016 -0.046381798 -0.04895521 -0.18336472
0.12912717 -0.28122732 0.27136233 -0.02610779 0.08841308 0.24885994 0.33065286 0.0044761207
-0.056061536 -0.10020835 -0.38701066 0.1774789 0.3344915 -0.12939022 0.030010398 -0.09629191
0.0210457 -0.064046055 -0.104572505 -0.23963128 0.3232828 -0.11456845 -0.11823727 0.20954633
0.14938146 0.15163231 0.2316776 0.101217374 -0.26995733 0.05835564 -0.173875 0.09120382
-0.26427543 0.13402976 0.11503006 -0.23370823 0.19695012 -0.40578645 -0.0062991553 -0.23761605
0.1859959 0.3823182 0.018725574 0.043021377 0.01816316 -0.03285044 -0.010077393 0.2971112
0.23971906 -0.2643786 -0.09972179 -0.07373382 -0.12822077 -0.01393539 -0.19690643 -0.0021180622
-0.25148243 -0.24803945 -0.09233307 0.16154255 0.12519735 -0.18863797 0.056021154 -0.19227315
0.19069596 -0.23833713 0.09037218 0.2356805 0.04463349 -0.10093255 0.120813645 0.051172543
-0.11008175 -0.07143733 0.2633861 -0.23184353 -0.13896845 0.14799976 0.14847636 -0.11229836
0.105881155 0.10219006 -0.096419275 -0.19477932 0.15580451 0.019120129 0.04584102 0.115148515
0.06794184 -0.14228447 0.062287387 0.04490362 -0.22064382 -0.00986843 -0.22633445 -0.056581695
-0.043980192 -0.025161693 -0.10410572 -0.03703441 -0.09075838 0.16518104 0.12326423 -0.12830125
0.26892078 -0.1228158 -0.05450323 0.14696339 0.2674802 -0.00019894079 0.11636551 -0.10458749
00000000: 6c45 0cbe 51eb 56be c282 9cbd 91f0 91be
00000010: e5ff 29be 8eb2 08bd 41f9 943e da7f 183e
00000020: f7cd 283d 0f0a 4dbe f096 d8bd 5c3b 8cbd
00000030: d0c5 bf3d d7fa 3dbd 4285 48bd f6c3 3bbe
00000040: ea39 043e 07fd 8fbe 01f0 8a3e 01e0 d5bc
00000050: eb11 b53d 24d5 7e3e 554b a93e 6cac 923b
00000060: c8a0 65bd 093a cdbd 4326 c6be 07bd 353e
00000070: 7842 ab3e df7e 04be 5ed8 f53c b134 c5bd
00000080: 0868 ac3c 942a 83bd 1c2a d6bd e761 75be
00000090: 5385 a53e dda2 eabd 6226 f2bd 5093 563e
000000a0: 74f7 183e 8045 1b3e e53c 6d3e 0e4b cf3d
000000b0: d937 8abe 5306 6f3d 4a0c 32be 12c9 ba3d
000000c0: 1c4f 87be 193f 093e e194 eb3d 3651 6fbe
000000d0: 4bad 493e 3ec3 cfbe 2569 cebb 9f51 73be
000000e0: b675 3e3e 36bf c33e 6066 993c 2f37 303d
000000f0: e8ca 943c 2f8e 06bd a61b 25bc f61e 983e
00000100: ea78 753e a25c 87be f03a ccbd c201 97bd
00000110: 4e4c 03be 4351 64bc d7a1 49be 30cf 0abb
00000120: 4ec2 80be 0efe 7dbe 1f19 bdbd 696b 253e
00000130: bc33 003e 502a 41be 7076 653d 41e3 44be
00000140: cd45 433e a60e 74be 0d15 b93d 3b56 713e
00000150: 9bd1 363d bab5 cebd 256d f73d 4d9a 513d
00000160: 8a72 e1bd bc4d 92bd 8bda 863e 6468 6dbe
00000170: bf4d 0ebe 408d 173e 300a 183e affc e5bd
00000180: 38d8 d83d 0649 d13d 7877 c5bd 3b74 47be
00000190: 388b 1f3e d1a1 9c3c cbc3 3b3d fcd2 eb3d
000001a0: 1725 8b3d 05b3 11be 0f21 7f3d dcec 373d
000001b0: 74f0 61be 32af 21bc 38c4 67be 35c2 67bd
000001c0: 9324 34bd e51f cebc 6135 d5bd 65b1 17bd
000001d0: 88df b9bd 3825 293e f571 fc3d 6761 03be
000001e0: fcaf 893e da86 fbbd c73e 5fbd 927d 163e
000001f0: 2af3 883e c39a 50b9 0a51 ee3d f731 d6bd

weight f4 [64, 128]
-0.18277845 0.1959233 0.16640542 0.48055962 0.18078819 0.07366883 -0.18803453 -0.34856296
-0.41358638 0.09446364 0.1617989 0.39514783 -0.0041385507 -0.1416528 0.09613841 -0.283117
-0.3443593 0.31424275 0.06597605 -0.17006898 0.3593327 0.1176666 -0.5486705 0.12715483
0.15741298 0.08499126 -0.23454551 -0.31188607 -0.2906149 -0.10677765 0.16155472 -0.160338
0.25269127 -0.36165407 0.085813366 0.017092228 -0.18427093 -0.24366878 0.054521516 -0.17799176
-0.27548862 0.008045946 -0.1149262 -0.057442207 0.041004475 0.213023 0.09978825 -0.058557823
-0.05125359 -0.1186419 0.1653453 -0.3822178 0.32817423 0.2991183 -0.17558333 -0.4040327
0.060003184 -0.21248153 -0.22401357 -0.0033495324 -0.31786606 -0.31407 -0.21425195 -0.603765
-0.5914688 -0.074283175 -0.271072 -0.28095737 0.27816224 -0.16862069 -0.22463241 -0.112711854
0.1236128 -0.18213281 -0.43344936 0.24194424 -0.2629615 -0.3193072 -0.43970308 -0.038457233
-0.29383764 -0.32976723 0.06970325 0.20663813 -0.2205402 0.10386437 -0.033500846 0.13410547
-0.10171924 0.04134963 -0.21459776 0.6920745 -0.3945212 0.23466422 0.071819976 -0.5396477
0.2269125 -0.11304777 0.12846147 0.024617547 -0.31784177 -0.30492368 0.35587364 -0.36530167
0.080593415 0.04374629 1.1138963 -0.06437037 0.5120142 0.16680107 0.20347475 -0.3069387
-0.1697768 0.35496482 -0.23262598 0.2438254 0.2171747 0.015180194 -0.4213848 -0.26528656
-0.042635508 0.23198819 0.50119203 -0.0747393 -0.2823734 -0.42681882 0.040497813 0.17093013
-0.34335172 0.067703374 0.17962988 0.07425489 -0.20592168 0.046475444 0.19740438 -0.29804102
0.037918467 -0.031197006 0.1573155 0.31062463 0.28471932 0.0753908 0.076581374 0.28514016
0.23065588 0.20265105 0.5243845 -0.054403294 0.14809197 0.5019494 0.10079947 -0.20339052
-0.11666696 0.081518754 -0.07130231 -0.17825593 0.22966436 0.12213768 -0.2880896 -0.634924
-0.43235853 0.16661286 0.356997 -0.0066390936 -0.05133381 -0.42322648 -0.56095195 -0.015614086
0.263942 0.5672405 0.14173403 -0.06382501 0.08865866 0.33018026 0.3705251 0.12295305
-0.06133894 -0.1895363 0.46003965 -0.05194222 0.11582605 -0.30281803 0.14748247 -0.15889256
0.15261617 0.08641335 -0.068352886 -0.108784564 -0.24206837 0.112365425 0.066205904 -0.04740184
-0.12146358 0.20833717 0.4842904 -0.06606404 -0.26861644 0.019024586 -0.39733523 -0.050870758
-0.112386376 0.10045167 -0.40985316 0.1301172 0.33193842 -0.012750338 0.078253195 -0.27981383
0.18441787 -0.1747045 0.19890256 0.17365639 0.22123803 -0.029396597 0.2545808 -0.013222669
-0.29250747 -0.20685555 -0.0774267 -0.09547392 -0.46672514 0.28004616 0.06055613 0.117399
-0.015699152 0.31554636 -0.35831684 0.23014353 0.015411967 0.16420363 0.2166578 0.14165892
0.018089255 0.045976415 0.16875681 0.46880183 0.069630176 -0.27124977 -0.18485762 0.17403539
0.18162762 0.44367364 0.22743568 -0.028863696 0.07573732 0.14366835 0.12749946 -0.017528372
0.10575112 -0.22476436 -0.007922213 0.63041836 0.04111511 -0.15549238 0.47048292 -0.30441213
00000000: 462a 3bbe 1ea0 483e 2f66 2a3e e90b f63e
00000010: 8a20 393e afdf 963d 208c 40be d876 b2be
00000020: 98c1 d3be 2776 c13d 9cae 253e d150 ca3e
00000030: ae9c 87bb 6e0d 11be 37e4 c43d b6f4 90be
00000040: dd4f b0be 6de4 a03e 741e 873d 9026 2ebe
00000050: 75fa b73e 30fb f03d ab75 0cbf e034 023e
00000060: de30 213e e60f ae3d b32c 70be 88af 9fbe
00000070: 7acb 94be 3eae dabd 9a6e 253e a52f 24be
00000080: c060 813e b92a b9be ebbe af3d 0005 8c3c
00000090: 85b1 3cbe 4f84 79be f451 5f3d 7943 36be
000000a0: d80c 8dbe 25d3 033c 6d5e ebbd 8548 6bbd
000000b0: 4ff4 273d b422 5a3e c85d cc3d 54da 6fbd
000000c0: 49ef 51bd 86fa f2bd 4750 293e 0db2 c3be
000000d0: 7406 a83e 0926 993e 1ecc 33be 60dd cebe
000000e0: e6c5 753d c294 59be d063 65be d483 5bbb
000000f0: 57bf a2be c8cd a0be dd64 5bbe 5890 1abf
00000100: 806a 17bf c721 98bd f3c9 8abe a5d9 8fbe
00000110: 486b 8e3e e7aa 2cbe 0a06 66be 79d5 e6bd
00000120: b528 fd3d 0681 3abe 13ed ddbe 3bc0 773e
00000130: e4a2 86be 3c7c a3be c320 e1be 5585 1dbd
00000140: e371 96be 40d7 a8be 94c0 8e3d f298 533e
00000150: 4ad5 61be d8b6 d43d 2f38 09bd f252 093e
00000160: 2d52 d0bd 3b5e 293d 84bf 5bbe cb2b 313f
00000170: affe c9be d14b 703e 5a16 933d 5a26 0abf
00000180: c05b 683e 9785 e7bd 678b 033e bdaa c93c
00000190: 28bc a2be f51e 9cbe 1235 b63e d208 bbbe
000001a0: 290e a53d 4f2f 333d 2794 8e3f 9dd4 83bd
000001b0: 5d13 033f e6cd 2a3e af5b 503e 1227 9dbe
000001c0: f8d9 2dbe f3bd b53e 8135 6ebe 5ead 793e
000001d0: 0b63 5e3e 59b6 783c c0bf d7be a4d3 87be
000001e0: 92a2 2ebd 508e 6d3e 1f4e 003f eb10 99bd
000001f0: 3f93 90be ff87 dabe 09e1 253d 4f08 2f3e
00000200: cccb afbe 11a8 8a3d e5f0 373e f312 983d
00000210: 22dd 52be 095d 3e3d 6024 4a3e d598 98be
00000220: 6550 1b3d dd90 ffbc 5017 213e 310a 9f3e
00000230: bbc6 913e 7e66 9a3d b2d6 9c3d e4fd 913e
00000240: 0e31 6c3e c283 4f3e 103e 063f fdd5 5ebd
00000250: 6ca5 173e c27f 003f f46f ce3d 9b45 50be
00000260: 16ef eebd 4ef3 a63d f206 92bd b988 36be
00000270: 222d 6b3e 5223 fa3d 7b80 93be 618a 22bf
00000280: 195e ddbe 909c 2a3e 50c8 b63e c18c d9bb
00000290: 6743 52bd 24b1 d8be 8c9a 0fbf 39d2 7fbc
000002a0: 6823 873e ac36 113f ba22 113e b0b6 82bd
000002b0: ac92 b53d 630d a93e 77b5 bd3e cfce fb3d
000002c0: 8a3e 7bbd ce15 42be 518a eb3e 5ec1 54bd
000002d0: 3536 ed3d f70a 9bbe a505 173e bbb4 22be
000002e0: 6a47 1c3e 7cf9 b03d 99fc 8bbd 71ca debd
000002f0: c5e0 77be d81f e63d f696 873d 6f28 42bd
00000300: e6c1 f8bd 5756 553e e9f4 f73e 954c 87bd
00000310: 1888 89be 73d9 9b3c 866f cbbe db5d 50bd
00000320: d42a e6bd 9bb9 cd3d 46d8 d1be 713d 053e
00000330: d5f3 a93e cbe6 50bc 3643 a03d c243 8fbe
00000340: 0ad8 3c3e bde5 32be 1dad 4b3e fbd2 313e
00000350: 398c 623e 22d1 f0bc 6a58 823e e5a3 58bc
00000360: 8ac3 95be f1d1 53be e491 9ebd d587 c3bd
00000370: 99f6 eebe 3662 8f3e b409 783d e36e f03d
00000380: 829b 80bc 4b8f a13e 4e75 b7be bfaa 6b3e
00000390: 7a82 7c3c ff24 283e 8bdb 5d3e 090f 113e
000003a0: eb2f 943c c451 3c3d 96ce 2c3e cb06 f03e
000003b0: 449a 8e3d 40e1 8abe 514b 3dbe 5536 323e
000003c0: 97fc 393e 3129 e33e e6e4 683e 8f73 ecbc
000003d0: 2b1c 9b3d cc1d 133e 388f 023e a997 8fbc
000003e0: 0b94 d83d a128 66be 2bcc 01bc 1963 213f
000003f0: 5168 283d 6539 1fbe 23e3 f03e e8db 9bbe

bias f4 [64]
-0.121628396 0.25135124 -0.077265054 0.01028657 0.013978161 -0.40882435 0.061601933 0.3391034
0.3555522 -0.046973765 -0.337747 -0.040624194 0.2624472 -0.20995292 0.08539512 -0.17986749
0.0942774 0.19680597 0.016675316 0.09458197 0.074532494 0.14807981 -0.0008544431 0.35848033
-0.032633945 0.015142768 0.030607687 -0.25355276 0.22919556 0.06872915 -0.08825265 -0.3430931
0.2506044 0.3662354 -0.26482236 0.14627151 -0.13767032 -0.0013766782 -0.11660221 -0.21226913
-0.1949025 0.0150773395 0.033705533 -0.11747895 0.02320125 -0.2707664 0.057509612 0.13971674
0.0840591 -0.07119025 0.18161286 -0.23242246 0.075730346 -0.027680757 0.07952766 0.08861115
0.010599397 0.21113972 -0.006597922 -0.31801075 0.2320368 0.10560578 -0.08580285 -0.09410898
00000000: 4f18 f9bd 1cb1 803e 243d 9ebd 0089 283c
00000010: a804 653c 6d51 d1be 4f52 7c3d f69e ad3e
00000020: f00a b63e 9067 40bd 2ded acbe 8e65 26bd
00000030: 7b5f 863e e6fd 56be a3e3 ae3d 2f2f 38be
00000040: 8214 c13d 8187 493e ac9a 883c 31b4 c13d
00000050: 7ea4 983d 3ca2 173e b5fc 5fba bc8a b73e
00000060: 2cab 05bd 5f19 783c f9bc fa3c abd1 81be
00000070: 3eb2 6a3e dec1 8c3d cebd b4bd e6a9 afbe
00000080: 384f 803e 3583 bb3e cc96 87be 33c8 153e
00000090: 73f9 0cbe a871 b4ba 24cd eebd 145d 59be
000000a0: 8594 47be f206 773c d00e 0a3d ce98 f0bd
000000b0: 8c10 be3c e5a1 8abe 338f 6b3d e811 0f3e
000000c0: 2d27 ac3d 32cc 91bd b9f8 393e 2700 6ebe
000000d0: 8318 9b3d c1c2 e2bc 66df a23d c379 b53d
000000e0: 18a9 2d3c 0335 583e 6233 d8bb 4ed2 a2be
000000f0: 0e9b 6d3e d847 d83d 68b9 afbd 35bc c0bd

weight f4 [6, 64]
-0.11600139 0.10154751 -0.28318223 0.31798184 0.803254 -0.15982118 0.12702705 0.28347072
0.6131923 -0.40365294 -0.009697008 0.34213248 0.74646324 -0.7093692 0.14087093 0.25849393
-0.40816677 -0.28286746 0.5486637 0.42591515 0.21289876 0.44534305 0.80257356 0.072823025
0.083815075 0.30044132 -0.17131644 -0.00529157 0.1769303 0.3078889 0.024420641 -0.023131078
0.6408303 0.1472217 0.21551563 0.26998985 -0.6439066 0.49457124 -0.31345004 -0.59369713
-0.570647 -0.3956119 0.31069818 -0.6064369 -0.039126836 -0.56919026 -0.24744368 0.07093909
0.27273622 -0.33984783 0.56696403 -0.32509208 0.40268058 0.2474229 0.31244856 0.5785797
-0.7399639 0.05431514 -0.8385938 0.31866592 -0.4509351 0.11198724 0.6634881 -0.015817089
-0.19127089 0.4514356 -0.26859483 0.023795273 -0.43484786 -0.03270396 -0.29245472 0.33549038
0.11821464 0.18379486 -0.51794356 -0.0849734 0.29537454 -0.26313087 0.09684091 -0.4940474
0.3308873 0.54437965 0.12914705 0.47549713 -0.49304786 -0.2040068 -0.5889718 0.45535952
-0.47544506 -0.54621416 0.5013469 0.19929813 0.3146891 0.41403335 -0.4493497 -0.5045548
-0.53658324 0.34060115 -0.56781685 -0.34895283 0.24174099 -0.9495122 -0.2908214 0.06722528
-0.077889346 0.047410954 0.29908592 0.22618748 0.15789363 -0.15099584 0.14096095 0.59195584
-0.4515964 -0.40388453 -0.48008907 -0.47616336 -0.041815355 -0.56952274 -0.71747535 -0.35236087
0.6046486 0.75906277 0.2935124 -0.17489089 0.385152 0.66574657 -0.5390483 -0.2831812
-0.5507783 -0.77981585 0.70691925 -0.50081265 0.00866578 0.62464684 0.91733134 0.8350551
-0.5033648 0.34191632 0.70678574 -0.5403363 -1.0718176 1.0413659 -0.21749325 0.7549453
0.0624505 -0.5894615 -0.8795831 -0.97403836 0.78561765 0.6379438 -0.45571718 -0.36878708
0.9802226 0.46101886 0.25648394 -1.1252229 0.30790955 -0.8058027 0.84333116 0.85307664
0.3955947 -0.18610796 0.07289663 0.49285725 0.5896956 0.6624663 0.74280936 0.78301424
0.37227893 0.61481243 -0.17098157 0.3042787 0.9171514 0.8253553 -0.55899626 -0.23292868
-0.3879755 0.94265777 0.024137016 0.05553318 -0.4606044 0.5677207 0.028381128 0.26296666
0.4120129 -0.40250677 0.2707471 -0.4323328 -0.11885115 -0.48140246 -0.20265557 1.0920804
1.2758614 -0.11808891 0.3128767 0.79200023 -0.27567342 0.018431487 0.04020297 -0.686115
-0.10054391 0.49678293 0.88124406 -0.7480914 -0.07447262 0.11584899 -0.23630132 -0.26431587
0.13644487 -0.05335244 -0.70880264 -0.16861825 0.028231094 -0.055697337 0.42096043 -0.3121902
0.089002006 -0.029081078 -0.5318933 0.48353067 -1.1983454 0.40451333 0.0041313767 -0.209075
-0.12743106 -0.45613462 0.37587702 0.28551525 -0.4011183 0.109180994 0.43601164 -0.06977896
-0.14585009 0.3398971 -0.35715514 0.07497359 -1.3402426 -0.23378752 1.0053588 -0.3975781
0.19139852 0.18240437 0.1828545 0.5386272 0.8491251 0.2789735 0.49895352 0.17982045
-0.2937039 0.2362227 1.0723971 -0.15885186 -0.06735063 -0.3257291 0.18292266 -0.51455206
00000000: 2392 edbd 24f8 cf3d 43fd 90be 84ce a23e
00000010: 0ea2 4d3f 2aa8 23be 6113 023e 1323 913e
00000020: 2cfa 1c3f 99ab cebe 33e0 1ebc fd2b af3e
00000030: 3718 3f3f 3899 35bf 7840 103e 5159 843e
00000040: 3cfb d0be 01d4 90be 3975 0c3f 8d11 da3e
00000050: 2202 5a3e 0104 e43e 7675 4d3f 3d24 953d
00000060: 3da7 ab3d 72d3 993e 946d 2fbe e864 adbb
00000070: 372d 353e 9da3 9d3e cc0d c83c 637d bdbc
00000080: 740d 243f 49c1 163e 21b0 5c3e 1c3c 8a3e
00000090: 10d7 24bf 7138 fd3e 867c a0be 89fc 17bf
000000a0: ec15 12bf a58d cabe d513 9f3e 733f 1bbf
000000b0: 7643 20bd 74b6 11bf e061 7dbe 8348 913d
000000c0: 15a4 8b3e 8900 aebe 8e24 113f 7872 a6be
000000d0: 262c ce3e 6e5c 7d3e 42f9 9f3e cd1d 143f
000000e0: 466e 3dbf 8d79 5e3d 15ae 56bf 2e28 a33e
000000f0: f7e0 e6be 9159 e53d 5bda 293f d792 81bc
00000100: 84dc 43be 9122 e73e 4385 89be 4eee c23c
00000110: 61a4 debe 96f4 05bd a0bc 95be 65c5 ab3e
00000120: 841a f23d b834 3c3e f397 04bf 8906 aebd
00000130: 553b 973e 17b9 86be 8754 c63d c8f3 fcbe
00000140: 0f6a a93e 775c 0b3f 203f 043e 5c74 f33e
00000150: c570 fcbe 29e7 50be dbc6 16bf e224 e93e
00000160: 896d f3be b1d4 0bbf 4558 003f cf14 4c3e
00000170: ee1e a13e 2efc d33e 2a11 e6be 812a 01bf
00000180: 855d 09bf 4663 ae3e 725c 11bf f2a9 b2be
00000190: f38a 773e 3b13 73bf 8be6 94be 68ad 893d
000001a0: 7384 9fbd fd31 423d ca21 993e b19d 673e
000001b0: deae 213e a79e 1abe 1158 103e 6b8a 173f
000001c0: a537 e7be f4c9 cebe 3cce f5be afcb f3be
000001d0: 9446 2bbd 3ecc 11bf 77ac 37bf a568 b4be
000001e0: 40ca 1a3f f051 423f 4247 963e 9916 33be
000001f0: a532 c53e 5e6e 2a3f 12ff 09bf 20fd 90be
00000200: cfff 0cbf 03a2 47bf a9f8 343f 4235 00bf
00000210: eafa 0d3c dbe8 1f3f 3ad6 6a3f 2cc6 553f
00000220: 84dc 00bf a80f af3e e9ef 343f 7b53 0abf
00000230: 5231 89bf 7a4b 853f 8db6 5ebe 1844 413f
00000240: 18cc 7f3d f3e6 16bf 5c2c 61bf 945a 79bf
00000250: 3d1e 493f 4950 233f c353 e9be a9d1 bcbe
00000260: deef 7a3f aa0a ec3e dd51 833e 4e07 90bf
00000270: 52a6 9d3e 1649 4ebf 8de4 573f 3b63 5a3f
00000280: 638b ca3e 1693 3ebe d44a 953d c957 fc3e
00000290: 4af6 163f 6497 293f c128 3e3f 9f73 483f
000002a0: 589b be3e 5964 1d3f cb15 2fbe 6bca 9b3e
000002b0: 6fca 6a3f 7c4a 533f 611a 0fbf db84 6ebe
000002c0: baa4 c6be 0552 713f feba c53c c276 633d
000002d0: 57d4 ebbe 2556 113f 8a7f e83c 91a3 863e
000002e0: 5bf3 d23e 5e15 cebe 5d9f 8a3e ba5a ddbe
000002f0: 3b68 f3bd 627a f6be f184 4fbe 4ac9 8b3f
00000300: 6d4f a33f 99d8 f1bd 6031 a03e 87c0 4a3f
00000310: 1125 8dbe a1fd 963c dfab 243d 3ca5 2fbf
00000320: f7e9 cdbd 555a fe3e 3699 613f eb82 3fbf
00000330: 1a85 98bd 3c42 ed3d f9f8 71be 6954 87be
00000340: 34b8 0b3e 1788 5abd 1774 35bf 43aa 2cbe
00000350: e544 e73c e422 64bd 2088 d73e 65d7 9fbe
00000360: af46 b63d 713b eebc 292a 08bf 5591 f73e
00000370: 6263 99bf 5f1c cf3e 8060 873b c217 56be
00000380: 4a7d 02be 7a8a e9be f472 c03e 0e2f 923e
00000390: 615f cdbe 499a df3d eb3c df3e 45e8 8ebd
000003a0: ba59 15be fe06 ae3e 0add b6be c18b 993d
000003b0: 128d abbf ff65 6fbe 99af 803f 5b8f cbbe
000003c0: f9fd 433e 36c8 3a3e 363e 3b3e 79e3 093f
000003d0: 4360 593f 9dd5 8e3e d676 ff3e da22 383e
000003e0: 5c60 96be 5de4 713e 4f44 893f 10aa 22be
000003f0: 21ef 89bd f7c5 a6be 1450 3b3e afb9 03bf

bias f4 [6]
0.16041669 -0.06350008 0.051640328 -0.014197902 -0.58134425 -0.3179193
00000000: 4644 243e 540c 82bd cf84 533d 519e 68bc
00000010: fad2 14bf 52c6 a2be
