src/learning/models/128_128_64_notouch_800epoch.pt (torch, 107087 bytes, 8 tensors)

weight f4 [128, 5]
-0.019372607 0.09202661 -0.7193473 -0.26677865 0.6352241 -0.053262107 0.09007742 -0.14675151
0.041527577 0.68723524 -0.2635523 -0.3331538 -0.3586213 -0.2812799 -0.19461715 0.24739508
-0.20544803 0.27435908 0.09759426 -0.19126774 0.18748409 -0.115349025 -0.10374756 -0.23613168
-0.2720848 0.29599932 -0.31051797 -0.5281158 -0.18213494 -0.6634151 0.16086693 -0.28589994
-0.03965712 0.50280094 -0.31163725 0.24178202 -0.3838193 -0.4585236 0.12238218 0.6530551
0.35693488 -0.087221794 0.36414915 -0.06035815 -0.8040494 -0.15787756 -0.13151799 -0.44303957
0.12423812 -0.6745487 -0.073578045 0.06617267 -0.2534985 0.48239762 0.25069582 -0.07727687
-0.082279205 -0.11356301 0.41864592 -0.15863428 -0.04467099 0.043837845 -0.30778125 0.596453
0.3510274 0.010142993 -0.60432637 -0.098895505 -0.3035558 -0.5102439 0.048406392 -0.12706327
0.08978061 -0.11476481 0.23971745 0.00531722 0.19233947 0.070664816 0.32867208 0.10010862
-0.15912655 0.57456326 -0.24849914 -0.018170431 -0.18992046 -0.38482174 0.35634238 0.5221103
0.30221227 -0.12023981 -0.6350264 -0.51187116 0.07099111 -0.15575576 -0.24001934 -0.2802096
-0.17189766 0.17070174 -0.44159085 -0.19070394 -0.0028502247 0.60447025 0.06842465 0.30175382
-0.11459492 0.81222385 -0.07450928 -0.14843148 0.12804669 0.52297926 0.11130872 0.07915045
0.24240266 0.3852377 0.8552762 -0.16116719 -0.4298715 -0.039980236 0.09288451 0.4237083
0.09918716 -0.102454044 0.17997183 0.14070676 -0.78668046 -0.07180239 0.42623273 -0.24942683
0.24246502 -0.15701796 -0.17229792 -0.23730844 -0.32998642 0.013234716 -0.7898486 -0.13841057
0.081993744 0.36717466 -0.18256257 0.752586 0.3222054 0.27331182 0.20406826 0.26534715
-0.20083392 -0.34321353 -0.3111988 0.8549948 0.51474714 0.14182167 0.2677037 0.07548658
0.1783126 0.012402435 0.7920811 0.013392366 -0.009091204 0.074087664 0.05793506 -0.8594336
0.031203521 -0.21749158 0.072773114 -0.16228062 0.8978986 0.07333437 -0.13828732 -1.3829314
0.15967001 0.49915236 0.07820895 -0.25131506 0.00030589226 0.088405155 -1.168179 -0.14628953
-0.009896422 -0.3093619 0.17944776 0.29763466 -2.366157 -0.117638744 -0.09978918 0.09929146
-0.38079795 0.02007004 -0.036039285 0.46563804 0.7804725 -0.5813148 -0.90084034 -0.3537774
-0.04429387 0.19391684 0.22083655 0.18511085 0.014826758 -0.17601395 -0.43140206 0.48041138
-0.20690751 -0.00039732814 0.09833163 -0.49321976 0.30138785 0.21530184 0.17695172 -0.21767592
-0.09471991 -0.09316499 -0.06924048 0.06206293 -0.25377494 -0.34986967 -0.5892783 -0.2133732
-0.12514451 -0.16959761 -0.20159693 0.40373275 0.26483014 -0.07728065 -0.18066359 0.31889054
-0.45881328 -0.1750969 0.32054046 0.035143092 -0.62082374 0.16149293 0.014145012 -0.044874303
-0.50072664 0.49696797 -0.27101606 0.11192486 0.40022773 -0.46962732 0.30577314 0.5424476
0.19690008 0.5456271 -0.24303174 0.20022883 0.51784474 -0.13385421 -0.6957342 0.393503
-0.46730435 -0.43184155 0.0036470788 -0.3203608 0.010996182 -0.5524568 -0.2042252 -0.025114024
00000000: 4db3 9ebc 7378 bc3d 2527 38bf 3697 88be
00000010: 0c9e 223f 5e29 5abd 837a b83d 0746 16be
00000020: d218 2a3d a6ee 2f3f 54f0 86be 2393 aabe
00000030: 369d b7be eb03 90be b849 47be 2355 7d3e
00000040: f860 52be cb78 8c3e 80df c73d b1db 43be
00000050: d4fb 3f3e 1c3c ecbd 9a79 d4bd 81cc 71be
00000060: b34e 8bbe 398d 973e 36fc 9ebe 9932 07bf
00000070: 9581 3abe 92d5 29bf 4dba 243e 7a61 92be
00000080: 816f 22bd 90b7 003f eb8e 9fbe b595 773e
00000090: f783 c4be 9bc3 eabe 82a3 fa3d 9e2e 273f
000000a0: 2bc0 b63e 57a1 b2bd c271 ba3e 1c3a 77bd
000000b0: 2ed6 4dbf a8aa 21be a7ac 06be 15d6 e2be
000000c0: 8e70 fe3d 39af 2cbf 16b0 96bd 8985 873d
000000d0: 8eca 81be d2fc f63e 345b 803e 5643 9ebd
000000e0: 0082 a8bd b993 e8bd c258 d63e 0671 22be
000000f0: eef8 36bd 508f 333d 8195 9dbe 25b1 183f
00000100: ddb9 b33e cc2e 263c 22b5 1abf ba89 cabd
00000110: aa6b 9bbe 589f 02bf c845 463d e01c 02be
00000120: e5de b73d d009 ebbd 7e78 753e 133c ae3b
00000130: a3f4 443e b7b8 903d b547 a83e c005 cd3d
00000140: 12f2 22be 9416 133f 8f76 7ebe 28da 94bc
00000150: 827a 42be 5b07 c5be 8272 b63e 05a9 053f
00000160: 91bb 9a3e 4a40 f6bd 1791 22bf fd09 03bf
00000170: c963 913d 707e 1fbe a1c7 75be a277 8fbe
00000180: f105 30be 70cc 2e3e 3218 e2be e547 43be
00000190: d6ca 3abb 90be 1a3f 3922 8c3d 7a7f 9a3e
000001a0: beb0 eabd e7ed 4f3f 5298 98bd 6cfe 17be
000001b0: ac1e 033e f8e1 053f d4f5 e33d a219 a23d
000001c0: 6738 783e e03d c53e 62f3 5a3f 0309 25be
000001d0: 1e18 dcbe 51c2 23bd 3c3a be3d 4bf0 d83e
000001e0: a322 cb3d 6dd3 d1bd 894a 383e 6f15 103e
000001f0: e463 49bf 220d 93bd 2d3b da3e bf69 7fbe
00000200: c048 783e 51c9 20be de6e 30be fc00 73be
00000210: fbf3 a8be 6cd6 583c 8533 4abf 80bb 0dbe
00000220: 56ec a73d 51fe bb3e aff1 3abe 7aa9 403f
00000230: 1bf8 a43e 87ef 8b3e 45f7 503e 95db 873e
00000240: 68a7 4dbe afb9 afbe 7355 9fbe f0e0 5a3f
00000250: 78c6 033f b339 113e 7610 893e b598 9a3d
00000260: 9497 363e 9533 4b3c d4c5 4a3f a76b 5b3c
00000270: 46f3 14bc 46bb 973d 504d 6d3d d703 5cbf
00000280: 879e ff3c 1db6 5ebe 120a 953d e42c 26be
00000290: afdc 653f 5530 963d 319b 0dbe e503 b1bf
000002a0: 8980 233e e690 ff3e 042c a03d 5eac 80be
000002b0: 2a60 a039 c30d b53d e486 95bf eccc 15be
000002c0: 9a24 22bc af64 9ebe 27c1 373e 9263 983e
000002d0: 1e6f 17c0 95ec f0bd 455e ccbd 5259 cb3d
000002e0: f3f7 c2be ed69 a43c ee9d 13bd 1c68 ee3e
000002f0: 0ccd 473f 0cd1 14bf 799d 66bf 5022 b5be
00000300: 7d6d 35bd 2392 463e fa22 623e b38d 3d3e
00000310: eeeb 723c 003d 34be bbe0 dcbe 7bf8 f53e
00000320: 90df 53be 7b50 d0b9 1862 c93d 4d87 fcbe
00000330: 824f 9a3e 1678 5c3e d532 353e 70e6 5ebe
00000340: 83fc c1bd 49cd bebd f4cd 8dbd b335 7e3d
00000350: caee 81be 1e22 b3be f1da 16bf 817e 5abe
00000360: e225 00be ffaa 2dbe 6d6f 4ebe 0fb6 ce3e
00000370: d197 873e 5145 9ebd e0ff 38be 9f45 a33e
00000380: 93e9 eabe 9a4c 33be e11d a43e 34f2 0f3d
00000390: 4eee 1ebf 675e 253e 7bc0 673c 1ece 37bd
000003a0: 9f2f 00bf 9672 fe3e 9ec2 8abe dc38 e53d
000003b0: a6ea cc3e fe72 f0be 4c8e 9c3e d9dd 0a3f
000003c0: 2da0 493e 38ae 0b3f 50dd 78be c908 4d3e
000003d0: 7991 043f 1411 09be a31b 32bf 3a79 c93e
000003e0: 8442 efbe 561a ddbe d403 6f3b 5506 a4be
000003f0: 5529 343c cf6d 0dbf 6920 51be edbb cdbc

bias f4 [128]
-0.18161029 -0.6175376 0.26518568 -0.4939889 -0.24749073 0.87409216 0.7238427 -0.26520535
0.6335326 0.19091766 -0.7824184 -0.04321591 -0.8102209 0.53759253 -0.7307803 -1.4117378
0.12990248 -0.335305 0.059030518 0.89266723 0.07201065 -0.48428813 0.30343893 0.5152716
-0.17434669 -0.23777938 0.2563523 -0.5424204 0.63473797 -0.18630199 -1.564244 0.7058753
-0.13548985 0.41834936 1.267562 -0.23996611 0.039025534 -0.7042324 -0.2823727 -0.8009722
-0.9020979 -0.99804795 1.2720197 0.41066107 1.1912261 -0.21217732 -0.36908966 -0.105210096
0.54411966 -0.0028487162 -0.14861396 0.9445048 0.14226364 -0.8296637 0.57112646 -1.003457
0.5071418 1.2954143 -0.6782737 -0.68461514 0.31812507 0.5934419 -0.14084446 -0.23213162
0.8546873 0.7947768 -0.57049423 -0.04304636 -0.4821666 0.3856749 -0.11073345 -0.8222717
-1.0556152 0.7471762 0.09470137 -0.513364 -0.027853802 0.488476 0.025678584 -0.025108047
-0.5623581 0.30463666 0.9850315 -0.6230927 -0.5196477 -0.5327407 -0.32913363 -0.34212488
-1.0198847 -0.3016694 0.119752444 0.4543891 -0.6486751 0.6498637 -0.36511356 -0.31258
0.4635001 -0.3602548 -0.3156336 -0.73405904 0.262912 -0.6266091 -0.119106084 0.21753351
-1.047593 0.7478623 -0.019240543 -0.63715905 -0.7020069 -0.31838056 0.09243752 -0.31434703
0.7561122 -0.030356986 0.4462498 1.2237377 0.43924507 -0.46481812 0.42035368 -0.5781228
-0.45358315 -0.62755597 0.36305773 -0.37848082 -0.40313572 0.47491345 -0.37945178 -1.0923665
00000000: 0cf8 39be f216 1ebf 6bc6 873e 1dec fcbe
00000010: 366e 7dbe 81c4 5f3f c14d 393f ffc8 87be
00000020: 312f 223f eb7f 433e 924c 48bf 2b03 31bd
00000030: a36a 4fbf aa9f 093f 6b14 3bbf d3b3 b4bf
00000040: 2805 053e 19ad abbe fcc9 713d d785 643f
00000050: 527a 933d 9df4 f7be 595c 9b3e d7e8 033f
00000060: f087 32be 707c 73be 9c40 833e 10dc 0abf
00000070: 307e 223f f3c5 3ebe 2639 c8bf 3eb4 343f
00000080: dabd 0abe e331 d63e 793f a23f adb9 75be
00000090: 3dd9 1f3d 9348 34bf 2893 90be 840c 4dbf
000000a0: e3ef 66bf 1280 7fbf 8bd1 a23f 2b42 d23e
000000b0: 197a 983f 0345 59be 52f9 bcbe 6478 d7bd
000000c0: 6d4b 0b3f 87b1 3abb 422e 18be 11cb 713f
000000d0: 8fad 113e d764 54bf 5835 123f 4771 80bf
000000e0: 0cd4 013f 23d0 a53f 58a3 2dbf f042 2fbf
000000f0: 4ae1 a23e cfeb 173f 8839 10be e9b3 6dbe
00000100: c9cc 5a3f 7e76 4b3f e90b 12bf 6151 30bd
00000110: 8ade f6be 2e77 c53e 38c8 e2bd 6680 52bf
00000120: 661e 87bf f046 3f3f cbf2 c13d d36b 03bf
00000130: a82d e4bc 8719 fa3e e55b d23c 64af cdbc
00000140: b3f6 0fbf 56f9 9b3e 062b 7c3f 0183 1fbf
00000150: a207 05bf b261 08bf 3484 a8be fe2a afbe
00000160: 958b 82bf 6974 9abe c540 f53d b0a5 e83e
00000170: 920f 26bf 785d 263f 2af0 babe 7c0a a0be
00000180: e34f ed3e 5173 b8be ba9a a1be 4beb 3bbf
00000190: 679c 863e 7469 20bf e4ed f3bd 1bc1 5e3e
000001a0: 8717 86bf e773 3f3f 589e 9dbc db1c 23bf
000001b0: b9b6 33bf c702 a3be e24f bd3d 18f2 a0be
000001c0: 9290 413f 37af f8bc db7a e43e 70a3 9c3f
000001d0: bbe4 e03e a4fc edbe 9938 d73e dbff 13bf
000001e0: 0d3c e8be 82a7 20bf b4e2 b93e 3dc8 c1be
000001f0: ce67 cebe db27 f33e 8147 c2be aad2 8bbf

weight f4 [128, 128]
0.35855994 -0.023113756 0.0130366795 -0.19418404 0.13617364 0.12759231 -0.15193284 0.4932951
-0.26284117 0.53090954 -0.064364396 0.092724495 -0.14001651 -0.14134593 -0.042831168 0.009139946
0.4740164 0.0025140494 0.12513511 0.024612201 -0.18500496 -0.114369996 -0.22592105 -0.06498624
0.04247991 0.07327627 -0.25245196 0.012077358 0.04660801 -0.12695082 0.21851334 -0.007873127
-0.12123909 0.100604825 -0.34707686 0.44933712 0.14589031 0.44986737 -0.03341971 -0.020563599
0.11565885 -0.13114361 0.13597366 0.14767607 -0.18451516 0.013502952 0.051715884 0.0441632
0.06782481 0.11252009 0.0053460384 -0.055584725 -0.69662356 -0.011694723 -0.3104719 0.29443136
-0.019339582 0.106313236 0.20433319 -0.031388257 0.069922134 -0.030365981 0.021252733 0.10030399
-0.11009428 -0.12357755 0.5489307 -0.27670354 0.39078504 -0.22819969 -0.12893063 -0.31178743
0.14385132 -0.04828188 0.082415 0.088116914 -0.25925407 -0.2839835 0.41881442 -0.022508482
0.016674312 0.03967925 -0.2360214 0.24316336 0.16477887 -0.051387444 -0.04703344 0.004308789
-0.13971594 -0.17725575 0.14034034 -0.12830374 0.21219 0.09429239 -0.28478354 0.17289332
0.056019653 0.11759191 0.48451638 0.22994146 0.0666714 0.0634887 0.18594342 0.37884524
-0.14331754 0.029220967 -0.15687558 -0.16674386 0.07133111 -0.07277401 0.34880134 -0.08621609
0.2623305 0.095224276 -0.20581938 -0.17626435 0.07318196 0.11710157 -0.11124655 -0.12875454
0.4283639 -0.10509208 0.04875857 -0.010571704 0.15566856 -0.53581125 0.061500166 0.37456617
0.103158 0.09978177 -0.004525784 0.063367896 0.060024157 -0.1148032 -0.25732902 -0.3269316
-0.1461291 -0.16245751 0.060074016 -0.13425663 0.13157119 -0.19092192 0.15095982 0.13065337
-0.30650365 0.39889365 -0.24197897 -0.194036 0.051680297 -0.052175038 0.039927274 -0.040495835
-0.019136747 -0.20463468 0.0016632492 0.096231215 0.35358202 -0.07707076 0.19029592 0.03281947
-0.09256864 -0.121455215 -0.5887307 -0.2720438 -0.45418936 -0.14681637 -0.0913623 0.20820555
-0.14451322 0.058544483 -0.21726514 -0.12512995 -0.13090788 0.15077692 -0.020510433 -0.060407862
0.12313496 0.064873 0.17604254 -0.13304493 0.21915999 0.11037121 0.095985435 -0.006783046
-0.060803108 -0.21310523 0.17213944 0.5680879 0.28837925 0.35034168 0.21254697 -0.0046922644
-0.20030394 0.08629972 0.1436757 0.19313493 0.104035795 -0.13526627 0.2204953 0.2666081
-0.026232522 0.0121167945 0.09398007 0.16135569 0.080404066 -0.009480166 -0.28062138 -0.04195298
-0.3861548 0.015100171 -0.09027615 -0.04541573 0.15197353 0.078212954 -0.17554969 -0.38112456
0.1439956 0.24389955 -0.026360026 -0.15165427 -0.3439938 0.16451438 0.27981472 0.0945528
-0.13129003 0.027049504 0.0013556181 0.024176128 -0.31943402 -0.06163231 0.13015452 -0.12906678
0.2722459 -0.06334772 -0.42714745 0.34162325 0.18364352 0.1403107 -0.2713851 0.00077070587
-0.16276348 -0.25099972 0.11789619 -0.002566935 0.13408016 0.16038418 0.12908177 -0.16048725
0.2205062 0.036970392 0.086411834 0.055109195 0.1841988 0.19561578 -0.027384916 0.295779
00000000: 2b95 b73e 0f59 bdbc cc97 553c 2ed8 46be
00000010: 1a71 0b3e 8fa7 023e 4894 1bbe 2d91 fc3e
00000020: 1e93 86be b0e9 073f 7bd1 83bd 57e6 bd3d
00000030: 7d60 0fbe fdbc 10be bc6f 2fbd b6bf 153c
00000040: 47b2 f23e c0c2 243b 6b23 003e 879f c93c
00000050: f171 3dbe d13a eabd d957 67be 8117 85bd
00000060: 6aff 2d3d de11 963d 6241 81be 1ce0 453c
00000070: 0ae8 3e3d 65ff 01be f6c1 5f3e 4afe 00bc
00000080: 334c f8bd e709 ce3d 0fb4 b1be 840f e63e
00000090: 4564 153e 0455 e63e 1be3 08bd fe74 a8bc
000000a0: 8cde ec3d 834a 06be ae3c 0b3e 6538 173e
000000b0: 8bf1 3cbe 7c3b 5d3c 09d4 533d 79e4 343d
000000c0: bce7 8a3d ef70 e63d d22d af3b cfac 63bd
000000d0: ec55 32bf 399b 3fbc 2cf6 9ebe b5bf 963e
000000e0: 0b6e 9ebc c1ba d93d b83c 513e f990 00bd
000000f0: 5633 8f3d 14c2 f8bc 361a ae3c 2e6c cd3d
00000100: 1c79 e1bd 3a16 fdbd b986 0c3f 16ac 8dbe
00000110: fa14 c83e 2ead 69be 6406 04be 9aa2 9fbe
00000120: c34d 133e 38c3 45bd 32c9 a83d a476 b43d
00000130: f3bc 84be 4966 91be d86e d63e b563 b8bc
00000140: 9198 883c b686 223d 98af 71be d1ff 783e
00000150: cbbb 283e a47b 52bd 23a6 40bd be30 8d3b
00000160: b211 0fbe 8882 35be 61b5 0f3e 0e62 03be
00000170: 5648 593e 5e1c c13d 26cf 91be f20a 313e
00000180: dd74 653d 07d4 f03d 8812 f83e c675 6b3e
00000190: 048b 883d 5d06 823d f467 3e3e 01f8 c13e
000001a0: d5c1 12be cf60 ef3c fea3 20be e7be 2abe
000001b0: 0c16 923d 8a0a 95bd 1796 b23e 1092 b0bd
000001c0: 2f50 863e f204 c33d 51c2 52be a47e 34be
000001d0: 6ce0 953d f3d2 ef3d 3bd5 e3bd 3bd8 03be
000001e0: 8352 db3e 843a d7bd 11b7 473d f134 2dbc
000001f0: 9467 1f3e ed2a 09bf 99e7 7b3d 23c7 bf3e
00000200: 8044 d33d 625a cc3d 074d 94bb 07c7 813d
00000210: e4db 753d f11d ebbd a1c0 83be 9463 a7be
00000220: dea2 15be 435b 26be 2c10 763d 927a 09be
00000230: 99ba 063e 0981 43be 3695 1a3e ffc9 053e
00000240: 0cee 9cbe ca3b cc3e 56c9 77be 60b1 46be
00000250: b8ae 533d 7eb5 55bd c88a 233d f6de 25bd
00000260: abc4 9cbc c18b 51be 6201 da3a df14 c53d
00000270: b408 b53e 46d7 9dbd efdc 423e b56d 063d
00000280: a194 bdbd 83bd f8bd 0eb7 16bf 5349 8bbe
00000290: 828b e8be 0857 16be 281c bbbd d633 553e
000002a0: 46fb 13be 57cc 6f3d c17a 5ebe 1122 00be
000002b0: b70c 06be 4465 1a3e 7f05 a8bc 3c6e 77bd
000002c0: 2f2e fc3d 23dc 843d 7f44 343e ee3c 08be
000002d0: 7a6b 603e 4d0a e23d 0394 c43d 5044 debb
000002e0: ae0c 79bd 4238 5abe 5245 303e 356e 113f
000002f0: 72a6 933e fc5f b33e eaa5 593e 91c1 99bb
00000300: 7a1c 4dbe e8bd b03d b91f 133e 2ac5 453e
00000310: b810 d53d 3e83 0abe 85c9 613e db80 883e
00000320: 96e5 d6bc 8585 463c 9f78 c03d 6d3a 253e
00000330: e3aa a43d b352 1bbc 9bad 8fbe e3d6 2bbd
00000340: 15b6 c5be b566 773c b4e2 b8bd d805 3abd
00000350: f39e 1b3e 1d2e a03d 4cc3 33be c222 c3be
00000360: 9573 133e cec0 793e fbf0 d7bc 424b 1bbe
00000370: f51f b0be 7576 283e e043 8f3e e6a4 c13d
00000380: e570 06be ec96 dd3c ffae b13a 040d c63c
00000390: db8c a3be 2972 7cbd 3a47 053e 152a 04be
000003a0: d163 8b3e 73bc 81bd 12b3 dabe 3ee9 ae3e
000003b0: 0c0d 3c3e 9cad 0f3e fdf2 8abe 3209 4a3a
000003c0: 78ab 26be 0983 80be 8f73 f13d 063a 28bb
000003d0: 4f4c 093e c03b 243e 032e 043e c556 24be
000003e0: 61cc 613e 446e 173d b0f8 b03d 2eba 613d
000003f0: 9c9e 3c3e 814f 483e 5556 e0bc 5870 973e

bias f4 [128]
-0.081606664 0.17585132 -0.16941144 0.050959382 0.049964253 -0.16245505 0.1327495 -0.08734051
0.010693243 -0.09830076 0.10050644 -0.0004798259 0.17462602 0.22733656 0.116582036 -0.042615365
0.15309584 -0.24024782 -0.2665851 -0.18342568 0.13298637 -0.12273868 -0.06778219 0.1501585
0.0034949966 0.11954456 -0.30969608 0.05715427 -0.15978931 0.16472326 -0.063013926 -0.3427996
0.040646043 -0.07225495 0.15466177 0.3192671 0.17056529 -0.11158664 0.06372351 -0.06372162
0.05987932 0.10717581 -0.19796585 0.19549085 0.020177322 0.0918864 -0.03279539 0.18243216
0.034822036 0.06943515 0.086620234 0.11212331 0.064595416 0.14691193 -0.08822899 -0.12121811
0.2257863 0.4131319 -0.031078227 0.023003334 0.04087312 0.142702 -0.038455836 -0.0471511
0.004509951 -0.042437498 0.042015214 0.1975258 0.041938648 0.11430956 0.014406415 0.035736952
-0.1400427 -0.42741737 0.053165626 0.06312847 0.19063778 -0.01293324 -0.18940908 0.057631675
0.022798115 -0.116928756 -0.01581001 -0.025518693 0.15075463 0.06477492 -0.23486388 0.032055933
-0.21585196 -0.06808694 -0.049586367 -0.27719313 -0.014822849 0.057841353 -0.17784026 -0.14597051
0.28178814 0.14405727 -0.055058263 0.024038725 -0.20101812 -0.1452767 0.12886773 -0.2045767
0.089830264 -0.13429148 -0.008164745 0.013512257 0.027159898 0.016965697 -0.15850985 -0.12487488
0.22880143 -0.15753564 -0.111653335 -0.25105464 -0.027424797 0.07617015 0.25931352 0.044471897
-0.22039074 0.05569087 0.057796594 -0.20921236 0.0065264385 -0.038353182 0.2225048 0.02108708
00000000: 6521 a7bd 5e12 343e 317a 2dbe c9ba 503d
00000010: 51a7 4c3d 9e5a 26be 7cef 073e 95df b2bd
00000020: b632 2f3c e951 c9bd 52d6 cd3d 2491 fbb9
00000030: 2ad1 323e eaca 683e 90c2 ee3d 738d 2ebd
00000040: 28c5 1c3e 8603 76be d87d 88be f1d3 3bbe
00000050: 942d 083e 6b5e fbbd 64d1 8abd 26c3 193e
00000060: 500c 653b c7d3 f43d 7c90 9ebe 991a 6a3d
00000070: cf9f 23be 37ad 283e 720d 81bd 6e83 afbe
00000080: 777c 263d 67fa 93bd a85f 1e3e fa76 a33e
00000090: aba8 2e3e 8987 e4bd 7981 823d 7b80 82bd
000000a0: 0544 753d fe7e db3d 8fb7 4abe c12e 483e
000000b0: e94a a53c f02e bc3d 7554 06bd 7fcf 3a3e
000000c0: 8da1 0e3d 0434 8e3d f365 b13d e8a0 e53d
000000d0: 9a4a 843d 1570 163e 67b1 b4bd 3341 f8bd
000000e0: 8634 673e 0686 d33e c497 febc 7d71 bc3c
000000f0: 936a 273d 7920 123e de83 1dbd 8321 41bd
00000100: 36c8 933b f1d2 2dbd 2518 2c3d 3444 4a3e
00000110: dcc7 2b3d 211b ea3d e208 6c3c e960 123d
00000120: 5b67 0fbe 73d6 dabe 33c4 593d 8049 813d
00000130: 8d36 433e f1e5 53bc 74f4 41be 310f 6c3d
00000140: 1dc3 ba3c 5878 efbd fe83 81bc 940c d1bc
00000150: 6c5f 1a3e b7a8 843d 2880 70be 154d 033d
00000160: 4c08 5dbe 2a71 8bbd 131b 4bbd 42ec 8dbe
00000170: 89db 72bc 0eeb 6c3d c21b 36be 4b79 15be
00000180: 8946 903e c083 133e c684 61bd dcec c43c
00000190: b2d7 4dbe 6ac3 14be e7f5 033e 8e7c 51be
000001a0: eef8 b73d b583 09be 6cc5 05bc 8362 5d3c
000001b0: 6f7e de3c a5fb 8a3c 6850 22be 67be ffbd
000001c0: ec4a 6a3e 0651 21be 81aa e4bd 3c8a 80be
000001d0: f8a9 e0bc 18ff 9b3d bec4 843e 2a28 363d
000001e0: 1cae 61be 1c1c 643d 1fbc 6c3d c43b 56be
000001f0: bcdb d53b 3a18 1dbd 4cd8 633e d0be ac3c

weight f4 [64, 128]
-0.099092886 -0.018465448 0.25072944 -0.17559046 0.1078862 -0.2851006 -0.28941798 0.2922927
-0.3291995 0.289958 -0.041139685 0.42292973 0.045696516 0.5003438 0.06005022 -0.17353556
0.068073034 0.12339069 -0.21387371 -0.15175791 0.18226992 -0.17719491 0.2591598 -0.2548577
-0.12712793 0.06867547 -0.14894485 -0.08332544 -0.110720076 0.31477192 -0.2727506 -0.05318097
0.1957598 -0.03428568 0.115098864 -0.26705357 0.029202947 -0.20332971 0.06046501 0.02219901
-0.08175965 -0.009034648 0.35231337 0.28313327 -0.088334486 0.06711939 -0.19847314 -0.2244501
-0.2879753 0.059905063 -0.4221195 0.02580352 -0.1141711 0.13668677 -0.279412 -0.34425372
0.5102667 0.1732645 0.10267857 0.16447979 0.24209268 -0.669664 0.036749326 0.3327196
-0.037099175 0.5585516 -0.094726436 0.2867008 -0.1680566 0.01655338 0.11371629 0.03513148
0.17578688 -0.21282382 -0.09960652 -0.19518486 0.31101263 0.09340705 0.026674405 0.16171215
0.15648584 -0.08456481 -0.32024947 0.0571455 -0.095113985 -0.33769846 -0.06337101 0.06858456
0.1022339 0.14378725 -0.24169731 -0.20727791 0.18850915 0.038173687 -0.112908 -0.15355392
-0.15244816 0.5306976 -0.18997206 0.19129024 -0.1544977 0.17369138 0.086326785 -0.24656546
-0.17250477 0.019674998 -0.061952315 0.2781227 -0.075162955 -0.34256327 -0.08762644 0.11667929
0.20039137 -0.008750462 0.0856447 0.0064062616 -0.33045423 0.37886935 -0.086787395 -0.17131604
0.1919685 -0.07169991 0.27892765 -0.32055217 0.031431064 0.06462253 -0.04178015 -0.12480995
-0.32495633 0.24251707 -0.17601427 0.4659818 0.27945152 0.29812166 -0.3525256 -0.029003438
0.35975003 -0.18893857 -0.07562906 -0.29475707 0.26143008 -0.23773448 -0.057842728 -0.41027424
-0.059447303 -0.08767115 -0.02705291 -0.11458061 0.12056963 0.28413862 -0.05403257 -0.021235868
0.10088854 -0.38916153 0.0023890638 -0.30842486 0.18623692 0.27686474 -0.033027437 -0.14862101
0.33352342 0.096304126 -0.17274062 0.1527209 0.134193 -0.27687597 -0.13368827 0.18432245
-0.2945378 0.2655908 0.14752138 -0.16243799 0.15551984 0.4214482 0.01732701 -0.37880486
0.358768 -0.22573178 -0.26312563 -0.5632519 -0.013176782 -0.019698339 0.2589947 0.13330323
0.12783307 0.006210872 -0.39456046 -0.04415426 0.23702174 0.39493102 0.24478315 0.05727087
-0.036186673 -0.035841774 0.21825981 -0.41995707 0.25226527 -0.12025302 0.04739202 0.3131958
-0.11847779 -0.25049517 0.31420758 0.07081435 0.25678203 0.124939084 -0.06372723 -0.29546562
-0.41953614 -0.14457554 0.34393743 0.02253906 -0.117806144 -0.18682939 0.28062168 -0.04429667
0.19900548 0.00022021252 0.26963773 -0.17516358 -0.016834466 0.24674062 -0.30746055 0.21060857
-0.2501594 -0.052248906 0.4617499 -0.5312812 0.55566686 0.24568819 -0.18225108 -0.43466526
-0.07210402 -0.18769066 0.150039 -0.37911364 0.064000785 0.12346174 0.37885368 0.16509147
-0.36461052 -0.21245559 -0.15834007 0.325868 0.04598363 0.27202624 0.017003689 -0.021756612
-0.29632452 0.043036766 -0.1296856 0.04194924 0.42340818 0.037746787 -0.30912504 0.10298892
00000000: 36f1 cabd da44 97bc 9c5f 803e fccd 33be
00000010: 71f3 dc3d b5f8 91be 982e 94be 64a7 953e
00000020: d68c a8be 6075 943e 1682 28bd 3f8a d83e
00000030: 452c 3b3d 8816 003f 38f7 753d 4eb3 31be
00000040: e069 8b3d 42b4 fc3d b601 5bbe 6d66 1bbe
00000050: f7a4 3a3e 9572 35be 98b0 843e b57c 82be
00000060: d32d 02be baa5 8c3d 0085 18be 87a6 aabd
00000070: 35c1 e2bd c929 a13e f7a5 8bbe 4ad4 59bd
00000080: 4275 483e 246f 0cbd f4b8 eb3d 3fbb 88be
00000090: 053b ef3c aa35 50be 29aa 773d b3da b53c
000000a0: 9a71 a7bd 0f06 14bc 6b62 b43e d8f6 903e
000000b0: b6e8 b4bd e475 893d 8b3c 4bbe 3fd6 65be
000000c0: 8071 93be 035f 753d 0c20 d8be e761 d33c
000000d0: 8ad2 e9bd 9ef7 0b3e 170f 8fbe 0642 b0be
000000e0: d7a0 023f 406c 313e 2449 d23d 646d 283e
000000f0: 25e7 773e 1a6f 2bbf 7686 163d 395a aa3e
00000100: 4ef5 17bd 3dfd 0e3f efff c1bd 72ca 923e
00000110: 0817 2cbe f49a 873c 16e4 e83d 07e6 0f3d
00000120: 7a01 343e 7dee 59be 81fe cbbd 8ade 47be
00000130: 0c3d 9f3e 324c bf3d 4884 da3c df97 253e
00000140: d33d 203e 5130 adbd bdf7 a3be 6611 6a3d
00000150: 1fcb c2bd d0e6 acbe a9c8 81bd 1076 8c3d
00000160: 0260 d13d f73c 133e 807f 77be a940 54be
00000170: 8b08 413e 035c 1c3d 4f3c e7bd 3d3d 1dbe
00000180: 5f1b 1cbe ccdb 073f 0988 42be 97e1 433e
00000190: a534 1ebe 27dc 313e 19cc b03d a87b 7cbe
000001a0: 17a5 30be 762d a13c b6c1 7dbd 1966 8e3e
000001b0: 09ef 99bd 7464 afbe 7e75 b3bd 8df5 ee3d
000001c0: 6533 4d3e 195e 0fbc 7d66 af3d 9eeb d13b
000001d0: 4c31 a9be 2afb c13e 97bd b1bd 796d 2fbe
000001e0: 6493 443e 67d7 92bd 9bcf 8e3e 6a1f a4be
000001f0: dcbd 003d d158 843d aa21 2bbd 5c9c ffbd
00000200: ad60 a6be 6556 783e 163d 34be 2b95 ee3e
00000210: 4514 8f3e 67a3 983e 3c7e b4be 9e98 edbc
00000220: 2831 b83e 1d79 41be 69e3 9abd 66ea 96be
00000230: 2ada 853e ab70 73be 7fec 6cbd 770f d2be
00000240: 047f 73bd ef8c b3bd 109e ddbc 3da9 eabd
00000250: 36ed f63d 9e7a 913e 4251 5dbd d8f6 adbc
00000260: a79e ce3d 2e40 c7be d791 1c3b dde9 9dbe
00000270: e4b4 3e3e 37c1 8d3e c747 07bd 1b30 18be
00000280: 95c3 aa3e 193b c53d ebe2 30be de62 1c3e
00000290: e469 093e b0c2 8dbe 94e5 08be 06bf 3c3e
000002a0: a9cd 96be 84fb 873e d80f 173e 2556 26be
000002b0: 9840 1f3e 0fc8 d73e 60f1 8d3c b6f2 c1be
000002c0: 70b0 b73e 3b26 67be 67b8 86be 4731 10bf
000002d0: 6ee3 57bc 695e a1bc f49a 843e a480 083e
000002e0: ace6 023e 9284 cb3b d403 cabe 19db 34bd
000002f0: d4b5 723e 6634 ca3e 6fa8 7a3e dc94 6a3d
00000300: 7a38 14bd d3ce 12bd 807f 5f3e 9d04 d7be
00000310: ea28 813e 3747 f6bd 221e 423d 335b a03e
00000320: 7ca4 f2bd e740 80be d1df a03e 1d07 913d
00000330: ef78 833e 10e0 ff3d 6c83 82bd 4547 97be
00000340: 71cd d6be 9c0b 14be 9118 b03e d6a3 b83c
00000350: 5944 f1bd 3450 3fbe a5ad 8f3e 6d70 35bd
00000360: 18c8 4b3e d9e8 6639 f50d 8a3e 155e 33be
00000370: 6fe8 89bc 93a9 7c3e 786b 9dbe c6a9 573e
00000380: e514 80be f302 56bd 7c6a ec3e 0b02 08bf
00000390: 2f40 0e3f af95 7b3e 07a0 3abe 728c debe
000003a0: 46ab 93bd fb31 40be d3a3 193e 2f1b c2be
000003b0: d812 833d 82d9 fc3d 1cf9 c13e bd0d 293e
000003c0: 3bae babe f58d 59be e623 22be 2cd8 a63e
000003d0: 5559 3c3d 0647 8b3e 524b 8b3c ec3a b2bc
000003e0: d9b7 97be 5247 303d 4dcc 04be f7d2 2b3d
000003f0: f5c8 d83e 609c 1a3d a345 9ebe dbeb d23d

bias f4 [64]
0.112287655 0.092755586 -0.118209116 -0.054849006 -0.029162357 0.11797102 -0.096971974 -0.045312718
-0.11026523 0.007058419 0.027038602 0.08881241 0.12033108 -0.059181802 -0.14126074 0.23790094
-0.09350544 -0.050380252 0.34261099 0.17977047 -0.03322612 -0.07330877 -0.094033256 -0.118335016
-0.15230685 -0.14204586 -0.08515514 -0.020335976 0.29023665 -0.012380334 0.40331435 -0.18640572
0.22019538 -0.11788377 0.2736184 -0.02999758 -0.031703074 0.05600238 -0.18697894 0.061578095
0.1486354 0.12699638 0.2664865 -0.41359532 0.04663296 0.16080047 0.006661606 0.3579279
0.115005694 -0.22111218 -0.10017521 -0.14156578 -0.00408309 0.19845042 0.045186806 -0.15203445
0.24134472 0.1854973 0.034972973 0.14233452 -0.00911683 0.1955842 0.032629266 0.0029732918
00000000: 12f7 e53d a4f6 bd3d 9f17 f2bd 5aa9 60bd
00000010: e5e5 eebc ca9a f13d 3e99 c6bd d499 39bd
00000020: bdd2 e1bd 4f4a e73b 0f80 dd3c 48e3 b53d
00000030: 2470 f63d 9e68 72bd a8a6 10be 4e9c 733e
00000040: c87f bfbd 865b 4ebd b56a af3e c015 383e
00000050: 1d18 08bd e922 96bd 8294 c0bd a159 f2bd
00000060: 54f6 1bbe 7874 11be d165 aebd a297 a6bc
00000070: e699 943e e2d6 4abc 387f ce3e 24e1 3ebe
00000080: e67a 613e 0c6d f1bd b617 8c3e 7cbd f5bc
00000090: 15db 01bd c062 653d 6877 3fbe 5039 7c3d
000000a0: e133 183e 570b 023e eb70 883e c4c2 d3be
000000b0: 3402 3f3d e1a8 243e 9a49 da3b 5342 b73e
000000c0: 1b88 eb3d 3b6b 62be a928 cdbd 9ff6 10be
000000d0: 71cb 85bb 9636 4b3e cd15 393d ebae 1bbe
000000e0: 1223 773e 01f3 3d3e d23f 0f3d 24c0 113e
000000f0: c25e 15bc 3947 483e 44a6 053d 8fdb 423b

weight f4 [6, 64]
-0.11258617 -0.59729147 -0.16360886 -0.78278804 -0.32307637 0.21484122 0.5197788 0.35983306
-0.34970158 -0.1471606 0.2022548 -0.3662397 0.5549969 0.47267783 0.24797516 0.6618095
-0.027013028 0.92918265 0.392963 0.9391372 -0.93547195 -0.08343112 -0.48010817 -0.60138744
0.6407517 -0.6515345 -0.13759214 0.3386603 0.032882314 0.45948777 0.14932032 -0.59416413
-0.12749629 -0.5341756 -0.13476981 0.057061132 -0.042566665 -0.4522131 -0.49277765 0.8183323
-0.11117756 -0.053747345 -0.1702207 -0.024602722 0.2511814 -0.15298837 -0.5492874 0.598373
-0.449356 -0.62562436 -0.079706244 0.18193087 -0.59294474 -0.056905042 -0.31482425 -0.2850871
-0.19402635 0.12327092 0.00056321814 -0.09791327 0.596776 -0.34573594 0.1373903 -0.1409946
0.28439468 0.69518316 -0.36431623 0.6646024 0.3754512 0.3741259 -0.62218046 -0.6419887
-0.18678105 0.03901469 0.4344227 -0.23989196 0.2624853 -0.44175726 -0.34335172 0.20369747
-0.44467172 0.5043635 0.053596828 0.03147733 0.32915947 -0.17036772 0.11725638 0.17637473
-0.48221618 0.22080784 -0.47851482 0.47193408 0.4001316 -0.35965684 0.20701817 0.5575916
0.5991672 0.6352731 0.4929828 -0.4789858 0.459511 -0.1143415 -0.13855329 -0.06086484
0.20218396 -0.02245076 0.85646015 -0.37049934 -0.18521988 0.07228112 0.11861709 0.39188343
-0.04099357 0.259284 0.40877575 -0.5176632 -0.09095809 0.18972597 0.23708162 -0.18765205
0.18495274 0.5350398 -0.4502084 0.49394616 -0.45014852 0.64983416 0.46680155 -0.55551875
-0.3536414 0.22071588 0.7112879 -0.10906692 0.8407814 0.27111375 0.29489806 0.09682007
0.83055454 -0.7450832 -0.4803869 0.90153724 -0.026791923 0.42679417 0.2594893 -0.52266276
0.55336213 -1.0291711 -0.07784096 -1.3283398 0.07443068 1.0970231 0.42385343 0.24272017
0.2151632 0.81909204 0.8714139 -1.2914948 0.33806637 0.3046515 -0.2553164 -0.11992275
-0.7368583 -0.52110916 -0.27651146 0.4492747 -0.62172115 -0.21267067 -0.7129681 -0.037082583
0.55985856 0.47841465 -0.0655276 0.4269364 0.38412157 0.30613372 -0.116925664 -1.4723576
0.47932553 0.8199747 -0.13818225 -0.174896 0.36649892 -0.6585825 0.4573119 0.8206535
0.7199617 -0.83911735 0.43087187 0.207515 -0.07035911 -0.64901567 -1.1068268 0.17581803
-0.12274184 0.0934129 0.52150935 0.5276183 -0.60258293 -1.2107433 0.5332301 0.8241857
-0.008666278 0.6311937 -0.75163066 -0.14274451 0.15465677 -0.20958422 -0.056182176 -0.13930514
-0.06885223 -0.9316351 0.22034466 0.0649325 0.073692665 -0.7947017 0.35425746 0.3349938
0.081378594 -0.12726179 0.3564123 -0.2652537 -0.858201 -0.08083364 0.02253296 0.19349205
0.22865249 0.21771723 0.0019975856 0.058289405 -0.11763956 0.79697984 0.39096344 -0.32003945
-0.6518594 -0.16715781 -0.12028161 0.049969792 -0.69671047 0.17245747 -0.16788526 -0.0053959936
0.40924466 -0.22857817 -0.53083456 0.09659184 0.1703282 -0.085874446 -0.16501004 -0.6720274
0.15749009 -0.11539728 0.45916542 0.04735646 -0.08267719 0.7330509 0.038321216 0.4165941
00000000: 9493 e6bd 18e8 18bf 1589 27be cc64 48bf
00000010: 446a a5be 56ff 5b3e 3910 053f 0a3c b83e
00000020: 160c b3be 45b1 16be e21b 4f3e c583 bbbe
00000030: 4714 0e3f d402 f23e 33ed 7d3e 596c 293f
00000040: 6d4a ddbc eade 6d3f 7232 c93e 4c6b 703f
00000050: 177b 6fbf efdd aabd bdd0 f5be 87f4 19bf
00000060: 4e08 243f f7ca 26bf f4e4 0cbe e264 ad3e
00000070: 9baf 063d fb41 eb3e 6de7 183e 241b 18bf
00000080: 638e 02be bbbf 08bf 1901 0abe efb8 693d
00000090: 625a 2ebd 7a88 e7be 5a4d fcbe 3a7e 513f
000000a0: 10b1 e3bd 2d26 5cbd 564e 2ebe a68b c9bc
000000b0: d99a 803e fca8 1cbe 199e 0cbf f92e 193f
000000c0: fd11 e6be eb28 20bf 073d a3bd 164c 3a3e
000000d0: 3acb 17bf 4315 69bd a530 a1be f0f6 91be
000000e0: d8ae 46be 7775 fc3d eea4 133a c186 c8bd
000000f0: 50c6 183f 4d04 b1be 0bb0 0c3e e360 10be
00000100: 2e9c 913e 86f7 313f a887 babe 6223 2a3f
00000110: 243b c03e 6e8d bf3e 3847 1fbf 5f59 24bf
00000120: 8843 3fbe decd 1f3d a76c de3e 3da6 75be
00000130: 7964 863e 022e e2be cccb afbe 1296 503e
00000140: 03ac e3be f71d 013f 5988 5b3d 5fee 003d
00000150: 9787 a83e e074 2ebe 1d24 f03d 949b 343e
00000160: 0ae5 f6be 731b 623e e5ff f4be 58a1 f13e
00000170: 0dde cc3e f124 b8be 92fc 533e 53be 0e3f
00000180: 0663 193f 42a1 223f 3e68 fc3e a03d f5be
00000190: 0745 eb3e e02b eabd eae0 0dbe 694d 79bd
000001a0: 5009 4f3e a8ea b7bc f940 5b3f 17b2 bdbe
000001b0: 48aa 3dbe 2008 943d 84ed f23d f2a4 c83e
000001c0: e0e8 27bd dfc0 843e 0e4b d13e 9385 04bf
000001d0: 3c48 babd 8647 423e 86c5 723e dc27 40be
000001e0: 4064 3d3e 5ef8 083f b781 e6be 83e6 fc3e
000001f0: de79 e6be 885b 263f 9d00 ef3e 7a36 0ebf
00000200: 7c10 b5be 5803 623e f716 363f 7a5e dfbd
00000210: 733d 573f 6ccf 8a3e e1fc 963e 9a49 c63d
00000220: 399f 543f c6bd 3ebf 46f5 f5be 25cb 663f
00000230: bc7a dbbc c484 da3e c8db 843e 3acd 05bf
00000240: 24a9 0d3f e1bb 83bf 156b 9fbd 0a07 aabf
00000250: 1d6f 983d 416b 8c3f 5103 d93e a38b 783e
00000260: be53 5c3e 04b0 513f fb14 5f3f b44f a5bf
00000270: 0917 ad3e 48fb 9b3e d5b8 82be 0f9a f5bd
00000280: bfa2 3cbf 6967 05bf e992 8dbe 5507 e63e
00000290: 1e29 1fbf 57c6 59be 1485 36bf e8e3 17bd
000002a0: e452 0f3f c4f2 f43e 5633 86bd 6897 da3e
000002b0: 95ab c43e 8fbd 9c3e b976 efbd 3776 bcbf
000002c0: 286a f53e dde9 513f a67f 0dbe f017 33be
000002d0: bfa5 bb3e dd98 28bf c924 ea3e 5916 523f
000002e0: 694f 383f 65d0 56bf 3d9b dc3e d07e 543e
000002f0: 7018 90bd e425 26bf 80ac 8dbf a409 343e
00000300: 1360 fbbd 434f bf3d a381 053f fe11 073f
00000310: e042 1abf a3f9 9abf c581 083f d6fd 523f
00000320: 01fd 0dbc e995 213f de6a 40bf 9e2b 12be
00000330: 585e 1e3e 3f9d 56be 481f 66bd 02a6 0ebe
00000340: 6602 8dbd a37f 6ebf 08a2 613e 55fb 843d
00000350: 2eec 963d 9271 4bbf 3c61 b53e 4f84 ab3e
00000360: d2a9 a63d ea50 02be ac7b b63e 55cf 87be
00000370: 10b3 5bbf 1c8c a5bd 0b97 b83c c822 463e
00000380: e123 6a3e 44f1 5e3e ede9 023b dfc0 6e3d
00000390: 02ed f0bd df06 4c3f 5c2c c83e 36dc a3be
000003a0: 42e0 26bf 6b2b 2bbe 3456 f6bd 20ad 4c3d
000003b0: 9e5b 32bf b198 303e 1dea 2bbe e0d0 b0bb
000003c0: 8488 d13e 6510 6abe c6e4 07bf f1d1 c53d
000003d0: 846a 2e3e f1de afbd 64f8 28be fd09 2cbf
000003e0: 1545 213e 6955 ecbd bb17 eb3e d9f8 413d
000003f0: a952 a9bd 39a9 3b3f b5f6 1c3d d24b d53e

bias f4 [6]
0.09474383 0.08369721 0.06525637 0.19629051 -0.5327668 -0.27973497
00000000: 0e09 c23d 7169 ab3d 22a5 853d 6100 493e
00000010: 6863 08bf 6c39 8fbe
