src/learning/models/128_128_64_notouch_400ep_8818.pt (torch, 107087 bytes, 8 tensors)

weight f4 [128, 5]
0	0x3ea44dd5	0.3209063
1	0x3e1f3f1a	0.15551415
2	0x3deb4216	0.11487214
3	0xbea4a70f	-0.32158706
4	0xbf112f76	-0.56713045
5	0x3f0d3efd	0.5517424
6	0xbe579fc4	-0.2105704
7	0xbec63a3c	-0.38716304
8	0x3cef1995	0.029187003
9	0xbe3d289c	-0.18472522
10	0xbf1bf4da	-0.6092049
11	0x3db82efb	0.08993336
12	0x3e044100	0.1291542
13	0x3e29a2e4	0.16566044
14	0xbf0c798f	-0.54872984
15	0xbd8ae170	-0.0678128
16	0x3e1cde66	0.15319213
17	0xbdd7632e	-0.10516964
18	0x3e0806ea	0.13283888
19	0x3f1389bb	0.57632035
20	0xbbdf1b2e	-0.00680866
21	0xbe0fee98	-0.1405586
22	0x3cae6537	0.021288497
23	0xbe13e531	-0.14442898
24	0x3f176907	0.59144634
25	0xbe4af4f8	-0.1982001
26	0xbdbf8ed1	-0.09353412
27	0x3d8750e3	0.06607225
28	0xbf0d3fa1	-0.55175215
29	0x3de53e7a	0.11193557
30	0x3dcefa6b	0.10106357
31	0xbd99f0d8	-0.075166404
32	0xbe25d917	-0.16196094
33	0x3eb82089	0.35962322
34	0xbe91d49f	-0.2848253
35	0x3da018de	0.07817243
36	0xbd1a3e57	-0.03765711
37	0x3df779bb	0.12083765
38	0x3e8ddc5b	0.2770718
39	0xbf0ce67b	-0.55039185
40	0x3e527153	0.20551042
41	0x3ed7ff48	0.42186952
42	0x3d48adee	0.048993997
43	0x3e0dc1f1	0.13843514
44	0x3e8194e1	0.25308898
45	0x3ea9f9f7	0.3319852
46	0x3e87383f	0.264101
47	0x3e2cec0a	0.16886917
48	0x3e4016ed	0.18758745
49	0x3d39693b	0.04526637
50	0x3e6c9231	0.23102643
51	0x3eb98216	0.3623206
52	0x3e13bba8	0.14427054
53	0x3e8e6d9e	0.27818006
54	0x3d9d8826	0.07691984
55	0x3f40ee70	0.75363827
56	0x3da18bec	0.07888016
57	0xbe68aa1e	-0.22721145
58	0x3e8f595c	0.27997863
59	0xbdd4f6c2	-0.10398628
60	0x3d466854	0.04843934
61	0xbd894061	-0.067017324
62	0xbd372ded	-0.044721533
63	0x3ce84142	0.02835143
64	0x3ebace07	0.3648531
65	0xbeea2247	-0.45729277
66	0x3d41dda6	0.04733052
67	0x3d94e446	0.07270102
68	0xbe1396c5	-0.14412983
69	0x3ec45e20	0.38353062
70	0xbd9245b2	-0.071421996
71	0x3ede4a86	0.43416232
72	0x3d189318	0.037249655
73	0xbd437ec2	-0.047728308
74	0xbf0f1316	-0.558885
75	0x3d098237	0.03357145
76	0xbe8fd451	-0.28091672
77	0xbc8d9935	-0.017284969
78	0xbe2c2fca	-0.16815105
79	0xbf168067	-0.58789676
80	0x3bb2d3a0	0.0054573566
81	0x3eaa1872	0.33221775
82	0x3aaa7961	0.0013006144
83	0x3ea01cc3	0.31271943
84	0xbd875079	-0.06607146
85	0x3f770b47	0.9650158
86	0x3e165007	0.14678966
87	0x3cc14465	0.023592183
88	0x3debfba2	0.115226045
89	0xbe68c87a	-0.22732726
90	0x3c228b9f	0.009920984
91	0xbebc02ad	-0.3672079
92	0xbce2fb51	-0.027707728
93	0xbeeb031b	-0.45900807
94	0xbe1ef1fe	-0.15522
95	0xbe046e31	-0.1293266
96	0x3f0c1e8b	0.54734105
97	0xbd38efe3	-0.04515065
98	0xbdc06226	-0.0939372
99	0x3eb1b117	0.3470542
100	0xbcbcb944	-0.02303756
101	0x3eadd7da	0.33953744
102	0xbc90d7c3	-0.017681008
103	0x3ea018e7	0.31269
104	0xbdb92089	-0.09039409
105	0xbe224e64	-0.15850216
106	0xbc5f4173	-0.013626444
107	0x3f3be3db	0.73394555
108	0xbe914e51	-0.28380063
109	0xbec79a11	-0.3898473
110	0xbebd6320	-0.3698969
111	0xb9d5d4ee	-0.0004078517
112	0x3e4eac5a	0.20182934
113	0xbe3d4fa0	-0.18487406
114	0x3db34706	0.08753781
115	0x3c56a940	0.013101876
116	0x3e02288b	0.12710778
117	0x3c24c092	0.010055678
118	0xbd46b086	-0.04850819
119	0x3f6e0d04	0.9298861
120	0xbe8e9898	-0.27850795
121	0xbd318904	-0.04334356
122	0x3d9e35b6	0.07725088
123	0x3e6600de	0.22461268
124	0x3de7c61b	0.113170825
125	0x3de14b58	0.11000699
126	0xbec18a6b	-0.37800917
127	0xbe3e78f8	-0.18600833
128	0xbe9b62c6	-0.30348796
129	0x3d0348b7	0.03205177
130	0xbdc81cfe	-0.09771155
131	0x3e946bca	0.28988487
132	0xbe4fc16c	-0.20288628
133	0x3cf93b39	0.030423747
134	0xbe3cd2ae	-0.18439743
135	0x3e5187ec	0.20462006
136	0x3e388a65	0.18021543
137	0x3e166948	0.14688599
138	0x3e9ec823	0.31012067
139	0xbede78b5	-0.43451467
140	0xbdec620c	-0.115421385
141	0x3cb0a831	0.021564575
142	0x3e549df7	0.20763384
143	0x3eebcf8c	0.46056783
144	0x3d948eb3	0.0725378
145	0xbebec9a3	-0.37263212
146	0x3e346872	0.17617968
147	0xbe65e894	-0.22452003
148	0x3e4c5594	0.1995452
149	0x3eba9b18	0.36446452
150	0x3e7f3f66	0.24926528
151	0x3e467543	0.1938067
152	0x3c21ee5f	0.009883492
153	0xbf1515db	-0.58236474
154	0xbe061e96	-0.13097605
155	0xbe1c8201	-0.15283968
156	0x3c92c484	0.017915972
157	0xbdd5c92e	-0.104387626
158	0xbf0126a6	-0.504496
159	0x3e08d1b4	0.13361245
160	0xbdf0f8f5	-0.11766235
161	0x3d81393c	0.06309745
162	0xbeb9fc3b	-0.3632525
163	0x3cb906a9	0.022586184
164	0xbdbe932c	-0.093054146
165	0xbde6c911	-0.11268819
166	0xbcbc9ef3	-0.023025012
167	0xbf0b5def	-0.54440206
168	0xbe44fb33	-0.1923645
169	0xbd3d135a	-0.046161033
170	0xbd364d9a	-0.0445076
171	0xbda02e8b	-0.07821377
172	0xbd944636	-0.07239954
173	0xbe51798a	-0.2045652
174	0xbf3c32fb	-0.7351529
175	0xbcdf9a72	-0.027295325
176	0xbed7c4c5	-0.4214231
177	0xbccead08	-0.025228992
178	0xbf0337ba	-0.51256907
179	0x3f0818a2	0.53162587
180	0x3d2d51be	0.042314284
181	0x3baeb0a4	0.005331116
182	0x3f8593ff	1.043579
183	0xbecb9a06	-0.39765948
184	0x3e93385a	0.2875393
185	0xbd99b013	-0.075042866
186	0x3e1f2d3f	0.15544604
187	0xbd711375	-0.058856446
188	0xbd5d9442	-0.054096468
189	0x3f2bb642	0.6707498
190	0x3f3dcef9	0.7414394
191	0x3ed614dc	0.4181279
192	0xbe4e020f	-0.20117973
193	0xbe81ca03	-0.25349435
194	0x3e3232a0	0.17402124
195	0xbdb10dc5	-0.086452045
196	0x3eb54854	0.35406744
197	0x3ddefdae	0.10888229
198	0x3ea0c21d	0.31398097
199	0x3eb1cb2c	0.3472532
200	0x3d4ca9b0	0.049966514
201	0x3dded468	0.10880357
202	0x3f46fbaa	0.7772776
203	0x3ecba273	0.39772376
204	0x3c39aee6	0.011333203
205	0x3d12461a	0.035711385
206	0xbe2397ff	-0.1597595
207	0x3e65a62f	0.22426675
208	0x3e4fce35	0.20293505
209	0xbf1f32fb	-0.62187165
210	0x3eebce01	0.46055606
211	0xbd60d637	-0.05489179
212	0x3e0e2f7a	0.13885298
213	0x3eb4b7ef	0.3529658
214	0x3ed80950	0.42194605
215	0x3e93956e	0.28824943
216	0x3f0a78bb	0.5409047
217	0x3e923316	0.285546
218	0x3e9f118f	0.31068084
219	0xbe31b990	-0.17355943
220	0xbe45a96c	-0.1930291
221	0x3ed79c3d	0.42111388
222	0x3d98f819	0.07469196
223	0x3df217f8	0.11820978
224	0xbe5ee7b3	-0.21768074
225	0x3d140898	0.03614101
226	0xbcd9f60d	-0.026606584
227	0xbd546c55	-0.051861126
228	0x3e912eca	0.2835601
229	0xbf1873d9	-0.5955177
230	0xbc58a5d9	-0.013223135
231	0x3ef205a3	0.47269925
232	0xbece5e04	-0.40306103
233	0xbe3209c2	-0.17386535
234	0xbef9556d	-0.48697987
235	0x3ea0886e	0.31354088
236	0x3ed2c218	0.41163707
237	0xbd2d9e9b	-0.042387586
238	0x3eab87c8	0.3350203
239	0x3ec5fdfd	0.3867034
240	0xbe589e91	-0.21154238
241	0x3ee681dd	0.45020953
242	0x3e013bbc	0.12620443
243	0x3d634e93	0.055494856
244	0xbdefd97d	-0.117114045
245	0x3d43d611	0.04781157
246	0xbeaaa70e	-0.33330578
247	0x3f16ef1d	0.5895861
248	0xbd6c1dfa	-0.057645775
249	0xbf022358	-0.5083518
250	0xbda86150	-0.08221686
251	0xbddce84d	-0.10786495
252	0x3e36b92b	0.17844073
253	0xbf13f805	-0.5780032
254	0x3ea05d41	0.31321147
255	0x3dad368a	0.08457668

bias f4 [128]
0	0x3e7b6c66	0.2455307
1	0xbcbc01c3	-0.022950059
2	0x3f4c782a	0.79870856
3	0xbf10bea0	-0.5654087
4	0x3ed8f038	0.42370772
5	0xbf272626	-0.65292585
6	0x3f3cf36f	0.7380895
7	0x3e3e2aa2	0.1857095
8	0xbec39856	-0.3820216
9	0x3e5d48a2	0.21609738
10	0x3ef4c537	0.47806713
11	0x3f2cdce4	0.6752455
12	0xbf01cf17	-0.5070662
13	0xbf4e8f77	-0.8068766
14	0xbcc60dfb	-0.024176588
15	0x3e51251f	0.20424317
16	0x3f2db5bb	0.67855424
17	0xbe5d431e	-0.21607634
18	0x3f02391f	0.5086841
19	0xbee595e6	-0.44840926
20	0x3e87c812	0.2651983
21	0x3f0d6bb2	0.55242455
22	0xbf1f8572	-0.62312996
23	0xbe25d637	-0.16194998
24	0x3e609c54	0.21934634
25	0xbe872581	-0.263958
26	0x3f24aa44	0.64322305
27	0x3ec1aec5	0.3782865
28	0x3f5c88bc	0.8614614
29	0xbee40871	-0.4453769
30	0xbe7e062c	-0.24807042
31	0xbe785728	-0.24251997
32	0x3d58c916	0.052926145
33	0xbf36af4b	-0.71361226
34	0x3ecc9b70	0.3996234
35	0xbee71840	-0.4513569
36	0xbf02213a	-0.5083195
37	0xbeecb7f7	-0.46234104
38	0xbc45d9ee	-0.012075884
39	0xbe0c2f66	-0.13689956
40	0xbf273e9c	-0.6532991
41	0x3f4d3c3d	0.8017004
42	0x3e8c9e0c	0.2746433
43	0xbda5b063	-0.08090284
44	0x3ec6fea6	0.38866156
45	0x3f233f4c	0.6376846
46	0xbee3fe45	-0.4452993
47	0xbda73a91	-0.081654675
48	0xbdb4a556	-0.08820598
49	0x3f39614b	0.7241408
50	0xbf3c2b86	-0.7350391
51	0xbe83a228	-0.25709653
52	0x3e0c69a5	0.13712175
53	0xbbe8e10a	-0.007106905
54	0x3dd46e16	0.1037256
55	0xbf2708b0	-0.6524763
56	0x3ef8e585	0.4861261
57	0x3e8cfdb5	0.27537313
58	0xbdb49901	-0.08818246
59	0xbf1ec6ef	-0.620223
60	0xbe88b2cb	-0.26698908
61	0x3ecf292c	0.404611
62	0x3f593961	0.8485318
63	0xbf0c0078	-0.54688215
64	0xbe2e37e9	-0.17013516
65	0xbec1362f	-0.3773665
66	0x3f42a23d	0.76028806
67	0xbc9bcc7e	-0.019018408
68	0xbe868bc5	-0.2627851
69	0x3ddda288	0.10822016
70	0xbe7b1437	-0.2451943
71	0xbf27ae3d	-0.6550024
72	0x3f012f36	0.50462663
73	0xbe845c48	-0.25851655
74	0xbeca9459	-0.39566305
75	0x3e975aba	0.29561406
76	0xbe722213	-0.23645811
77	0xbd718704	-0.05896665
78	0xbec688c3	-0.38776216
79	0x3e98b734	0.29827273
80	0x3f6983e8	0.912169
81	0xbe7a2d4c	-0.24431342
82	0x3cc6eb49	0.024282115
83	0xbe8745cb	-0.26420435
84	0xbea28d8c	-0.31748617
85	0xbed2af92	-0.41149575
86	0xbe6105c3	-0.21974854
87	0xbf213647	-0.62973446
88	0x3e696505	0.22792442
89	0x3e9e47ba	0.30914098
90	0x3ed1aac2	0.4095059
91	0x3ef3eee7	0.47643206
92	0xbefb85d3	-0.49125537
93	0xbe1b8431	-0.15187146
94	0x3ebf05c7	0.37309095
95	0x3e274f2f	0.163388
96	0x3ea7d2d0	0.32778025
97	0x3cfe056a	0.031008441
98	0x3f176288	0.5913472
99	0xbf22cfa5	-0.6359809
100	0xbed84aae	-0.42244476
101	0xbe3e791b	-0.18600886
102	0x3d57bd65	0.052670855
103	0xbe6067ce	-0.21914598
104	0xbe6a1a57	-0.2286161
105	0xbde463d3	-0.111518525
106	0x3f822c2e	1.0169733
107	0xbe8460da	-0.25855142
108	0xbf292de2	-0.66085637
109	0x3ea9e95a	0.33185846
110	0xbf0548a9	-0.52063996
111	0xbde08339	-0.10962529
112	0x3e82834c	0.25490797
113	0x3ebe2b1e	0.3714227
114	0xbe61197a	-0.21982375
115	0xbde35e35	-0.11101953
116	0xbf1302f7	-0.574264
117	0xbf83895d	-1.0276295
118	0x3f201c0b	0.6254279
119	0xbf755fc2	-0.9584924
120	0x3f86accc	1.0521483
121	0x3e822b3f	0.2542362
122	0x3e5eb94e	0.21750376
123	0xbeda3176	-0.4261586
124	0x3ee201eb	0.44142088
125	0xbe8ea28b	-0.27858385
126	0x3d66afd1	0.056320015
127	0xbf2c9842	-0.67419827

weight f4 [128, 128]
0	0xbdc57bd0	-0.09642756
1	0x3e2972e2	0.1654773
2	0xbe954f63	-0.2916213
3	0x3e5dad3a	0.21648112
4	0x3dbf816d	0.09350858
5	0xbe1f73fc	-0.15571588
6	0xbdceaf0a	-0.1009198
7	0x3d3b5de7	0.04574385
8	0x3dfab728	0.122419655
9	0xbe898f94	-0.26867354
10	0xbdcf4ce4	-0.101220876
11	0xbe55113a	-0.20807353
12	0x3db4fbf0	0.08837116
13	0xbe87ba69	-0.26509407
14	0xbe67aea7	-0.22625218
15	0xbe1a80e6	-0.15088233
16	0xbe676171	-0.22595765
17	0xbd3459d6	-0.044030987
18	0x3c9c4474	0.01907561
19	0xbde19e8d	-0.11016569
20	0xbe160c9e	-0.1465325
21	0xbeddd141	-0.4332371
22	0xbe752079	-0.23938169
23	0x3e942397	0.28933403
24	0xbe10d328	-0.1414305
25	0x3e17b5e8	0.14815485
26	0x3d0dcb48	0.034617692
27	0x3e41354b	0.18867986
28	0xbe8bc72b	-0.2730039
29	0xbe04ed85	-0.12981232
30	0xbc692d1e	-0.014231948
31	0xbe79d078	-0.24395931
32	0xbe59ac88	-0.21257222
33	0x3d50f676	0.051016293
34	0xbcf93fca	-0.030425925
35	0x3e378280	0.17920876
36	0x3cc38bc1	0.02387035
37	0x3e3620b1	0.17785908
38	0xbe58490c	-0.21121615
39	0xbe207488	-0.15669453
40	0x3e33c201	0.17554475
41	0xbe04bfc4	-0.12963778
42	0x3d38b86c	0.045097753
43	0xbe46b9e7	-0.19406854
44	0xbe89eb86	-0.26937503
45	0xbd363c0b	-0.044490855
46	0x3e420fb3	0.18951301
47	0xbc391167	-0.011295653
48	0xbe16b87d	-0.14718814
49	0xbe7fa770	-0.24966216
50	0x3d66f6cd	0.05638771
51	0x3d7c2450	0.061558068
52	0xbda0d821	-0.07853723
53	0x3e0d0bb3	0.13773994
54	0xbe3dd783	-0.18539242
55	0x3d55f4b5	0.052235324
56	0xbe190983	-0.14945035
57	0x3d8dff42	0.06933452
58	0xbdc35245	-0.09537176
59	0x3cf36c26	0.029714655
60	0x3e4861d0	0.19568563
61	0xbed42b94	-0.41439497
62	0xbe00bf61	-0.12573005
63	0xbe4fa5d6	-0.20278105
64	0x3e339432	0.17537001
65	0xbd8588a5	-0.065202035
66	0x3cc4aa44	0.02400697
67	0x3e9475d5	0.2899615
68	0x3e366680	0.17812538
69	0x3e3f9efe	0.18712994
70	0xbd274f7d	-0.04084729
71	0x3c333d8b	0.010939966
72	0xbe9dc390	-0.30813265
73	0x3d823f9d	0.063597895
74	0xbc5fdfd0	-0.013664201
75	0x3e8c0193	0.2734495
76	0x3d9302db	0.07178279
77	0xbd328355	-0.04358228
78	0xbe940a55	-0.28914133
79	0xbeb26163	-0.34839925
80	0xbe8c2209	-0.27369717
81	0xbe89a66e	-0.26884788
82	0x3e2df910	0.16989541
83	0xbddc93fa	-0.10770412
84	0x3da045bb	0.078258
85	0x3e97490e	0.29547924
86	0x3e8e6da8	0.27818036
87	0x3ec57b02	0.3857041
88	0xbe910f44	-0.2833196
89	0xbd4ba94d	-0.049722005
90	0x3e1f1038	0.1553353
91	0x3d8bccf0	0.06826198
92	0xbd0b20c6	-0.033966802
93	0xbe49f6d5	-0.19723065
94	0xbe150902	-0.14554217
95	0x3e7bf860	0.24606466
96	0x3d6c4750	0.057685196
97	0x3e011a9b	0.12607805
98	0x3e034ad2	0.1282151
99	0xbda91e8f	-0.08257782
100	0xbe3d5c73	-0.18492298
101	0x3df3c149	0.119021006
102	0xbc185a18	-0.009298824
103	0x3e5eee4b	0.21770589
104	0x3c976a86	0.018483412
105	0x3da1fd56	0.07909648
106	0x3d492fd1	0.049117867
107	0x3bac8d6e	0.005265883
108	0xbe22e512	-0.15907696
109	0x3eb59b05	0.35469833
110	0x3e6c51d2	0.23078087
111	0x3da63185	0.08114914
112	0xbd603957	-0.054742184
113	0xbba8368d	-0.005133456
114	0xbde8d427	-0.1136859
115	0xbe73e792	-0.23818806
116	0x3ebdf69e	0.37102216
117	0x3eba20ff	0.363533
118	0x3de7571c	0.11295912
119	0x3ebe5ff5	0.37182584
120	0xbe622d18	-0.22087514
121	0x3e5876d2	0.21139076
122	0x3c946755	0.018115679
123	0x3e2e57a4	0.1702562
124	0x3e5d58b5	0.2161587
125	0x3e8869bf	0.26643178
126	0x3d9e3809	0.077255316
127	0xbdf49159	-0.11941785
128	0xbe9b9db7	-0.30393764
129	0x3eab16d0	0.33415842
130	0xbcc8d777	-0.024516804
131	0xbe92f76a	-0.28704387
132	0x3d1eb4ef	0.03874677
133	0xbdb7a3ab	-0.08966764
134	0xbd013438	-0.03154394
135	0x3e622663	0.22084956
136	0xbe8306ac	-0.25591028
137	0x3d3a1bb1	0.045436565
138	0xbd5d5be3	-0.054042708
139	0xbddebf4c	-0.10876331
140	0xbc08f5ca	-0.008359382
141	0x3a0a136d	0.0005267177
142	0x3cf3699f	0.02971345
143	0x3c1638ad	0.009168786
144	0x3e13dee4	0.14440495
145	0x3d687068	0.056747824
146	0xbd531d8d	-0.051541854
147	0xbe4fa51a	-0.20277825
148	0xbc25001c	-0.010070827
149	0x3d802f9c	0.06259081
150	0xbd81c37c	-0.06336114
151	0x3d22f0f6	0.03978058
152	0x3dd8066c	0.105481
153	0xbe6c2301	-0.23060228
154	0x3e0ba864	0.13638455
155	0x3e16b12d	0.14716025
156	0xbeb50a54	-0.35359442
157	0x3e907773	0.28216133
158	0x3cf86f2d	0.03032645
159	0x3d7b7bc7	0.06139734
160	0xbe2da568	-0.16957629
161	0x3c149de4	0.009070847
162	0xbd8b358a	-0.06797321
163	0xbedf9598	-0.43668818
164	0xbe31d764	-0.17367321
165	0xbe08b01f	-0.13348435
166	0x3e39570e	0.18099615
167	0x3d85dbd5	0.0653607
168	0x3eab875c	0.33501709
169	0x3e550751	0.20803572
170	0x3bb124ae	0.005405984
171	0xbe469d1c	-0.1939587
172	0x3e1c7ed7	0.1528276
173	0x3ecb656c	0.39725816
174	0x3e6d3076	0.23163018
175	0x3d0cf184	0.034410015
176	0x3e486fc9	0.19573893
177	0xbe22ec59	-0.15910472
178	0xbdda205e	-0.10650705
179	0x3e94198b	0.28925738
180	0xbe5f5132	-0.21808317
181	0xbe0d2793	-0.13784628
182	0x3d45a48c	0.048252627
183	0xbe7841bf	-0.2424383
184	0x3d26cbe4	0.04072179
185	0x3ef18643	0.47172746
186	0x3db5346f	0.088478915
187	0x3da3b167	0.07992821
188	0xbe08441f	-0.13307236
189	0x3ee62b5e	0.44954962
190	0xbe3dc2b5	-0.18531306
191	0xbe0b67c5	-0.13613804
192	0x3e74dcbb	0.23912327
193	0x3d30124f	0.04298621
194	0xbe7f06a5	-0.24904878
195	0xbe55cbdf	-0.20878552
196	0xbde792bd	-0.11307285
197	0xbd8b5fef	-0.06805407
198	0x3cb34eaa	0.021888096
199	0xbec00bc0	-0.37508965
200	0x3da99b11	0.0828153
201	0xbbac6a00	-0.0052616596
202	0xbd90f6d3	-0.07078328
203	0x3ed070a8	0.4071095
204	0x3e57881d	0.21048017
205	0xbe3cabc3	-0.18424897
206	0x3c985eca	0.018599886
207	0x3e54062c	0.2070548
208	0x3dc2d1ef	0.09512698
209	0x3d076839	0.03305838
210	0xbd84b2ca	-0.06479414
211	0xbe05e77a	-0.13076583
212	0x3c94a566	0.018145274
213	0xbd9d47a6	-0.076796815
214	0xbd8f65e3	-0.07001855
215	0xbd0917a2	-0.033469804
216	0x3d4bf63e	0.04979538
217	0x3e5c2f2b	0.21502368
218	0x3e8d7251	0.2762628
219	0x3e4a424f	0.19751857
220	0xbcab16b9	-0.020884858
221	0xbaf64afc	-0.0018790658
222	0xbe133f67	-0.14379655
223	0xbe45aafc	-0.19303507
224	0x3dd0bd6d	0.1019238
225	0x3bd5ce21	0.0065248166
226	0xbeb90a08	-0.36140466
227	0x3e412c72	0.18864611
228	0x3e45c01b	0.19311564
229	0xbd188c99	-0.03724346
230	0xbe92fc40	-0.28708076
231	0xbe75d219	-0.24005927
232	0xbe501957	-0.20322166
233	0x3e363169	0.17792286
234	0xbcebb347	-0.02877201
235	0x3e0f7daf	0.14012788
236	0xbd12fecf	-0.035887536
237	0x3e64cbd7	0.22343384
238	0x3df24b0d	0.11830721
239	0xbe4a6385	-0.19764526
240	0x3e421af1	0.1895559
241	0x3e356d6a	0.1771752
242	0xbd8a07c3	-0.06739762
243	0x3d5ac9fe	0.05341529
244	0xbe48539c	-0.19563144
245	0xbdd79cf7	-0.105279855
246	0x3e21ad76	0.15788826
247	0xbeb32f94	-0.34997237
248	0x3dcedb3b	0.10100409
249	0xbe8a6993	-0.27033672
250	0xbc99ddb9	-0.018782483
251	0x3d9f8a93	0.07790103
252	0x3de821d0	0.11334574
253	0xbe2b7a6d	-0.1674592
254	0x3dd5c7ab	0.10438474
255	0xbe9332ce	-0.28749698

bias f4 [128]
0	0xbe1f7934	-0.15573579
1	0x3e3fb95c	0.18723053
2	0xbb7359b5	-0.0037132327
3	0x3daaf16f	0.08346831
4	0x3c50ed2a	0.012751857
5	0x3d7df564	0.0620016
6	0x3dfb2ada	0.12264033
7	0xbce6270d	-0.028094793
8	0xbe3c9b36	-0.18418583
9	0x3d94a3e8	0.07257825
10	0xbdedbd48	-0.11608368
11	0x3d4f274f	0.050574597
12	0x3d85fc05	0.065422095
13	0x3dda4b20	0.1065886
14	0xbdc841e7	-0.09778195
15	0x3e3f8932	0.1870468
16	0x3cf583f8	0.029970154
17	0xbd6dee03	-0.058088314
18	0xbe333d75	-0.17503913
19	0xbe04f5f8	-0.12984455
20	0xbe53068a	-0.20607963
21	0xbdb90889	-0.09034831
22	0x3e22d067	0.15899812
23	0xbdf3ef0f	-0.11910831
24	0x3dc57f1f	0.09643387
25	0x3de971d3	0.11398663
26	0xbe854d0e	-0.2603535
27	0x3d3270b0	0.0435645
28	0x3e610a1b	0.21976511
29	0xbccab276	-0.0247433
30	0x3d9bfcf1	0.07616604
31	0xbd7293ec	-0.0592231
32	0xbe095f7e	-0.13415334
33	0x3bff1290	0.0077841952
34	0xbe0ecd03	-0.13945393
35	0x3e0a264b	0.1349117
36	0x3e9fb33f	0.3119144
37	0xbd4b2088	-0.04959157
38	0xbd7f5e2a	-0.06234566
39	0xbdffef7a	-0.124968484
40	0xbe3837ba	-0.17990008
41	0x3e9983de	0.2998342
42	0x3dae0c9d	0.084984995
43	0xbe00d588	-0.12581456
44	0x3ba27b32	0.0049585337
45	0x3bc54fd8	0.006021481
46	0xbd5a6006	-0.05331423
47	0xbe83226e	-0.25612205
48	0x3e1e16c1	0.15438367
49	0xbdeb18c4	-0.11479333
50	0xbdeb646d	-0.11493764
51	0x3d5a3424	0.05327238
52	0xbccf1bc9	-0.025281804
53	0xbe082e62	-0.13298944
54	0xbd692943	-0.056924116
55	0xbddf24a7	-0.10895663
56	0x3be39837	0.0069456357
57	0x3e1a5094	0.150698
58	0x3db5460a	0.088512495
59	0x3d8c7f36	0.06860201
60	0x3d013e64	0.03155364
61	0xbd04dd9f	-0.032437917
62	0x3d8b5a36	0.06804316
63	0x3df7350f	0.12070667
64	0x3d129d73	0.035794687
65	0x3e64b54a	0.22334781
66	0xbc4acd28	-0.012378015
67	0xbe3aeb9a	-0.18253937
68	0x3e2edaaf	0.17075609
69	0xbe1dee8c	-0.1542303
70	0xbe0eb3f8	-0.1393584
71	0x3b44d184	0.0030032108
72	0xbe396237	-0.18103872
73	0x3d54cae2	0.051951297
74	0xbeb1e539	-0.34745196
75	0xbde1cb02	-0.11025049
76	0xbe0e84f1	-0.139179
77	0x3a70c606	0.0009184781
78	0xbdf486ad	-0.1193975
79	0xbd8c1509	-0.0683995
80	0x3d17268f	0.036902007
81	0x3c791327	0.01520232
82	0x3e2daf90	0.16961503
83	0x3e0bb952	0.13644913
84	0x3e248790	0.16067338
85	0xbd94be6b	-0.07262882
86	0xbcdaf6ca	-0.026729006
87	0x3d112a98	0.03544101
88	0x3e02f1ac	0.12787503
89	0xbd8c19c4	-0.06840852
90	0xbd9b7194	-0.07590023
91	0x3d8ecff7	0.0697326
92	0x3db694a3	0.08915069
93	0x3cd6ffa8	0.026244953
94	0xbc9dc1df	-0.019257484
95	0x3d945fa4	0.072448045
96	0x3e006232	0.12537459
97	0x3de285df	0.1106069
98	0xbd8d50fc	-0.06900212
99	0x3e63c23f	0.22242068
100	0x3d88f299	0.06686897
101	0x3d6c3e1b	0.057676416
102	0x3d27b4de	0.040943973
103	0x3dbaf350	0.091284394
104	0x3c1ed717	0.009694836
105	0x3cfef324	0.031121798
106	0x3cff7a06	0.031186115
107	0x3dfe8c60	0.12429118
108	0xbdc7b4ff	-0.09751319
109	0xbe12f0c8	-0.14349663
110	0x3dcf27d6	0.1011502
111	0x3e40af24	0.18816811
112	0xbe3bcb7e	-0.18339345
113	0x3d08b2c6	0.033373617
114	0xbe08a456	-0.13343939
115	0xbda69b5d	-0.08135102
116	0xbb23fae2	-0.0025021364
117	0x3db341fc	0.0875282
118	0x3da1ee9d	0.0790684
119	0xbe0f83c2	-0.14015105
120	0x3db80f37	0.08987277
121	0xbe249ebb	-0.16076176
122	0x3df0debe	0.11761235
123	0x3c76b9e6	0.01505897
124	0x3d01c56c	0.031682417
125	0xbdb9efbd	-0.090789296
126	0x3e486863	0.1957107
127	0xbdf2538a	-0.1183234

weight f4 [64, 128]
0	0xbdc9bf02	-0.09850885
1	0x3e72688c	0.23672694
2	0x3d11db84	0.035609737
3	0xbcdd64c0	-0.02702558
4	0x3e091bc4	0.13389498
5	0x3f373962	0.71571934
6	0x3d5966cd	0.053076554
7	0x3ea348c7	0.31891462
8	0xbeed03e1	-0.46292022
9	0x3d517742	0.051139124
10	0xbd83fd20	-0.06444764
11	0xbe1f9025	-0.1558233
12	0x3d22bf0d	0.03973298
13	0x3d986d1b	0.07442685
14	0xbe4df7f9	-0.20114125
15	0xbeb5a32f	-0.35476062
16	0xbde13beb	-0.109977566
17	0xbe30f979	-0.17282666
18	0x3dd05c68	0.10173875
19	0x3d475add	0.04867064
20	0x3f151361	0.58232695
21	0xbded2e2c	-0.11581072
22	0xbe139842	-0.1441355
23	0x3e809802	0.25115973
24	0x3e1fa551	0.15590407
25	0x3dd6829c	0.104741305
26	0xbd888f5a	-0.06667967
27	0x3b527e4d	0.0032118738
28	0xbb979bbb	-0.004626719
29	0xbddb09f2	-0.10695256
30	0xbe5538bc	-0.20822424
31	0xbe382667	-0.179834
32	0x3e49b8f2	0.19699457
33	0x3e6bd5fe	0.2303085
34	0xbdd8e728	-0.105909646
35	0xbda1bf0e	-0.07897769
36	0x3dc42e8a	0.09579189
37	0xbd0c192d	-0.034203697
38	0x3e9cb34b	0.3060554
39	0x3ee71ba6	0.45138282
40	0xbd3f1c64	-0.046657935
41	0x3e2cac17	0.16862522
42	0x3e731cf3	0.23741512
43	0xbde55a4a	-0.11198862
44	0xbdf9f2f1	-0.122045405
45	0x3df5cbec	0.12001786
46	0x3cbc24b2	0.022966716
47	0xbd96c7dd	-0.0736234
48	0x3c96bd3c	0.01840078
49	0xbdeba319	-0.11505718
50	0x3d179ce7	0.037014868
51	0xbd70bc72	-0.058773465
52	0x3df55a6e	0.11980139
53	0xbd803a5d	-0.06261132
54	0x3c81f66b	0.015864572
55	0xbe8523e6	-0.2600395
56	0xbddcd8f3	-0.10783567
57	0x3df68e8e	0.12038909
58	0x3ecab9bb	0.39594826
59	0xbd9c5c5d	-0.076348044
60	0x3da50883	0.08058264
61	0xbdca2af4	-0.09871474
62	0x3e0e819b	0.13916628
63	0xbd0e1a15	-0.034692843
64	0x3ed0c803	0.40777597
65	0x3e7dbfb5	0.24780162
66	0xbf41cad1	-0.757001
67	0xbe84e571	-0.259563
68	0x3e0a61bb	0.13513844
69	0x3ddfb009	0.10922248
70	0x3d9af4d7	0.07566231
71	0x3eadceb4	0.33946764
72	0x3e3b6581	0.1830044
73	0x3e4ebfb7	0.20190321
74	0x3db153be	0.08658551
75	0x3d4c4502	0.0498705
76	0xbf2ff392	-0.68731034
77	0x3dd85136	0.10562365
78	0xbd9d616d	-0.07684598
79	0xbe17dc61	-0.14830162
80	0xbe80d366	-0.25161284
81	0x3d99eadf	0.07515501
82	0xbe8c4e19	-0.27403334
83	0x3de7b15f	0.11313128
84	0xbf015402	-0.5051881
85	0xbeb7706b	-0.35827956
86	0xbe3b9f04	-0.18322378
87	0xbd3a82a1	-0.045534734
88	0xbd41142e	-0.047138385
89	0xbbc9857f	-0.006149947
90	0x3ca7e345	0.020494113
91	0x3bfd549d	0.007731034
92	0x3ee23f00	0.4418869
93	0x3d014203	0.031557094
94	0x3ecf9e2c	0.40550363
95	0xbd9c6e72	-0.07638253
96	0xbdd62a34	-0.10457268
97	0x3e8c2dee	0.27378792
98	0xbda46b2a	-0.080282524
99	0x3e276d6a	0.16350332
100	0xbe662b3a	-0.22477427
101	0xbe2f73de	-0.17134044
102	0x3eaac300	0.33351898
103	0x3d9e2780	0.07722378
104	0x3d59246c	0.05301325
105	0xbd3b0382	-0.045657642
106	0xbe22d7ad	-0.15902586
107	0x3e15642d	0.14588995
108	0x3e6c87db	0.230987
109	0xbcd48003	-0.025939947
110	0xbe398c83	-0.18120007
111	0xbdb5c879	-0.08876128
112	0xbe334fd0	-0.17510915
113	0x3d84f62a	0.064922646
114	0xbe483885	-0.1955281
115	0xbddd1bfc	-0.10796353
116	0x3daefd3b	0.08544394
117	0x3c274041	0.01020819
118	0x3d449d6c	0.04800169
119	0x3e2a0ccd	0.16606446
120	0xbc64c89b	-0.013963844
121	0x3dbc9284	0.09207633
122	0x3d252dda	0.04032693
123	0xbe8f7bb5	-0.28024068
124	0xbe9b3364	-0.30312645
125	0x3bab979b	0.0052365786
126	0xbe97e213	-0.29664668
127	0x3e8013bc	0.25015056
128	0xbbeb12ea	-0.0071738856
129	0xbd1dd38a	-0.038531817
130	0xbda48817	-0.080337696
131	0xbe966239	-0.29371813
132	0x3d086b01	0.033305172
133	0xbd00ed4d	-0.031476308
134	0x3e8c69e3	0.27424535
135	0xbe35755c	-0.1772055
136	0xbdfed1e9	-0.12442381
137	0xbdb25696	-0.08707921
138	0x3decc8c6	0.11561732
139	0xbe29b644	-0.16573435
140	0xbd0d86fb	-0.034552556
141	0x3d88f16e	0.06686674
142	0x3e35128e	0.1768286
143	0xbd8063bd	-0.062690236
144	0xbd3b15e9	-0.045675192
145	0x3e0a0afa	0.1348075
146	0xbdec03d2	-0.11524166
147	0x3d818d45	0.06325773
148	0xbe484906	-0.19559106
149	0xbdd04e5d	-0.101711966
150	0xbe4cd450	-0.20002866
151	0x3de14805	0.11000065
152	0x3e73ae95	0.23797067
153	0x3b9fb011	0.0048732837
154	0xbe9409fe	-0.28913873
155	0x3ea383ca	0.31936485
156	0xbd46cab0	-0.04853314
157	0xbdd5f5a9	-0.104472466
158	0x3da73dcd	0.081660844
159	0x3e56ce0a	0.20977035
160	0xbeb580f5	-0.3544995
161	0xbd4a9157	-0.049455013
162	0x3e53b3b6	0.20674023
163	0xbe51be9d	-0.2048287
164	0x3c3fe282	0.0117117185
165	0xbcdb2ba7	-0.026754213
166	0x3d33138f	0.043719824
167	0xbe806a23	-0.25080976
168	0xbd5a4b1e	-0.053294294
169	0x3db443a4	0.08801964
170	0x3d3611c8	0.04445055
171	0xbd928b15	-0.07155434
172	0xbd0e8904	-0.034798637
173	0xbe443c4d	-0.19163628
174	0x3d740a85	0.059580345
175	0xbeb0ce3e	-0.3453235
176	0x3da2405a	0.0792243
177	0x3eb17a0e	0.34663433
178	0x3ae0f740	0.001716353
179	0x3cf58eed	0.029975379
180	0xbebb085d	-0.36529818
181	0x3e41a134	0.1890915
182	0xbd816241	-0.063175686
183	0x3e8b7658	0.27238727
184	0xbd3268e5	-0.043557066
185	0xbe250b6f	-0.16117643
186	0x3edbbe39	0.42918566
187	0xbd825b97	-0.063651256
188	0x3eac0009	0.33593777
189	0x3cade674	0.021228053
190	0x3d69767c	0.05699776
191	0x3d0bc044	0.034118906
192	0xbd222d88	-0.039594203
193	0x3e663ca0	0.22484064
194	0xbe4ebbd3	-0.20188837
195	0xbdb5e242	-0.08881046
196	0x3e18607c	0.14880556
197	0x3ec3cb9d	0.38241282
198	0x3ddba5fe	0.1072502
199	0xbba0ba2f	-0.0049050073
200	0xbe123665	-0.14278562
201	0x3db61009	0.08889777
202	0xbcaa72b0	-0.02080664
203	0x3d5c4e9f	0.053785916
204	0xbdf3e1e0	-0.119083166
205	0x3d24365d	0.040090907
206	0x3ddc4769	0.10755808
207	0x3d9ce389	0.076605864
208	0x3f200590	0.6250849
209	0xbec8076a	-0.39068156
210	0x3de17215	0.110080875
211	0xbe0cfd45	-0.1376849
212	0xbbba3d03	-0.0056835427
213	0x3dcaff80	0.09912014
214	0xbe38e16b	-0.1805474
215	0xbeb493c9	-0.35269
216	0x3e0780f3	0.13232784
217	0xbec20545	-0.37894645
218	0xbdea6fb5	-0.11447088
219	0xbb7bda55	-0.0038429697
220	0xbdc967a8	-0.09834224
221	0x3d251d52	0.040311165
222	0x3e01d8ae	0.12680313
223	0xbe354d17	-0.17705189
224	0x3de7a730	0.11311185
225	0xbe5ad174	-0.21368963
226	0xbdbf0241	-0.09326602
227	0x3e037ac7	0.12839805
228	0xbe4d6528	-0.2005812
229	0xbdc9ac60	-0.09847331
230	0x3e630918	0.22171438
231	0xbd568486	-0.052372478
232	0xbed6b905	-0.41938034
233	0x3d239f0b	0.039946597
234	0x3bbc455a	0.005745572
235	0x3e0b6be7	0.1361538
236	0x3eae2f4c	0.3402046
237	0x3dd64afb	0.1046352
238	0xbc3fc853	-0.011705476
239	0xbe1e2229	-0.15442719
240	0x3e12d762	0.14339975
241	0x3ecf1e01	0.4045258
242	0xbe899a86	-0.26875705
243	0xbd454cda	-0.048168994
244	0xbe365a4f	-0.17807887
245	0xbdccb655	-0.099957146
246	0x3b3afdc1	0.0028532597
247	0xbe1f435a	-0.15553036
248	0xbe6588c5	-0.22415455
249	0x3eb7d17c	0.3590201
250	0x3e7cb4d1	0.24678351
251	0x3e24924b	0.16071431
252	0xbe28456d	-0.16432734
253	0x3d47afee	0.048751764
254	0x3e4205dd	0.18947549
255	0x3ce6ec6b	0.028188905

bias f4 [64]
0	0x3d9afac2	0.075673595
1	0x3de0a45b	0.10968848
2	0xbd0d398f	-0.03447872
3	0xbe7eb748	-0.24874604
4	0xbe6b7597	-0.22994076
5	0xbc76ca9b	-0.015062953
6	0xbe44b838	-0.19210899
7	0x3dbd091e	0.092302546
8	0x3e03e146	0.12878904
9	0xbc77a1dc	-0.015114274
10	0xbdb0d937	-0.086351804
11	0x3d291f7e	0.0412898
12	0xbb1b40a1	-0.0023689645
13	0x3e862b5d	0.2620496
14	0xbe2c9b16	-0.16856036
15	0x3e746b78	0.23869121
16	0x3be24e3e	0.0069063
17	0xbdcec0d6	-0.10095374
18	0x3d7185b8	0.058965415
19	0x3e251f41	0.16125204
20	0xbd6d0215	-0.057863314
21	0xbe5b2b3b	-0.2140321
22	0xbe07f97c	-0.13278764
23	0x3e44c7f5	0.19216903
24	0xbe08ab21	-0.1334653
25	0xbe27b110	-0.16376138
26	0xbe29b126	-0.16571483
27	0xbded8ba5	-0.11598901
28	0xbdd751af	-0.10513627
29	0xbe1305f1	-0.14357735
30	0xbdbdb2a1	-0.092625864
31	0x3e41188f	0.18857025
32	0xbe2937b9	-0.16525163
33	0xbd5dda74	-0.05416341
34	0xbd74b92b	-0.059746902
35	0xbeb79e39	-0.35862902
36	0xbcaf115e	-0.021370586
37	0xbde19a3f	-0.11015748
38	0xbd8bc306	-0.06824307
39	0xbd3fca06	-0.046823524
40	0x3d87c6ed	0.06629739
41	0x3dd848d4	0.10560766
42	0x3c8dd5c9	0.017313855
43	0xbcb48a64	-0.022038646
44	0xbd39ffc8	-0.045409948
45	0xbd137ca9	-0.036007557
46	0xbe0ef064	-0.13958889
47	0x3e8070eb	0.2508615
48	0xbccad5ec	-0.024760209
49	0x3e3eee12	0.18645504
50	0xbe3fe4d2	-0.18739632
51	0x3bfbfc8b	0.0076900176
52	0x3e401318	0.18757284
53	0xbaf70bcf	-0.0018848124
54	0x3c5cfb7c	0.013487693
55	0x3da64fcf	0.08120691
56	0x3de0852b	0.109629
57	0x3dbf0f3d	0.09329078
58	0x3de7bf44	0.11315778
59	0x3d756c0e	0.059917502
60	0x3e24f322	0.16108373
61	0xbdebce5e	-0.11513971
62	0xbcff9fa5	-0.031204054
63	0x3e83d905	0.2575151

weight f4 [6, 64]
0	0xbe1b1b1f	-0.15147065
1	0xbca632fc	-0.020287983
2	0x3ede5d50	0.43430567
3	0xbeabc448	-0.33548188
4	0xbe8e7740	-0.27825356
5	0xbe05cefb	-0.13067238
6	0xbec3733c	-0.38173854
7	0xbe230dc4	-0.1592322
8	0x3df51c00	0.11968231
9	0x3ba72372	0.005100661
10	0x3d69b5bc	0.05705808
11	0x3ce42fc7	0.027854813
12	0x3f0bcee2	0.54612553
13	0x3e51b5a4	0.20479447
14	0xbe62c05a	-0.22143689
15	0x3eaa1ebe	0.3322658
16	0xbf6d896b	-0.9278781
17	0xbf06f9ab	-0.52724713
18	0x3ea5d58c	0.32389486
19	0x3e45e837	0.19326864
20	0xbe176435	-0.1478432
21	0xbe9c278f	-0.3049893
22	0xbee9e5e9	-0.4568322
23	0x3e405d46	0.18785581
24	0x3dda116b	0.106478535
25	0xbeb58f04	-0.35460675
26	0x3eaefa2a	0.34175235
27	0xbec78d3b	-0.38974938
28	0x3f2221b6	0.6333269
29	0xbd9d517f	-0.0768156
30	0xbe66121e	-0.22467849
31	0x3dc901cd	0.098147966
32	0xbeb1c3ec	-0.3471979
33	0xbe71fade	-0.23630854
34	0xbf521ef3	-0.82078475
35	0xbe6d1559	-0.23152675
36	0xbd702e99	-0.05863819
37	0xbf1a530e	-0.6028298
38	0x3f0f19b9	0.55898625
39	0x3e02b2b4	0.12763482
40	0xbed32756	-0.41240948
41	0xbdad850e	-0.08472644
42	0x3d25b139	0.040452216
43	0xbf00930b	-0.5022437
44	0xbe4b166b	-0.1983277
45	0xbf094685	-0.5362323
46	0xbe06773b	-0.1313142
47	0x3e932ed8	0.28746676
48	0x3eab05b6	0.33402795
49	0x3f0291cf	0.51003736
50	0xbee9a0dc	-0.45630538
51	0x3ed19ca3	0.40939817
52	0x3e9663e2	0.2937308
53	0xbeefc125	-0.46827045
54	0xbf707a7b	-0.9393689
55	0x3d82d83f	0.06388902
56	0xbea73090	-0.32654238
57	0x3e0e76cf	0.1391251
58	0xbda812e2	-0.082067266
59	0x3f25e60a	0.64804137
60	0x3dbc1594	0.09183803
61	0xbe6fec1e	-0.23429915
62	0xbe484642	-0.19558051
63	0x3d0bbc51	0.03411514
64	0x3edde059	0.43335226
65	0xbe759391	-0.23982073
66	0xbebca029	-0.36840943
67	0xbefc210a	-0.49243957
68	0xbe9d0176	-0.30665177
69	0x3f0d29b9	0.5514179
70	0xbe53590f	-0.20639442
71	0x3e82c15f	0.25538155
72	0x3da99785	0.08280853
73	0x3bd1c3dd	0.0064015226
74	0x3e5987cd	0.2124321
75	0x3efbc7cc	0.4917587
76	0xbeb7e64f	-0.359179
77	0x3e8aafaf	0.2708716
78	0x3f29a99e	0.6627444
79	0x3ebcbf4f	0.36864707
80	0x3e3972dc	0.18110222
81	0xbea66689	-0.32500103
82	0xbe5297c8	-0.20565712
83	0x3eaef1a9	0.34168747
84	0xbf110656	-0.5665029
85	0x3da840e4	0.08215502
86	0x3e666839	0.22500695
87	0x3e52b3d1	0.20576407
88	0xbe0c7fa6	-0.13720569
89	0x3ec6bc7f	0.38815686
90	0xbe7e8625	-0.2485586
91	0xbddafa35	-0.106922545
92	0xbe845f4b	-0.25853953
93	0x3ce4476c	0.027866088
94	0xbf035bd0	-0.5131197
95	0x3efd1a00	0.494339
96	0x3e8f20bf	0.2795467
97	0x3f009595	0.50228244
98	0xbed56735	-0.41680303
99	0xbd95b8b0	-0.07310617
100	0x3d3896dc	0.045065746
101	0x3e65be62	0.22435907
102	0xbeca6c5f	-0.39535806
103	0xbf175a91	-0.5912257
104	0x3f18a908	0.5963292
105	0xbed215bc	-0.41032207
106	0x3ec50225	0.384782
107	0x3cec67b5	0.028858045
108	0x3ded928f	0.116002195
109	0x3d9c1a1e	0.07622169
110	0x3d8bbe32	0.06823386
111	0x3eb119cc	0.34589994
112	0xbeaf48a4	-0.34235108
113	0xbd63b4e2	-0.055592425
114	0x3e049414	0.12947112
115	0xbdf719a8	-0.120654404
116	0x3ee5db67	0.44893953
117	0x3eb54d8d	0.3541073
118	0x3e8093d8	0.25112796
119	0x3eda70d2	0.426642
120	0x3e8ad2c1	0.27113917
121	0x3ebe71b7	0.37196133
122	0xbc24207a	-0.010017509
123	0xbd45fdf8	-0.048337907
124	0xbdeb2b6b	-0.11482891
125	0x3e955355	0.2916514
126	0x3e273464	0.16328579
127	0x3e929586	0.28629702
128	0xbea73c8a	-0.32663375
129	0xbf0b1980	-0.54335785
130	0x3ec5c190	0.3862424
131	0x3e8784fc	0.26468647
132	0x3f6bd276	0.9211801
133	0xbe91e362	-0.28493792
134	0xbe9e5545	-0.3092443
135	0xbe7e1ed8	-0.24816453
136	0x3e9f0284	0.31056607
137	0x3f21a55e	0.63142955
138	0xbf039c7d	-0.5141066
139	0xbe2c19be	-0.16806695
140	0xbdf19516	-0.11796014
141	0xbee74576	-0.45170182
142	0xbedc0cc8	-0.429785
143	0xbe2e028a	-0.16993156
144	0x3ea2ff90	0.31835604
145	0x3ee28fda	0.44250375
146	0x3ec17ff0	0.3779292
147	0xbf0e1ff9	-0.55517536
148	0x3ec7b57f	0.39005658
149	0x3de24fdc	0.11050388
150	0x3e36df17	0.1785854
151	0xbf2775ed	-0.65414315
152	0xbe91d7f4	-0.28485072
153	0x3e323b23	0.17405371
154	0x3f3cd2de	0.7375926
155	0x3f4bd79c	0.7962587
156	0x3f0d3553	0.5515949
157	0xbea30530	-0.31839895
158	0x3f11ebd5	0.57000476
159	0xbe37433b	-0.1789674
160	0xbf425184	-0.7590563
161	0xbf4953eb	-0.78643674
162	0x3f312e3d	0.6921118
163	0x3b1e283b	0.0024132866
164	0x3e9932c8	0.29921556
165	0x3e7de198	0.24793088
166	0xbeed79d4	-0.4638201
167	0x3e013096	0.1261619
168	0x3e1b8ec8	0.15191185
169	0x3f2f6464	0.6851256
170	0xbf3f0667	-0.74619144
171	0x3f219015	0.63110477
172	0x3f11c921	0.56947523
173	0x3f402fa1	0.75072676
174	0x3f0c359d	0.5476931
175	0xbf050450	-0.51959705
176	0xbd5b478d	-0.053535033
177	0xbc6f8ecf	-0.014621451
178	0x3dd5ed9b	0.1044571
179	0xbe703158	-0.23456323
180	0xbdaa88e4	-0.08326891
181	0xbe932eb1	-0.2874656
182	0x3d6e63cc	0.058200642
183	0x3e308bf5	0.1724089
184	0xbe5dba62	-0.2165313
185	0x3e9fff7a	0.312496
186	0x3ef1060f	0.47074935
187	0xbe26ba97	-0.16282116
188	0xbd828774	-0.06373492
189	0xbee30c97	-0.44345543
190	0x3c854015	0.016265908
191	0xbf258f1a	-0.6467148
192	0xbdd7a6ab	-0.10529836
193	0x3d5cb9d7	0.05388817
194	0xbed49477	-0.4151952
195	0x3ec1d3c3	0.37856874
196	0x3eaf7e61	0.34276107
197	0xbf214e4c	-0.63010097
198	0x3ed7e801	0.42169192
199	0xbea2c10d	-0.3178791
200	0xbf7035de	-0.93832195
201	0xbe923ead	-0.28563443
202	0x3e7d0504	0.24708945
203	0xbe98ecf5	-0.29868284
204	0xbe574ddd	-0.21025796
205	0xbe61deba	-0.2205762
206	0xbee1ffa6	-0.44140357
207	0xbf060266	-0.5234741
208	0x3d992632	0.07477988
209	0x3e435b6b	0.19077842
210	0xbba214df	-0.0049463357
211	0xbe3a43c7	-0.18189918
212	0x3e8ccf44	0.2750188
213	0x3d5cb924	0.0538875
214	0x3e7f6304	0.24940115
215	0x3f1c056a	0.6094576
216	0xbcac0e0b	-0.02100279
217	0x3e478eac	0.19488019
218	0xbe990f38	-0.29894423
219	0xbef49752	-0.47771698
220	0xbf141c9e	-0.57856166
221	0x3f05f912	0.52333176
222	0x3eb235b4	0.34806597
223	0xbf16ab20	-0.58854866
224	0xbb4d7699	-0.0031351207
225	0xbe183883	-0.14865308
226	0x3dd5169e	0.104047045
227	0x3dd1f050	0.10250914
228	0x3e3d1167	0.1846367
229	0x3e618640	0.22023869
230	0xbd0e0a3e	-0.034677736
231	0xbe7e1c57	-0.24815498
232	0xbe957c16	-0.29196233
233	0xbe524993	-0.20535879
234	0xbd93689b	-0.07197686
235	0x3edd767d	0.43254462
236	0xbe9f7e22	-0.3115092
237	0xbe3cbea2	-0.18432096
238	0xbf001d0e	-0.50044334
239	0x3d234409	0.039859805
240	0xbecefa8a	-0.4042552
241	0xbed020b2	-0.40649945
242	0xbf15e4c0	-0.5855217
243	0x3e7211a8	0.23639548
244	0xbe63810e	-0.22217199
245	0x3e2315dc	0.15926307
246	0x3e4c61e5	0.19959219
247	0xbeb43d62	-0.3520308
248	0x3eac9685	0.33708587
249	0xbecdd4dd	-0.40201464
250	0xbe8c4e62	-0.2740355
251	0xbe60c59f	-0.21950386
252	0x3f4cb8ff	0.7996978
253	0xbe024a19	-0.12723579
254	0x3d7e5777	0.06209513
255	0x3e512efe	0.20428082

bias f4 [6]
0	0x3d49db98	0.049281687
1	0xbd4f7df8	-0.050657243
2	0xbb945b96	-0.0045275195
3	0x3c96fbf9	0.018430697
4	0xbee89550	-0.45426416
5	0xbd98359f	-0.074321024
