src/learning/models/128_128_64_touch_400ep_8779.pt (torch, 107599 bytes, 8 tensors)

weight f4 [128, 6]
00000000: fc7d c4be 18fb 9dbe 99d9 683d 8452 c1be
00000010: f7d1 2d3e cfe8 ed3d 8c53 44bb 4e46 ddbd
00000020: bd5e ba3e eef7 1d3f af03 8b3d 1030 1d3f
00000030: cfc1 58bd beeb 913e 2e85 02bf 4333 89be
00000040: 9d6a d33e 9855 5fbc 42ee c7bb 95de 12be
00000050: 0bba 253c e5d3 1ebe 7e21 0e3f 57e2 373e
00000060: 103b 1c3e 6813 963e 5c9d ddbd 4fd4 e4be
00000070: d88f ad3d 1047 d53e 310e c6bc e5cc 903d
00000080: 1be9 7fbf 53c4 773d 5cf4 dfbe 31f8 44be
00000090: 4a57 0b3e 3359 343f 8dc5 fabe 60d6 ac3d
000000a0: 6912 d33d e85c 5abf 778f 273f b50a 273d
000000b0: 1db2 90be 116e d43e 8244 e33d 05b3 f53e
000000c0: 6eb3 d53e 663e a83e 8f41 61be bedb bfbe
000000d0: e82d 873d 6ec6 a8be c86e 1abf fdf1 dfbd
000000e0: 1891 df3e 73bb 8f3e 90a7 ddbd 815f 85be
000000f0: 38b6 22bd 3476 163d bc81 1d3c 04b4 87be
00000100: eea2 12bf d147 abbe 56c2 13bf 770d d5bd
00000110: 8228 923e b95b 31be a6be 043c 1f98 c0bb
00000120: 75cf 62be 97ab 51be f4de 25be d71b 993e
00000130: e704 eabe 2b60 c53e fc92 d83d 0d17 fbbe
00000140: 7835 5dbd 1117 b43e 4cf9 c23e ad4b 21be
00000150: 7804 013f ec02 c03c e156 f1bd f72e 35be
00000160: 6dc2 09bf 9e68 80bc 7245 4abd e231 243f
00000170: 4786 c9bc d2ac a23e 3a33 6dbe 169f 1a3d
00000180: f977 b1bd 6fb7 f4be fba8 473e d098 eb3d
00000190: e6c4 913e 0978 3d3e 43c6 f33c baf0 f9bd
000001a0: e6b8 5ebc 7344 8bbd d2d1 41bf 54ca 41be
000001b0: 0eaf 753d 2eaa aebe bf96 1e3d 6083 6ebe
000001c0: 3430 c13b 6b73 103f 3d97 8e3e d95e a63e
000001d0: ad11 2e3e a487 4f3e 4bfa f43d c9d1 063e
000001e0: b05a 2bbd d895 a43d c602 cabd 3e75 ccbd
000001f0: dadf cb3e 1c02 71be 4bda 0c3c 0d2b 04bd
00000200: 5b20 243d b3b3 ec3c b3d6 c2be 4fc0 edbe
00000210: 7821 6a3e b2cc 56be af8a c43e f9e2 223e
00000220: 9620 89be a9b9 d7bd 3bdc 02bc e057 13be
00000230: 8945 abb9 ef82 87be b923 f5bd 0d0d 89be
00000240: 71e0 aa3d f38e 29be 0f03 eebe 7a69 073d
00000250: 8ea6 dc3e 5411 f7be 621d 5dbc 08a5 8c3e
00000260: 8134 22bd 0658 d13e 681f 1fbe 5b6b 263e
00000270: 4d7c dbbd 3992 a83d ead0 d4be 1a40 cbbe
00000280: 6f96 01be 9859 24be 5479 383d b75e 063d
00000290: 73b6 e23d a2e6 00bf 63be 85be 5637 a3be
000002a0: 1452 193e b969 ad3e 006d 2e3e 71ad 9ebc
000002b0: 7d5b d03c 5650 6a3f d13f c13d ee50 993e
000002c0: c786 9c3e 7e93 b4bc bddd a5bd 3cfd 79be
000002d0: cfdc 283e 5209 f1bd 53ea 033e 17e7 133d
000002e0: 8b9e b63e 5567 0cbf 868b 2a3c 891d f13e
000002f0: ac5d cc3d 92e0 263e 9dc2 f3bd 40c9 7bbf
00000300: 4b5f fabd a27f 923d cc65 7bbe 9dd2 c7bc
00000310: 7c44 bcbd 35a1 05bf 5380 423d 51f6 f53d
00000320: 5be8 823e 6ca4 f13d 531c 2f3e c392 92bb
00000330: a369 4cbe 83b3 83be d174 8ebe 6b3e 26be
00000340: 0128 bd3d 127c cf3e fe78 25bf fdb6 5ebe
00000350: 6bd9 b5bc 2631 923e 8cc4 783d c649 40bc
00000360: 4b32 96bd deff 9b3d 4361 aebd f9c2 4f3e
00000370: 74b3 fabe ada7 64be 2938 9cbd f653 293e
00000380: 721c 693f 89b2 353e bff0 4fbe f525 f9be
00000390: 9775 ebbe 2294 763e e7ec 1bbe 7a0e 86bc
000003a0: 3951 00be f12a 793e 9acf 523e 1039 aa3b
000003b0: 4f0c 9a3e 2fd0 c63d c7bb 28bd 3728 323f
000003c0: ce46 1abf 5f97 853d 952c 073f 9298 2cbe
000003d0: 4e57 48be 51bc 40bf dd62 67bd 7039 663d
000003e0: d8f1 d63d 73f7 edbc e26a 4e3f e213 cbbe
000003f0: c55a 0a3d 8c9d 84bd 5658 643e 3043 d2be
-0.38377368 -0.30855632 0.056848142 -0.37758267 0.16974626 0.1161667 -0.0029957024 -0.10804425
0.36400405 0.61706436 0.06787812 0.6140146 -0.052919205 0.2850017 -0.50984466 -0.26796922
0.41292277 -0.013631247 -0.0061014006 -0.14342721 0.010115157 -0.15510519 0.55519855 0.17957436
0.15256906 0.2931168 -0.108210295 -0.4469323 0.08474702 0.4165578 -0.024176689 0.070703305
-0.99965066 0.060489964 -0.4374112 -0.19235303 0.13607517 0.7044861 -0.48978844 0.08439326
0.10306246 -0.85298014 0.65453285 0.040781695 -0.2826089 0.41490224 0.11097051 0.47988144
0.41738456 0.32860106 -0.21997665 -0.37472337 0.06600553 -0.3296389 -0.6032529 -0.109348275
0.43665385 0.280727 -0.10822976 -0.26049426 -0.03972456 0.03673382 0.009613451 -0.2650453
-0.5727986 -0.3345323 -0.5771841 -0.10402959 0.2854653 -0.17320146 0.008102095 -0.0058775092
-0.22149451 -0.20475613 -0.16198331 0.29904053 -0.45706865 0.38549933 0.1057491 -0.49041024
-0.05400607 0.35173848 0.38080823 -0.15751524 0.50397444 0.023438893 -0.11784149 -0.17693697
-0.53812295 -0.015674885 -0.049382634 0.64138615 -0.024600161 0.31772476 -0.23164073 0.037749372
-0.08665461 -0.477962 0.19498055 0.11503756 0.28470534 0.18502821 0.029757624 -0.12204118
-0.013593888 -0.06800165 -0.75710785 -0.18924838 0.0599814 -0.34114212 0.03871798 -0.23292303
0.005895639 0.56426114 0.2784976 0.32494238 0.1699893 0.20266587 0.11961802 0.13165964
-0.041834533 0.08036393 -0.0986381 -0.099833 0.39819223 -0.23535961 0.008596967 -0.03226762
0.04006992 0.028894281 -0.38054428 -0.46435782 0.2286433 -0.20976523 0.38387057 0.15906896
-0.26782674 -0.10533459 -0.007987077 -0.1438899 -0.0003266747 -0.26467082 -0.11969704 -0.2676777
0.0834359 -0.16558437 -0.4648671 0.033059575 0.4309582 -0.48255408 -0.013495775 0.2746966
-0.039600853 0.4088747 -0.15539324 0.1625189 -0.10717068 0.08231015 -0.4156564 -0.39697343
-0.12655042 -0.16049802 0.045037583 0.03280517 0.11069956 -0.5035192 -0.26121816 -0.31878155
0.14972717 0.33869722 0.17033768 -0.019369813 0.02543425 0.9152883 0.09436 0.29944557
0.30571577 -0.022042986 -0.08098934 -0.24413007 0.16490482 -0.11769356 0.12882356 0.036109056
0.35667834 -0.5484517 0.010409242 0.47092846 0.09978804 0.16296604 -0.11902354 -0.9835396
-0.12225207 0.0715325 -0.24550551 -0.02439242 -0.0919275 -0.5219911 0.04748566 0.12009872
0.25567898 0.11798939 0.17100649 -0.0044730618 -0.19962172 -0.25722894 -0.278235 -0.16234748
0.09236146 0.40524346 -0.64637744 -0.21749492 -0.0221984 0.28553122 0.060734317 -0.011736339
-0.07333811 0.07617162 -0.08514645 0.2028922 -0.48965037 -0.22329588 -0.07627899 0.16535935
0.9105903 0.17743887 -0.20306681 -0.4866177 -0.4598815 0.24079946 -0.1522709 -0.016364325
-0.12530984 0.24332787 0.20587006 0.0051947907 0.30087516 0.097076766 -0.041194703 0.69592613
-0.6026429 0.06523012 0.528024 -0.16855076 -0.19564554 -0.7528735 -0.056490768 0.05620712
0.10495347 -0.029048657 0.8063184 -0.39663607 0.03377797 -0.06475362 0.22299322 -0.41066885

bias f4 [128]
00000000: cba8 d93e d39b eebe 3bd7 67bf 6711 963e
00000010: 26c2 c2be 8321 113f cd67 b53d 58d0 dc3b
00000020: fb30 dd3e 11a2 1ebd b035 20be 2244 623e
00000030: 63bd 4f3f 639e 37be 3503 4d3f 00ca 0b3d
00000040: 417c c4be 8f6a 703e 2091 7c3e cf45 fcbe
00000050: 23bd 0f3f db0a 3dbf b70f 2f3f 91e4 b4bd
00000060: 20e1 01bf e70f 263f 2973 01bf ddf7 c4be
00000070: b6b5 f8be 4a2d 4dbd aa04 ab3d 146a 62be
00000080: afa0 b538 8902 49bf 4f29 123e 27a3 42be
00000090: b80d 293f bbc2 3a3e 59ed 813e 094c abbd
000000a0: 35f5 fbbc 6d84 b23e 93cb a83e f225 edbe
000000b0: b8e6 f43e a5c7 c8be b216 1a3e 6f68 5bbd
000000c0: b96e 77bf 93b5 07bf cdd5 0bbc a0b9 2fbf
000000d0: b46a 32bf b60e a43e 8332 f7be 9a32 163e
000000e0: 421a cabe 1093 e5bd 1fb3 0ebf dd60 8c3e
000000f0: 4399 a3bd 381f 3e3d e29b c8be a277 0ebf
00000100: d4c3 213f e7d0 48bf fe96 02bf 45a4 503f
00000110: 9540 6fbe 7535 debe db3b 203f bc14 b1be
00000120: 1798 a0be 8f6d 68be 3226 e43d 46a1 8bbe
00000130: 61db 28be 295a e7be 8b62 55bf b9f5 443d
00000140: bfb4 f1be 6097 e23d cd7b f33d c02d d53e
00000150: b61b 1abf 9fc5 f9be 9781 44bf e21a 03bf
00000160: ac6e 3abf f4f1 31bf 7f60 413d 6507 213d
00000170: 1553 d6bd fa19 c33e 00d2 26bf 16fd 97bd
00000180: 8124 d43e 6dd2 de3c 40d8 f3be fc00 d83e
00000190: 8bb5 17bf a13c 213e 5761 b5bd 6205 f93e
000001a0: 14d2 c3bc a634 cb3d d3e1 373f 91dc cbbe
000001b0: 365b 3c3e 8386 b4be 4d68 f3bd d8e5 c2be
000001c0: c969 9dbe 358c 90be c94a fa3e d82b 2b3f
000001d0: 6680 84bd a77a 883e fa4f 46be 2d8d b9be
000001e0: 246c 88be b859 273f 8117 2f3e 3598 a5bd
000001f0: bff8 3a3e 5fdb 633e fe0c 823e 9db2 4ebd
0.4251159 -0.4660326 -0.9056279 0.29310152 -0.38038749 0.5669176 0.08857689 0.0067387037
0.43201432 -0.038728777 -0.1564548 0.22096303 0.81148356 -0.17931513 0.8008302 0.03412819
-0.38376048 0.23478149 0.24664736 -0.4927201 0.56147975 -0.7384469 0.68383354 -0.08832658
-0.5073414 0.64868015 -0.50566345 -0.38470355 -0.48576134 -0.05009202 0.08350499 -0.22110778
8.660682e-05 -0.78519493 0.1427357 -0.1900755 0.6603656 0.18238346 0.25376394 -0.08364112
-0.030756572 0.34866658 0.32967815 -0.46318012 0.47832274 -0.39214817 0.1504772 -0.053566393
-0.96653324 -0.53011435 -0.008534861 -0.68642616 -0.69694066 0.32042474 -0.48280725 0.1466774
-0.39473158 -0.112096906 -0.5574207 0.2741765 -0.07988217 0.04641649 -0.3918143 -0.55651295
0.63189435 -0.7844376 -0.51011646 0.81500655 -0.2336448 -0.4340016 0.6259133 -0.34586132
-0.31366035 -0.22698043 0.11140098 -0.2727148 -0.16489936 -0.45185974 -0.8335349 0.048085902
-0.4720821 0.11064029 0.118888475 0.41636467 -0.60198534 -0.48783585 -0.7676024 -0.51212895
-0.7282512 -0.69509816 0.047211166 0.039313693 -0.104650654 0.38105756 -0.65164185 -0.07421319
0.414341 0.027199948 -0.47625923 0.4218825 -0.5926139 0.15745784 -0.08856457 0.4863692
-0.023903884 0.09922151 0.71828955 -0.39816716 0.18394169 -0.35258874 -0.11885128 -0.38065982
-0.3074477 -0.2823197 0.48885182 0.66863775 -0.064698026 0.26656076 -0.19366446 -0.3624052
-0.26645005 0.65371275 0.1709881 -0.08085672 0.18258952 0.22251652 0.25400537 -0.050463308

weight f4 [128, 128]
00000000: b01a 2bbe 94d9 8f3d 0f3f 45be 8534 14be
00000010: 2030 b93d 8099 c2bd 9fde 58bd 15d1 9fbd
00000020: 65fd 27bd 4d32 e8bc 810b babc c0cd 2cbc
00000030: 7f6d 25be 6267 1c3e 5ddb da3d c52b fbbc
00000040: 4ff2 e9bd d2e8 3f3e 951c b13d f754 f33b
00000050: 0ce5 1dbd b755 543e e1e6 19bd 070b 2dbd
00000060: 8315 d13c 25fd 67be fd90 1bbe 235d 053e
00000070: f608 a6bd 2f73 68be 6aed 04bd 8c59 1f3d
00000080: f554 79bd f4de 883d c9df afbe 9d54 8bbe
00000090: 2710 1b3e 7d4d 51bd 2915 533e 2d3d 9bbe
000000a0: dae5 d339 460e 7dbd fa23 6bbd 819f 26bd
000000b0: 2314 973e 1c7d a7bc b843 f13c 2933 e2bc
000000c0: 9db9 9ebe aecf 53bd a376 263e 891c f03c
000000d0: 6b71 383d b68e 71bc fc29 1abe 5a67 75be
000000e0: 14bb 86be 46d4 27be 4469 a7be 8b93 7e3d
000000f0: 798d 12bd 1c7c 203e 4722 80be 75c3 23be
00000100: 3e30 61be aa07 ab3b a622 24bd 991f e0bd
00000110: 2bf0 daba ba84 5c3d cc77 91bc 2834 ed3d
00000120: 5cd9 873e 4227 6c3e 9d33 4cbe d6d4 d2bd
00000130: 237b 24be 25d4 3ebd 0083 b43d fd02 1d3e
00000140: 6b66 083e 36c3 bebd c7b3 fdbd 1a24 3e3e
00000150: 451d 7f3e a6f6 61bd d3d1 4f3e 9206 113d
00000160: 89de 623c c2d9 153d 375a aa3c 6789 223e
00000170: 6fe4 10be c288 59be 7069 4fbd 9565 d8bd
00000180: 5898 2fbd 8841 633e 73ca 003e 5d71 a7bd
00000190: 9777 cfbc b163 a43d bf9b ea3b 9448 d53d
000001a0: b4e3 583e c6d8 c83d a054 8f3b ffe2 9cbe
000001b0: 6a46 b73d aa18 31bd 0db4 733e acb6 9f3d
000001c0: 2eeb e33b 6791 a0be 1883 9e3c a2f1 7fbe
000001d0: b320 84bd 386b 8ebb cb31 e73d cc50 c13d
000001e0: 16a8 aabe ae3a 98bd 28be 44bd f28b 203d
000001f0: 8ae2 01be 2293 c9bc c4c1 fa3e d0a3 b6bd
00000200: d1dc 7bbd 5ef3 e53d 6a69 133e b340 2c3d
00000210: 984f 31bd 6041 26be c4ea 23be 4c6c b9bd
00000220: 146c f93d e505 863b cb1e 71bd 1f64 8bbd
00000230: 5d5f 34be a5cb 383e 4ae4 8b3e 27b2 1fbe
00000240: bee1 62bd 8cf6 623e a86d 533e b5ef 8f3d
00000250: 2910 68bb 5331 bbbd b785 cc3e cbcd 0abe
00000260: 463a 183e cdd7 713d 39eb c6bd 297b 4dbe
00000270: e2bd 8ebe 3b4c 563c 190c 2abc d7dc cc3d
00000280: 7666 513d a797 94bd 213c 6e3e c340 c3bd
00000290: f14f a8bc d81d 1e3e 56d9 30be e012 30be
000002a0: 8db9 e13d 15d0 f13d f670 943c 9e47 afbd
000002b0: 0e11 48bd b306 e5bd ddaa 893c 0fa1 53be
000002c0: c493 2fbe 777d 2bbc 0697 6d3d 58af 06be
000002d0: b720 93bc f0f8 bc3b 0b61 d33e 93a8 6d3e
000002e0: e4e8 2ebd 8493 7abe c081 863e 9444 01be
000002f0: 6e37 d23d 0c98 b0bd a221 83bc 17c3 bf3d
00000300: a180 7e3e e412 703c aba1 95bc 8c9d fc3d
00000310: 3e92 d03d 715a 53be 0ba1 a63d 5c42 6abd
00000320: 91c1 39be 3ff4 fa3c 2e27 2a3c 0340 c7bd
00000330: 80d3 803e 77fa 06be 0ecf 773e 4c06 b2bd
00000340: 207a 053d 3bbb 033e 8e22 60be b954 883d
00000350: 4948 f73d 128d bbbd 9f4d 84be 6c99 ecbc
00000360: 2d9d 90bc 44ef f63d 35f1 d7bd 2d6d 30bc
00000370: 9c78 38be 3b21 943c e03e 9abe a1af 37be
00000380: 6bae 613c c903 c7bc c78e a43c 62b1 28bc
00000390: dadd b1bd 5ca3 c43d 4b95 34be b707 c53c
000003a0: c654 e5bc 71aa 1c3e f428 233e 3c38 08bd
000003b0: 8f76 aa3a c397 4b3e 5805 debc 8e15 bc3c
000003c0: 7926 e5bb 6c08 5a3e 60a8 19be f768 f53d
000003d0: 44cb fd3c f283 5a3c 633b c73d 1790 813e
000003e0: 0406 8f3c 2683 b9bd 01d9 973e 7e19 8ebd
000003f0: cc11 a03e ead1 bdbd e280 b43e c4ed 6d3e
-0.16709399 0.070239216 -0.19262336 -0.1447316 0.09042382 -0.09501934 -0.052946683 -0.07803551
-0.04101314 -0.028344298 -0.022710564 -0.0105471015 -0.1615505 0.15273812 0.106863715 -0.03066052
-0.1142317 0.18741158 0.0864803 0.0074259 -0.038548514 0.20735823 -0.0375737 -0.042246845
0.025522953 -0.2265516 -0.15192027 0.1302381 -0.08107178 -0.22700189 -0.03245298 0.038903758
-0.060872037 0.0668315 -0.34350422 -0.27212992 0.1514288 -0.05109929 0.2061354 -0.3032011
0.0004041631 -0.06178119 -0.057407357 -0.04067946 0.2950755 -0.020445399 0.029451236 -0.027612286
-0.31000987 -0.05171173 0.16256194 0.029310482 0.04503004 -0.014743498 -0.15055078 -0.23965207
-0.26314604 -0.1638957 -0.326975 0.062152427 -0.03577945 0.15672344 -0.25026152 -0.1599253
-0.21991059 0.0052194195 -0.040072106 -0.10943527 -0.0016703656 0.053837515 -0.017757319 0.11582214
0.2653302 0.2306185 -0.19941564 -0.102945015 -0.16062598 -0.046589036 0.08814049 0.15333171
0.1332032 -0.09314577 -0.123878054 0.18568459 0.24913509 -0.055166863 0.20294885 0.035406657
0.013847002 0.036584623 0.02079497 0.15872727 -0.1414964 -0.21243575 -0.050637662 -0.1056625
-0.042869896 0.22192967 0.12577228 -0.08175919 -0.02532558 0.08026827 0.0071596797 0.10414234
0.21180612 0.09806971 0.0043741018 -0.30641934 0.08948977 -0.043236412 0.23799153 0.07798514
0.006955526 -0.31360933 0.01934962 -0.2499452 -0.064515494 -0.0043462776 0.11288794 0.09439239
-0.33331364 -0.07433067 -0.04803291 0.039195962 -0.12684074 -0.024606291 0.48975956 -0.089179635
-0.061489884 0.11228059 0.14395681 0.04205389 -0.043288797 -0.16235876 -0.16007525 -0.09053859
0.121788174 0.004090058 -0.058867257 -0.06806206 -0.17614503 0.18046434 0.27322608 -0.15595303
-0.055391066 0.22164363 0.206473 0.07028142 -0.0035410023 -0.09140267 0.39945766 -0.13555066
0.1486598 0.059043694 -0.09712834 -0.20066513 -0.27879244 0.013079698 -0.010378861 0.10003059
0.051123105 -0.07255488 0.23265125 -0.09533837 -0.020545932 0.15441072 -0.17270407 -0.171947
0.11021719 0.118072666 0.01812027 -0.08558582 -0.04884439 -0.111829184 0.016805107 -0.20666908
-0.17146212 -0.010466925 0.058005355 -0.13152826 -0.017959936 0.0057669804 0.41284975 0.23208837
-0.04270257 -0.24470335 0.26270866 -0.12623817 0.102644786 -0.08622751 -0.016007248 0.09363382
0.24853756 0.014652941 -0.018265566 0.12334737 0.101841435 -0.2063997 0.08136185 -0.05719219
-0.18140246 0.030634044 0.010385318 -0.09729006 0.25161362 -0.13181482 0.24200079 -0.08692607
0.03258717 0.12864392 -0.21888182 0.066567846 0.12074334 -0.091577664 -0.2584047 -0.028881751
-0.017653072 0.12057355 -0.105440535 -0.010768217 -0.18014759 0.018082252 -0.30126095 -0.17938091
0.013774495 -0.024293797 0.020087613 -0.010296198 -0.08684893 0.09601471 -0.17635076 0.02405153
-0.027994525 0.15299393 0.15933591 -0.033256754 0.0013005304 0.19882111 -0.027102157 0.022959497
-0.0069931117 0.21292275 -0.15005636 0.11982911 0.030980714 0.013337122 0.09728124 0.25305244
0.017458923 -0.09058218 0.29657748 -0.06938456 0.31263578 -0.092685536 0.3525458 0.23235232

bias f4 [128]
00000000: 987b 38be 1df2 d7bc c954 243c 8a8c 3ebe
00000010: 7438 913d 5680 17bc 81c0 dcbc a908 ec3c
00000020: 5bce 133e 1e64 693e b015 323e 349b 883e
00000030: 4e28 20be 0e62 a6bd d274 223d fb57 663c
00000040: ec18 13be a86a 9bbd 1bf3 f33d 2088 33be
00000050: c7d6 623e 841b f03d 0215 f43d 607c 5b3c
00000060: 223b bcbd ed3b 71be 922f 9a3d b061 cfbb
00000070: e486 36bd 03b0 613e 425b 69bd b14f 283e
00000080: 6b20 cbbc 9fa1 393e 7740 83bd 95dc adbb
00000090: 67b8 253d aa43 493e b871 b0bd f0e1 02bd
000000a0: b2c6 c4bc 3816 ef3d db44 ffbc 0bd5 a6bd
000000b0: 5eac 873d 3ecc 763c a544 5d3d a043 7ebd
000000c0: 0aee 28be ce20 81be 935c 04be 08a9 1fbe
000000d0: 88a4 9ebd 4e98 ab3d 830e a1bb e455 57bd
000000e0: b060 4b3e 4d54 37be a40c f6bd 115c d43d
000000f0: d78f 323d 6041 133e 700c 86bd a37c d8bd
00000100: ba28 3c3d 0a3d 51bd c325 06be 4b7c b6be
00000110: 2223 3d3b 0075 34bd 4c6a 1c3d efe7 8bbd
00000120: fe79 49bd 2fd9 a2bd 0681 33be 441d d6bc
00000130: 15f4 983d a524 003e 5cc6 2f3d e724 19bc
00000140: 2e4f 9c3d ae7a eb3d cf68 0a3d 73db a4bc
00000150: d69b 6fbd b884 363e 11bc 0b3d 8db6 acba
00000160: 3469 35bd bde3 9bbd 7f58 f83d 9315 48be
00000170: beb2 97bd 8f2a c8bd c1a4 e8bd 9acb fe39
00000180: 4387 e5bc 7f3b d2be 3614 89bd 2936 f3bd
00000190: 7cce 8c3d 81b8 1f3d 66d0 223d 432f d53d
000001a0: 27d6 49be 6d8c 1dbe 86da d73d 9ff8 2d3e
000001b0: 175a 2bbd d276 3a3e a8d5 95bd a56c 323c
000001c0: 0844 cc3d 59dd 083c 92b0 4b3b 222f 363e
000001d0: 5854 033e 8a01 d6bd f7f1 7f3d 8a9c b5bb
000001e0: 26c6 c03d 078f 053d 4542 ad3e 0a24 5ebd
000001f0: e937 273e 5579 ad3d aaf6 b6bd 6c94 0cbe
-0.18015897 -0.026360566 0.01002998 -0.18608299 0.07090846 -0.009246906 -0.026947262 0.028812723
0.14434187 0.22792098 0.17391086 0.2668091 -0.15640375 -0.08124171 0.03966219 0.014059062
-0.14364976 -0.075887024 0.11911603 -0.17532396 0.22152244 0.11723998 0.119180694 0.0133963525
-0.09190966 -0.23558016 0.075286046 -0.006328784 -0.044562235 0.220398 -0.056971796 0.1643665
-0.024795732 0.1812806 -0.0640878 -0.0053058364 0.040459063 0.19654718 -0.0861544 -0.031953752
-0.024020527 0.1167416 -0.031160763 -0.081461035 0.06624673 0.015063344 0.054020543 -0.06207621
-0.16497055 -0.2522034 -0.1292594 -0.15591824 -0.077462256 0.08378659 -0.00491506 -0.052572146
0.19861102 -0.17903252 -0.1201413 0.10369123 0.043594208 0.14380407 -0.06545341 -0.105706476
0.045937277 -0.051083602 -0.13100342 -0.35641703 0.0028860052 -0.044056892 0.03818731 -0.06831347
-0.049188606 -0.07951581 -0.17529687 -0.026137002 0.0746843 0.12513979 0.04291378 -0.009347177
0.0763229 0.11498009 0.03379136 -0.020124173 -0.058498226 0.17824066 0.0341149 -0.0013176963
-0.044289783 -0.07611797 0.12126254 -0.1953948 -0.07407139 -0.097737424 -0.11359549 0.0004859835
-0.0280186 -0.41061017 -0.06693308 -0.118755646 0.06875321 0.038994316 0.039749525 0.10409405
-0.19710599 -0.153856 0.10539727 0.16989373 -0.041833963 0.18209389 -0.07316142 0.010890161
0.099739134 0.008353555 0.0031080586 0.17791417 0.12825143 -0.10449512 0.062486615 -0.0055423426
0.09412794 0.032607105 0.33839622 -0.05423359 0.16329922 0.08470408 -0.08933766 -0.13728493

weight f4 [64, 128]
00000000: ac51 df3c eacf 89be 4dd3 60be fc98 8c3e
00000010: 9c4f 0c3e 9aa8 b73c 0000 dd3d cac2 96bd
00000020: cf0a 5ebe c259 8b3c a0e7 a63d faa4 933e
00000030: fd22 9fbe 2ab2 b83e 09a8 02bf 8157 9d3e
00000040: 97c0 003f ebca 49be 3f58 843b 46f0 743e
00000050: f6d9 4c3d 225b 21bd 4dd1 9d3d cd4e fbbe
00000060: 2193 183d 5fd2 55bd 9fab a9be d6ad 51bc
00000070: dfec a8bd 55b8 9abe c009 fe3b cfe4 fc3b
00000080: 957e 56be 85d7 a2bd 07e6 85be aacf c6bc
00000090: 9b86 59be 9d50 29be 1013 ac3e 3299 4dbe
000000a0: 14fc f7bc 9661 6c3e 9253 963e fcf1 113e
000000b0: d4ef 643e 47c4 a9be 9aea c1be 6cff 393e
000000c0: 0d54 e03d 512a 7f3e 6f80 b93d a93e dabc
000000d0: d2ef f83d ed62 ccbd fa7d df3e 588a 933d
000000e0: 983a 00be eedd 78bd 7035 ccbd 9114 263e
000000f0: 63a1 afbe 1750 a7be 335b d73d 7f1d a2bd
00000100: f1d8 5fbe 3929 113e 171b 843d 346b af3e
00000110: 689b e83d 58fe 75be 8fea 7c3d fe81 973e
00000120: 5aba 11be 0f1a 903e 73a7 08be 251b d33e
00000130: ec06 b73d 684f 8abd 5a73 1cbe 1ad1 0bbf
00000140: 158c 37be c30c 673e 6169 c03e 3dcb debd
00000150: 4a8c 1cbe 5be1 953d 9b2e c33e b2c6 d73c
00000160: 5639 9dbe de40 283d 76ca 75bd 4564 933c
00000170: 2ef9 143c 59a0 583e 065b 053e 9138 673e
00000180: 876b 5d3e 8acf 04be ac13 513d 350c dabd
00000190: d45e 4d3e 5044 5bbe 3547 203d 1202 b43e
000001a0: 8a88 ddbd 661c 97be 50c1 d0bc d450 c1bc
000001b0: 2241 393d f12c 183e 3627 53be f919 183e
000001c0: 7da6 4c3e b136 013c 61ec 00bf 0f23 87be
000001d0: 4cee c7bd ecbf 64be d18c 52be 12c5 a3be
000001e0: 61df a23d 8ff6 073e ee3f 58bc 749f 9ebc
000001f0: 78ad 4cbe a7a4 04be ac16 95be 58d3 c3be
00000200: dbd7 d3bc cb4d 32be b0db e13e d7ac c2bd
00000210: ea17 2dbe 88c3 4cbe 84b4 41be 92e7 84be
00000220: 3129 25be 0a65 adbe c946 8e3e e79c 103e
00000230: 0247 263e f5f8 e93e 9897 983e 4eda debd
00000240: 070e 6a3e 7a6c 65be 3823 04bf 4744 b83d
00000250: 114c 3c3e 0584 0cbe bfbf 45bc e9e0 87bb
00000260: 28c5 b43e baa7 c43e c51b 53be 13c4 c83d
00000270: f3af 57be 1f98 a1bd acbb 783e 9451 8e3e
00000280: 8dc7 0ebe c82a 22be 06a6 34be 43bb 09bf
00000290: 3152 7dbd d2c8 9dbd 0375 40be be9f 30be
000002a0: a745 7dbe 41ad 00be 2959 95be ec95 c1bd
000002b0: df7e 18bd fdb4 b5bd e222 cebe 7fc2 083e
000002c0: 4dc8 203f 7a33 7c3e e069 7dbe ddda cfbd
000002d0: b781 84bd b2ec 80bd af24 e23c 16ec 013f
000002e0: 23d6 383e b394 1a3f 81bd 6d3c cd18 d23c
000002f0: b67e 1a3e e0dd 6ebd ce50 3f3e 38e6 acbe
00000300: 0ae0 dc3c 6c4e b03d fa9b bfbd b2be 39be
00000310: c9ac 5abd a394 d93d 917e 243e d032 23bb
00000320: 90c9 693e 19e2 aabd d730 123e dee8 14be
00000330: cd74 3d3e 141f ccbb cb03 2cbe 73db a7be
00000340: cfac 1dbe 99b9 a4ba 6ecc 143c b13b 2fbe
00000350: 69f3 57be 212a 8c3d 20e3 06bd 06c5 8ebd
00000360: 8938 803c 600e b7be 9411 0a3e eaed 913e
00000370: 31c6 88be 9b0e b63d dc40 963e fc8b 6d3c
00000380: 151f 88bd 38db 1a3e fa28 31be dd0a 923b
00000390: f367 3fbd c09a bfbe f9b8 0d3e 080f 09bc
000003a0: 24b9 103e 01e2 353c d791 60be 5ad6 07be
000003b0: d0de 88be 7716 693e fe72 bdbc e052 42be
000003c0: 0fa4 34bd 8c58 87bc e151 a7bd fc4a f7bd
000003d0: 4fb2 4dbe e59b 85bd 1d7f f43c 6427 a1be
000003e0: d611 93be 7685 d83e 73e1 1f3e dc5d 0cbe
000003f0: 98ab 83bb d7f6 013e 3c33 c8bd 92d9 23be
0.027260624 -0.26916438 -0.21955605 0.27460468 0.13702244 0.022419263 0.107910156 -0.07361372
-0.2168381 0.017010573 0.08149648 0.28836805 -0.3108138 0.36073428 -0.5103765 0.30730823
0.5029387 -0.19706313 0.00403884 0.23919782 0.05001255 -0.03939355 0.077059366 -0.49083558
0.037249688 -0.05220258 -0.3313875 -0.012797793 -0.082483046 -0.3021876 0.007752627 0.007717706
-0.20946725 -0.07951263 -0.2615206 -0.024268944 -0.21242754 -0.16534658 0.33608294 -0.2007797
-0.030271567 0.23084101 0.29360634 0.14252466 0.22357112 -0.3315756 -0.378743 0.18163842
0.109535314 0.24918486 0.090577 -0.026641207 0.12155117 -0.09979806 0.436508 0.07204121
-0.12522352 -0.060758524 -0.0997113 0.16218783 -0.34302816 -0.3267829 0.10515442 -0.07915782
-0.218601 0.14175881 0.064504795 0.34261477 0.113577664 -0.24022806 0.06174713 0.29591364
-0.14231244 0.2814488 -0.13345127 0.41231647 0.08936867 -0.06753427 -0.15278378 -0.5461594
-0.17924531 0.22563462 0.37580398 -0.108786084 -0.15287891 0.07318374 0.38121495 0.026339862
-0.30707806 0.041077487 -0.060007535 0.017992148 0.009092612 0.21154918 0.13023004 0.22580172
0.2162305 -0.12969795 0.05104415 -0.106468596 0.20055705 -0.21412778 0.03913041 0.3515783
-0.108170584 -0.29513854 -0.025482804 -0.023598112 0.04522813 0.14860894 -0.20620427 0.14853658
0.19985385 0.007886575 -0.50360686 -0.26393935 -0.097622484 -0.22338837 -0.2056153 -0.3198629
0.079527624 0.13277648 -0.013198836 -0.019363143 -0.19988048 -0.12953435 -0.2911886 -0.3824718
-0.025859764 -0.17412488 0.4411292 -0.09505623 -0.16903654 -0.19996464 -0.18916517 -0.25957924
-0.16128995 -0.3386615 0.2778838 0.14122353 0.16238025 0.45697752 0.29803157 -0.10881482
0.22856914 -0.22404662 -0.5161624 0.08997398 0.18388392 -0.13722236 -0.012069642 -0.0041466844
0.35306668 0.38409215 -0.20616062 0.09803023 -0.21063213 -0.07890343 0.24290341 0.27796614
-0.1394331 -0.15836632 -0.17641458 -0.53801364 -0.061845962 -0.07704319 -0.18794636 -0.17248437
-0.24733602 -0.12566091 -0.29169586 -0.094524235 -0.03723037 -0.088724114 -0.40260988 0.13355444
0.62805635 0.24629012 -0.2474742 -0.10149167 -0.06470054 -0.06295146 0.027605383 0.50750864
0.18050437 0.60383147 0.014510513 0.025646592 0.15087399 -0.058317065 0.18683168 -0.33769393
0.026962299 0.08608708 -0.09355922 -0.1813915 -0.053387437 0.10624053 0.16063906 -0.0024902113
0.22830796 -0.08343906 0.14276443 -0.14541957 0.18501587 -0.0062292907 -0.16798322 -0.32784614
-0.15397952 -0.001256752 0.009081943 -0.17112614 -0.21088947 0.06843973 -0.032931447 -0.06971173
0.015651958 -0.35753155 0.13483268 0.28501827 -0.26713708 0.088895045 0.2934636 0.014498707
-0.066465534 0.15122688 -0.17300788 0.0044568614 -0.046729993 -0.37422752 0.13840093 -0.0083654
0.14133126 0.011101247 -0.21930633 -0.13265362 -0.26732492 0.22762476 -0.023126122 -0.18976927
-0.04410177 -0.016521715 -0.08169914 -0.12074849 -0.2008755 -0.06523875 0.029845769 -0.31475365
-0.28724545 0.42289323 0.15613346 -0.1370768 -0.0040182583 0.12691818 -0.09775397 -0.16000965

bias f4 [64]
00000000: f618 b33d 229f 15be dc3a 1abd 859a 60bd
00000010: b241 cf3d 69e7 82bc 4f87 03be fc37 bc3c
00000020: 679e 8bbe 36e9 d3bd ac22 883c c22f 6b3c
00000030: fbf3 9ebe e1c5 d03d c139 46be 0f3e d1bd
00000040: 3b44 823d 99b5 913e 1eed 18be 4c64 253e
00000050: ece7 063e 8ff4 3f3d 677c 243e cc55 9e3d
00000060: 89e5 583e 5f30 583e 809d ab3c b436 083e
00000070: 496c c93d 9411 073e 0894 94bd f33a a8ba
00000080: 1825 a53d 6d53 b13e d8dd dbbc 0da7 77be
00000090: 8460 343e 53d1 703d 133e 6a3e 9cfb 86bd
000000a0: 1930 8a3c 4407 b03d ac18 18bd 7055 723e
000000b0: 1dd3 5f3e 449d a03d 68fd 96bc 6b31 33bd
000000c0: 9508 09bd 21d0 4bbc 32d6 f03d 82a9 48be
000000d0: 08c3 bdbe 6e0e 203d 0dc2 9abc 2f17 fcbd
000000e0: d3d8 e33d 1c44 483d 65d6 5fbe 4582 833e
000000f0: dd62 febd 4460 f8bd 3eec 5fbe 53a6 84be
0.08744995 -0.14611486 -0.03765379 -0.05483486 0.10119952 -0.015979486 -0.12844585 0.022975914
-0.2726929 -0.10347216 0.016618095 0.014354648 -0.31045517 0.101939924 -0.19357969 -0.10216915
0.0636067 0.2845886 -0.14934203 0.16151541 0.13174409 0.04686409 0.1606308 0.07731208
0.2118131 0.21112202 0.020949125 0.13302118 0.09835107 0.131903 -0.07254797 -0.0012834951
0.08063716 0.3463396 -0.026839182 -0.24184819 0.17614943 0.058793377 0.22875242 -0.065909594
0.016868638 0.08595136 -0.037132904 0.23665404 0.21857877 0.07842496 -0.01843138 -0.0437483
-0.03345545 -0.0124397585 0.117596045 -0.19595912 -0.3706286 0.03907626 -0.018891359 -0.123091094
0.1112534 0.04889308 -0.21859129 0.25685325 -0.124212004 -0.12127736 -0.21867463 -0.25908145

weight f4 [6, 64]
00000000: 5026 18bf 300c 9abd 61ed 223e 336d 1cbe
00000010: c546 213f 6f8c 40be 705b ddbe f8ff 923e
00000020: dc19 9cbe 30bd 823c 0852 3e3e 4ac5 ab3e
00000030: d701 cdbe 1939 ee3e 85c7 9abe 3c89 3e3e
00000040: 4b99 573e 884f f93c c442 d63d 282f 5b3e
00000050: 2cf0 063e 0d85 09bf 2385 ebbd 95bd 42bd
00000060: bf6e 12be 464b 993f 1e98 95bc 0e38 253d
00000070: 1f1f 063f 408a 873e b9db e8bd 7105 dbbe
00000080: 708b b1bd 0bfa 773e cc56 ebbe 12db 22be
00000090: 5c3f 8bbd f3f9 573e 58db 9c3e 8760 2d3f
000000a0: f7c7 0e3f 1cba 603e 8706 003e 0603 7ebd
000000b0: bad2 8b3e 79d9 9b3e 62b0 13bf bf0a 83bd
000000c0: 0c69 2e3d 800d afbe a2a9 e83e 9f2f 963e
000000d0: c39c bebe 5b66 003e 3296 31be 8752 b5bc
000000e0: 4915 d13e 73c6 72bd 8de4 a4be 428b 5c3e
000000f0: 23e9 9fbe 11b9 413e 4e34 333e 20f7 2abe
00000100: 1cc2 d33e 7894 d9be c420 a63b 211a a13d
00000110: 7ff2 5cbe 224e 4d3e 69a3 67bd 12ad f6bd
00000120: 29f1 25be 0f71 f3be 8c75 193e ddaf b2bd
00000130: 0204 17be ff06 133e 94ac 15be 17f8 4ebf
00000140: c844 f83e 643a bd3e ec7a a9be 1252 863e
00000150: 2afb da3e 1f39 283e 7951 8f3e 1bb8 033e
00000160: fa0f cd3e d9f1 32bf 7723 d3be b367 fa3d
00000170: db77 843e 5514 9cbe f68a 3abe 62bd a53e
00000180: 5dbe 90bd 71cb c43e d64a 0e3e c4d7 68be
00000190: 8df2 133f 25c8 a6be c56b 8dbe f127 97be
000001a0: e801 c4be 24a1 9dbe 83d8 9dbe f3e4 b83e
000001b0: c667 dfbc a70a f7be fb42 75bd 50bc 9fbe
000001c0: 555b bd3e 239c 0f3f aa91 7ebc 7848 66be
000001d0: 469a 6fbe c9d0 d3be 9288 bdbd 4339 7b3d
000001e0: 6584 b9be 92ab b63e 3ddb 4c3d 5140 32bd
000001f0: 10ce e8be b794 a0be 6f23 ffbe e480 9abe
00000200: fdfb cc3d a470 203f 6122 c53e 5fb7 32bf
00000210: 1b94 81bd e031 813e 7a2c c13e 80a1 07bf
00000220: cb4e 1c3f 7881 1f3c 2511 38bf eec2 43be
00000230: bcd3 b43c b827 8abf f0e2 ee3e b119 8f3d
00000240: 1ea3 b4be 31b8 b1bc e111 5b3e cb98 a73e
00000250: 6413 1fbf 0886 133f 45d4 393d 8d76 21bf
00000260: c8f6 e2bd c631 723d fe4f 123f 470c 5ebf
00000270: 7334 22bf f4fb 1c3f 698b a63e ec8a b13d
00000280: 6443 d73e 14c9 603c cc7f db3e 610e 093f
00000290: f11e a43d 5882 543d 6fd3 c63e 1a7b 09bf
000002a0: 3413 103f 1ee7 033f 750b 40bf dc5d c1be
000002b0: 9327 46bf 3a4e 9b3e 4ffb 07be 27b3 a9bd
000002c0: a7ff b5bd e7ce 30bc 7824 15bf 3399 03bf
000002d0: 4384 91bd a2f7 ea3d 80e8 143f 2c65 84be
000002e0: 3206 87bd d2de 36bf 494e 483f 2ca6 013f
000002f0: 16be 2e3d a485 463f f1f0 c93e c834 963e
00000300: 0622 9a3e 1f61 45bf 2242 0bbf 0eae 1b3f
00000310: 9556 493d 51b1 d1be 8314 d73e ef83 fdbe
00000320: 4813 98be e469 a73e b40c 33be db46 e43d
00000330: 7696 0f3e 61bb d13b 8774 d8be 9eb9 623e
00000340: 5b3d b8bd b3cb 313d 70f6 093d 1622 a7be
00000350: 0bd5 e6be 0802 4f3e 174a 55bf 4d19 943e
00000360: 5653 6c3d cceb 86be 69a7 ec3e 6306 92be
00000370: 29ee 33be 31ab 62be c047 d63e 223d 5e3e
00000380: 768a aebc 9a8b 75be 2c49 7c3d 8de7 f93d
00000390: 3e7a fabd 2df0 083e 70b1 8dbe ae9d a0be
000003a0: 9213 253e 8265 70be 4e99 983e 1ae4 1f3e
000003b0: 48e8 713e fa6c 71be 97e1 cc3e bb49 483f
000003c0: 546c d0be d254 92bd cb3c abbe 74d9 9b3b
000003d0: fa46 41be 08d1 fb3e d623 6a3e 5334 603f
000003e0: f870 073e 04fa 16be 3ea0 4b3e 7296 a6be
000003f0: 120e 0b3f a52d b4be e7cb c4be a63a 88bd
-0.5943346 -0.07521856 0.15910865 -0.15276031 0.6299861 -0.18803571 -0.43233824 0.28710914
-0.3048848 0.015959352 0.1858598 0.33548957 -0.40040466 0.46527937 -0.30230346 0.18607038
0.2105457 0.030433431 0.10461953 0.21404707 0.13177556 -0.53718644 -0.11500003 -0.04754408
-0.14300059 1.1976097 -0.018261012 0.04033666 0.5239124 0.26472664 -0.11370034 -0.4277759
-0.08669174 0.24216478 -0.45964658 -0.15903881 -0.06799194 0.21091442 0.30636096 0.67725414
0.5577387 0.21945995 0.1250249 -0.062014602 0.2730921 0.30439356 -0.57691014 -0.06398534
0.04258065 -0.34189987 0.4544192 0.29333207 -0.37228975 0.12539046 -0.17342451 -0.022134079
0.40836552 -0.059271287 -0.3220562 0.21537498 -0.31232557 0.18918253 0.17500421 -0.16695833
0.4135903 -0.42496085 0.005069824 0.07866312 -0.2157688 0.20049337 -0.056552324 -0.12044729
-0.16205277 -0.47547194 0.14986247 -0.087249495 -0.14747623 0.14358138 -0.14616615 -0.80847305
0.48489976 0.3695861 -0.33101594 0.2623449 0.42769748 0.1642804 0.27991846 0.128632
0.40051252 -0.6990028 -0.41237995 0.1222681 0.25872692 -0.30484262 -0.18217072 0.3237105
-0.07067559 0.38436463 0.13895735 -0.22738558 0.5779198 -0.32574573 -0.27621284 -0.2952266
-0.38282704 -0.30787003 -0.30829248 0.36112174 -0.027271163 -0.48250315 -0.05987833 -0.3119836
0.36983743 0.5609762 -0.015537659 -0.22488582 -0.23398694 -0.41370228 -0.09254564 0.061333906
-0.36233822 0.35677773 0.05001377 -0.04351837 -0.45469713 -0.3136346 -0.4983172 -0.3017646
0.100090005 0.62671876 0.38502792 -0.6981105 -0.06327077 0.25233364 0.37729245 -0.52980804
0.6105773 0.009735458 -0.7190116 -0.19117329 0.022073619 -1.0793371 0.46657515 0.06987322
-0.352807 -0.021694275 0.21393539 0.3273376 -0.6213896 0.5762639 0.04536845 -0.6307152
-0.11082226 0.0591295 0.5715331 -0.86737484 -0.6336128 0.6132195 0.32528237 0.08669075
0.42043602 0.013719816 0.4287094 0.53537565 0.08013714 0.051882118 0.38833186 -0.53703463
0.562793 0.5152453 -0.7501748 -0.37766922 -0.77404135 0.3033312 -0.1327946 -0.08286124
-0.088866524 -0.010791517 -0.5825877 -0.5140564 -0.07105305 0.114730135 0.58167267 -0.25858438
-0.065929785 -0.71433747 0.78244454 0.50644183 0.04266175 0.7754767 0.39441636 0.29337144
0.30104083 -0.7710132 -0.54397786 0.6081246 0.049154837 -0.40955594 0.42007837 -0.4951472
-0.2970221 0.32697976 -0.17485315 0.11146327 0.1402224 0.006400511 -0.42276403 0.2214112
-0.089960776 0.043407153 0.033682287 -0.32643193 -0.45084414 0.20215619 -0.8331618 0.28925553
0.057696663 -0.26351774 0.46221474 -0.28520498 -0.1757132 -0.22135617 0.41851616 0.21703008
-0.021306258 -0.23979035 0.06159322 0.12202368 -0.12230347 0.1337287 -0.27674437 -0.313703
0.16120747 -0.23476222 0.29804462 0.15614358 0.23623765 -0.23576728 0.4001586 0.78237504
-0.40707648 -0.071450844 -0.3344482 0.004756147 -0.18874732 0.49182916 0.22865233 0.8757984
0.13226688 -0.14743811 0.19885346 -0.32536656 0.54318345 -0.35191074 -0.38436815 -0.06651811

bias f4 [6]
00000000: 5011 343e 2bee 8a3c 23f8 87ba f574 32be
00000010: 0e41 b8be a6b7 98be
0.17584729 0.01695927 -0.0010373633 -0.17427428 -0.35987133 -0.29827613
