src/learning/models/128_128_128_notouch_800ep_8930.pt (torch, 141647 bytes, 8 tensors)

weight f4 [128, 5]
000000 d0 29 c1 3d 78 57 a6 bc ff cf 00 3e 2e 5d c3 3e
       0.09431803 -0.02030538 0.12579344 0.38157028
000010 47 d9 35 3e 5d 6e 5b bf 9b cd ac 3d 0d 20 3d 3e
       0.17758666 -0.85715276 0.08437654 0.18469258
000020 6c 95 78 3e 2d 22 16 bf 10 51 f1 bd 88 fe b6 3e
       0.2427575 -0.586459 -0.117830396 0.35741067
000030 27 5c a0 3d ab 39 18 3e f0 42 84 bd 5b 6c 7b be
       0.07830077 0.14865749 -0.0645808 -0.24553053
000040 bd af 27 be 6d b3 fe bd 3b 44 4b be 64 bf 34 3f
       -0.16375633 -0.124365665 -0.19850247 0.7060454
000050 ba cb 3d be e4 46 0f be bc d3 da bd 7a e3 83 be
       -0.18534747 -0.13991886 -0.106849164 -0.25759488
000060 e4 81 53 3f 13 33 07 3e eb 73 58 3e ca 4a ad 3e
       0.8262007 0.13203077 0.21137969 0.33846122
000070 fa 8e ce be 62 9d 2b 3e 04 19 04 3e 73 d2 be 3e
       -0.40343457 0.16759256 0.12900168 0.37269935
000080 ed 82 60 3e 38 49 2e 3e c2 85 62 be 08 67 07 be
       0.21924944 0.17020118 -0.22121337 -0.13222897
000090 f3 d4 29 be a5 d8 26 bf d4 56 cf bc cf 3c 18 bf
       -0.1658514 -0.65174323 -0.025309958 -0.59467787
0000a0 32 48 76 bd 0d 4b 0f bd 48 15 f9 3e fa b5 1c bf
       -0.060127445 -0.034983683 0.4864905 -0.61215174
0000b0 fb b8 2f 3e 46 b0 66 bd 4e 43 82 3e f5 2f 0f be
       0.17160408 -0.05632045 0.25441974 -0.13983138
0000c0 27 94 8a 3d ed a6 27 3e 93 64 bd 3e 9e 48 a9 be
       0.06766539 0.16372271 0.36990795 -0.33063215
0000d0 d1 99 90 be 13 d8 b7 3e 38 fe 06 bf 5d fa 77 3e
       -0.28242353 0.3590704 -0.5273166 0.242166
0000e0 8f b4 05 3e 09 d6 9e bd b3 05 1d be e3 7b 4c be
       0.13057159 -0.07755668 -0.15334205 -0.19969134
0000f0 1e e9 a0 be c1 a9 79 3d ce 7f 9a be 56 83 33 3e
       -0.31427854 0.060952906 -0.30175632 0.1753057
000100 80 c1 c7 bc 4d c9 c2 bc 3f ee 9e be 4f 00 92 bf
       -0.02438426 -0.023777628 -0.31041142 -1.1406344
000110 e2 61 5e 3e eb 86 2f 3e 92 8f ce 3d a5 24 06 3e
       0.21717027 0.17141311 0.100859776 0.13099916
000120 f6 44 98 bb e3 f9 14 3f f0 7e 48 3f 00 27 0d 3e
       -0.0046468927 0.58193797 0.7831869 0.13784409
000130 07 dc d7 3e 65 88 00 3e a9 38 2a 3d d8 47 28 3f
       0.42160055 0.1255203 0.04155794 0.65734625
000140 8b 19 9e bd 94 21 0a be b5 2f 48 be d3 54 d0 3d
       -0.07719716 -0.13489372 -0.19549449 0.10172429
000150 78 68 1f 3f b6 1a 17 be e9 28 8e be b1 dc b5 be
       0.6226878 -0.14756283 -0.27765587 -0.35519937
000160 7d 8e 23 bd 65 5d 9c 3e b6 b2 b3 3d e9 8f d7 3d
       -0.03993081 0.30540004 0.08774321 0.105254956
000170 ea a1 74 3e 4e 60 cc be eb c3 85 3e 88 2c 6a 3e
       0.2388989 -0.39917225 0.26126036 0.2286855
000180 14 7d 18 3f 2d 9c 7d be cf 7d 11 bf 6a 4a 53 be
       0.59565854 -0.24766608 -0.56832594 -0.20633855
000190 99 cf 91 3e 65 94 33 3e 44 a1 07 3e f6 8d 47 bf
       0.28478697 0.17537077 0.13245112 -0.7795099
0001a0 26 65 47 be e5 4e 00 3d a1 6e a4 bd 47 a0 53 3d
       -0.19472179 0.03132524 -0.08028913 0.051666524
0001b0 23 06 11 3e f8 51 40 bf 71 e6 97 be d4 0a 3d 3d
       0.14162497 -0.75125074 -0.29668 0.046152905
0001c0 f8 94 fc bd b0 a2 8e 3e 5c 67 58 3f 46 cd 75 3c
       -0.12333101 0.27858496 0.84532714 0.015002554
0001d0 35 c6 34 3c 8f f6 88 bd 71 3e bb 3e 3d 01 28 bf
       0.011033584 -0.06687652 0.36571077 -0.6562689
0001e0 86 56 9b 3e 4e b8 26 bd 8f 8f 94 3e 27 67 57 be
       0.3033945 -0.04070311 0.29015777 -0.21035443
0001f0 4e 37 a5 be c1 bf 79 3d 98 50 26 3e af f9 29 3e
       -0.32268757 0.060973886 0.16241682 0.16599153
000200 e3 1a 09 bf ca fe cd be 32 dd 1a 3d 91 8a bb 3d
       -0.5355665 -0.4023345 0.037808605 0.09157289
000210 6f 88 24 3f 1d 14 07 3f 1c c4 d5 3e a1 f6 e3 bc
       0.6427068 0.52765065 0.41751182 -0.027827563
000220 2f 6f 0d 3e 77 df 09 bc b0 c4 3f 3f 49 40 73 3f
       0.13811944 -0.008415095 0.74909496 0.95019966
000230 c7 d9 71 be 48 ff 0c 3c 16 53 bb be a2 2a 63 bd
       -0.23618232 0.008605786 -0.36586827 -0.05546058
000240 b7 e6 5e 3e 45 e3 7d bc b7 9a 81 be de 1d a4 3c
       0.21767698 -0.01549608 -0.2531335 0.020033773
000250 d5 41 cc be df 1b f9 3e 3a 97 79 3d 39 b8 5a be
       -0.39893976 0.48654076 0.060935237 -0.21359338
000260 d1 e5 13 bf f5 79 cf 3d 57 56 01 3f 01 43 4c bc
       -0.57772547 0.10130683 0.5052237 -0.012467147
000270 91 65 75 be 3f 5d 78 3c fa dd 93 be 60 66 4c 3f
       -0.23964526 0.01515895 -0.28880292 0.7984371
000280 fc 78 8a 3d 85 b4 1d 3d 67 01 58 bd 6f 8e aa bc
       0.06761357 0.038502235 -0.052735712 -0.02081987
000290 b7 9a 34 bf e0 04 bf 3c 5f 94 7a be 60 a2 be bd
       -0.70548576 0.023317754 -0.24470662 -0.09308314
0002a0 41 2a 31 be 87 b0 1b bf 0e 97 66 bd ad a6 5c 3e
       -0.17301275 -0.60816234 -0.0562964 0.21547957
0002b0 70 c3 a2 3d c9 5d 84 3e 54 cf 04 3f de 3c 70 be
       0.07947433 0.25852802 0.5187886 -0.23460719
0002c0 de 71 36 be da b2 8d 3e 02 51 b7 3d 3b 30 24 be
       -0.17816874 0.27675515 0.08950998 -0.16034023
0002d0 4d 2f 0c be 9c 29 a8 3d 3c a4 8c bd 9e 8b 4f be
       -0.13689919 0.08211061 -0.06867263 -0.20268103
0002e0 8c 1d 49 bf 40 bd a7 bd 65 ac f4 3d 01 4f 3e be
       -0.7856071 -0.081903934 0.11946944 -0.18584825
0002f0 5a b3 91 3e 37 40 71 bf b5 9c 5f 3e 6b 11 f4 bd
       0.28457147 -0.9423861 0.21837123 -0.11917385
000300 db 07 a3 3e 69 5f e5 3e a2 17 52 3d 22 be 9d 3e
       0.3184193 0.44799355 0.05129207 0.30809122
000310 d8 a2 8a be f0 5d 47 3e 05 cb 4c 3e 6d 2a c4 be
       -0.27077365 0.19469428 0.19999321 -0.38313618
000320 60 72 c3 be c7 4e d3 bd 4b 51 44 3e 0f b9 a6 be
       -0.381732 -0.1031776 0.19171636 -0.32563064
000330 42 b8 4e 3e 74 e1 07 3d e9 fe 4b bd fa 19 21 3f
       0.20187476 0.033173993 -0.04980365 0.6293026
000340 3a 42 e8 3e 33 62 d6 3e e9 4a 33 be 01 8a 40 be
       0.45363027 0.41871795 -0.17509045 -0.18802644
000350 2a f6 3e be aa 17 03 be 76 32 22 bf 47 8b 1d 3d
       -0.18648592 -0.12801996 -0.6335825 0.038462903
000360 32 8d 97 bc 01 8c 94 bf 66 6a ce 3d 2f 36 95 3e
       -0.018499944 -1.1605226 0.10078888 0.291429
000370 ec bf 23 3d 4a f6 81 3e 40 d0 12 bf f4 86 9b be
       0.039977953 0.25383216 -0.57349014 -0.303764
000380 e7 54 5c bf 17 da 06 bd 00 cd da 3e a6 1a f5 bc
       -0.8606705 -0.03292283 0.42734528 -0.029919934
000390 d2 c5 d3 3e da 95 c6 be 6f 54 96 3c e2 2b da be
       0.41361862 -0.38786203 0.018350808 -0.42611605
0003a0 21 0b 60 3c ce f4 ed be ee e4 e7 3e be 99 cd 3e
       0.013674528 -0.46475834 0.45291847 0.40156358
0003b0 4e 3d c2 be 66 09 09 bf a7 09 a4 be ba ce 42 3e
       -0.37937397 -0.53529966 -0.32038614 0.19024172
0003c0 43 17 4a be a8 2a 92 3e 49 7f 3d bd d4 a7 89 3e
       -0.19735436 0.2854817 -0.046263967 0.26885855
0003d0 09 cf 34 3f f0 25 dc 3e a6 fa 9e be 93 d9 e6 3d
       0.7062841 0.42997694 -0.31050605 0.11271968
0003e0 89 d5 15 3e 9c 64 a2 3e db 4d e4 3c 97 ce 44 bd
       0.14632238 0.31717384 0.027869156 -0.048048582
0003f0 08 25 46 3e 37 31 1b bf 2b 29 31 be 84 33 68 3e
       0.19350064 -0.6062197 -0.1730086 0.22675902

bias f4 [128]
000000 3e a9 f3 be f3 95 e6 3e 62 6e db 3e c0 a8 7d bf
       -0.4759006 0.45036277 0.42857653 -0.9908562
000010 0a 3a 98 bd c7 35 ef 3e 55 bc 07 be 9a fc 53 3e
       -0.07432945 0.46720716 -0.13255437 0.20701829
000020 34 ed ff 3e 1c 3f 7f 3f 58 12 d4 bd e9 cf d9 be
       0.4998566 0.9970567 -0.10355061 -0.42541435
000030 ac d2 60 3e c9 f9 19 3f 42 7a 6a 3e f8 fb 68 bf
       0.21955365 0.60146767 0.228982 -0.91009474
000040 7f 3d 80 bf 13 ee 04 be 52 a0 82 3d af c2 54 be
       -1.0018767 -0.12981443 0.06378235 -0.20777391
000050 67 f9 a4 3e df 81 26 bf ac 83 94 bf 91 e2 00 3f
       0.3222153 -0.6504192 -1.1602683 0.5034571
000060 ab 7d ef 3e b7 fe a9 3c d4 3a 8e 3d 0c 7b bc be
       0.46775565 0.02075134 0.06944814 -0.36812627
000070 12 9e 06 bf a3 a6 54 3e e7 e1 a3 be d9 b6 83 3c
       -0.52584946 0.20766692 -0.32008287 0.0160784
000080 5d 61 86 bd 77 31 6e 3f ac 67 85 be 83 8c 18 3f
       -0.06561539 0.9304423 -0.26055658 0.59589404
000090 2a 5f 1b 3f 39 42 6e 3f cb d2 15 3e e6 9c 07 3f
       0.60692084 0.930698 0.14631192 0.52973783
0000a0 63 c5 e7 3d a4 e5 fc 3e ad f2 00 3f aa 36 f8 bd
       0.113169454 0.49393952 0.50370294 -0.12119801
0000b0 4b 7e 75 3f 70 c5 23 be b4 1b f8 3e 9d bd 25 3d
       0.9589583 -0.15993285 0.48458636 0.040464032
0000c0 43 77 f4 3e 57 61 f3 3d 48 ac 8f 3e 80 ee 74 3f
       0.4774724 0.118838005 0.28061128 0.9567642
0000d0 f5 1f 73 3e 1c 87 a4 bc db 6d 46 3f 57 fb ff be
       0.2374266 -0.020083956 0.77511376 -0.49996445
0000e0 11 7c 11 bf ca e2 d7 3e 83 7f 72 be b9 33 95 be
       -0.56829935 0.42165214 -0.23681454 -0.29141024
0000f0 b0 5f 84 bf 47 64 6e be 01 d0 fd 3d a3 a6 4f bf
       -1.0341702 -0.2328044 0.12393189 -0.8111364
000100 b4 81 1a 3f 2a 0c 1d 3f c1 6a ca be c5 d7 48 3e
       0.6035416 0.61346686 -0.39534572 0.1961356
000110 ea f8 d0 3e eb 50 ca be ca db e5 be eb 35 6d 3f
       0.40814906 -0.3951486 -0.44894248 0.926604
000120 d9 7f 9c bf c8 2a 48 3f 55 6f 85 3e e8 5c 33 bd
       -1.2226516 0.7819028 0.26061502 -0.043789774
000130 cb 30 92 be 99 1d 52 be 2a ea 89 bf d1 fc 91 3e
       -0.2855285 -0.20519103 -1.0774586 0.28513196
000140 45 95 bd 3b 7e a1 29 3f 78 60 00 3f d7 6c 0c 3e
       0.0057856166 0.6626204 0.501472 0.13713394
000150 3f 73 45 bf 02 1d 32 3f 9e 68 cc be 5e 6a ca be
       -0.77128977 0.6957551 -0.39923567 -0.39534277
000160 49 64 f7 be 03 0f e3 bc e6 29 f0 be 56 ec 09 bf
       -0.483187 -0.02771712 -0.46906966 -0.53876245
000170 24 e2 16 be 21 bd 99 be 0e dc d5 3e 52 15 b3 be
       -0.14734703 -0.30027106 0.4176945 -0.34977204
000180 71 28 51 be 4d 63 27 3f d3 a7 b4 3d 02 09 99 3e
       -0.20425583 0.65385896 0.088210724 0.29889685
000190 77 be 34 3f 6c 94 64 bf 61 67 f6 3d 9f ff f7 bd
       0.70603126 -0.89288974 0.12031437 -0.12109303
0001a0 09 9f 8b 3f c5 46 01 be 6c 1b 2a be 31 76 86 bf
       1.0907909 -0.12624653 -0.16612023 -1.0504819
0001b0 34 1a 01 be 87 af 53 3f ad e6 b1 3e 1a 7b a1 3d
       -0.12607652 0.8268971 0.34746304 0.07884808
0001c0 00 ac 07 3f 1c 78 2b 3d a3 53 ca 3e 21 0a b9 3d
       0.52996826 0.041862592 0.39516935 0.09035135
0001d0 1a c7 79 be b7 8d 2e bf 9d cb af 3d 90 9e 9e bf
       -0.24392357 -0.6818499 0.08583758 -1.239214
0001e0 3d d7 cc be 1f 1b 6c bf ac 38 64 bf b8 a5 0d 3f
       -0.40007964 -0.92228884 -0.89148974 0.5533099
0001f0 fc 95 a7 be 8d ff c2 3e e4 b8 41 bf d1 85 98 3f
       -0.32731616 0.38085595 -0.75672746 1.1915838

weight f4 [128, 128]
000000 4e 4c ef bd 23 8d 05 bd 14 2c 3a bc 3b e5 4f be
       -0.11684476 -0.0326053 -0.011363048 -0.20302288
000010 f8 99 74 be 82 d3 21 be b9 af 97 3d 08 70 a4 3d
       -0.2388686 -0.1580334 0.07406563 0.08029181
000020 7d c7 74 ba c6 54 65 bd 64 7f 06 be b0 df d4 bd
       -0.00093375874 -0.05598905 -0.13134533 -0.103942275
000030 ce e8 ec 3d 85 e2 af 3c 13 81 0a 3e 90 db a3 be
       0.115678415 0.021470318 0.135258 -0.3200345
000040 d6 5c 88 3c 77 47 d9 bd a3 f8 27 be 9c c5 a4 be
       0.01664583 -0.10609334 -0.16403441 -0.32182014
000050 aa 84 88 be 9b 04 f9 3d 41 62 74 bc 36 a7 e4 3d
       -0.26663715 0.121590815 -0.014916004 0.111647055
000060 ea 78 db 3c a6 68 5b be 1e 46 a3 3c 9b c7 b6 3e
       0.026791055 -0.21426639 0.019930895 0.35699162
000070 af 7f a5 bd 75 b1 a0 be b4 4c 34 be 88 8f b3 bd
       -0.08080994 -0.3138539 -0.17607385 -0.08767611
000080 8d 06 be 3d fd a6 f0 3d 58 56 1a 3c 63 d3 a2 3e
       0.09278593 0.117506005 0.00942 0.318019
000090 62 d4 97 bd 76 d5 e1 bd 87 46 e6 3d 7f 62 b9 3e
       -0.07413556 -0.110270426 0.11243921 0.3620796
0000a0 9a 81 e1 3d f8 9c 82 bd 2c 1d 3f 3d 2e bf f4 3c
       0.11011048 -0.06377596 0.04665868 0.029876318
0000b0 b3 4e 3f 3d 16 66 6c bd aa a2 5b 3e 4d 32 ac be
       0.046705913 -0.057714544 0.2144877 -0.33632126
0000c0 54 1a 36 3d 44 4a 4b 3e fc 25 80 bd 12 0e 4b bd
       0.044458702 0.19852549 -0.06257245 -0.049573965
0000d0 5f 84 1f 3e 5c 1c d4 3c 6e 7c 88 bd 20 b6 ee bd
       0.1557784 0.025892429 -0.06664358 -0.11655831
0000e0 7e da 15 be e5 03 51 be 94 c7 b0 3b 7b 8c 34 3e
       -0.1463413 -0.20411642 0.0053948853 0.17631714
0000f0 d1 ca a8 bc cd 84 09 3e 26 34 2a 3e 4c 7f c4 bd
       -0.020604523 0.13429566 0.16621456 -0.095945925
000100 56 78 0f 3d 29 1b ca bd 31 b9 a9 bd 03 c6 12 3e
       0.03502687 -0.09868462 -0.082872756 0.14333348
000110 b4 91 35 3d 19 7c 22 3e 33 9e c9 bc a0 2a ee 3d
       0.044328406 0.15867652 -0.024611568 0.11629224
000120 69 2d 60 3e f5 c7 82 3e af ce 64 be 54 36 07 3e
       0.21892323 0.2554318 -0.22344469 0.13204318
000130 fd 42 8a 3e 30 ab fb 3c d5 f7 83 be 4c a8 99 3e
       0.27004233 0.030721277 -0.25775018 0.30011213
000140 2d 6b c5 bd b5 d4 bf be cf 8a 54 3e 11 75 51 3b
       -0.09639583 -0.3746697 0.20756076 0.0031960646
000150 e6 49 16 be 20 7f 6f be a5 7e 49 bd 24 ad 0a be
       -0.14676628 -0.23388338 -0.049193043 -0.1354261
000160 e2 66 0f 3d aa 4c 4f 3d 7a 0f a8 3d ec 4a fc 3c
       0.035010226 0.050610222 0.08206077 0.030797444
000170 f1 fe 8b be 30 87 06 be 61 85 e7 bb 3f bd 86 be
       -0.27342942 -0.13137507 -0.0070654606 -0.26316258
000180 64 bf 9b bb 26 e0 94 3c f6 03 3f 3e 40 a6 d6 3d
       -0.00475304 0.018173289 0.18653855 0.104809284
000190 77 c4 aa bd e1 2b fa bd 7d f1 73 be d0 a3 fe 3d
       -0.08338254 -0.122154005 -0.23822589 0.124335885
0001a0 7f 51 37 be b2 da b7 bc 11 49 92 be d3 e1 af 3d
       -0.17902182 -0.02244315 -0.2857137 0.085879944
0001b0 cf 03 66 be 81 31 95 bd cd b1 a8 38 67 e0 0d be
       -0.2246239 -0.07284833 8.043982e-05 -0.13855134
0001c0 e3 15 c2 3e 92 5e c1 bd 62 21 71 be c2 67 86 bd
       0.37907323 -0.09441866 -0.23547891 -0.06562759
0001d0 d5 73 0d bc ad 44 a6 3c 3e 7c 17 be f5 23 c2 be
       -0.008633574 0.020296419 -0.14793488 -0.37918058
0001e0 7c 85 dc be 40 3c 7e be 0b c7 44 bd 14 8a 95 be
       -0.4307059 -0.24827671 -0.048041385 -0.29206908
0001f0 50 c5 3f be a6 b7 58 bd bb 33 21 be f9 88 76 be
       -0.18727612 -0.052909516 -0.1574239 -0.24075688
000200 f3 0e 1c 3e b3 c6 da 3d 0a 5e 36 3d 8e dd bd 3d
       0.15240078 0.1068243 0.044523276 0.09270774
000210 14 97 ed bc 10 e1 11 3d 0f 55 35 3d 35 b1 b6 bc
       -0.029002704 0.035615027 0.04427057 -0.022301296
000220 d7 3f c0 3c 2a b3 86 bc e7 48 06 bd 12 fa b4 bd
       0.023467941 -0.016442854 -0.03278437 -0.088367596
000230 20 27 48 be bf 7f 94 3e d8 08 4d 3e ad 25 f7 3c
       -0.19546175 0.29003713 0.20022905 0.030169332
000240 4d 6f 8e 3d 51 51 ff 3d a9 75 dd bc f0 26 1c 3d
       0.06954823 0.12466682 -0.027033644 0.03812307
000250 eb 50 e8 be db c9 35 3e 92 e4 10 bc e2 06 c9 3e
       -0.45374236 0.17752783 -0.008843558 0.39263064
000260 a1 74 94 3e 58 79 74 3d 1b d6 28 be 1a f9 b4 be
       0.2899523 0.059686035 -0.16487925 -0.353463
000270 a5 7b be 3d bc 1e a8 be 5d f5 82 3e ef 3e c2 be
       0.09300927 -0.32835948 0.25577822 -0.3793864
000280 c5 2a 68 bc 19 f6 93 3e ee da e5 3a b4 5b 1c bd
       -0.014170353 0.28898695 0.001753656 -0.038173392
000290 2c 5b 9f bb 99 cf 2b 3e 0a f4 65 bd 7d 99 ec 3c
       -0.0048631635 0.16778411 -0.056140937 0.028881783
0002a0 9b b9 11 bd 5a 4f d4 bd a9 ff 36 3e 15 34 41 3e
       -0.035577398 -0.103666976 0.17870964 0.18867524
0002b0 4f c1 15 3d a9 2e a5 bd a1 4f 21 3e 24 49 84 be
       0.036561307 -0.0806554 0.15753032 -0.25837052
0002c0 ee e3 3a bd 79 7a 10 be 5f 71 26 3e 09 f8 2c 3e
       -0.045627527 -0.1410922 0.16254185 0.16891493
0002d0 17 e9 bc bc fd 14 84 be 70 59 b7 bd fc 98 12 3d
       -0.023060365 -0.25797263 -0.08952606 0.03579043
0002e0 40 68 9d be 73 cc 00 bc 05 f9 c3 3c 64 6b 85 bd
       -0.307436 -0.0078612445 0.023922453 -0.06514624
0002f0 43 2d 39 3e 0f f0 98 be 24 02 a0 3e be 73 2e 3e
       0.18083672 -0.2987065 0.31251633 0.1703634
000300 c4 32 40 be 18 ce 9a 3e b2 71 b6 be 3d b0 41 ba
       -0.18769366 0.30235362 -0.35633618 -0.0007388627
000310 2d 99 fa be 8d 60 0d bd 9e 0c b6 3d f2 0d 2d be
       -0.4894499 -0.034515906 0.08889125 -0.16899851
000320 2a e7 52 bd 01 04 8e bd 22 c6 52 3d 7e d6 23 bd
       -0.051489986 -0.069343574 0.051458485 -0.039999478
000330 f4 f2 83 3e 83 10 dd bd e1 e4 2c be 43 ad ea 3c
       0.25771296 -0.10794165 -0.16884185 0.02864707
000340 cb c0 82 bc 08 06 37 3d c5 06 36 be d1 cd 0a 3e
       -0.015961071 0.044683486 -0.1777602 0.13555075
000350 42 7b 94 3d 71 1e d1 3d 32 27 02 3d bd 26 d1 3d
       0.07250072 0.10210884 0.03177566 0.10212467
000360 e6 6c 41 3d 8e ba 6c 3d fe 73 a4 be 91 f8 f8 bd
       0.047222994 0.0577951 -0.32119745 -0.12156785
000370 67 55 6e be a1 b8 66 be 72 59 c1 bd 0c 68 04 3f
       -0.23274766 -0.22531368 -0.094408885 0.5172126
000380 72 bd 63 be 16 c3 c2 3d f3 bd 98 3d 8e e6 9f 3d
       -0.22240236 0.09509866 0.07458105 0.07807647
000390 67 71 16 3e 8c d2 f9 3d 7e 4f 10 3d 9b e4 5a bd
       0.14691697 0.12198362 0.03523206 -0.05344067
0003a0 da 0e 5b bc f4 cc 3a be 60 2c 1b be 46 a9 2b 3e
       -0.01337024 -0.18242246 -0.15153646 0.16763791
0003b0 62 54 ee bc cd 38 61 3e 31 55 f5 bd 3d fd 02 3e
       -0.029092971 0.21994324 -0.119791396 0.12791915
0003c0 3c 1b 53 3c 97 8a 2a be 1f 9d 29 be 2b f5 90 bd
       0.012884911 -0.1665443 -0.16563843 -0.07078012
0003d0 38 21 04 bd 2d 5b 12 3e 36 13 1d 3e 47 c9 07 bf
       -0.032258242 0.14292593 0.1533936 -0.530415
0003e0 08 f6 93 bc 1a 6f 1c 3b 30 0c 65 3d 81 9a c7 3d
       -0.018061653 0.0023869933 0.055919826 0.09746266
0003f0 6d b6 b0 bd 70 3d 0c 3c 68 df 49 be 6a d1 bd be
       -0.08628545 0.00855957 -0.19714129 -0.37073833

bias f4 [128]
000000 28 51 ff bc b6 e0 05 3e 29 c4 26 3e 6b 6b 80 bc
       -0.031166628 0.13074002 0.16285767 -0.01567622
000010 14 12 c9 3e 88 6c 4c be 20 9a 89 be 81 84 15 3e
       0.39271605 -0.19963276 -0.268754 0.14601327
000020 b3 82 1a be bc d3 d0 3c 62 f8 ee 3c 74 cd 2c be
       -0.1508892 0.025491588 0.029171173 -0.16875249
000030 dc 57 8b be c2 da 4d be d1 2d ac 3a f9 d7 4a 3d
       -0.2721547 -0.2010298 0.0013136213 0.049522374
000040 56 57 16 3e a0 00 58 3e 04 75 9f 3e 7e 91 b1 3c
       0.14681754 0.21093988 0.31143963 0.021675821
000050 50 c2 d4 3d 85 e5 65 bc 52 93 c0 bd f7 8b 29 be
       0.10388625 -0.0140317725 -0.09403099 -0.16557299
000060 00 10 96 bd bf 0a 6c 3e 42 b2 83 3d be c4 89 be
       -0.073272705 0.23050974 0.06430484 -0.26907915
000070 c8 90 22 bf ef eb ae 3d 12 5a 31 3d 18 5e 17 3c
       -0.6350217 0.085410945 0.04329879 0.009238742
000080 9f f4 2f be d6 bd b1 be ed d7 4f 3e 3e 99 be bd
       -0.1718316 -0.34715146 0.20297213 -0.093065724
000090 91 e4 08 be c4 d8 08 be 61 4b c1 3b b0 ec 48 bd
       -0.13368441 -0.1336394 0.0058988784 -0.049053848
0000a0 9e 7d b8 bd 7b 80 8d bd b0 f2 62 bd 0c 68 f1 3d
       -0.090083346 -0.06909271 -0.055407226 0.117874235
0000b0 45 5b 17 3e 17 d8 50 3e 0a dc 79 be 62 e4 95 3d
       0.1478091 0.20394932 -0.24400344 0.07318951
0000c0 e8 5d 6d 3e 8b 04 c3 bc e3 95 70 3c 54 44 0c be
       0.23180354 -0.023805877 0.014684173 -0.1369794
0000d0 a3 fb 1b bc 7e 27 e8 3c 34 9b 34 3e 67 23 88 3d
       -0.009520444 0.028339144 0.1763733 0.066473775
0000e0 75 c9 5c bd a7 b9 28 3e ac 65 64 3e 83 76 bd bd
       -0.053903062 0.16477071 0.2230441 -0.0925112
0000f0 88 72 0f 3e a8 42 ad bd 1b 8a 24 bc 65 50 c9 bd
       0.14008534 -0.08459979 -0.010042693 -0.09829787
000100 d3 4c 8e bb 52 6d a0 bd 33 b9 4d 3e 21 7a 49 be
       -0.0043426543 -0.07833351 0.20090179 -0.19675495
000110 f3 da e8 bd 3f 82 48 3e f1 e5 19 3e fb e4 a1 be
       -0.11369886 0.19580935 0.15029122 -0.3162001
000120 27 ed 9e 3d f8 e0 ab be c9 ae 74 be 9a 89 9b 3b
       0.07760077 -0.33570075 -0.238948 0.004746628
000130 1c 49 82 3d b4 fa 15 be c4 ca 13 be c9 24 8c 3e
       0.06361601 -0.14646417 -0.14432818 0.27371815
000140 19 21 89 3e a4 1f 5b be c1 02 43 3e 3b 49 9c be
       0.26783064 -0.21398789 0.1904402 -0.3052462
000150 2b 2a 25 3d d4 2f 1f bd fb 92 e9 bc 03 35 78 3d
       0.040323418 -0.03886397 -0.028512469 0.06059743
000160 9f 0c 5b 3d 20 f0 00 3d 66 e6 9a bc 56 51 ab bd
       0.053478833 0.031479 -0.01890869 -0.08365123
000170 8e 8e f3 bc d9 65 7c 3e 29 a7 f6 bd dc 65 92 3c
       -0.029731061 0.24648227 -0.12043602 0.017870836
000180 db 75 61 3e 60 a9 1c bd df 1b de bc 08 c8 7b 3d
       0.22017615 -0.038247466 -0.0271129 0.06147006
000190 d4 34 3f be fd 40 a9 3e 26 79 60 3c 27 b2 9d be
       -0.18672496 0.33057395 0.013700759 -0.30799982
0001a0 06 72 f5 3e 2f 6a 4e 3e a6 56 0d be 24 1a a3 bb
       0.47938555 0.20157693 -0.13802585 -0.0049774814
0001b0 48 9d 92 3d b8 96 73 3d 34 40 57 3d 63 08 80 3e
       0.07158905 0.05946991 0.052551463 0.250064
0001c0 a6 b2 5f bd b7 3e 4e 3c 7b 5d f8 3d 6e c8 e4 3d
       -0.05461373 0.012588195 0.12127205 0.111710414
0001d0 a8 29 5f be ec 39 03 3e e4 32 4b 3d 57 f2 09 be
       -0.21793234 0.12815064 0.04960908 -0.13471352
0001e0 7b b1 31 be 14 fa cb bd 3b 49 af be ed 3f 76 bc
       -0.1735286 -0.09959808 -0.34235558 -0.0150298895
0001f0 31 a2 42 3e c2 89 00 bd 74 97 45 bd bd b5 89 3d
       0.19007184 -0.031381376 -0.04824014 0.06724117

weight f4 [128, 128]
000000 5a e2 a8 3c 7a 39 6a 3e 0c 61 04 3e 83 55 af 3e
       0.020615745 0.22873488 0.12927645 0.34244928
000010 54 cc a8 3e 33 89 15 bc fd b5 30 be a4 13 25 3e
       0.3296839 -0.009126949 -0.17256923 0.16120774
000020 e8 76 50 3c 6d a9 ac be 35 b4 8e bd 24 22 2e be
       0.012723662 -0.33723012 -0.069679655 -0.17005211
000030 70 91 4b 3c 12 60 ea bd 01 39 6b be e5 17 db be
       0.012424812 -0.11444105 -0.22970964 -0.42791668
000040 92 68 aa 3e c0 4d 48 3e d8 dd 3f bd 2e f5 60 3e
       0.33282906 0.1956091 -0.046842426 0.21968529
000050 6e b2 47 3e 2e 01 05 be 4e 4e 93 be 8e 82 72 be
       0.1950166 -0.12988731 -0.2877068 -0.23682615
000060 91 02 6b 3e 39 89 2f 3d ec 89 6c be c5 68 50 be
       0.22950198 0.042855475 -0.23099488 -0.20352466
000070 2d 2e 90 be e4 4e 41 be 1f a4 8f be 1c ed 00 3e
       -0.2816023 -0.1887775 -0.28054902 0.1259045
000080 48 7d 16 3e 09 b6 bb be d0 d7 b6 3c 5b 8c ac 3d
       0.14696229 -0.3666232 0.022319704 0.08425208
000090 21 57 47 bd b0 42 8d bd 14 c8 ec 3d 11 de be 3e
       -0.048667077 -0.06897485 0.115615994 0.37278798
0000a0 dc fb 9f 3d 6f c1 14 bd b8 85 b2 bc 4f 45 92 3e
       0.0781171 -0.036317285 -0.021792278 0.28568503
0000b0 22 ee 6e 3e 85 8d ba 3c 03 4b cf bd 0e 3a 9e 3d
       0.23333028 0.02277256 -0.10121729 0.07725917
0000c0 dd 80 aa be a9 a5 a4 3e 7c 37 a6 bd c4 2a c7 be
       -0.3330144 0.3215764 -0.081160516 -0.38899815
0000d0 6a fb 3c 3e c0 42 ca 3e 30 3b 01 3f 32 a8 8d 3e
       0.18455282 0.3950405 0.5048094 0.27667385
0000e0 a7 e6 97 bd 1c 69 cf be 0a f2 1f be ac 57 77 bd
       -0.0741704 -0.4050988 -0.15619674 -0.060386345
0000f0 72 99 ed 3d 9b e7 ce 3d 6c 41 74 be db 61 3b be
       0.11601533 0.10102769 -0.23853081 -0.18299048
000100 fd 8b c3 be 16 83 f5 3d 83 4c 03 be 3e 45 3e be
       -0.3819274 0.11987893 -0.12822156 -0.18581101
000110 ca 6a 03 be 7b 5a 4e 3e a4 03 17 3f 26 12 43 3e
       -0.12833706 0.20151703 0.5898993 0.19049892
000120 bf 7a 1a 3e 10 62 3c 3e ec 72 47 3e 61 0e 3b bd
       0.15085886 0.18396783 0.19477433 -0.04566801
000130 cd 66 98 3d e7 02 ae 3d 64 80 f1 3c 03 db 1b 3f
       0.07441483 0.08496647 0.029480167 0.6088106
000140 44 24 7a 3e f1 60 94 3e f0 f4 e7 3b 83 db 5c bd
       0.24427897 0.2898021 0.0070787594 -0.05392028
000150 39 4c 80 3d ac e8 82 bd 03 1a d6 3d 7f dd ab bd
       0.06264538 -0.06392035 0.1045418 -0.083918564
000160 da 6c cf 3c bc 62 f4 be 30 7a 19 3e 35 64 7a be
       0.02532046 -0.47731578 0.14988017 -0.24452288
000170 01 fb dd 3d cc e8 8b bc ea f8 63 3c 9a c4 70 bd
       0.10838891 -0.01707878 0.013914326 -0.058781244
000180 ff 05 cd bc 65 3e 48 bd c4 7e 58 be b3 92 fc 3e
       -0.025027273 -0.04888763 -0.21142107 0.49330673
000190 41 51 e7 be 68 67 25 3e 2f 28 03 3e 12 15 3c be
       -0.4517918 0.16152728 0.12808298 -0.18367413
0001a0 1a d1 95 3d c2 a3 c4 be 45 f6 b1 3c 3e 70 88 3a
       0.073152736 -0.38406187 0.021723876 0.0010409427
0001b0 d5 36 80 3e b4 e2 c8 bc 43 5d ed bd fe a7 35 3e
       0.25041834 -0.024522163 -0.11590054 0.17739865
0001c0 15 93 a1 3d c1 60 df bd 19 3b 0b be f9 b7 cf be
       0.07889382 -0.10907126 -0.13596763 -0.40570047
0001d0 33 0f 24 3e 0d fc a2 3e a8 5b b1 3e 41 b7 37 be
       0.16021423 0.31832924 0.3464024 -0.17941
0001e0 07 ae 58 3e b9 99 f5 bc 26 17 96 3d 84 44 2b be
       0.21160136 -0.029980527 0.07328634 -0.16725355
0001f0 78 6d 1e 3f 2a 2f fa 3d 98 68 f8 3c 28 04 9b bd
       0.61885786 0.12216027 0.030323312 -0.07569152
000200 9f 2c 3e bd a0 13 0d be 4f 84 d2 bd 94 a2 03 be
       -0.046429273 -0.13777018 -0.10279142 -0.12854987
000210 d7 6e f2 be 45 91 bf bd 44 10 00 3f 46 f6 9b be
       -0.4735019 -0.0935388 0.5002482 -0.3046133
000220 d0 c7 c1 3e 1f 43 d2 3c e5 69 01 bd 2b ab 23 3e
       0.37847757 0.025666771 -0.03159513 0.15983264
000230 00 86 ab 38 97 d8 9b be 13 5a 34 bd 85 c4 9c 3d
       8.178875e-05 -0.30438682 -0.044031214 0.076546706
000240 80 95 7e 3d c4 77 33 bd dc 00 09 bd 3e 17 ab be
       0.062154293 -0.04381539 -0.033448085 -0.3341617
000250 1d f8 32 3e 11 4e a1 3e 76 f8 31 be ca 7d 16 3e
       0.1747746 0.31504872 -0.17379937 0.14696422
000260 e5 63 02 bf 6e ed 58 3e a1 09 15 be 60 b6 02 3e
       -0.50933677 0.21184322 -0.14554454 0.12764883
000270 d9 80 28 3e f8 04 a1 3e 0e 7e a6 3e dd f4 96 3c
       0.16455401 0.31449103 0.32518047 0.018427307
000280 92 aa e5 be f7 4d c7 3d 28 04 30 3e 73 de ad 3d
       -0.44856697 0.097316675 0.17189085 0.084896944
000290 3a 34 84 3a 43 d4 f5 3d 9c 1c 69 bc bb 86 3a 3e
       0.0010086366 0.12003376 -0.014228012 0.18215458
0002a0 97 a6 26 3d 84 9d 07 3e 25 b4 fd 3d fb 80 21 bd
       0.040686216 0.13243681 0.123878755 -0.039429646
0002b0 48 29 cb 3e 02 9a b6 bd b1 13 57 be 40 01 b1 3d
       0.39679933 -0.089160934 -0.21003605 0.086428165
0002c0 39 b9 b2 be 23 90 7e bd 06 fb 9c 3e e2 bd 98 bd
       -0.3490694 -0.06214918 0.30660266 -0.07458092
0002d0 e2 51 60 3d 2e c4 b8 bd 98 bf 82 be 07 5c ec 3e
       0.05476559 -0.09021793 -0.255368 0.4616396
0002e0 28 c4 0b 3e 36 8d c4 3e 53 2a af be 32 f7 7b 3e
       0.13649046 0.38388985 -0.34211978 0.24606016
0002f0 66 f2 1c 3f 8b c6 b1 3d 7e d7 9b 3e a1 e2 db 3e
       0.6130737 0.08680447 0.30437845 0.42946342
000300 f6 3b 31 bd 82 bb 78 3e bd ed cf 3d fd 2e 7e bd
       -0.043270074 0.24290279 0.10152767 -0.06205653
000310 c3 c6 a3 be 04 c0 74 bd 25 e6 56 be 73 97 ba bc
       -0.3198758 -0.059753433 -0.2098623 -0.022777295
000320 fe 3b 1c 3e 7b 53 8d 3d 8a ba 96 bd 83 73 25 be
       0.1525726 0.06900688 -0.07359798 -0.16157345
000330 de 10 df bd dd 7a 0a 3e 1e 6a 0d be 15 f7 c7 3e
       -0.10891889 0.13523431 -0.13810012 0.39055696
000340 8a 72 ae 3e eb 27 34 3e b8 f2 2f 3e 98 4c 5a 3c
       0.3407176 0.17593352 0.17182434 0.013323925
000350 6f 6c cb be 45 e4 9a be ff 6a 0e be 44 52 56 bd
       -0.39731166 -0.3025228 -0.13908003 -0.05232455
000360 41 a5 46 bd 16 59 7c 3e 08 60 83 be 7c 90 d5 3e
       -0.048497442 0.24643359 -0.25659204 0.41711795
000370 4b 98 d5 3d 4d 20 c1 3d 24 8a af bd 11 32 38 be
       0.10429438 0.09429989 -0.0857127 -0.17987849
000380 db e9 26 bc 45 49 a2 3d d1 3d 1d be 35 5d d0 3e
       -0.010187591 0.07924131 -0.15355612 0.4069611
000390 39 ab 70 bd b9 d7 58 3e c0 e3 85 3d 90 bc 26 3d
       -0.05875704 0.21176042 0.065375805 0.04070717
0003a0 08 fa 18 be 73 1c 8f be dd 83 22 be 7e 04 9a 3e
       -0.1493913 -0.27951393 -0.15870614 0.30081552
0003b0 5a bd 01 3e fa 0c 43 3e 3b cf df bb 73 ee 48 bd
       0.12669888 0.19047919 -0.0068301237 -0.049055528
0003c0 dd bd 7d be 8e 4a 51 3d 25 6d 5b 3e 5c 23 b6 be
       -0.24779458 0.05109649 0.21428354 -0.35573852
0003d0 f9 57 0c 3e 44 d8 3f be 1c 93 fd 3c 5a 47 c4 3d
       0.13705434 -0.18734843 0.030953936 0.09583922
0003e0 f5 a6 90 3e 18 b4 43 bd 25 47 7b be a0 4f 47 bd
       0.28252378 -0.047779173 -0.24538858 -0.04865992
0003f0 aa 66 43 3e 4e ae a8 3d 1f a0 e9 be bf 46 a9 be
       0.19082132 0.08236371 -0.45629975 -0.33061787

bias f4 [128]
000000 d5 1b c1 3e 38 ae 08 3e ea 8a c0 bc 0b 5b 57 bb
       0.37716547 0.13347709 -0.02350374 -0.0032860662
000010 57 15 34 be 2b a9 80 bc 87 82 9d 3c e9 16 09 3e
       -0.17586266 -0.015705666 0.01922728 0.13387646
000020 3d 23 75 3e 7b 1a 93 3e e3 70 82 be 5b d8 d9 3e
       0.23939224 0.2873114 -0.2547675 0.4254788
000030 2f 58 32 3e ed 8f 45 3d 78 9c a4 3d 0e a3 a2 3e
       0.17416452 0.04823296 0.080376565 0.31765026
000040 40 75 81 3d 54 8e 22 3c 86 c9 7e 3c 78 95 0e 3d
       0.06321192 0.009921629 0.015550977 0.034810513
000050 a9 e8 66 3d f6 7f 86 3d 4f 6b 0f 3d 2a a6 71 3d
       0.056374226 0.06567375 0.035014447 0.058996357
000060 e1 f5 ce 3d b4 4d 3a 3e 86 17 13 bd 45 ec a2 3e
       0.101054914 0.18193704 -0.035911106 0.31820884
000070 f0 57 30 ba a9 54 95 3d 8e d0 20 be 13 2f a7 be
       -0.0006726971 0.07291538 -0.15704557 -0.32653102
000080 f3 bc b3 bd 2a 60 48 3c 74 61 d8 bd 6f 28 8d bd
       -0.087762736 0.012229959 -0.10565463 -0.06892478
000090 07 03 36 3c 01 81 8b be 95 6c 51 3e 2d 18 19 be
       0.01110912 -0.2724686 0.20451577 -0.14950629
0000a0 c7 b4 7d be 7e ec ed bb 33 2b 99 bc 05 53 37 bd
       -0.24775992 -0.007260858 -0.018697357 -0.044756908
0000b0 63 7e 1c bd 6c 5a 04 3e ed 1c 07 bd 90 ea 47 3e
       -0.03820647 0.12925118 -0.03298657 0.19523072
0000c0 c8 1f e3 3d 1d a4 4d 3e e4 05 85 3c 66 35 80 3e
       0.11090046 0.20082135 0.01623816 0.2504074
0000d0 05 ea 97 bd 22 6d 0d 3e c2 ae 0a 3e 11 dd 30 3d
       -0.074176826 0.13811162 0.13543227 0.043179575
0000e0 9c ae df 3d 11 48 4f bd 0a b0 90 bd 4f 05 29 be
       0.10921976 -0.050605837 -0.07064827 -0.16505931
0000f0 40 92 73 be 36 6c 30 39 6b 0f 8a 3e 67 e6 96 3e
       -0.23786259 0.0001682498 0.26964888 0.29472658
000100 0f 0b 08 be 4f be 4d 3d f8 96 40 3e ef 1c c7 bd
       -0.13285469 0.05023032 0.1880759 -0.097223155
000110 82 9c 92 3d 3a 1f 96 be f4 58 62 3d 31 cc 5a bd
       0.07158758 -0.293207 0.055260614 -0.05341739
000120 14 c0 42 be 9a e8 e8 bd 56 43 59 be 05 7c 3c be
       -0.19018584 -0.1137249 -0.21217093 -0.18406685
000130 64 52 14 be a4 d2 9c bd 77 78 4d be 1a 42 61 3d
       -0.14484555 -0.07657364 -0.20065485 0.05499468
000140 76 07 99 3e 70 9c 79 be c2 05 5a 3c 8c be a2 be
       0.29888505 -0.24376082 0.013307037 -0.31786
000150 f7 06 79 bc 24 62 a2 3c 6a 74 cc bd 90 1a 62 bd
       -0.015199414 0.019822188 -0.09983142 -0.055201113
000160 e4 9f 92 3b 00 6c 9a bb fd 29 59 be e6 97 c1 bd
       0.004474627 -0.0047125816 -0.21207424 -0.094528005
000170 b1 5d 37 3e 49 54 f5 bd fb be 6e 3e 98 92 4a 3e
       0.17906834 -0.11978967 0.23315041 0.19782484
000180 bd 86 33 3e 79 39 2e 3d 2b f2 69 3e a9 e3 1a be
       0.17531867 0.04253528 0.22846286 -0.15125908
000190 9b c2 8f be 40 75 2b 3e 0c 0b 64 be 0f 00 1d be
       -0.2807816 0.16743946 -0.22269839 -0.15332054
0001a0 b2 fb 07 3e 4a f0 70 3d c8 5a 48 3e c3 08 b4 3d
       0.13279608 0.058822908 0.1956588 0.08790734
0001b0 87 95 1f be 29 ba eb bd e7 f2 92 bd c1 f6 e5 bd
       -0.15584384 -0.115101166 -0.07175236 -0.11228705
0001c0 f6 50 84 bd 27 0d a8 bd 98 f7 0f 3e 66 2d 3a be
       -0.064607546 -0.082056336 0.14059293 -0.1818138
0001d0 2b de f0 3e 5c 58 9b bd ba 4c a3 3d f0 ee c0 bd
       0.470445 -0.075852126 0.07973619 -0.09420574
0001e0 58 e1 8a 3e da 3f 31 be ff 35 53 3e 96 b3 66 bd
       0.2712505 -0.17309514 0.20626067 -0.05632361
0001f0 49 6d e2 3c 90 2c e3 3d ee a0 b5 be 88 11 a0 be
       0.027640002 0.11092484 -0.35474342 -0.31263375

weight f4 [6, 128]
000000 5a 47 92 3e 85 97 8a 3d f8 34 31 bd fe 2b d3 bd
       0.28570062 0.06767181 -0.043263406 -0.10311125
000010 8e 07 ff bd d9 cc 07 3e c5 e3 70 bd fd 20 3e be
       -0.12452613 0.13261737 -0.058810968 -0.18567272
000020 f9 a7 78 3e 46 2e d7 3e 13 e1 3c bc 27 89 55 3d
       0.24282826 0.4202749 -0.011528271 0.05213275
000030 a3 ba 93 3e 4f 43 86 be e9 f2 bd 3e ef 0d 41 3e
       0.2885333 -0.26223227 0.37099388 0.18852971
000040 8e 92 bb 3e 6a 9a 4e bc 3a 4c 0f be 47 09 07 3e
       0.3663525 -0.012610057 -0.13993922 0.13187133
000050 78 03 be 3d 0d 56 1b 3f 18 cc 81 be 7d 9a 08 bf
       0.09278005 0.6067818 -0.25351024 -0.5336073
000060 32 7e 97 3e e9 85 98 3e ff e2 b6 be 04 07 4a 3e
       0.29588467 0.29789665 -0.3572006 0.19729239
000070 cf bb 20 3e 1a 14 35 3e 17 72 07 3e c4 b0 45 3d
       0.15696643 0.1768345 0.13227116 0.04826428
000080 32 50 c3 bd c0 11 c2 3e e4 a9 9e bc bd 19 05 bd
       -0.095367804 0.37904167 -0.01936812 -0.03249525
000090 8a d7 13 3f 7e de be bd c0 0b 36 3d 40 fa 2a bd
       0.5775076 -0.09319781 0.0444448 -0.041742563
0000a0 87 9c 1d 3d 56 d7 8a bd 07 1d 7b 3e af f1 91 be
       0.038479354 -0.06779353 0.24522792 -0.28504702
0000b0 f8 5d f4 be 6d cc 96 bd d6 30 83 bd 57 c1 21 3f
       -0.47727942 -0.0736321 -0.06405799 0.6318564
0000c0 9f 34 0b 3e 87 08 29 3f 7a 73 a2 3e f3 ca a5 3d
       0.13594292 0.66028637 0.31728727 0.0809535
0000d0 86 b5 ea bd 5c e7 9a 3d ef 8d ee 3e df ee 93 3d
       -0.11460404 0.075636595 0.46592662 0.072232954
0000e0 6d d0 88 3d 22 16 f2 3d aa b4 6a 3e d1 5d ed be
       0.06680379 0.11820628 0.2292048 -0.4636064
0000f0 1c 62 80 be b7 d1 be 3e 46 ff 61 3e 13 39 2f be
       -0.25074852 0.37269375 0.22070035 -0.17111616
000100 da df b1 bd 6c 5b 56 3e 4f 05 1b be c1 16 77 3e
       -0.086852744 0.20933312 -0.15138744 0.24129774
000110 77 dd 1b bf 30 52 a7 be 4c ab c5 3d 01 f7 74 be
       -0.60884804 -0.32679892 0.09651813 -0.2392235
000120 52 02 a8 bd a2 84 c7 be 20 19 9c 3e f5 47 82 bd
       -0.082035676 -0.38968378 0.3048792 -0.06361381
000130 3d df 40 be a2 57 dc be c1 61 15 be f1 f2 1f be
       -0.18835159 -0.4303561 -0.14588071 -0.15620019
000140 09 cb 93 3e ff c5 c2 3e 1c 28 93 3e 64 2b 88 be
       0.2886584 0.38041684 0.2874154 -0.26595604
000150 85 b8 55 3e 69 d9 cb 3e ad 2b 69 3e 87 e0 79 3e
       0.2087117 0.39814308 0.22770567 0.24402057
000160 58 81 47 be 4f b7 b0 be 43 c7 a0 be b2 a2 b2 3e
       -0.19482934 -0.34514853 -0.31402025 0.34889752
000170 09 2d 51 3e 13 0d fc be 19 3e 10 3c 06 2e e3 3e
       0.20427336 -0.49228725 0.008803868 0.4437105
000180 72 67 92 3e 77 1a 41 3e 54 2a 0b 3f 5c ae 07 3e
       0.28594548 0.18857752 0.5436146 0.13250107
000190 da d4 aa be 52 99 f6 bd a0 1a a3 3e 46 18 d9 3e
       -0.33365518 -0.12040962 0.3185625 0.42401332
0001a0 bb 3e 95 3e 5b a6 a2 3c f3 72 99 3e 6e a3 28 3f
       0.29149422 0.019854715 0.29970512 0.65874374
0001b0 aa d0 c6 be 7c 58 b2 3b 1e 62 2e 3d a8 c5 95 be
       -0.38831073 0.005442677 0.04257404 -0.29252362
0001c0 6f 3d ae 3d 73 e8 a8 be 6c ce 06 3e 2e ec 98 be
       0.08507811 -0.32989845 0.13164681 -0.2986769
0001d0 ec a0 18 3e fe 48 c7 3d b9 64 1e 3f 01 d4 20 be
       0.14905137 0.09730719 0.6187244 -0.15705873
0001e0 cd c3 18 bd e7 f1 98 be 44 67 84 3e a7 96 3f 3e
       -0.037296105 -0.29872057 0.25860035 0.18709813
0001f0 95 ab 09 bb 3b 19 62 be 16 18 86 be 94 46 19 be
       -0.0021006812 -0.22079937 -0.2619025 -0.1496833
000200 b1 79 38 3e 35 93 72 3e 7e 7f 82 3e a7 a9 23 be
       0.18015172 0.23688968 0.25487894 -0.15982686
000210 3c 40 4c 3e b2 3b 49 bb 28 a1 ef be 90 96 80 3e
       0.19946378 -0.0030705747 -0.4680264 0.2511487
000220 d9 44 50 3e db 39 d1 3c 65 d7 16 bf be 77 41 3d
       0.20338763 0.025540283 -0.58922416 0.047233336
000230 0b 48 ba be e8 49 23 3e 8c 20 c0 bc a2 5d cb 3e
       -0.3638309 0.15946162 -0.02345302 0.39719874
000240 5b 91 70 bd 12 98 3a 3e 64 b2 0e 3f 74 92 53 be
       -0.05873237 0.18222073 0.5574095 -0.20661336
000250 2a 46 0a be 2d f3 e0 be 24 bf db 3e 39 21 db 3e
       -0.13503328 -0.43935528 0.42919266 0.42798784
000260 da c2 02 be 05 ea a6 3d 21 61 01 be 1f 14 2d 3e
       -0.12769642 0.081501044 -0.12634708 0.16902207
000270 06 b2 1c 3e a3 38 04 bf ab 37 2c be 31 f0 f8 bd
       0.15302286 -0.5164892 -0.1681811 -0.12155188
000280 52 68 e1 3e 67 d1 fe bd e1 8c 8a bd eb 98 56 be
       0.44024903 -0.12442284 -0.06765152 -0.20956771
000290 f9 58 90 3a 41 84 c4 bd 58 07 8f be 8c 51 10 be
       0.0011012844 -0.09595538 -0.2793529 -0.14093608
0002a0 20 16 6e bb ed 77 6b 3e d5 ee 2f be d8 18 a0 3e
       -0.0036329105 0.22994967 -0.17180951 0.31268954
0002b0 fe b8 78 3e 9c 4c 1a be 8a 75 b6 bd 92 c5 5e 3e
       0.24289319 -0.15068287 -0.089091375 0.21755055
0002c0 32 1a 75 be bd 0f 6f bd 6a 96 5d 3d cc a3 91 3e
       -0.23935774 -0.05836462 0.054098524 0.2844528
0002d0 a0 10 8b bd 50 c4 1a 3d 49 fd b5 be 0a 56 16 3e
       -0.0679028 0.037784874 -0.35544804 0.14681259
0002e0 04 b7 26 3b 65 63 8e be 7b 88 89 bc 8c 68 bf be
       0.0025438676 -0.27810207 -0.016788712 -0.3738445
0002f0 8a 3d 07 be 81 59 4f be 20 e7 9f 3e 2e 85 bd 3e
       -0.13207069 -0.20248987 0.31231022 0.3701567
000300 70 9e 37 bf e6 7a 95 be 1c 80 bb 3e 43 09 15 3e
       -0.7172613 -0.29195327 0.36621177 0.14554314
000310 94 21 cb 3e 91 26 bd be fa 08 26 3e b8 67 1b 3c
       0.39674056 -0.36943486 0.16214362 0.009485178
000320 41 33 d4 ba b3 d0 26 3e 3b 68 ce be 7f 43 49 bc
       -0.0016189591 0.1629055 -0.40313897 -0.012284159
000330 ed cc bc 3d 25 83 38 3e e2 e5 93 be 81 9e a4 3e
       0.09218774 0.18018778 -0.28886324 0.3215218
000340 e4 a5 94 3e e6 19 25 bf ab 3b 68 3e 2a 70 9f be
       0.29032815 -0.6449264 0.22679012 -0.31140262
000350 a8 7b 75 be b3 37 b7 3c 7a 7f 6f be 9f cf e9 bd
       -0.23972952 0.022365427 -0.23388472 -0.11416554
000360 58 ac 10 bf 4b a8 76 3e a6 c5 77 bd f6 22 d1 be
       -0.56512976 0.24087636 -0.060491227 -0.40846986
000370 64 32 27 3e 5d a3 06 3f 09 ec 0a 3d 1b a9 64 3e
       0.16327816 0.5259302 0.033916507 0.22330134
000380 90 26 2e 3e 5a f1 94 3e cf a9 5b be 2c d5 a6 be
       0.17006898 0.29090387 -0.21451496 -0.32584512
000390 94 c9 59 be 4e 7f 97 3e d0 12 47 be 86 37 04 bf
       -0.21268302 0.29589313 -0.1944077 -0.5164722
0003a0 5d 2f 59 3d 61 e7 86 3e 92 45 52 be 17 1f 3f bf
       0.053023685 0.26348403 -0.20534351 -0.74656814
0003b0 c1 1e 30 3f 6a b5 5b be f9 0c 95 3e 5b 32 60 be
       0.68796927 -0.21455923 0.2911146 -0.21894209
0003c0 5f 2e 16 bf 0f a5 a1 bd 8e b7 e5 bd e0 5c 72 be
       -0.58664507 -0.078928106 -0.11216651 -0.23668242
0003d0 00 e1 1e 3e e0 c3 a2 3a 62 6a 88 be 96 1a 9a be
       0.15515518 0.0012417994 -0.26643664 -0.30098408
0003e0 5c b8 6e 3e 25 29 68 be d5 45 24 be a6 b0 7c be
       0.23312515 -0.22671945 -0.16042264 -0.24676761
0003f0 c9 d5 ab 3d a5 53 81 3e c7 f1 bf 3c 68 7d 01 be
       0.08390386 0.25259128 0.023430718 -0.12645495

bias f4 [6]
000000 46 ba 27 3d 47 1b 26 3e a8 27 46 bb 3e 8d 95 bd
       0.04094913 0.16221343 -0.003023604 -0.073023304
000010 c9 bf 99 be 36 4a 47 be
       -0.30029133 -0.19461903
