src/learning/models/128_128_128_touch_400ep_8746.pt (torch, 142159 bytes, 8 tensors)

weight f4 [128, 6]
0.19417067 0.39709854 -0.08039708 0.07535078 0.28807187 0.35022414 0.1280956 -0.22942692
0.044896428 -0.28847006 -0.3352546 -0.20504099 -0.13664553 0.098441385 -0.21449427 0.067379944
0.2104858 -0.37963912 0.01777719 -0.2148843 0.41075432 0.406335 0.15683775 -0.072934516
-0.13289176 -0.29385528 0.10394261 -0.29717216 0.038330954 -0.5742163 -0.21035725 0.1973621
0.021800954 -0.3460756 -0.03700747 -0.8801743 0.055820674 -0.35910937 -0.15263869 -0.45248562
-0.5410243 0.15843828 0.2505277 0.12443579 -0.48787904 0.15511139 0.07559449 0.46871924
0.12262142 -0.31255215 0.14408495 -0.23748259 0.018675797 0.032645516 -0.11338143 0.075079724
0.1557383 0.5809928 0.7183043 0.30582455 0.15159449 0.2466935 -0.07519104 -0.73327655
0.063296944 0.497856 -0.05121808 0.15887763 0.004487379 0.13957559 0.35963163 0.67200214
-0.20828436 0.001195622 -0.14127056 -0.15148877 0.4289878 -0.4201237 -0.18994692 0.41268805
-0.10659348 -0.30800715 -0.11874782 0.28943706 0.06941082 -0.35008883 0.08693145 -0.011120541
-0.2387841 -0.5240521 -0.45495343 0.36201155 0.062037032 -0.36201197 -0.05522882 -0.35607836
-0.053983353 -0.16766985 0.08588598 -0.19783323 0.42215136 -0.5682929 0.42877126 0.02683923
-0.41541764 0.07804664 0.02609244 -0.36449417 -0.19506851 0.3015031 -0.06528527 0.27705258
0.48877257 0.2617008 0.07771544 -0.07467267 -0.3492624 -0.12490527 -0.22346996 0.29007334
-0.51749504 -0.018833814 0.49134865 -0.088837184 -0.1879014 -0.07428232 0.09107229 0.33584103
0.31927082 -0.123525016 0.10445024 -0.33482552 -0.31380337 0.052727487 0.14202644 0.2429687
0.5433873 -0.43933234 0.115985304 0.12484254 -0.24321339 0.12037808 0.48469615 -0.34931818
0.00838663 0.015784416 -0.11152229 0.48771143 0.17768216 0.12338323 0.10392427 -0.09864429
-0.10998703 -0.011070481 -0.056504115 0.82403976 0.062086567 -0.18350033 -0.0591341 0.21234392
0.6402955 -0.23855555 0.008309073 -0.055223167 0.031848826 -0.15692066 0.08063029 -0.023073567
-0.030621994 -0.21108326 0.13625102 -0.08560234 0.73786163 0.34297606 -0.011648814 0.06522204
0.62517977 0.49816465 -0.33133298 -0.018256137 0.08383598 -0.155508 -0.58684874 -0.40922672
0.11138435 -0.048964743 -0.16021493 0.055419024 -0.5449259 0.03636286 0.04775974 -0.56675005
-0.044205595 0.03970124 -0.016655637 0.011342046 0.58169365 0.2632598 -0.03766249 0.25621724
0.5157297 -0.22520074 0.31583565 0.8112458 0.06202498 -0.011866478 0.058021553 0.13832407
-0.61590797 0.36859867 0.41093853 0.04500214 -0.2925785 -0.16168767 -0.12518899 0.19346173
-0.24016564 0.20311342 -0.04066931 -0.21026634 0.060502887 0.5917616 -0.08672976 0.19706999
0.02988665 -0.13096625 -0.098750964 -0.78825736 0.3075883 -0.29536897 0.1936533 0.2705876
-0.27016398 -0.3061177 -0.022880364 0.25043848 -0.027710294 0.21415812 0.10235297 0.54222155
-0.030358084 0.0040839817 -0.04171513 -0.005617762 0.48253906 -0.055941742 0.13706215 -0.32913724
-0.21969725 -0.008765853 0.44388413 0.4782093 0.004618516 -0.39624003 -0.15421104 0.6489259
00000000: add4 463e 8050 cb3e 39a7 a4bd 8251 9a3d
00000010: 287e 933e 9450 b33e 7e2b 033e e4ee 6abe
00000020: 51e5 373d 59b2 93be 7ea6 abbe 44f6 51be
00000030: ceec 0bbe a39b c93d 63a4 5bbe 7ffe 893d
00000040: 9789 573e 0f60 c2be 78a1 913c a10a 5cbe
00000050: 644e d23e 240b d03e 139a 203e b15e 95bd
00000060: c714 08be 3374 96be dddf d43d f326 98be
00000070: eb00 1d3d d7ff 12bf e467 57be 4a19 4a3e
00000080: ea97 b23c d230 b1be 2595 17bd 1a53 61bf
00000090: 38a4 643d 2fdd b7be 514d 1cbe 32ac e7be
000000a0: 9280 0abf a53d 223e 2b45 803e 31d8 fe3d
000000b0: 48cb f9be 85d5 1e3e 49d1 9a3d f8fb ef3e
000000c0: f020 fb3d d606 a0be 018b 133e a32e 73be
000000d0: fcfd 983c 4eb7 053d 8634 e8bd 66c3 993d
000000e0: dc79 1f3e f2bb 143f cae2 373f 0995 9c3e
000000f0: 963b 1b3e 399d 7c3e c3fd 99bd 03b8 3bbf
00000100: d4a1 813d fbe6 fe3e 0dca 51bd d1b0 223e
00000110: dd0a 933b e7ec 0e3e a321 b83e 5508 2c3f
00000120: 7f48 55be 6bb6 9c3a 3ba9 10be df1f 1bbe
00000130: 4aa4 db3e 741a d7be 7281 42be d94b d33e
00000140: af4d dabd 1db3 9dbe 0f32 f3bd 1831 943e
00000150: 4327 8e3d d83e b3be 1e09 b23d ee32 36bc
00000160: d283 74be 4728 06bf a8ef e8be 9459 b93e
00000170: 8b1a 7e3d a259 b9be 9d37 62bd e74f b6be
00000180: a61d 5dbd a5b1 2bbe fde4 af3d cb94 4abe
00000190: 3924 d83e a57b 11bf e887 db3e f2dd db3c
000001a0: 9fb1 d4be ebd6 9f3d d0bf d53c fb9e babe
000001b0: 0ac0 47be 9d5e 9a3e 49b4 85bd d6d9 8d3e
000001c0: 6640 fa3e a6fd 853e 4629 9f3d fced 98bd
000001d0: 85d2 b2be 56ce ffbd 4fd5 64be 7e84 943e
000001e0: 8e7a 04bf 5f49 9abc 0d92 fb3e 45f0 b5bd
000001f0: 3969 40be 5421 98bd 1c84 ba3d 5bf3 ab3e
00000200: 7777 a33e affa fcbd 02ea d53d 406e abbe
00000210: d6aa a0be c7f8 573d 616f 113e c9cc 783e
00000220: 6e1b 0b3f 2bf0 e0be b489 ed3d 72ad ff3d
00000230: ee0c 79be c888 f63d 182a f83e d5d9 b2be
00000240: 1368 093c 524e 813c cc65 e4bd 50b5 f93e
00000250: 50f2 353e 59b0 fc3d 3fd6 d43d 0406 cabd
00000260: e140 e1bd f660 35bc dc70 67bd 45f4 523f
00000270: 7c4e 7e3d 83e7 3bbe 9936 72bd af70 593e
00000280: 68ea 233f e847 74be c722 083c b031 62bd
00000290: ea73 023d cfaf 20be 7e21 a53d c704 bdbc
000002a0: fada fabc 3626 58be 6385 0b3e 4850 afbd
000002b0: 80e4 3c3f 8f9a af3e abda 3ebc 2293 853d
000002c0: c80b 203f 700f ff3e 7aa4 a9be e58d 95bc
000002d0: 33b2 ab3d 7d3d 1fbe b83b 16bf 2a86 d1be
000002e0: 7a1d e43d 418f 48bd 620f 24be 0fff 623d
000002f0: 4480 0bbf 39f1 143d b89f 433d 8816 11bf
00000300: ed10 35bd c49d 223d 6771 88bc fdd3 393c
00000310: e0e9 143f fdc9 863e fc43 1abd e82e 833e
00000320: dd06 043f 069b 66be 36b5 a13e cead 4f3f
00000330: e80d 7e3d 9e6b 42bc 02a8 6d3d d3a4 0d3e
00000340: 25ac 1dbf f7b8 bc3e 8966 d23e 2a54 383d
00000350: d9cc 95be 7491 25be 8b31 00be d51a 463e
00000360: fbed 75be f7fc 4f3e dd94 26bd 0f50 57be
00000370: e0d1 773d b07d 173f 5f9f b1bd b7cc 493e
00000380: d9d4 f43c 041c 06be f23d cabd 3ccb 49bf
00000390: 377c 9d3e 9a3a 97be 0d4d 463e 758a 8a3e
000003a0: ef52 8abe 76bb 9cbe 9a6f bbbc 7939 803e
000003b0: b300 e3bc 444c 5b3e 6f9e d13d 08cf 0a3f
000003c0: 84b1 f8bc ecd2 853b 7cdd 2abd 3415 b8bb
000003d0: 5c0f f73e 2b23 65bd 055a 0c3e ad84 a8be
000003e0: 51f8 60be a79e 0fbc c844 e33e d9d7 f43e
000003f0: ec56 973b f9df cabe 80e9 1dbe 0220 263f

bias f4 [128]
-0.3307356 0.5163345 -0.2466352 -0.67785525 0.8205167 0.46477476 -0.2693682 -0.8687456
-0.4847949 -0.1902071 0.04174796 -0.31669852 -0.10350667 0.055839125 0.4283398 0.6737655
0.19492899 0.05723239 0.27888143 0.33406162 0.38993967 -0.048366744 -0.60121477 -0.63457865
0.117334016 0.021802213 -0.027382478 -0.1359953 -0.6081272 0.15037863 0.486274 0.015031615
0.1204433 0.09633256 0.013047537 -0.450775 -0.39489645 0.085095786 -0.2119455 0.34615836
0.78876394 -0.1838799 -0.3422358 -0.4684613 -0.6099869 0.19705473 0.12197919 0.11398581
-0.16501684 -0.08041735 0.57057554 -0.70511913 -0.1339092 0.017387208 0.7807356 0.06303951
-0.060370684 -0.54013133 -0.60015094 -0.8975216 0.59627736 0.05619517 0.15335615 -0.1413398
-0.60350126 -0.40061188 -0.42260832 0.74868244 -0.33158025 0.5092811 -0.18960011 -0.41550463
-0.28497604 -0.5045055 0.30300406 -0.35655296 -0.8702648 -0.42893174 -0.46188158 0.4619176
-0.5673679 0.103411384 0.3139784 -0.0215211 0.43528545 0.30838993 0.26312718 0.30276814
0.87596875 -0.07507987 -0.13050933 0.056817032 -0.78668916 0.08814469 -0.5664742 -0.37217596
-0.29911935 0.05892411 -0.16554172 0.11645708 0.488126 -0.6898861 -0.0075691887 0.3848642
0.7892003 0.94546086 0.33227062 -0.19546452 0.40725243 0.45688683 -0.5542964 0.019768564
0.0035040574 0.37466913 -0.111316025 0.0029852327 0.6084291 -0.48907614 0.19687182 -0.0868543
-0.22016348 -0.18969092 0.6785162 0.4989381 -0.1259006 0.10871997 0.6213534 -0.57618153
00000000: 2d56 a9be 7f2e 043f f08d 7cbe ec87 2dbf
00000010: 620d 523f f5f6 ed3e a1ea 89be 1d66 5ebf
00000020: 0a37 f8be a6c5 42be e9ff 2a3d 4f26 a2be
00000030: 4efb d3bd 91b7 643d 5b4f db3e e57b 2c3f
00000040: 779b 473e 836c 6a3d 8cc9 8e3e 200a ab3e
00000050: 2ca6 c73e 351c 46bd 36e9 19bf bf73 22bf
00000060: d14c f03d 8e9a b23c 3851 e0bc 5a42 0bbe
00000070: 39ae 1bbf dbfc 193e e8f8 f83e 2a47 763c
00000080: faaa f63d 014a c53d 56c5 553c fbcb e6be
00000090: de2f cabe b346 ae3d 3e08 59be ab3b b13e
000000a0: 6fec 493f 034b 3cbe 8839 afbe 29da efbe
000000b0: 1a28 1cbf b7c8 493e 3ad0 f93d 6471 e93d
000000c0: 2dfa 28be dab1 a4bd 3d11 123f b082 34bf
000000d0: 7e1f 09be 9e6f 8e3c 4ade 473f dc1a 813d
000000e0: 4047 77bd 0c46 0abf 7ea3 19bf fac3 65bf
000000f0: a2a5 183f e82c 663d 6509 1d3e 61bb 10be
00000100: 0f7f 1abf 001d cdbe 1e60 d8be a7a9 3f3f
00000110: e3c4 a9be 3f60 023f 8826 42be 06bd d4be
00000120: 61e8 91be 4627 01bf 5923 9b3e 1c8e b6be
00000130: adc9 5ebf f19c dbbe be7b ecbe 7780 ec3e
00000140: 063f 11bf 59c9 d33d c7c1 a03e 054d b0bc
00000150: bcdd de3e 49e5 9d3e 9bb8 863e 6d04 9b3e
00000160: 7d3f 603f 7ac3 99bd 3da4 05be fab8 683d
00000170: 7664 49bf 3485 b43d 7404 11bf d98d bebe
00000180: 2c26 99be 685a 713d c583 29be 0d81 ee3d
00000190: a7eb f93e 609c 30bf f506 f8bb ec0c c53e
000001a0: 0809 4a3f b909 723f 601f aa3e da27 48be
000001b0: 6483 d03e 12ed e93e 5ee6 0dbf aff1 a13c
000001c0: 54a4 653b a2d4 bf3e a8f9 e3bd e5a3 433b
000001d0: 02c2 1b3f 3068 fabe c498 493e abe0 b1bd
000001e0: 8972 61be 563e 42be 3db3 2d3f d174 ff3e
000001f0: 16ec 00be 93a8 de3d 0411 1f3f a280 13bf

weight f4 [128, 128]
-0.16891484 0.02206116 0.042423896 -0.024700025 -0.078596644 -0.14168249 0.28016245 0.064314015
0.043600082 0.26747942 0.19023247 -0.025351468 0.24408233 -0.19729018 -0.17134826 -0.25910679
-0.03243071 -0.12390763 -0.16376969 -0.2677071 -0.0262204 0.018746367 0.019682368 -0.05685267
-0.21857119 0.019331893 -0.28542608 -0.12600744 -0.13724855 0.0450246 -0.1461311 0.20759977
0.1265103 0.32038757 -0.06641511 -0.13561694 0.13596596 -0.32907465 -0.14785606 0.048211124
0.059369255 0.087162554 -0.30766347 0.0016625372 -0.057497747 0.30049703 0.19495793 0.08535653
0.04173966 0.116822325 -0.087805554 0.08407861 0.118393525 0.31482133 -0.18629995 0.0380475
0.044991802 -0.002552261 0.30349177 -0.12390046 -0.06126861 0.33564174 -0.22724436 0.032503393
-0.09017159 0.19056505 0.0865369 -0.2037892 -0.19714116 0.18912567 0.4569196 -0.019332226
-0.12650046 -0.16206531 0.020071227 -0.2698989 0.11346445 -0.33177543 -0.04063697 -0.26416424
0.23793009 -0.049292024 -0.18186699 0.19379508 0.34897798 -0.0169329 -0.28689376 0.0075856736
-0.1450446 0.26846614 -0.25029382 0.12758176 -0.0411957 -0.07841356 0.1946417 0.0044127526
0.029157534 -0.006104976 0.1713615 0.047092088 -0.15337294 -0.056316845 -0.018231826 0.06529309
-0.26169583 -0.1287246 0.17212316 0.29733688 0.24007268 0.41861275 -0.07500381 0.15299462
-0.14805937 -0.14462481 -0.11606762 0.044079483 -0.025697228 0.1336573 -0.038251717 0.04566562
0.43481404 0.089948684 -0.043566126 -0.13940099 -0.1010942 -0.052347504 -0.07179533 0.015740355
0.07151648 -0.2523455 -0.046338435 0.1113281 -0.13255383 0.15159994 -0.25390196 0.033381224
-0.26049173 0.15268114 0.094712585 0.31955618 -0.00019713124 -0.20106277 -0.03984153 -0.0745363
-0.026319155 -0.15514074 0.23529412 -0.021344185 0.21675679 0.19496548 0.05432224 -0.036183722
0.105207436 -0.06286434 0.057374228 -0.06508403 -0.08552419 0.18819328 0.088608116 -0.051418826
0.16449332 -0.07874608 -0.3449928 -0.036615975 -0.2243507 0.053364556 -0.056396265 0.3209825
0.061854854 -0.18449205 0.1259997 0.13209943 0.17871453 0.066788316 -0.25550798 -0.14999235
-0.04642624 0.26104432 0.35834292 -0.13000946 0.11862892 -0.23377174 -0.13542959 0.04318606
-0.13505669 -0.13861811 0.1226258 0.038884055 -0.023516703 0.011114891 0.10055749 -0.044431925
0.25107595 -0.2532156 0.00769082 0.046233494 0.24781734 0.023181412 -0.20439824 0.131887
0.13144363 0.080153055 -0.1659352 0.13674551 0.22638479 0.14878283 -0.16902189 -0.026634775
-0.014325398 -0.10124612 0.06216615 0.14045602 -0.064639986 -0.1718209 0.3384481 0.06746516
-0.021750366 -0.07628857 -0.18744078 -0.024318147 -0.024658214 0.0066168997 -0.17202155 0.37696406
0.25217748 0.00900301 0.22376351 0.041373633 0.12929104 -0.03974818 -0.17967057 0.021022363
0.010782254 0.12430526 -0.07721157 -0.32651842 0.59936976 0.0023204586 -0.094985105 -0.19295685
0.03140852 0.10471821 0.16779198 -0.02043136 -0.29695478 -0.14500308 0.20865346 0.11640608
-0.114602424 -0.24261478 -0.14663953 0.22754574 0.26832372 0.22172451 0.0072084363 -0.08917827
00000000: 03f8 2cbe 9bb9 b43c aec4 2d3d b557 cabc
00000010: 47f7 a0bd 3715 11be 7471 8f3e 11b7 833d
00000020: 0096 323d 10f3 883e 4dcc 423e e2ad cfbc
00000030: b8f0 793e 7006 4abe eb75 2fbe a5a9 84be
00000040: 10d6 04bd 49c3 fdbd 3eb3 27be e810 89be
00000050: 2acc d6bc fb91 993c eb3c a13c 58de 68bd
00000060: 20d1 5fbe eb5d 9e3c 5e23 92be 1808 01be
00000070: e28a 0cbe b76b 383d 64a3 15be 0995 543e
00000080: eb8b 013e d709 a43e a504 88bd 2bdf 0abe
00000090: a93a 0b3e 797c a8be 9467 17be 0779 453d
000000a0: 2d2d 733d 4882 b23d 1186 9dbe 7ee9 d93a
000000b0: c282 6bbd bfda 993e 0da3 473e 68cf ae3d
000000c0: 35f7 2a3d 8b40 ef3d 66d3 b3bd 6831 ac3d
000000d0: 4e78 f23d 4330 a13e 6ac5 3ebe b2d7 1b3d
000000e0: 5349 383d d643 27bb 4663 9b3e 86bf fdbd
000000f0: cbf4 7abd 3cd9 ab3e bfb2 68be 4722 053d
00000100: e2ab b8bd 7c23 433e 423a b13d 1eae 50be
00000110: 5fdf 49be 29aa 413e 5ef1 e93e 9e5e 9ebc
00000120: 5689 01be 73f4 25be 6a6c a43c 3030 8abe
00000130: 0d60 e83d 78de a9be f472 26bd 8940 87be
00000140: f2a3 733e 6fe6 49bd 573b 3abe 3872 463e
00000150: 3ead b23e ddb6 8abc bde3 92be 3e91 f83b
00000160: 9286 14be 6574 893e 8326 80be cba4 023e
00000170: d3bc 28bd 4a97 a0bd 2750 473e da98 903b
00000180: c8db ee3c 400c c8bb 6479 2f3e a2e3 403d
00000190: cc0d 1dbe 7eac 66bd e95a 95bc 62b8 853d
000001a0: fffc 85be 62d0 03be 0e41 303e 8a3c 983e
000001b0: 9dd5 753e 6954 d63e 999b 99bd 9faa 1c3e
000001c0: e09c 17be 8718 14be dcb4 edbd b08c 343d
000001d0: fe82 d2bc 76dd 083e d5ad 1cbd e00b 3b3d
000001e0: f29f de3e 0437 b83d 6572 32bd 22bf 0ebe
000001f0: 7a0a cfbd 566a 56bd 6e09 93bd ebf1 803c
00000200: 3b77 923d 6e33 81be 5fcd 3dbd fdff e33d
00000210: 31bc 07be 043d 1b3e 70ff 81be c0ba 083d
00000220: 2c5f 85be 7258 1c3e acf8 c13d de9c a33e
00000230: 04b5 4eb9 66e3 4dbe df30 23bd 7da6 98bd
00000240: 459b d7bc 37dd 1ebe f1f0 703e 00da aebc
00000250: 7ef5 5d3e 08a5 473e ff80 5e3d 6235 14bd
00000260: ff76 d73d 05bf 80bd 3d01 6b3d c74a 85bd
00000270: 4e27 afbd bdb5 403e 2c78 b53d 8c9c 52bd
00000280: f070 283e a045 a1bd e5a2 b0be a2fa 15bd
00000290: 31bc 65be cb94 5a3d c5ff 66bd d157 a43e
000002a0: 845b 7d3d 7ceb 3cbe 1106 013e 1345 073e
000002b0: f100 373e 50c8 883d f1d1 82be 9897 19be
000002c0: 7129 3ebd 9aa7 853e b978 b73e 3321 05be
000002d0: b8f3 f23d dc61 6fbe 0eae 0abe dee3 303d
000002e0: 4d4c 0abe e8f1 0dbe 3c23 fb3d e344 1f3d
000002f0: 1aa6 c0bc 3b1b 363c 16f1 cd3d 40fe 35bd
00000300: 078d 803e 7aa5 81be 4603 fc3b 555f 3d3d
00000310: d4c3 7d3e f2e6 bd3c c64d 51be 630d 073e
00000320: 2999 063e 4927 a43d ebea 29be 0407 0c3e
00000330: 6ad1 673e 875a 183e 1314 2dbe 2c31 dabc
00000340: 13b5 6abc 205a cfbd efa1 7e3d b4d3 0f3e
00000350: f861 84bd d1f1 2fbe 1249 ad3e 2c2b 8a3d
00000360: d32d b2bc 2f3d 9cbd 7af0 3fbe da36 c7bc
00000370: 0600 cabc 94d2 d83b 6b26 30be 6f01 c13e
00000380: 681d 813e 5c81 133c 4322 653e 6677 293d
00000390: df64 043e fdce 22bd 90fb 37be 1737 ac3c
000003a0: 0da8 303c c293 fe3d 1a21 9ebd 6c2d a7be
000003b0: 4c70 193f d612 183b 8d87 c2bd 7b96 45be
000003c0: 38a6 003d 8076 d63d a9d1 2b3e ab5f a7bc
000003d0: 750a 98be b07b 14be 41a9 553e 5066 ee3d
000003e0: adb4 eabd 0270 78be ac28 16be c001 693e
000003f0: ba61 893e c00b 633e bf34 ec3b 19a3 b6bd

bias f4 [128]
-0.16387218 -0.098432295 -0.1275069 0.20956817 -0.08882312 -0.109215125 0.12612894 -0.08454584
0.023419332 -0.11277011 -0.062544025 0.07718234 -0.19750223 0.26059532 0.0452526 -0.10314649
0.0063156337 0.102565296 -0.07159154 0.14758416 0.12256064 0.13948314 0.044891488 -0.004270791
0.061477434 0.07874419 0.034028362 0.030308783 -0.025891755 0.025092835 0.16932641 0.057791516
0.113905676 -0.006609817 -0.036391053 -0.032715704 0.14719321 0.10519914 0.113808826 -0.08791418
-0.20800194 -0.1993929 -0.19751115 -0.05429919 0.11081976 -0.013290553 -0.16282344 -0.044212323
-0.1684891 0.14183679 0.11249119 0.025021577 -0.08743246 0.1615784 0.10626743 0.12287288
-0.059785478 -0.16058554 -0.16901712 -0.16424635 0.16584627 -0.14961937 -0.042329926 0.11280559
0.05009155 0.2540106 -0.033265747 -0.19475783 -0.17094049 -0.03217871 0.12398336 0.22915117
0.058840454 0.32289618 -0.093775004 -0.06311741 -0.01940518 0.25589073 0.13284321 0.08602766
-0.052097965 -0.15763877 0.040009223 0.080792844 -0.06529674 0.037771504 0.1653923 -0.09654851
-0.017065145 0.19583721 -0.052267473 0.26681477 -0.08401043 -0.08411082 0.16293608 0.22989848
-0.08460466 -0.16352771 0.2170917 0.01153823 -0.28051233 0.20164683 0.08646704 -0.022648277
-0.005276373 0.053200126 0.13352002 -0.0967318 0.22998829 0.059494473 0.16391012 0.053144507
-0.08375306 0.21032551 -0.07435032 -0.16901512 0.08749876 0.09055676 -0.13500243 -0.04602762
0.0750022 -0.09702524 -0.029472789 -0.12475453 -0.15537894 -0.0008790019 -0.11151254 0.21869753
00000000: 1cce 27be df96 c9bd 2b91 02be 0a99 563e
00000010: e5e8 b5bd 2eac dfbd f227 013e 5f26 adbd
00000020: e6d9 bf3c 04f4 e6bd 1517 80bd c611 9e3d
00000030: 063e 4abe c06c 853e ca5a 393d 783e d3bd
00000040: 60f3 ce3b c10d d23d 969e 92bd 4d20 173e
00000050: 1301 fb3d abd4 0e3e 23e0 373d fef1 8bbb
00000060: c3cf 7b3d a244 a13d 5361 0b3d 204a f83c
00000070: f21a d4bc 7d8f cd3c e763 2d3e ccb6 6c3d
00000080: 6147 e93d 2a97 d8bb c90e 15bd e700 06bd
00000090: d1b9 163e a672 d73d 9a14 e93d 590c b4bd
000000a0: 76fe 54be a72d 4cbe 5d40 4abe d468 5ebd
000000b0: 78f5 e23d 9fc0 59bc 30bb 26be fb17 35bd
000000c0: 6888 2cbe aa3d 113e c861 e63d 0dfa cc3c
000000d0: ca0f b3bd cf74 253e bda2 d93d c7a4 fb3d
000000e0: 9ee1 74bd 8970 24be d312 2dbe 3230 28be
000000f0: 9bd3 293e d235 19be 2562 2dbd 9e06 e73d
00000100: cc2c 4d3d ad0d 823e aa41 08bd 996e 47be
00000110: 060b 2fbe d3cd 03bd fdea fd3d 9ba6 6a3e
00000120: b002 713d a652 a53e 1c0d c0bd b343 81bd
00000130: 9df7 9ebc 1c04 833e 0d08 083e 452f b03d
00000140: ad64 55bd 0f6c 21be b6e0 233d b876 a53d
00000150: 4cba 85bd 4bb6 1a3d 995c 293e 3abb c5bd
00000160: 34cc 8bbc 8d89 483e 6b16 56bd f29b 883e
00000170: a90d acbd 4b42 acbd b7d8 263e 826a 6b3e
00000180: 3545 adbd cf73 27be 494d 5e3e d80a 3d3c
00000190: 509f 8fbe 827c 4e3e a215 b13d e188 b9bc
000001a0: 6de5 acbb 60e8 593d 79b9 083e 521b c6bd
000001b0: 0d82 6b3e 7ab0 733d 0ed8 273e 0eae 593d
000001c0: b986 abbd 925f 573e fb44 98bd 4d12 2dbe
000001d0: 8d32 b33d d375 b93d 143e 0abe 7587 3cbd
000001e0: c19a 993d 2bb5 c6bd eb70 f1bc 4e7f ffbd
000001f0: a81b 1fbe d26c 66ba b060 e4bd 3ff2 5f3e

weight f4 [128, 128]
-0.030213708 0.14034532 -0.124558054 -0.09547478 -0.17663047 0.07241098 -0.0048809936 0.024368595
-0.07525194 -0.08041272 0.24337044 0.08512274 -0.16334313 0.14115788 -0.007384351 0.18053961
0.17902845 -0.022337345 0.037230544 -0.07195199 0.019148678 0.05185075 -0.038337063 -0.07090081
0.0569677 0.021102615 0.29242906 -0.13739395 -0.4151768 0.14542381 -0.19667399 -0.21803233
-0.20313588 0.21433409 0.010584716 0.2692303 0.17215401 -0.26404294 -0.17678772 0.05296422
0.3741254 0.1304065 0.2658239 0.15530592 -0.112321384 -0.13474028 0.19436598 0.13515346
0.32422218 0.18935052 0.027721914 0.11361666 -0.16637057 -0.5259781 -0.008001876 0.0521082
0.4324357 -0.113281205 -0.01799223 0.022053313 -0.37840056 -0.5109773 -0.10125859 -0.26551557
-0.29132143 0.22259101 -0.3439482 0.06315213 -0.07614687 -0.12778884 -0.49915805 -0.3441236
0.24631937 -0.26573208 0.09592922 -0.28973836 0.056667767 -0.282619 -0.08914922 0.21688294
0.037664328 -0.059212796 -0.14274696 0.03587369 -0.0048589534 -0.15272948 -0.027623676 0.04818445
-0.14614543 -0.3374329 -0.06800144 -0.13057053 -0.05217463 -0.19531932 -0.21068297 -0.25123036
0.10949872 0.15509012 -0.10682968 -0.011004224 0.12118412 -0.09234054 -0.05173137 0.08835868
-0.093624875 -0.046654362 0.29688618 0.037760258 0.08065863 0.028180258 -0.0072347256 -0.11996701
0.00017591806 -0.12616456 -0.030578777 -0.09720262 0.058204196 -0.22114527 0.13203263 -0.14452438
0.2517694 0.21445036 -0.15960032 0.0073866392 -0.012042263 0.26569253 0.30489904 0.38634133
0.18543603 0.052248947 -0.12989932 0.22993016 -0.37450734 -0.0809026 0.16441901 0.2421202
0.046742063 0.24879295 0.110326804 0.1400084 -0.12987196 0.17057429 -0.11647161 0.10357168
-0.084108286 -0.23706256 -0.19185537 0.13371412 0.16711242 0.2700871 0.09384197 -0.5529216
0.14481613 0.060104787 0.021434914 -0.010033181 -0.14961202 0.13705851 -0.06084201 -0.20061472
0.031969834 -0.061409675 0.27000782 -0.1887518 -0.38644534 -0.07837124 0.4493292 0.09660271
-0.11639662 -0.16882145 -0.09622934 0.079656444 -0.19911708 -0.23006116 0.15005617 0.08073336
-0.30247423 0.5626402 0.21541573 -0.004236507 -0.030534927 -0.16220441 0.26720464 0.14911093
-0.097094886 -0.04215901 -0.10326056 -0.060658433 -0.61181444 0.25252685 0.3493182 -0.030024525
0.027411606 0.2508707 -0.114243455 -0.2329654 -0.062172916 -0.25444612 0.3463243 0.019999823
0.047132444 0.007904445 0.15933448 0.021742655 -0.42385668 0.058810327 0.06536636 -0.0477899
-0.2566785 0.20939381 -0.04535182 -0.30118263 -0.29784015 -0.2937984 0.3565204 0.09951573
-0.12244671 0.028762247 0.02458165 0.30097982 -0.10988222 0.14803442 0.06504033 -0.25136095
0.18092363 0.22825254 -0.135912 -0.047166098 -0.38261852 -0.02266454 0.0014794486 0.0127235735
-0.12876971 0.0048177424 0.06395065 0.17081101 -0.02997895 -0.32091898 -0.12167776 -0.12455934
0.0068332283 0.27918038 0.08881451 -0.14311206 0.05655322 -0.062443055 0.17333362 0.061872043
0.1629829 -0.11008942 0.086269006 -0.4302751 0.18403624 0.3399474 -0.06339955 0.21144973
00000000: bd82 f7bc afb6 0f3e 4b18 ffbd 4888 c3bd
00000010: 9ede 34be 354c 943d bef0 9fbb a6a0 c73c
00000020: b01d 9abd 6daf a4bd 1a36 793e d554 ae3d
00000030: 6c43 27be b18b 103e 6df8 f1bb 60df 383e
00000040: 3c53 373e cffc b6bc 0e7f 183d 915b 93bd
00000050: b0dd 9c3c 7461 543d 5307 1dbd 7234 91bd
00000060: f756 693d 64df ac3c 43b9 953e 00b1 0cbe
00000070: 0e92 d4be fbe9 143e e864 49be de43 5fbe
00000080: da02 50be 657a 5b3e 846b 2d3c 8ed8 893e
00000090: 2449 303e a330 87be d707 35be 03f1 583d
000000a0: 5d8d bf3e 4889 053e 121a 883e 8408 1f3e
000000b0: c108 e6bd 5bf9 09be e007 473e ab65 0a3e
000000c0: 7300 a63e 1ae5 413e 1119 e33c daaf e83d
000000d0: 0c5d 2abe 80a6 06bf 4d1a 03bc 686f 553d
000000e0: 3668 dd3e faff e7bd 7164 93bc 26a9 b43c
000000f0: b8bd c1be 69cf 02bf aa60 cfbd a8f1 87be
00000100: 1528 95be e6ee 633e fa19 b0be e755 813d
00000110: e4f2 9bbd 14db 02be a591 ffbe f830 b0be
00000120: 253b 7c3e 090e 88be 8a76 c43d 9658 94be
00000130: 761c 683d 70b3 90be de93 b6bd 9016 5e3e
00000140: e945 1a3d 1e89 72bd 422c 12be 4af0 123d
00000150: db37 9fbb 1e65 1cbe 0c4b e2bc 0f5d 453d
00000160: 26a7 15be 01c4 acbe 5744 8bbd 48b4 05be
00000170: 11b5 55bd ca01 48be 47bd 57be 44a1 80be
00000180: dd40 e03d f2cf 1e3e 85c9 dabd 104b 34bc
00000190: 612f f83d 091d bdbd 46e4 53bd 65f5 b43d
000001a0: 66be bfbd a518 3fbd 7701 983e 80aa 1a3d
000001b0: 5a30 a53d 49da e63c 4711 edbb 44b1 f5bd
000001c0: a576 3839 4831 01be 5880 fabc 2b12 c7bd
000001d0: 8667 6e3d e873 62be 9033 073e 33fe 13be
000001e0: ebe7 803e e098 5b3e 446e 23be 9f0b f23b
000001f0: e94c 45bc da08 883e ba1b 9c3e 88ce c53e
00000200: f1e2 3d3e fe02 563d 5404 05be d072 6b3e
00000210: 6dbf bfbe 43b0 a5bd 755d 283e 5cee 773e
00000220: 9b74 3f3d 94c3 7e3e 05f3 e13d 5d5e 0f3e
00000230: 28fd 04be 07ab 2e3e ab88 eebd 641d d43d
00000240: f740 acbd 87c0 72be bc75 44be 5bec 083e
00000250: 851f 2b3e db48 8a3e 3830 c03d 458c 0dbf
00000260: ae4a 143e 7030 763d 4698 af3c 3662 24bc
00000270: e533 19be 1159 0c3e 7935 79bd f26d 4dbe
00000280: cdf2 023d b688 7bbd 773e 8a3e 2748 41be
00000290: 2adc c5be 1a81 a0bd 7a0e e63e a4d7 c53d
000002a0: 5a61 eebd 88df 2cbe e313 c5bd eb22 a33d
000002b0: 59e5 4bbe 2795 6bbe 53a8 193e 8857 a53d
000002c0: e7dd 9abe 3009 103f f195 5c3e 66d2 8abb
000002d0: 6224 fabc ea18 26be 0ccf 883e 89b0 183e
000002e0: afd9 c6bd edae 2cbd 467a d3bd fa74 78bd
000002f0: df9f 1cbf 334b 813e d6d9 b23e fef5 f5bc
00000300: 4e8e e03c 2072 803e 79f8 e9bd 7b8e 6ebe
00000310: 07a9 7ebd c346 82be 6b51 b13e abd6 a33c
00000320: f30d 413d a581 013c 9428 233e a71d b23c
00000330: be03 d9be 19e3 703d ccde 853d 58bf 43bd
00000340: 5d6b 83be 556b 563e d4c2 39bd 9c34 9abe
00000350: 817e 98be be6c 96be d889 b63e e7ce cb3d
00000360: 57c5 fabd ce9e eb3c 755f c93c 071a 9a3e
00000370: ee09 e1bd 5696 173e dd33 853d 62b2 80be
00000380: 0b44 393e 09bb 693e 842c 0bbe 3d31 41bd
00000390: 93e6 c3be fcaa b9bc 0fea c13a 8976 503c
000003a0: 35dc 03be 27de 9d3b 8ff8 823d 15e9 2e3e
000003b0: 6a96 f5bc 7e4f a4be 3032 f9bd f818 ffbd
000003c0: 46e9 df3b bbf0 8e3e 62e4 b53d f88b 12be
000003d0: 59a4 673d 4ac4 7fbd 5e7e 313e 8a6d 7d3d
000003e0: fde4 263e 9076 e1bd cead b03d 054d dcbe
000003f0: ff73 3c3e 960d ae3e a0d7 81bd 4786 583e

bias f4 [128]
-0.05956155 -0.13843527 -0.13522245 -0.08327264 0.1035696 0.1547279 -0.057757452 -0.026865989
0.0092503205 -0.10273809 -0.079575464 0.047493108 -0.067656696 -0.31118563 0.21436821 0.033542912
-0.108961284 -0.12838237 -0.014904549 -0.024035297 0.16336946 -0.03912432 0.029405216 -0.28598547
-0.0458233 0.18407086 -0.12984839 0.06330787 -0.017665528 -0.052712478 0.29522762 -0.050222646
0.12225354 0.051722165 -0.32072976 -0.057076316 -0.12980525 0.2507837 -0.12002728 -0.11462573
0.05628577 -0.07577849 -0.11027448 -0.3026211 0.07014315 -0.0052625895 -0.20244105 0.055813413
0.14143904 0.07028559 0.11041964 -0.041590188 -0.05144913 0.05606822 0.07671003 0.006048365
0.012646847 -0.12070037 0.08979788 -0.03930805 0.25524762 -0.17950723 0.143146 -0.10531716
-0.002421901 0.18377757 0.05807562 -0.16630602 -0.07777309 0.17447124 0.11997406 0.042571537
0.035792194 -0.15556881 -0.01882517 0.039597195 0.03647143 -0.04792387 0.033823676 0.008566493
0.037576493 0.15102763 0.09477455 0.048344564 -0.19104972 -0.21725798 0.22555166 -0.0045216503
-0.012536573 0.036215678 -0.11453495 0.22172168 0.17358488 -0.053714395 0.048653588 -0.1483176
0.0089949705 -0.06168615 -0.09837937 -0.07609654 -0.060692284 -0.14276212 -0.13122974 -0.13087615
0.23768656 -0.100161955 0.10236654 -0.03738773 0.022907665 -0.039010305 0.23820226 -0.098508924
-0.15705526 -0.080286026 -0.1873288 0.18117169 0.07157044 -0.027749231 0.3264292 -0.07459863
0.0427622 0.20040579 -0.0042200075 0.07567653 -0.24570139 0.04988839 0.05011344 0.08091236
00000000: d0f6 73bd fac1 0dbe c177 0abe d98a aabd
00000010: 4c1c d43d fe70 1e3e 1493 6cbd 1016 dcbc
00000020: a88e 173c 5968 d2bd 76f8 a2bd 2288 423d
00000030: 988f 8abd b953 9fbe 5783 5b3e 4b64 093d
00000040: 1827 dfbd ab76 03be 3632 74bc ace5 c4bc
00000050: 534a 273e d340 20bd 35e3 f03c b06c 92be
00000060: 36b1 3bbd 127d 3c3e faf6 04be 8ea7 813d
00000070: 4cb7 90bc 0ae9 57bd 1328 973e 43b6 4dbd
00000080: 1060 fa3d 9fda 533d b136 a4be dbc8 69bd
00000090: abeb 04be b966 803e ddd0 f5bd e5c0 eabd
000000a0: e88b 663d c131 9bbd 96d7 e1bd 27f1 9abe
000000b0: 36a7 8f3d cd71 acbb b54c 4fbe 9b9c 643d
000000c0: 65d5 103e e4f1 8f3d b123 e23d 795a 2abd
000000d0: 53bc 52bd caa7 653d 261a 9d3d 5d31 c63b
000000e0: b934 4f3c c131 f7bd f3e7 b73d 7a01 21bd
000000f0: d1af 823e bed0 37be dd94 123e 86b0 d7bd
00000100: c2b8 1ebb 3030 3c3e b4e0 6d3d 204c 2abe
00000110: 7f47 9fbd 97a8 323e f6b4 f53d 7e5f 2e3d
00000120: d69a 123d 6e4d 1fbe 3e37 9abc ab30 223d
00000130: 1163 153d d24b 44bd b28a 0a3d 7a5a 0c3c
00000140: cfe9 193d fda6 1a3e 2919 c23d f304 463d
00000150: 8aa2 43be e078 5ebe 04f7 663e 5a2a 94bb
00000160: 3366 4dbc e456 143d 4d91 eabd 020b 633e
00000170: 3cc0 313e a003 5cbd fc48 473d 92e0 17be
00000180: a45f 133c 9eaa 7cbd 207b c9bd 81d8 9bbd
00000190: 7998 78bd 3c30 12be 1761 06be 6604 06be
000001a0: 1b64 733e b621 cdbd 8ca5 d13d e023 19bd
000001b0: dba8 bb3c 45c9 1fbd 4beb 733e 0cbf c9bd
000001c0: 18d3 20be 006d a4bd 1fd3 3fbe 1285 393e
000001d0: 8693 923d 5b52 e3bc ba21 a73e 2bc7 98bd
000001e0: 6b27 2f3d 2d37 4d3e fd47 8abb 4cfc 9a3d
000001f0: 2599 7bbe c557 4c3d c043 4d3d 61b5 a53d

weight f4 [6, 128]
-0.23707259 0.0105255935 -0.21945116 -0.35175112 0.3713434 0.22673805 -0.05536424 0.238088
0.13167082 0.3852045 0.25796983 0.11809436 0.034865197 -0.07453854 0.26807997 -0.17810377
-0.32340193 -0.056173496 0.045378238 -0.32709122 -0.2367943 0.15762392 -0.051846717 -0.2798741
-0.16671026 0.21972534 -0.17811114 0.27834234 0.31326902 -0.069305554 0.06740484 0.23302975
0.04783242 0.23801002 -0.4836418 -0.35601425 -0.1491526 -0.13332672 -0.30385745 -0.009359985
0.23627427 0.15538743 0.1159621 -0.21555497 0.03862518 0.3765564 -0.12087267 0.3589301
0.2344825 0.26875865 -0.17713694 0.05613594 0.23735741 0.33963233 -0.3166474 -0.10394049
0.26377565 -0.3062224 -0.045383167 0.12430092 0.22485594 -0.11024545 0.19320221 -0.33704245
-0.18262103 0.23821937 0.07341406 -0.36724654 -0.27710587 0.24847522 0.34881178 -0.4931589
0.05206043 0.019319858 0.13809805 -0.16260304 0.124055825 -0.390132 0.046196274 0.17493992
0.4760204 0.3477705 0.100030735 -0.23361877 -0.18593857 -0.15876992 -0.09941863 0.21917501
-0.090440415 -0.15572958 -0.07680051 0.105456926 -0.10705621 0.051731426 0.21191889 0.12315527
-0.6529493 -0.17798351 -0.12294126 0.1730908 -0.08157046 0.11807221 0.050609555 -0.2704283
0.08105007 -0.24457777 -0.04259683 0.115485124 -0.0032335126 0.082416706 0.17563587 0.19819477
-0.051156964 0.1438326 0.11179805 0.3043321 -0.083410025 0.17022254 0.13290778 0.045911342
-0.07419232 0.025511997 -0.073808 -0.12698965 -0.10554719 -0.26528394 -0.054367002 -0.10049155
0.022690814 -0.18603557 0.072140954 -0.004946246 -0.13537776 -0.013061473 -0.15910555 -0.10159895
-0.2721089 -0.4940579 0.10150799 0.16626608 -0.58633745 -0.2741975 0.3143382 0.18001337
0.12515381 -0.061607163 -0.11593584 -0.41997194 0.20986685 -0.24102876 0.007747793 -0.08136073
-0.088871114 0.17194529 -0.29351783 -0.28026918 -0.059339948 -0.010298669 0.35253912 0.07293682
0.3208682 -0.053749647 0.25460052 0.49374375 -0.15346014 -0.0020438824 0.014768438 -0.37639838
-0.30436486 -0.2642897 -0.24739018 -0.18292502 0.0447532 -0.05571519 -0.23195389 -0.36435544
0.16702276 0.025343128 0.43762654 -0.039029814 -0.090562046 -0.08746748 0.10525643 -0.13776407
-0.62295896 0.08533534 0.17158826 -0.09502232 -0.033592235 0.337528 -0.15762106 -0.15160967
0.1686396 0.050020028 0.2836984 -0.06328128 -0.22308804 0.11836097 -0.028674217 0.32091865
-0.08155529 -0.107051834 -0.5109213 -0.12228253 0.13396457 0.1110295 -0.08233655 0.049990486
-0.35910168 -0.3468194 0.085922174 0.2425269 -0.21583973 -0.20704761 0.41239986 0.21897133
-0.33244103 -0.020399936 0.07669784 0.25421643 0.062354136 0.04410752 0.0009014298 -0.23911418
0.07720808 0.26796207 0.10098157 0.07898325 -0.20586278 -0.14950609 -0.15547995 0.12397943
0.31333762 0.06444724 0.016433649 0.25528523 0.45013985 -0.096489914 0.06860068 -0.27077046
-0.08707052 -0.09195791 -0.069920465 0.08169813 -0.13249873 0.118028775 0.15584187 -0.0989379
0.35811412 0.3254393 -0.24156637 0.23635305 -0.026807366 0.08977547 0.07831138 0.31363115
00000000: 28c3 72be 8a73 2c3c ceb7 60be b918 b4be
00000010: b920 be3e 052e 683e 9dc5 62bd 57cd 733e
00000020: b7d4 063e 8639 c53e 9f14 843e 75db f13d
00000030: cfce 0e3d a9a7 98bd c741 893e d660 36be
00000040: f094 a5be 2e16 66bd 88de 393d 8078 a7be
00000050: 347a 72be 2a68 213e 395d 54bd a84b 8fbe
00000060: 18b6 2abe aeff 603e c462 36be e382 8e3e
00000070: cc64 a03e 12f0 8dbd 8c0b 8a3d 5a9f 6e3e
00000080: edeb 433d e6b8 733e e69f f7be 8047 b6be
00000090: 76bb 18be cd86 08be 3493 9bbe 9f5a 19bc
000000a0: e2f1 713e e21d 1f3e 8a7d ed3d 71ba 5cbe
000000b0: 7035 1e3d 00cc c03e 178c f7bd b0c5 b73e
000000c0: 2e1c 703e bc9a 893e 6363 35be cdee 653d
000000d0: d20d 733e 4ae4 ad3e 9c1f a2be c0de d4bd
000000e0: 9a0d 873e 2fc9 9cbe b3e3 39bd 7b91 fe3d
000000f0: a340 663e 5ec8 e1bd cdd6 453e d490 acbe
00000100: 0201 3bbe c7ef 733e 1c5a 963d bd07 bcbe
00000110: d2e0 8dbe 4a70 7e3e 7597 b23e 537f fcbe
00000120: 513d 553d ae44 9e3c 9369 0d3e 6981 26be
00000130: fb10 fe3d 62bf c7be 4e38 3d3d 7323 333e
00000140: f2b8 f33e fa0e b23e eadc cc3d c239 6fbe
00000150: ae66 3ebe 9594 22be ff9b cbbd 6a6f 603e
00000160: d338 b9bd 9377 1fbe 9649 9dbd cdf9 d73d
00000170: 4940 dbbd 55e4 533d 4401 593e d538 fc3d
00000180: af27 27bf 4f41 36be a1c8 fbbd b73e 313e
00000190: 6a0e a7bd d8cf f13d f74b 4f3d 9475 8abe
000001a0: 94fd a53d 9872 7abe 037a 2ebd 7783 ec3d
000001b0: 57e9 53bb 17ca a83d e4d9 333e 92f3 4a3e
000001c0: f789 51bd da48 133e 60f6 e43d 6bd1 9b3e
000001d0: e0d2 aabd d14e 2e3e fa18 083e 880d 3c3d
000001e0: 25f2 97bd 89fe d03c a628 97bd 9309 02be
000001f0: 2029 d8bd 4cd3 87be efaf 5ebd 84ce cdbd
00000200: 16e2 b93c 1c80 3ebe a3be 933d 1e14 a2bb
00000210: 78a0 0abe caff 55bc 91ec 22be 1c13 d0bd
00000220: dc51 8bbe 28f5 fcbe 6ce3 cf3d a841 2a3e
00000230: 361a 16bf 9d63 8cbe f0f0 a03e 6d55 383e
00000240: 5228 003e cb57 7cbd c56f edbd 9006 d7be
00000250: 56e7 563e 3ed0 76be 33e1 fd3b 74a0 a6bd
00000260: 0f02 b6bd 6d12 303e f847 96be 717f 8fbe
00000270: 720e 73bd c0bb 28bc 0280 b43e e65f 953d
00000280: d648 a43e 9728 5cbd 005b 823e fbcb fc3e
00000290: a824 1dbe a8f2 05bb 52f7 713c 4ab7 c0be
000002a0: b6d5 9bbe fb50 87be da53 7dbe b250 3bbe
000002b0: 224f 373d 9c35 64bd 5285 6dbe cc8c babe
000002c0: 0408 2b3e 649c cf3c 9610 e03e badd 1fbd
000002d0: 9878 b9bd 2622 b3bd af90 d73d 0612 0dbe
000002e0: 3d7a 1fbf 4bc4 ae3d d5b4 2f3e 109b c2bd
000002f0: 0398 09bd 78d0 ac3e 6a67 21be 913f 1bbe
00000300: dcaf 2c3e cde1 4c3d eb40 913e 9e99 81bd
00000310: 3171 64be 3c67 f23d 31e6 eabc 734f a43e
00000320: 7606 a7bd fe3d dbbd bdcb 02bf 436f fabd
00000330: 022e 093e 6f63 e33d 11a0 a8bd d3c2 4c3d
00000340: 2ddc b7be 5092 b1be f7f7 af3d f958 783e
00000350: 1705 5dbe 4a04 54be 1326 d33e 053a 603e
00000360: b635 aabe c41d a7bc c213 9d3d a828 823e
00000370: 0d67 7f3d 16aa 343d ee4d 6c3a 59da 74be
00000380: 451f 9e3d 5332 893e 6dcf ce3d f8c1 a13d
00000390: b1cd 52be 2018 19be 2336 1fbe ede8 fd3d
000003a0: ca6d a03e eafc 833d dc9f 863c bfb4 823e
000003b0: bb78 e63e 819c c5bd 837e 8c3d 6da2 8abe
000003c0: 0752 b2bd 6e54 bcbd 7632 8fbd 5951 a73d
000003d0: bfad 07be 12b9 f13d 0395 1f3e f49f cabd
000003e0: bc5a b73e fb9f a63e 2d5d 77be 8906 723e
000003f0: 1f9b dbbc 34dc b73d b861 a03d 4394 a03e

bias f4 [6]
0.021408169 0.028175708 -0.09108185 -0.055354547 -0.21358986 -0.06981611
00000000: 2f60 af3c bed0 e63c 1f89 babd 73bb 62bd
00000010: 4db7 5abe c0fb 8ebd
