src/learning/models/128_128_128_notouch_400ep_8774.pt (torch, 141647 bytes, 8 tensors)

weight f4 [128, 5]
00000000: 7971 26bd 6b47 283d 3572 793e b684 f63e
00000010: a73c 213f 411d e03e f4fd 25be 3014 10bf
00000020: d994 0ebe cdb0 7cbe c0b3 4bbf ad29 5fbc
00000030: 5adb 28bc 3b28 bbbc 4569 013f 4855 e7bb
00000040: 3093 a0be 7da7 c23e 9b90 82be 9a87 b4bd
00000050: 23fa 3ebc d35d 52be cf76 d23c f009 a5be
00000060: 2e40 0f3f f221 00bd c400 813c c3ec 0a3e
00000070: 3498 963e 6453 d63e d85e 693e 255c 31bd
00000080: 98f0 0fbe d05f a8bd 6d5d 27bd feb9 7f3d
00000090: 1322 e5bd 8216 71bf a6ac 84be 45cd 223e
000000a0: 5950 f63d 9859 28bd 778b 933c 3520 9ebe
000000b0: cda3 423d 0f23 c53d c4b4 0e3f 252b b0be
000000c0: 1c4c 15be 0c5a c7be c170 abbd 0516 72be
000000d0: 5959 983e f34b 79be 7ef1 e43c 9057 66bd
000000e0: eedb b5bc 22f1 cbbc 675d c9bd 6b44 2bbf
000000f0: 86c6 1dbe 75a3 bebe 6b67 f03e 6e60 6a3e
00000100: 58ce 36be a946 d3bc fd63 933c e250 36bb
00000110: 479f 053d 1b79 023f 3e8d 0a3f 8e78 8abd
00000120: 9835 a1bd e6bb 3f3e ff28 0d3f 549a 3c3e
00000130: 57a0 773e dedc d6bd 8344 2abf 827a b73e
00000140: c1f5 f5be e9a7 cfbe 256b 0e3d b635 4e3d
00000150: 638b 9cbd b454 763d 3686 67bd e845 633e
00000160: 9699 bcbe cef6 16be 12cb d7be bbc6 83be
00000170: 2932 28bd b337 4f3e c87b 12bf 6d68 85bc
00000180: 1081 2dbf 7991 0c3e 51bf 983d 67f1 e2be
00000190: c054 8bbe 547b cbbd 7516 03bf 6215 ebbd
000001a0: 1e74 90bd 025b c3bd 591f edbe 8666 14be
000001b0: 5154 2c3e 25a3 07bf 92be d43c 1eb2 80bd
000001c0: b22e ebbc 7c94 833e aede 23bf 9a9c b6be
000001d0: eb6b de3d d8ea 283f ca8b 773d c1d8 cebc
000001e0: a66f 47be f0d3 323e 34e6 2cbe d93b 2abe
000001f0: 2ab7 cebe b606 07bd 8ed9 c23e 5b93 a1bc
00000200: b418 c23e dfae a8be 34f3 f13d 06e0 e4be
00000210: f919 763e d586 ecbd f91c cbbd c7c4 0fbd
00000220: 47a3 aebd c02d bfbb 4aae b33c 2234 05bf
00000230: 4da0 863e d18e 49be 83bd 81be 63da e5be
00000240: d20d 26be 205e 97be a526 4ebc 32b6 8abe
00000250: a013 1d3d 2847 143e ae3f 663d ec83 3abe
00000260: 2379 0cbf 273b 203e f844 fd3e 7c49 19be
00000270: 8b9c b03e 70e5 823e a41b 883d 7ed5 00bf
00000280: ac76 7bbe 41e5 17bf bd5e 3e3d 18fe d4be
00000290: c9f5 0cbf a351 353c 0fb8 9a3e fb04 7cbc
000002a0: a3e2 b43e 5922 15bf 89d4 553e 05e5 c9be
000002b0: 8e70 8bbe c4b7 e63d 99c1 6abe d8c0 3bbe
000002c0: 74cf cd3e a50c a43d b6b7 bb3d 519c dbbd
000002d0: bd67 12be 35da e03d 5caf 26be 10ae d93d
000002e0: db5b 0e3f 20a6 00be 28b6 e93e 9c02 3b3d
000002f0: 320a bdbe c289 a2bd 6e0a 253c 78d9 f1bd
00000300: 4fca c43e c659 c03e 61fa 763e eaec 863e
00000310: cb1c f63e defb 633e 91b5 443d fd6f 083e
00000320: 39f1 f43d 676a 80be aaf2 333e 3e00 633e
00000330: 59d1 4fbe a595 673e bf86 b03d e843 9f3e
00000340: 653b 4d3e c967 aabe 2626 9abe 5ba0 1cbe
00000350: b0d3 0e3e c645 523e 7c57 9e3e 04c6 353e
00000360: cfed 383f f32d 3fbe 5f71 d0be 61da 983c
00000370: 4dcf aabe b05b 8abb 6160 553d 5ad6 2d3f
00000380: 3815 abbe 7dd3 4b3c 9719 ac3e 05e8 fe3e
00000390: 8f71 61be 3607 95be af89 4ebc 6ba3 33bf
000003a0: 5f8b 90bd c7d0 0ebe 35da 09be 76b7 e13c
000003b0: f637 613d 8df1 953b 74bc 293d c936 aa3e
000003c0: 552b 5a3e 01f8 8bbd 1774 05be 3d7f de3e
000003d0: 6c5d 92be 6b3d 8a3d 673d 1dbd ac41 2b3f
000003e0: 751a c9be c921 8cbd 1e09 d4bb 3f51 c53e
000003f0: d63a a1be d694 9cbe bcfb 7a3e d90b 3d3e
-0.04063556 0.041083734 0.24359973 0.48148125 0.62983173 0.4377232 -0.16210157 -0.56280804
-0.13923968 -0.24676819 -0.7957115 -0.013620776 -0.010306204 -0.022846332 0.50551254 -0.007059727
-0.31362295 0.38018408 -0.2550095 -0.088149264 -0.011656317 -0.20543604 0.025691418 -0.32234144
0.55957305 -0.031282373 0.015747435 0.1356688 0.29412997 0.41860497 0.22790086 -0.043300766
-0.14056623 -0.082214 -0.040860582 0.062433235 -0.1118814 -0.9417497 -0.2591297 0.15898617
0.12027044 -0.04110107 0.018010838 -0.30883947 0.047519494 0.096258275 0.55744576 -0.34407917
-0.14579815 -0.38935888 -0.083711155 -0.23641212 0.29755667 -0.24345379 0.027947184 -0.05623585
-0.022199597 -0.024895255 -0.09832268 -0.6690127 -0.15407762 -0.37234083 0.46953902 0.22888348
-0.17852151 -0.02579053 0.017992014 -0.0027819206 0.0326226 0.5096604 0.5412177 -0.06761275
-0.0787155 0.18724021 0.5514068 0.18418247 0.24182259 -0.10491346 -0.6651079 0.35835654
-0.48039058 -0.40557793 0.03477015 0.05034419 -0.076437734 0.060139373 -0.056524478 0.22194636
-0.36835927 -0.14742586 -0.42147118 -0.25737557 -0.04106346 0.20236091 -0.57220125 -0.016285146
-0.6777506 0.13727368 0.07458366 -0.443248 -0.27213097 -0.09935632 -0.5120614 -0.11478688
-0.070533976 -0.09538843 -0.4631298 -0.14492235 0.16829039 -0.52983314 0.025969777 -0.06283973
-0.02870879 0.25699222 -0.6401166 -0.35666353 0.108604275 0.65983343 0.060436048 -0.02524984
-0.19476184 0.1746366 -0.1688469 -0.16624393 -0.40374118 -0.032965384 0.38056606 -0.019723585
0.37909472 -0.32945916 0.118139654 -0.44702166 0.24033345 -0.11549155 -0.099176355 -0.03509977
-0.085272364 -0.0058343112 0.021933693 -0.52032673 0.26294175 -0.19683386 -0.25339898 -0.44893178
-0.1621621 -0.29564 -0.012582456 -0.2709213 0.038348794 0.14480269 0.056213073 -0.18214387
-0.5487234 0.15647565 0.4946668 -0.14969438 0.34494433 0.25565672 0.06645897 -0.50325763
-0.24556988 -0.5933419 0.04647707 -0.41600108 -0.5506254 0.011066827 0.3021855 -0.015382047
0.3532916 -0.58255535 0.20881857 -0.3943254 -0.2723431 0.11265519 -0.22925414 -0.18335283
0.40197337 0.08010224 0.091658995 -0.10723174 -0.14297386 0.1097912 -0.16277832 0.10628903
0.5560891 -0.12563372 0.45646787 0.045656785 -0.3692184 -0.079364315 0.010073287 -0.11809057
0.384356 0.37568492 0.2411895 0.26352626 0.48068842 0.22264048 0.048024718 0.1332397
0.11960072 -0.2508118 0.17573038 0.22168061 -0.20294704 0.22615679 0.08619451 0.31106496
0.20042188 -0.33282307 -0.3010723 -0.15295546 0.1394794 0.20534429 0.3092612 0.17751318
0.7223787 -0.18669872 -0.40711495 0.018658819 -0.33361283 -0.004222356 0.052093867 0.679052
-0.33414626 0.012440559 0.33613274 0.49786392 -0.22015975 -0.29107064 -0.0126060685 -0.7017123
-0.07057833 -0.1394683 -0.13462146 0.027553301 0.05498501 0.0045759142 0.04143949 0.33244923
0.21305592 -0.06834412 -0.13032566 0.4345645 -0.285869 0.06749996 -0.038388636 0.6689708
-0.39277998 -0.068423815 -0.0064708134 0.38538548 -0.314902 -0.30582303 0.24510092 0.18461551

bias f4 [128]
00000000: 3c2b 7f3d 567d 313b f1f3 48bf fdac 34bf
00000010: e9ad 8b3d 9785 d93e 82fa d4be 2eb0 1abe
00000020: 4fde 16bf 08b5 163f 0585 913d 1745 2b3e
00000030: 3caf 963d 1229 443f 6b87 a7be 0b9d a5bd
00000040: 3289 833e bc41 363f a298 8a3e 2641 49bd
00000050: f06c 0f3e 2c23 84be 1df1 a5be 2233 5ebe
00000060: dfe8 143f 6a18 f7be f291 a2bd 5176 25bf
00000070: 0759 103f 8a8e 66be 8479 47be 8b65 ec3e
00000080: a6bb 433e b0b6 c43e 4db8 3b3f ad56 013f
00000090: 4a53 12bf 8206 013f 86c7 54bf 1ec8 febe
000000a0: 8003 08be 471d eb3e 0cd0 2abf 7d16 9b3e
000000b0: 3e4d f43e acbd d7be d245 2e3f 7af5 62be
000000c0: 2137 1f3f a09a 30bd e932 153f ed6f e9be
000000d0: 63d4 483f 0856 95be a856 293e 5417 07bf
000000e0: 5b96 51be ff62 2d3e 0212 50bc c478 4ebe
000000f0: 1e2c 373f 2612 4f3f 7030 a9bd 330d 343f
00000100: 6c8f d83e 77d7 c33e 9b26 f73e c7a2 2b3f
00000110: b5cf c93e 285d 1d3e e383 2b3f ce8d fd3e
00000120: a00e ff3d f9ce 583e 01de 5e3e 016d 60bf
00000130: b4dc 193f 44cd 4b3e 4bdd 54be 933c b6be
00000140: 8d4e 23bf 3ba4 623d 0221 81be 7822 45be
00000150: 93ee 99be 4da5 a2be 5c4d 3f3f bb5b 0fbe
00000160: 0bef 173f db1b 283e 2a05 23bf 5d12 1a3f
00000170: 9c09 03bd 8261 883d e73a 37bf a106 e73d
00000180: 0fd1 353f c906 063f 0958 333e d2b1 413f
00000190: 0009 61bf ebc3 7d3e 3d1d 98be cea1 e83e
000001a0: 8148 0bbf 3fea e83c 68f1 313f 47eb e6be
000001b0: c3f2 2b3e 58b0 e7be 0573 f2be 338c f83c
000001c0: 35ae f4be b28f 23bf d2de c3be 108c c2be
000001d0: 77ca af3e 778a 66bd ae6a 21bf b3b3 dcbe
000001e0: 5888 133e 3e36 2ebe 90ce 283f 4eac 8ebe
000001f0: abcd ac3e 4ca0 f83e 7037 0f3f 4734 54bf
0.06229709 0.0027082763 -0.78497225 -0.7057646 0.0682028 0.42484733 -0.41597372 -0.1510627
-0.58932966 0.5886998 0.071054496 0.16725574 0.07357642 0.7662517 -0.32720503 -0.08086594
0.2569061 0.7119405 0.27069575 -0.049134396 0.140064 -0.25808084 -0.32410517 -0.21699193
0.58167833 -0.48260814 -0.07937993 -0.6463366 0.56385845 -0.22515312 -0.19479948 0.4617122
0.19114551 0.3842063 0.73328096 0.5052288 -0.5715834 0.50400555 -0.8311695 -0.49762052
-0.13282585 0.45920774 -0.66723704 0.30290595 0.4771518 -0.42136896 0.6807529 -0.22163954
0.62193495 -0.043116212 0.5828081 -0.45593205 0.78449076 -0.291672 0.16536963 -0.5276997
-0.20467512 0.16932295 -0.012699606 -0.20163256 0.7155169 0.8088707 -0.08261192 0.7033264
0.42296922 0.38250324 0.4827164 0.67045254 0.3941628 0.15367568 0.6699812 0.4952225
0.12453961 0.21172704 0.21764375 -0.87666327 0.6010239 0.19902521 -0.20787542 -0.3559309
-0.63791734 0.055332404 -0.25220495 -0.1925143 -0.3006483 -0.3176674 0.74727416 -0.13999836
0.59349126 0.16416876 -0.63679755 0.6018427 -0.031991586 0.06659223 -0.7157425 0.11280561
0.71022123 0.52354103 0.17514051 0.7566196 -0.8790436 0.24781768 -0.29709807 0.45435947
-0.5440751 0.02843201 0.6950898 -0.45101377 0.16791825 -0.45251727 -0.47353378 0.03034029
-0.4778916 -0.63891137 -0.38255936 -0.37997484 0.34334156 -0.056284394 -0.63053405 -0.4310585
0.1440748 -0.17012879 0.6594019 -0.27865833 0.33750662 0.48559797 0.55943966 -0.8289227

weight f4 [128, 128]
00000000: dbb9 99be 3fe3 60be 847f 7abe c0d4 883d
00000010: b9a7 583d 1be5 2cbe 1b00 4dbb 3efc 0bbe
00000020: 6bc5 e2bc faa9 003c ddee 473d b2c4 b9bc
00000030: 1b9e f03c b5e7 dabd bba4 acbd 4b60 373e
00000040: b6c5 4dbe 1475 37be 93ca 63bc 6746 333c
00000050: bed4 fa3d 1210 2bbd fc5d 153d 0f07 b3b9
00000060: f8f1 c43e 1489 68bd 5ad8 833d c9a4 723d
00000070: efbb 343d e056 6fbe e356 953d ffe1 66bd
00000080: a2bb e4bd 4a8d 21be 56c9 88bd 451f 0a3e
00000090: 8ede 22bd 0dba 99be a256 33be 3930 173d
000000a0: 20aa 0dbe 7035 293d 8532 a2bd 281d 04be
000000b0: f8c7 563d fd1e 9bbd 3597 133d 9809 873d
000000c0: 943a b2be e9fb 3fbd 4d53 18be b10b 5fbe
000000d0: 3ca6 b63d 8059 f7bd 1ee9 4a3d b4e9 cbbd
000000e0: 5509 5c3d 4cba b03b 5834 eebd b635 a9bd
000000f0: 9526 86bc 86f4 8c3e 629c 9fbb dfc6 ae3d
00000100: 2550 9e3d 6ab2 3ebd cad3 173d 9a12 c7bd
00000110: a3ab 883e dd7b 90bc 4528 06bd 7b16 68be
00000120: 8bf5 bf3b bd01 c2bd da7a 43be 2c53 29bd
00000130: e6f9 ed3c 8d05 763d 39cf 0f3a 21e4 f2be
00000140: e385 b43b 8455 94bd 82f4 6a3b ce74 0c3e
00000150: b1ee 5bbe 42f6 223b c1e7 0dbc 3a2b 99be
00000160: 60f6 22be 61f3 6fbe ce30 813c 6fd9 2b3d
00000170: 4d18 0dbb bf71 e43d 3572 423e 9e0d b7bd
00000180: 94df 253e 13a3 6b3e 846a 2f3e 6899 7a3d
00000190: 3374 f13b 65a7 89be c118 ffbe befc e03c
000001a0: 8bf1 603c 894e ea3c 9232 c0bd f66a 5f3e
000001b0: 4113 453e 98bd d0bd 6e92 663e 214e 593e
000001c0: 9b31 6e3e c3d1 e13b 1dbe c73d f394 1c3c
000001d0: abfa 65bc 03f4 0c3d 0e83 e73b 059c 913d
000001e0: a7b2 bc3c a1fa dbbd fc0d cf3c d4fc b93d
000001f0: e0dc 2c3e fdae 5ebe 22e1 a9bd e2d8 ce3d
00000200: e429 fabd 3fbe 143e 61a0 0ebe 0930 5d3d
00000210: baa6 babd 9c82 ae3d 8f07 3d3e edd9 6ebe
00000220: a237 853d b556 583e 5954 67be bff1 8c3c
00000230: 2701 52bd e9b3 2ebe 72ad 603d 4dfc b13c
00000240: 7025 003d 08a0 86bd 94b6 bb3e 9ba9 5dbd
00000250: 49a6 dabd cbb0 e83d 32ca 4bbd ba2c b33c
00000260: 1e1d 2c3e b0f5 63bd 7f39 823e 7e0d 063e
00000270: e269 203e ccf0 f8bd 41f2 543e 6acd 37bd
00000280: 1b58 6b3d 4961 fc3d bd29 f1bd 35d0 45be
00000290: 0516 cabd 7286 d23b c6b3 3d3d f82e 9dbe
000002a0: b1b4 8b3d b42b 593e ed33 9cbd c665 5cbe
000002b0: 4b20 ab3d d428 a13d a0e2 bcbd c680 413e
000002c0: 12ec 57bb fa87 70bd ece6 acbd fe30 553e
000002d0: 9d56 8f3e 542b d3be 85b8 443e 4bf4 783e
000002e0: 386b 213e a9f5 96be fcb7 04be 9c3e 483e
000002f0: 87d5 183e 2a4b a4bd c8e1 8f3e 5968 47be
00000300: e6d3 43be 51f9 adbd 9676 773d 2009 2c3e
00000310: b783 133e 4bf5 e2bd 4676 e73c 99fa 2e3e
00000320: ff66 2b3e 8797 9b3e ac95 4e3e 1059 babe
00000330: 8468 8e3d ac1c 56bd 505b b03d e087 46be
00000340: 1fed 6c3a 4ca9 90be 6802 5e3d 6ca9 053d
00000350: d355 e53d da5a 2c3d 305a a7be b91b d7bd
00000360: e4a8 0b3d 43ac 0a3e 4c4e 95bd 4b08 8f3d
00000370: 5db5 993b 986e 013c 85b0 b33d 9010 8b3d
00000380: 3945 c2be ea5c 13bd 9d3c dabd c187 15be
00000390: 07d2 12bc cc23 3a3e e1f6 90bd 0709 10bd
000003a0: c4b4 053e 2783 bbbd 9cda 21bd b921 613d
000003b0: d259 023c ac91 833d 985f b93b 154c 703e
000003c0: 9124 b0be 32db 02be cc85 aebd d826 d03c
000003d0: c171 87be 43de 9f3d 1c4e 593e 7e6d aebe
000003e0: 49da 983e a353 0a3c 103e c73d 69a5 08be
000003f0: 748e 0bbe 7538 daba 8272 84be 8db5 2ebe
-0.3002461 -0.21961688 -0.24462706 0.06681204 0.052894328 -0.16884272 -0.003128058 -0.13670442
-0.027682027 0.007853026 0.048811782 -0.0226768 0.029372266 -0.10688726 -0.08429857 0.17907827
-0.20094952 -0.17915756 -0.013903278 0.010942078 0.122476086 -0.041763373 0.036466584 -0.000341468
0.38465858 -0.056771353 0.0643775 0.059239183 0.04412454 -0.23372984 0.07291963 -0.05636787
-0.111686006 -0.15776554 -0.06679027 0.13488491 -0.039763026 -0.30024758 -0.17513517 0.036911223
-0.13834429 0.041310728 -0.07919792 -0.12901747 0.0524368 -0.0757427 0.036032874 0.06593627
-0.34810317 -0.0468711 -0.14875527 -0.21781804 0.089184254 -0.12077618 0.049538724 -0.09956685
0.053719837 0.005393302 -0.116310775 -0.08262198 -0.01637582 0.27530307 -0.004870937 0.085340254
0.0773013 -0.046556868 0.037067212 -0.09720345 0.26693448 -0.017637188 -0.032753248 -0.22664826
0.0058581284 -0.09472988 -0.19089833 -0.041339085 0.029049825 0.060063887 0.00054858957 -0.47439674
0.0055091246 -0.07242873 0.0035851304 0.13716432 -0.21477772 0.002486602 -0.0086612115 -0.29915792
-0.15914297 -0.23432685 0.015770342 0.041955408 -0.0021529377 0.11154508 0.18988879 -0.08938144
0.1619857 0.23011427 0.17130476 0.061181456 0.0073685884 -0.26885524 -0.49823573 0.027464267
0.013729463 0.028601902 -0.093846455 0.21818146 0.19245626 -0.10192412 0.22516796 0.2122121
0.2326111 0.0068914606 0.09753058 0.009556997 -0.014036815 0.034412395 0.0070651835 0.071098365
0.023034407 -0.10741163 0.025275223 0.09081426 0.16881132 -0.2174644 -0.08294894 0.10099961
-0.12215021 0.14525698 -0.13928367 0.054000888 -0.09113832 0.085210055 0.18459915 -0.2332532
0.06504752 0.21126826 -0.2259077 0.017205117 -0.05127063 -0.17060818 0.05485291 0.021726752
0.031285703 -0.06573492 0.36662734 -0.054116827 -0.106762476 0.113618456 -0.049753375 0.021871913
0.16807982 -0.055654228 0.2543449 0.13091084 0.15665391 -0.12155303 0.20795538 -0.044873632
0.05745707 0.12323243 -0.11775539 -0.19317706 -0.09867481 0.0064247185 0.046314023 -0.30699897
0.068215735 0.21208078 -0.076270916 -0.21523198 0.08355769 0.078691155 -0.09222913 0.1889678
-0.0032947105 -0.058723427 -0.08442482 0.2081947 0.27995768 -0.41243994 0.19211014 0.2431194
0.15763557 -0.294843 -0.1296081 0.19555134 0.14925204 -0.08022149 0.28101945 -0.19473399
-0.19123802 -0.08494819 0.060415827 0.16800356 0.14405714 -0.11081942 0.02825464 0.17087783
0.16738509 0.30389044 0.20174283 -0.36396074 0.069535285 -0.052273437 0.086111665 -0.1938777
0.00090380193 -0.28254163 0.054201514 0.032632276 0.1119801 0.04207883 -0.32685995 -0.105033346
0.034096614 0.13542275 -0.072903246 0.06984004 0.0046908096 0.007899903 0.08773903 0.067902684
-0.37943438 -0.03597728 -0.10656092 -0.14602567 -0.008961207 0.18177718 -0.070783384 -0.03516486
0.13057238 -0.09155875 -0.039515123 0.0549638 0.007955985 0.06424269 0.0056571476 0.23466523
-0.34402898 -0.12778929 -0.085216135 0.025409147 -0.26453975 0.07806065 0.21221203 -0.3406791
0.29854038 0.008442792 0.09728634 -0.13344349 -0.1362856 -0.0016648906 -0.25868613 -0.17061444

bias f4 [128]
00000000: 609c 853d 3571 01be c626 ba3d 1536 353e
00000010: 7d22 113e 2142 683e 3818 93bd 1207 33be
00000020: 053e 163e e819 10be 158e a43d 24c8 873e
00000030: e627 eabc be65 86bd 3720 33be 2786 643e
00000040: 858b 5f3e cfdc 473d 8cab f6bd d592 0bbe
00000050: 7f2f 9a3d ed0d 07be 8c7a 70be 0b51 be3d
00000060: ae37 283c 86c7 84bd 4041 0e3e fc83 3b3e
00000070: 86f0 383c 1f3d 12be 34c7 4dbe 3802 353e
00000080: 0d4a d13d 7928 413e dc6c b0bd bef5 3dbd
00000090: 7db7 17be 61d2 a03d 523d d63b af0b c33d
000000a0: 8bac a1bd bb61 c8bd 76b5 bebc ba8e 9ebe
000000b0: 4daa 00be e925 7c3b 377c 823d 7b6f 24bd
000000c0: 8ac0 fe3d 81ad b63d 6b8d 1b3e 6544 15bb
000000d0: edbc e9bc 8834 1fbe 5ff4 033e aac0 fb3d
000000e0: 94c0 b5bd 1cea f5bd 9a4a 05bd 15fa 0f3d
000000f0: 7b99 f9bb ede3 36be 9837 293e 7ed4 113e
00000100: aae7 cbbb 4d76 a2bd 8c2b 85bd 3ab3 803d
00000110: cc67 0a3e 3e36 d83d aea7 f6bd 96b4 cbbd
00000120: 41f3 54be f20b 9d3e 2fa1 52bd 863d 6abe
00000130: 631d a23d 37a5 063d ea01 d9bc 52cc 003d
00000140: 18c7 47bd f1cd aa3d 97b1 0c3b 51ef 94bd
00000150: bf00 82bc 9703 cbbc ad00 a03d db1a c0bd
00000160: 8af2 55be ffa8 d33d 2950 89be 5b56 a93d
00000170: ec8b cb3d 8bb4 9bbd a0e4 db3c 12c8 17bd
00000180: c188 bdbb a9a6 bd3d b0a2 463e f0e3 e53d
00000190: fa4a 173e e329 6b3c d23c 4dbd 4c7b 423e
000001a0: bb9d ea3d f833 ec3d abdb 413e 3cdc 263e
000001b0: 3cf8 1cbd 0eb2 af3d e745 2dbe fae3 c2bd
000001c0: 2f8a bcbd fa10 8d3e bbbc d0bd 6afb 663e
000001d0: 1563 debd 387f 18be 7b35 133e 80bb bbbd
000001e0: c6e6 403c c293 443e 6327 b3bd 671b a83d
000001f0: 47a2 3ebd 1743 8fbe e7c3 6b3d 31a8 a13d
0.06523967 -0.12640841 0.09089427 0.17696412 0.14173312 0.22681476 -0.07182354 -0.17483166
0.14672096 -0.14072382 0.080349125 0.26519883 -0.028583478 -0.065623745 -0.17492758 0.223168
0.21830566 0.048794564 -0.12044439 -0.1363023 0.075285904 -0.13188906 -0.23484248 0.092928015
0.010267181 -0.064833686 0.13892078 0.18312067 0.011287814 -0.14281128 -0.20095521 0.17676628
0.10219202 0.18863095 -0.08614513 -0.046376936 -0.14816089 0.078526266 0.0065380717 0.09523713
-0.07894238 -0.097842656 -0.023279887 -0.30968267 -0.12564965 0.0038474745 0.06371348 -0.04014538
0.12439068 0.08919812 0.15190665 -0.0022776362 -0.02853247 -0.15547383 0.12886189 0.12292607
-0.08874622 -0.120075434 -0.03254185 0.035150606 -0.0076171733 -0.17860384 0.16525114 0.14241216
-0.006222685 -0.0793272 -0.065024465 0.06284185 0.13516158 0.10557221 -0.12043701 -0.099465534
-0.20795919 0.30673176 -0.051423248 -0.22875032 0.07915761 0.032872405 -0.02649017 0.031444855
-0.048773855 0.083400615 0.0021468156 -0.072722085 -0.015869496 -0.024781985 0.07812629 -0.09380122
-0.20893303 0.10334968 -0.2681897 0.08268424 0.09938797 -0.07602795 0.026842415 -0.037056036
-0.0057841246 0.092603035 0.19397998 0.11225116 0.14774695 0.014353248 -0.05010683 0.18992347
0.11455866 0.1153335 0.18931453 0.1629495 -0.038322672 0.08578883 -0.16921197 -0.09516139
-0.09206044 0.27552015 -0.101922475 0.22556844 -0.10858742 -0.1489228 0.1437587 -0.09166622
0.011773771 0.1919699 -0.08747747 0.082083516 -0.04654148 -0.27980873 0.057559874 0.07893408

weight f4 [128, 128]
00000000: a7d7 a63e 88da 5abe 86ab 1dbd 1782 343d
00000010: c672 dfbd ced1 a83e e3bd d8be 3642 f8bb
00000020: a040 6c3d 9efa acbd f24b 943d e2ee 143e
00000030: 1e94 f9bd eac7 063d 42b9 5fbd 5125 b4bd
00000040: 4eea 953c b0f0 9dbd 2705 f33d 988d 6f3e
00000050: b619 2fbe 2afe 33bf eef5 f0be 3541 68be
00000060: 8d91 c73e 1447 823e 4956 8e3e 2a1d 783e
00000070: 7617 e83d f28f 3d3d 731d 173e 3fde d0bd
00000080: 9704 80be 9ba9 74bd c15e 2dbe d565 003e
00000090: 0c6c 84be 7ff7 c6bd ad4b a0bd 773c 81be
000000a0: 0aab 2b3e faaa 903e 1db8 47be f7b3 abbe
000000b0: 9252 e2bd 0742 de3d 83f7 4a3e 3aa4 c83d
000000c0: 9541 233e 97ba cd3c 7652 ffb9 c6df cebd
000000d0: c564 03bd 746e d3bd 8515 2ebe 3822 d03d
000000e0: 264a 533d e78e 7dbd 692c a03d 9325 e2be
000000f0: 38d5 fe3e fe0f 3ebe a77c c83c 37bc b43d
00000100: 6366 95bd 9992 7dbe e8b1 aebd 08a4 973d
00000110: 1f02 153e 7f0f e93c b7ff 753d 11bb 41bd
00000120: 4bc7 f53d eb01 ab3e 9f7c b7be eb33 d7bc
00000130: 557c e2bd b9bb 243e f42c 8b3e 647d fcbd
00000140: c368 be3d 7339 b53d 34c5 c5bd 53e6 8cbe
00000150: eebd 663e 08c5 5fbe c36c ed3d f94f a9bd
00000160: 51f1 283b 9328 7c3e 8a5b cfbd 76d8 89be
00000170: e757 1fbd 6c6b 343d e153 f1bd 0e96 213e
00000180: 9296 fbbd 915f 54be 386e 1ebe 0473 553d
00000190: df4b 2ebd d603 4ebe ea61 08be 959e a8be
000001a0: 26e8 033e 9d55 863d 24d9 a63d dde2 19be
000001b0: c32b 123e b570 5e3e 7468 53bd bc43 4fbc
000001c0: 67fa 6f3e fb7a 023e 6db9 2cbe 8e2a afbe
000001d0: 0fb7 3b3e ab87 d0be 36ea 813c 33fc e4ba
000001e0: a23e 3d3d 06db df3c e40a 933e d181 8b3c
000001f0: 4e5b dd3c a6b0 283b c508 82bd 9cb3 833d
00000200: 7bf6 983c d261 603d 2edd 853c be89 053e
00000210: 1e01 ce3c 3c23 553d 5f1c 03bc 01b0 b13d
00000220: 0e62 883d 85f4 47be c478 eb3a 41ff c4bc
00000230: e0bd d63d c8a5 a53d aeea 5ebe dc2c 60ba
00000240: 8d8c a83d aa6c e3bd 5efb 093e a927 0a3c
00000250: 2330 27be ef5e a3bb fd69 61be 380a 993d
00000260: 5df3 0b3e 2942 783c 1618 adbd 11b6 db3e
00000270: 2be7 2abe 7a54 89bd bc46 3939 c8b4 57bd
00000280: 7a68 afbc 638a 38ba 49aa 943d da9c 0cbe
00000290: 8d81 c4bd 1fb8 3fbe f317 e9bd 689c 43bb
000002a0: 167b 273d efc9 ee3b 63f7 b93c 7e04 86bd
000002b0: beb8 48b9 4b5e 08be d51c 443c 01e9 89bd
000002c0: 3be6 89bd 57ff 90be 6a62 043c 1da7 4cbe
000002d0: 8a8a aabe 3a46 5f3b f883 b93c 8408 cd3d
000002e0: d1f2 1c3e 762f 0ebc 2063 abbb be13 0fbe
000002f0: ac1e 013e e0ae 303e 0b91 c73d 6506 5f3e
00000300: 5719 d7bd dd32 2c3d 642e febb 9de6 4c3e
00000310: 4fb2 793e b98f 1abe 8270 07be 7432 11bd
00000320: a861 713e 3af6 2a3d 20d6 51b7 a93e d6bd
00000330: 9ede 0cbe 6cc9 4bbd d6ca c03e 6de1 3bbd
00000340: a107 d2bd 7b6b 233d 2db9 0f3e 666d 323d
00000350: c1c1 f03d 67b6 893d 8374 8d3d d751 4abd
00000360: 9564 9abd db20 06bd 3f76 9dbe 2274 53bc
00000370: 7fa7 893c 58da cfbb bbdf 8dbd 308d 193e
00000380: f7ff 133d 3b0f 433c d790 383d 79a1 063e
00000390: 1467 debc d57b 113e fd9d d6bc f388 573e
000003a0: d274 193e ab9e 103e 8bc7 073c adda e0bd
000003b0: 76d2 19be aad7 2b3e b508 8d3d 18d0 e73c
000003c0: bcf8 9c3d 5e8b 81bd f49d 273e 601c 7a3e
000003d0: 90a4 b33e dce3 d3bd fb19 7abe 43c7 e23d
000003e0: ed9d fa3c ea22 733d 2b15 123e cd41 2b3e
000003f0: 2f5f 323e f4c2 41bc 767f 293e da0c a13d
0.32586405 -0.21372426 -0.038493656 0.044069376 -0.10910563 0.32972568 -0.42332372 -0.0075762523
0.05767882 -0.08446239 0.07241048 0.14544252 -0.12186454 0.032905497 -0.054620035 -0.0879618
0.018300202 -0.07711923 0.11866217 0.23393857 -0.17099652 -0.703097 -0.4706263 -0.22681125
0.38978234 0.25444853 0.27800205 0.24229875 0.113326 0.046279855 0.14757328 -0.1019864
-0.25003502 -0.05973206 -0.16930677 0.12538846 -0.25863683 -0.09715175 -0.07826934 -0.25241444
0.16764465 0.28255445 -0.19503827 -0.3353574 -0.11050905 0.108524375 0.1982098 0.09796949
0.15942986 0.025113387 -0.00048698828 -0.10101275 -0.032078523 -0.10323802 -0.17000397 0.10162777
0.051584385 -0.06190386 0.078209706 -0.44169292 0.49772048 -0.18560788 0.024473501 0.08824962
-0.07294919 -0.24762954 -0.08530027 0.07404333 0.1455159 0.028449772 0.06005832 -0.04729754
0.12000903 0.333999 -0.35837266 -0.026269874 -0.11058871 0.16087236 0.27182734 -0.12328604
0.092973255 0.08848848 -0.09656754 -0.27519473 0.2253339 -0.21852505 0.1159301 -0.08267207
0.0025778601 0.24624853 -0.101248816 -0.2692296 -0.03890219 0.044047758 -0.11783577 0.15779898
-0.122845784 -0.2073958 -0.15471733 0.05211164 -0.042552825 -0.20118651 -0.13318601 -0.32933488
0.12881526 0.06559298 0.08146885 -0.15027948 0.14274506 0.21722682 -0.051613286 -0.0126504265
0.23435365 0.12742226 -0.1686761 -0.34212154 0.1833155 -0.40728506 0.01585875 -0.0017470181
0.04620231 0.027326118 0.28719246 0.017029675 0.027021077 0.0025740056 -0.06349329 0.06430742
0.018672219 0.05478079 0.016340818 0.13040826 0.025147017 0.052035555 -0.00800237 0.08676148
0.066593274 -0.1952687 0.0017965068 -0.024047496 0.104854345 0.08088261 -0.2176921 -0.00085516064
0.08229933 -0.111047104 0.13474795 0.008432307 -0.16326956 -0.004985682 -0.22013088 0.07472652
0.13667054 0.015152493 -0.0845186 0.42912343 -0.16689746 -0.06705566 0.00017669325 -0.05266264
-0.021412123 -0.0007039664 0.07259042 -0.13731709 -0.09595022 -0.1872258 -0.11381521 -0.0029847864
0.04088887 0.007287256 0.022700971 -0.065438256 -0.00019142308 -0.1331722 0.011969765 -0.06733895
-0.06733366 -0.2831981 0.008080104 -0.19985624 -0.33308822 0.0034068958 0.022645935 0.1001139
0.15327002 -0.008678308 -0.0052303225 -0.13972375 0.12609357 0.1725421 0.097444616 0.21779783
-0.1050288 0.042040695 -0.007756995 0.20009847 0.24384426 -0.15093888 -0.13226512 -0.035448506
0.23572409 0.041738726 -1.2507226e-05 -0.1046117 -0.13756797 -0.049752638 0.37654752 -0.04586928
-0.10255361 0.039897423 0.14035483 0.04356136 0.117557056 0.067242436 0.069069885 -0.049394455
-0.07538716 -0.032746177 -0.30754277 -0.012906106 0.016803501 -0.0063431673 -0.06927439 0.14995265
0.03613278 0.011905487 0.045060005 0.13147534 -0.02714876 0.14207394 -0.026198382 0.21048336
0.1498597 0.14123027 0.008287321 -0.10979209 -0.1502169 0.16781488 0.06886426 0.028297469
0.0766463 -0.0632541 0.16368848 0.24424887 0.3508649 -0.10346195 -0.24423973 0.110731624
0.030592883 0.05935947 0.14265887 0.1672432 0.17419122 -0.011826266 0.16552529 0.07863779

bias f4 [128]
00000000: 844f d83d ef8d b33d 5d1f dc3c cca4 07be
00000010: dca3 c1bd c64e fcbd 6696 893d 88c5 69be
00000020: 109c 643d 4710 0e3d 90b4 38be cd7e 313e
00000030: e088 d6bd 1eac 513b 687f ea3c aff4 fe3d
00000040: 4c83 8dbc 158e e73c 0a1b 30bd 37e2 1c3d
00000050: effa 1b39 8c97 59bd 1387 d1be 9e33 6c3b
00000060: 7393 243e 496f 0b3e 80e3 283e 3bfc 8c3b
00000070: 314b 57be 205a a0bd 64c2 bfbd 8a7c a3bd
00000080: 860a 48be 2a79 3b3d 0d38 ffbb 7d95 3abe
00000090: b90c d63c 2496 063c 199c fd3c b5f6 783d
000000a0: bc73 a03e b52c ba3d 41cd 8cbd f511 a7bc
000000b0: b416 1dbe 167e df3d fc09 63be 0ff4 1b3c
000000c0: 82f8 e43d 59b7 c5bd e0b8 2ebe 6714 52be
000000d0: 7d46 b73d bb67 3abc effc 3abc c778 493c
000000e0: fc4d fb3c ceac efbd 9c75 5a3e e269 1abe
000000f0: e2d6 2f3c 9b38 e73d afa7 bfbd feaf adbd
00000100: 55d9 953d 13d0 f0bd 3d07 0e3e adb7 0bbd
00000110: 3f1e 063d 3955 c53e d7dd d03d 20e8 243e
00000120: febb c23d d688 8abb 7a9b 3e3e c8ea 39be
00000130: 7efe cfbd 9cbb 663e 42cf 1f3c e75b 8a3e
00000140: f961 9ebd 7e7b d5bc e955 393e fe0f 923d
00000150: 792c 92bd dda8 acbd 4e20 63be 389f cf3c
00000160: c9e9 423e a75e 8bbd 5580 e23d 4ea4 ca3d
00000170: b8ca db3d f632 e53b 1c40 16be 141d 1abd
00000180: 2efd 1dbd 2499 4fbe 5710 363e 7086 0c3e
00000190: e6e5 043e 358d 3e3e df01 d2bd 5ffd 51bd
000001a0: e65f d13d 7b7a bbbe fc28 d63e 62d2 753c
000001b0: dc3e f63d 761d 38bc 798c 9f3e 7887 2d3e
000001c0: 2ba9 35be 4bd0 0a3d 697d 2f3e 62fc 403e
000001d0: 94fa 29be 20f8 beba ff25 273d 7fea 09bd
000001e0: 65d1 0e3e 7bf6 633e dc72 213e aa55 c6bd
000001f0: e311 c03d 2552 1fbe e3bf fe3d 2ffd 72bd
0.105620414 0.08767306 0.026870424 -0.13246459 -0.09455082 -0.12319712 0.06718139 -0.22829258
0.055812895 0.034683492 -0.18037629 0.17333527 -0.104753256 0.003199346 0.028625205 0.124490134
-0.017274521 0.028265992 -0.042994536 0.038301673 0.00014875432 -0.053123042 -0.40923366 0.0036041508
0.16071872 0.1361667 0.16493034 0.004302529 -0.21024777 -0.0782969 -0.09363249 -0.07982738
-0.19535264 0.045769848 -0.007788664 -0.18221088 0.026129114 0.008214507 0.030958222 0.060782153
0.31338298 0.090905584 -0.068750866 -0.020394305 -0.15340692 0.10912721 -0.22171777 0.009518637
0.111802116 -0.096541114 -0.17062712 -0.20515595 0.089489914 -0.01137727 -0.011412843 0.012296862
0.030676834 -0.11702882 0.21333927 -0.15079454 0.010732384 0.112900935 -0.09358155 -0.084808335
0.073168434 -0.11758437 0.13869949 -0.034110714 0.03274369 0.38541582 0.101985626 0.16104174
0.09508513 -0.004227738 0.18613997 -0.18155968 -0.101559624 0.22532505 0.009754004 0.2702324
-0.077335306 -0.026059862 0.18099178 0.071319565 -0.07137389 -0.084306456 -0.22180292 0.025344476
0.19034494 -0.06805163 0.11059634 0.0989462 0.10732025 0.0069946004 -0.14672893 -0.037625387
-0.03857153 -0.20273262 0.1777967 0.13723159 0.12978324 0.18608554 -0.10254263 -0.051267024
0.10223369 -0.36616883 0.41828144 0.015003772 0.12023708 -0.011237493 0.3116186 0.16946208
-0.17740314 0.03389005 0.17137684 0.18846276 -0.16599494 -0.0014569797 0.04080772 -0.0336709
0.13947065 0.22261994 0.15766472 -0.09684308 0.093784116 -0.1555868 0.12438943 -0.059323486

weight f4 [6, 128]
00000000: b1c0 4e3e 1939 83bd 678a 22be 40e1 833c
00000010: e6bd 3fbd 2448 a8be 5ae9 f9bd 68e3 a5be
00000020: 8fc6 dbbe ad72 083e 3483 a1bc dbe3 9ebe
00000030: aade a33a d898 63bb bc85 07bf 12eb b73e
00000040: 22d7 4c3e a5e8 c03e ee22 9d3d 50f9 12bd
00000050: cd92 f33d c533 373e 5c0e 2f3b 2a63 86be
00000060: 4e67 063e 79fc aebe 2754 b43e a396 663e
00000070: 4b42 73be 4a47 bfbd 6507 f03c 9c06 b53e
00000080: 7a63 76be 2d9b e7be 34ac 8a3e 3b60 c2be
00000090: 4ba6 c8be ee87 a9be 4d52 983d fe8e f339
000000a0: a581 1e3e ed4c 9fbe 8b0f f23d 6324 c53d
000000b0: 72c4 8fbe a971 d03d a403 c5be be26 353e
000000c0: 9ad7 4b3e 2fce 633d f35b bf3b a2f4 2fbe
000000d0: 51ad e23d d911 e3bd 6517 cd3c 1ff5 38be
000000e0: 38ef e8bc d1db 15be ef50 b93e 2b1f 18be
000000f0: 2a5a 4abe fbe1 b03e 8905 a8be 6ca0 ccbe
00000100: 55ec 8ebe 094f a7bb 6873 c83e c190 31be
00000110: e026 063f 28f2 813d 5267 babe 7772 1c3e
00000120: cac7 9f3d c178 20be 0238 213e 7600 4dbe
00000130: 050c 3cbe 3deb 6b3d 5843 b1be 4b8d dc3d
00000140: 2d98 1dbd aa07 a5be 29c5 d7bd 2057 10be
00000150: 554a 6ebe 6dd7 c3bd a7bc e2bd e275 ae3e
00000160: f6b8 2e3e 4dec 2a3e 6f01 263f 4b5f cc3e
00000170: 7907 443d 85bf b6bd 1f1e f93d ba09 d3bc
00000180: c032 76be a59f 48be 71a4 edbb f293 0c3e
00000190: c14a d23e f7ad 6a3e 25bb 5abe ed62 dcbe
000001a0: 6c7b 05be a259 10be e39b ea3d f97b 4dbe
000001b0: 763b e93d e02c 31be c901 f93d c9f4 533e
000001c0: f927 cfbe fd98 50be 9b91 bf3c 3097 163e
000001d0: 948d 3fbd 3c34 45bd afb2 85be fae1 073e
000001e0: 4014 ea3d 310c fe3d 03b8 04bf 3262 8bbe
000001f0: 6dda d33d 94cf 4cbe c171 51be c2d2 7e3d
00000200: 7730 afbd 792f 62bd 8137 593e 06cd 3c3e
00000210: ebdc bdbd f12b bd3d 7e14 b23e 8bd0 05be
00000220: b3ea eb3d 3557 bdbe 6ad7 7cbe 942f c33e
00000230: cb6e a6bd 6057 723e b432 e13e 64b2 07be
00000240: ba2c 21be ee46 ff3d 4696 13be d83f 853e
00000250: 318e 4ebe 70d5 0d3d 505f 3dbc 5a3d 2e3e
00000260: 1df3 df3d 377d b73e 379b 76be 2fec 193e
00000270: d4e2 eabd ecaa b8bd bf3f d0be 06d8 b2bd
00000280: 55a4 95bd bba0 9f3d d0d8 d4be 0f44 54bc
00000290: c990 873d 56d3 563e 0d3b 90be d65d 973e
000002a0: 8800 b73d 39a6 ab3e 89bc 03be 2af4 c33d
000002b0: d9ed 94bd e349 6b3e a860 8f3d 5ea9 163c
000002c0: c90e 153e 1e7e a5bd 02e1 48be 6ea4 48be
000002d0: cbe3 b0ba 0075 0dbc bb55 fcbd 0bcd c43d
000002e0: bb68 b53e f279 3abd 7efd 5ebd c09a 30be
000002f0: aedd 693e 723a f3bb aafc f43e eb6d 2cbe
00000300: cf35 613e c526 6bbd 9442 2a3c 5583 833d
00000310: 6575 dabd 6500 ff3d 4a9d d13e 0c6b 963e
00000320: 6b42 8d3e a9a5 8f3e 710f 043e 765a 82be
00000330: 0b85 18be 457b c13e 4561 243d 4889 683d
00000340: d960 28bd ea42 d9bc ef45 a73e 8278 293e
00000350: 5a42 4dbe dedf 9c3e 4c1c 63be 8b27 21be
00000360: be81 5d3e 0efb edbe 89cb 223c 4a78 e6bd
00000370: a7d2 9c3e 78ea f83d 64d2 93be 4295 16bf
00000380: 0a61 2e3e bb66 c3bd 4d6b a13c a68a c13e
00000390: 9bb6 463c 4e06 033e cb9b 23be c2a9 63be
000003a0: 9f2c 7d3e 3a98 fbbd e478 2c3e 3977 923e
000003b0: 9a56 953d 9024 17bb cdd2 e93d 7958 023e
000003c0: 7723 d6bd 0dd1 883d 8f25 30be c09e 0fbd
000003d0: 8501 12bd 1939 22bd 08eb fabd 9471 a3be
000003e0: 4d9b 8b3c f65b 5b3e 7c4b a53e fa61 c43e
000003f0: 0fae 533e 3f3c fb3d b65c 683e c9ae 4abe
0.20190693 -0.06407375 -0.15873109 0.016098619 -0.04681196 -0.3286754 -0.122027114 -0.3240006
-0.42924926 0.13324995 -0.019715883 -0.31033215 0.0012502272 -0.0034728553 -0.5293844 0.35921532
0.20003942 0.37677494 0.07672678 -0.035882294 0.118932344 0.17890842 0.002671144 -0.2624753
0.13125345 -0.34176996 0.35220453 0.22518401 -0.23755758 -0.09339769 0.029300401 0.35356605
-0.24061385 -0.45235577 0.27084506 -0.37964043 -0.3918937 -0.3311152 0.07437573 0.0004645511
0.15479143 -0.31113377 0.11819371 0.09626081 -0.28079563 0.10177929 -0.3847934 0.1769056
0.19906464 0.055616554 0.0058398186 -0.17183164 0.11068214 -0.110873885 0.02503557 -0.18062256
-0.02843438 -0.14634635 0.3619456 -0.1485564 -0.19760957 0.3454741 -0.32816723 -0.39966142
-0.27914682 -0.0051058573 0.39150548 -0.17340375 0.5240307 0.06345016 -0.36406952 0.1527804
0.078017786 -0.15671064 0.15744022 -0.20019707 -0.1836396 0.057597388 -0.34621692 0.10769137
-0.038475204 -0.3223241 -0.10535652 -0.14095736 -0.23270543 -0.095625736 -0.11071139 0.34074312
0.17062744 0.16691704 0.6484594 0.39916453 0.04785869 -0.08923248 0.12163948 -0.025761474
-0.24042797 -0.1959215 -0.007252269 0.13728312 0.41072658 0.22917925 -0.21360452 -0.43044224
-0.13035363 -0.14096692 0.11455514 -0.20066823 0.113882944 -0.17302275 0.121585436 0.20698847
-0.40460184 -0.2037086 0.02338486 0.14706111 -0.04676588 -0.048145518 -0.26112887 0.13269797
0.11429644 0.12404669 -0.5184328 -0.27223355 0.10344396 -0.2000106 -0.2045355 0.062212713
-0.08554166 -0.055221055 0.2121258 0.18437585 -0.092706524 0.09236897 0.3478126 -0.13067834
0.11519375 -0.36980596 -0.24691549 0.38122237 -0.08126601 0.23666143 0.43983996 -0.13251644
-0.15739718 0.12464701 -0.14412794 0.2602527 -0.20171429 0.034627378 -0.011558369 0.17015591
0.10935042 0.3583772 -0.24082647 0.15031503 -0.11469045 -0.09016976 -0.40673634 -0.087326095
-0.073067345 0.07794329 -0.41571665 -0.01295568 0.066194125 0.20979056 -0.28170052 0.2956378
0.08935648 0.33525255 -0.12864889 0.09568055 -0.07271928 0.22977404 0.070008576 0.009195654
0.14556421 -0.080806956 -0.19617084 -0.19593975 -0.0013495622 -0.008633852 -0.12321039 0.09609421
0.35431466 -0.045526452 -0.054440968 -0.17246532 0.2283847 -0.0074227387 0.47849017 -0.16838805
0.21993183 -0.05741002 0.01039185 0.06421534 -0.106669225 0.12451247 0.40940315 0.29378545
0.27589735 0.28056076 0.12896515 -0.2545964 -0.14894502 0.3778936 0.040131826 0.056771547
-0.041107986 -0.026521165 0.32670543 0.16549876 -0.20044842 0.30639547 -0.22178763 -0.1573774
0.21631524 -0.46480602 0.009936222 -0.11253412 0.30629465 0.12154096 -0.28871453 -0.588215
0.17029205 -0.09541079 0.019704485 0.37801093 0.0121284975 0.12795374 -0.15977399 -0.22232726
0.24724053 -0.12284894 0.16842991 0.28606585 0.072919086 -0.0023062564 0.1141716 0.12729062
-0.10455983 0.06680498 -0.17201827 -0.035063505 -0.03564598 -0.039605234 -0.1225186 -0.3192259
0.017041827 0.21421799 0.32284153 0.38356 0.20671867 0.122673504 0.22691616 -0.19793238

bias f4 [6]
00000000: 7bcf 033e 49aa 1c3e 05a8 0e3d 6c87 edbc
00000010: a561 a4be 0160 01be
0.12872116 0.15299334 0.034828205 -0.028995238 -0.32105747 -0.12634279
