src/learning/models/128_128_64_touch_800ep_8908.pt (torch, 107599 bytes, 8 tensors)

weight f4 [128, 6]
0.03260514 0.15232928 -0.4298316 -0.6489126 -0.3160042 0.52995825 -0.39751402 -0.21347319
-0.30899265 0.24927264 -0.2658119 0.31585327 -0.007561538 0.08751609 -0.20961255 0.7163665
-0.59934604 0.09254064 -0.26413643 -0.43415445 -0.043903418 0.38512942 -0.102092735 0.7076361
-0.0026299406 0.41852954 -0.03014656 0.6255493 -0.23840794 0.33299863 -0.42995554 0.46238932
0.1923229 -0.10192125 0.4184376 -0.41415918 -0.12417032 0.13221224 0.7466273 0.43851274
0.18200402 0.5750699 -0.15968786 -0.10400982 -0.20060962 -0.31572974 0.30409136 -0.34554517
0.12948094 0.21214451 0.112409614 0.30115074 -0.41991022 0.534952 0.16706729 -0.13285276
0.33526418 -0.3692566 0.028404336 -0.1770985 0.754973 0.014487441 -0.08916411 0.5580096
-0.57123685 0.087884866 -0.0819208 -0.24039386 -0.35974988 -0.13384163 -0.04108828 -0.8423531
0.29494983 -0.3342648 0.09349772 0.20300865 0.7512383 -0.3126728 -0.055975124 -0.040059
-0.046031285 1.1086403 -0.46510178 -0.7297201 -0.019290633 -0.2258724 -0.13003771 -0.29649752
-0.47556993 0.66532415 -0.051727355 0.021742783 0.032222737 0.5033225 0.62111443 0.017548308
0.6953589 0.14322273 -0.30463916 0.26644418 0.17078131 -0.24766296 -0.17711474 -0.2140839
0.25430074 0.6185783 0.20712411 0.37634757 0.23485276 -0.16530983 0.2908936 -0.104215026
0.19511649 -0.41840303 -0.19404602 -0.13974273 -0.09623158 0.9537363 0.047524296 -0.13162045
0.11781122 -0.26556385 0.18077888 0.22772288 0.7857484 -0.5453134 0.0041272803 -0.6620429
-0.1887979 0.4839478 -0.1685726 0.3528082 0.550255 0.29745343 -0.4726441 -0.24948633
0.30141613 0.6445423 -0.7518142 -0.03596095 -0.076156996 -0.1756283 -0.7955048 -0.47006643
0.20827234 0.5039946 0.08347375 -0.3936718 0.5944195 -0.47476923 -0.60816157 -0.27596357
-0.29534835 -0.11811606 0.24385916 -0.12232151 -0.30655602 -0.10327348 -0.22196287 -0.6312408
0.12636867 -0.34151462 0.19624805 -0.22702548 0.040688142 0.42544165 -0.107884936 -0.52120405
-0.014282448 0.30556288 0.03308937 0.31590566 0.0855437 -0.1745664 0.27318957 -0.06850664
0.32615882 -0.13622917 0.2512032 0.21455458 0.109217286 -0.31122118 0.14028586 -0.18205972
-0.27774078 -0.19909133 0.13087651 -0.25445068 0.16454113 0.5110648 -0.4598108 0.26074895
-0.04115086 0.46037087 -0.021627873 0.39450946 -0.20801044 -0.48582724 -0.22244574 -0.19673026
-0.10932863 -0.259831 0.7608249 0.042704344 -0.7479712 0.09336998 0.19934194 0.26611435
-0.8201543 -0.5254134 0.11587267 -0.053956233 -0.12534927 -0.32743436 0.45151457 0.38525873
-0.042606216 0.16229327 0.0527053 0.1579163 0.9598039 0.32322574 0.07094682 -0.0451034
-0.030229254 0.07396789 -0.7828576 0.14412427 0.20750444 0.2806461 0.21069683 0.24506067
0.3316274 0.5201977 1.0088336 -0.10928584 -0.22207923 0.13168018 0.3793901 0.36804804
-0.2709437 0.41391367 -0.168357 -0.10823848 -0.6468868 -0.6976275 0.24722669 -0.48264253
0.18677846 -0.3308246 -0.13276996 -0.30687708 0.41213453 0.1481532 -0.4997252 -0.06973754
00000000: f88c 053d 35fc 1b3e e312 dcbe 231f 26bf
00000010: 4dcb a1be 58ab 073f f586 cbbe b798 5abe
00000020: 4934 9ebe 5441 7f3e 7f18 88be 85b7 a13e
00000030: c7c6 f7bb a33b b33d aca4 56be cc63 373f
00000040: be6e 19bf f285 bd3d e43c 87be 7e49 debe
00000050: 12d4 33bd af2f c53e ff15 d1bd a427 353f
00000060: 155b 2cbb 8149 d63e ebf5 f6bc 0024 203f
00000070: 3621 74be cc7e aa3e 2223 dcbe 4bbe ec3e
00000080: 4bf0 443e 17bc d0bd 743d d63e ac0c d4be
00000090: 024d febd a562 073e f722 3f3f be84 e03e
000000a0: 435f 3a3e c837 133f 3785 23be 1a03 d5bd
000000b0: 9c6c 4dbe 54a7 a1be ddb1 9b3e 4ceb b0be
000000c0: a796 043e 693c 593e 0337 e63d 6e30 9a3e
000000d0: 79fe d6be 9df2 083f b013 2b3e 8e0a 08be
000000e0: bfa7 ab3e 330f bdbe 36b0 e83c 4f59 35be
000000f0: e945 413f bb5c 6d3c ac9b b6bd b8d9 0e3f
00000100: 943c 12bf fbfc b33d 18c6 a7bd cf29 76be
00000110: 2331 b8be c80d 09be 2f4c 28bd 74a4 57bf
00000120: aa03 973e c224 abbe bc7b bf3d 80e1 4f3e
00000130: 2751 403f a616 a0be 2c46 65bd e814 24bd
00000140: 4d8b 3cbd ede7 8d3f d221 eebe f0ce 3abf
00000150: 6407 9ebc 184b 67be 9b28 05be 86ce 97be
00000160: e77d f3be af52 2a3f 10e0 53bd ec1d b23c
00000170: fdfb 033d bed9 003f 5b01 1f3f 78c1 8f3c
00000180: 0a03 323f fba8 123e aaf9 9bbe 5f6b 883e
00000190: 4ce1 2e3e 5c9b 7dbe 915d 35be cf38 5bbe
000001a0: b533 823e 265b 1e3f 5818 543e a1b0 c03e
000001b0: 3e7d 703e fb46 29be 02f0 943e b06e d5bd
000001c0: 9ecc 473e ec38 d6be 00b4 46be b818 0fbe
000001d0: 1015 c5bd 1028 743f d6a8 423d 83c7 06be
000001e0: 0247 f13d fcf7 87be 191e 393e 3030 693e
000001f0: cf26 493f a999 0bbf 233e 873b a57b 29bf
00000200: 3d54 41be 02c8 f73e 4c9e 2cbe 47a3 b43e
00000210: 83dd 0c3f d14b 983e 68fe f1be 5879 7fbe
00000220: 3753 9a3e b900 253f e576 40bf ca4b 13bd
00000230: 33f8 9bbd e8d7 33be 34a6 4bbf 8cac f0be
00000240: 5845 553e ca05 013f 49f4 aa3d 5a8f c9be
00000250: e02b 183f f414 f3be 7ab0 1bbf 194b 8dbe
00000260: e637 97be d5e6 f1bd 37b6 793e b383 fabd
00000270: e9f4 9cbe 0c81 d3bd 3c4a 63be ff98 21bf
00000280: ca66 013e 01db aebe 40f5 483e 5e79 68be
00000290: 9ca8 263d 7dd3 d93e c7f2 dcbd a16d 05bf
000002a0: ee00 6abc bd72 9c3e b888 073d 63be a13e
000002b0: 8931 af3d 89c1 32be 81df 8b3e 364d 8cbd
000002c0: 4afe a63e a97f 0bbe b59d 803e 32b4 5b3e
000002d0: 50ad df3d 6258 9fbe 19a7 0f3e dd6d 3abe
000002e0: 0a34 8ebe 99de 4bbe 7e04 063e 5c47 82be
000002f0: 787d 283e 25d5 023f 526c ebbe e380 853e
00000300: ce8d 28bd bbb5 eb3e f02c b1bc 25fd c93e
00000310: b000 55be 59be f8be d1c8 63be a873 49be
00000320: b0e7 dfbd 9208 85be 6cc5 423f c0ea 2e3d
00000330: 0a7b 3fbf c338 bf3d 4b20 4c3e 2440 883e
00000340: a2f5 51bf 7e81 06bf a74e ed3d 3601 5dbd
00000350: 8f5b 00be 7aa5 a7be eb2c e73e a240 c53e
00000360: db83 2ebd 3530 263e 83e1 573d d0b4 213e
00000370: b5b5 753f d87d a53e 914c 913d 58be 38bd
00000380: 57a3 f7bc 7a7c 973d 5b69 48bf 5095 133e
00000390: 0b7c 543e d8b0 8f3e e9c0 573e 2ff1 7a3e
000003a0: 11cb a93e ad2b 053f 7621 813f 41d1 dfbd
000003b0: bd68 63be 2bd7 063e 6b3f c23e cb70 bc3e
000003c0: 22b9 8abe 7eec d33e c765 2cbe 23ac ddbd
000003d0: 609a 25bf b797 32bf fe28 7d3e ec1c f7be
000003e0: da42 3f3e d861 a9be d9f4 07be fe1e 9dbe
000003f0: 4c03 d33e 79b5 173e fbdb ffbe 8ed2 8ebd

bias f4 [128]
0.041483384 0.043663207 0.07544013 -0.22799863 -0.06960857 -0.40190175 -0.56673336 0.68149906
-0.99211794 0.19610329 0.93612677 0.6258301 -0.7191108 0.45085153 0.3372165 0.42069796
0.11547883 -0.63073593 -0.18800136 -0.086163 -0.73399025 0.4572731 -0.59026843 0.7072085
-0.6898525 -0.13595262 0.0047298474 0.024299826 -0.29330015 0.13363682 -0.06320291 0.29323056
0.29152507 -0.5126891 0.62968487 -0.7977241 -0.41642755 0.30547565 -0.33567998 -0.5661927
0.29863977 0.1504861 -0.6292118 -0.45988113 -0.1823076 -0.022083921 -1.1231556 0.78599745
-0.5989053 -1.0657305 -1.0017493 0.23542152 1.0596892 -0.65961415 -0.14055079 0.51874083
0.4092494 0.8976473 -0.76399994 -0.11465329 -1.144368 -0.30732533 0.25268543 0.4035914
-0.44613174 0.32110393 -0.682676 0.09249656 0.15878312 -0.37908468 0.52847016 0.46196717
0.14715762 0.6079859 0.14371751 -0.18703209 -0.18951102 -0.70921123 -0.6369157 -0.57894945
0.5695998 0.2718239 0.28128088 -0.46944296 -0.046700716 -0.6621027 -0.70209956 0.56440413
-0.29605183 0.44809693 0.17680943 -0.13339129 0.22554544 -0.6465913 0.03616525 -0.73335916
0.26919863 0.64844185 0.14863603 0.21699402 0.040269736 -0.6564938 0.75692636 0.6802022
0.5989087 -0.2151865 0.7566141 -0.36772028 1.0357761 0.76537824 -0.009197476 -0.48237103
0.073746964 -0.16443501 -0.6710661 -0.92335624 -0.42789668 -0.1380877 -0.06136394 -0.021856962
-0.053673696 -0.34062114 0.40931454 -0.010350391 -0.051207017 -0.30194497 0.47998804 -0.48561236
00000000: 7bea 293d 31d8 323d 5b80 9a3d 7978 69be
00000010: f08e 8ebd 11c6 cdbe 7015 11bf b976 2e3f
00000020: 71fb 7dbf 4dcf 483e 01a6 6f3f 6736 203f
00000030: a517 38bf 03d6 e63e a4a7 ac3e b965 d73e
00000040: 2a80 ec3d e977 21bf 6e83 40be 3a76 b0bd
00000050: c9e6 3bbf b31f ea3e d51b 17bf 9e0b 353f
00000060: 2c9a 30bf 2a37 0bbe d6fc 9a3b 6e10 c73c
00000070: 702b 96be 17d8 083e 8770 81bd 5122 963e
00000080: c642 953e 983f 03bf 0733 213f a637 4cbf
00000090: fe35 d5be 4e67 9c3e 3fde abbe 01f2 10bf
000000a0: 50e7 983e 0719 1a3e 0614 21bf 8a75 ebbe
000000b0: d8ae 3abe 57e9 b4bc 90c3 8fbf 2137 493f
000000c0: dc51 19bf db69 88bf 5239 80bf 5712 713e
000000d0: e5a3 873f 79dc 28bf 8cec 0fbe 33cc 043f
000000e0: 2389 d13e 37cc 653f 8095 43bf 58cf eabd
000000f0: a77a 92bf bf59 9dbe fc5f 813e 88a3 ce3e
00000100: 616b e4be bc67 a43e dbc3 2ebf d66e bd3d
00000110: 0b98 223e 6317 c2be d249 073f f686 ec3e
00000120: 7db0 163e f7a4 1b3f af2a 133e 5785 3fbe
00000130: 2d0f 42be de8e 35bf e80c 23bf 0836 14bf
00000140: 4bd1 113f 812c 8b3e 0c04 903e d45a f0be
00000150: 4049 3fbd 907f 29bf ccbc 33bf ca7c 103f
00000160: 1b94 97be f66c e53e 880d 353e ba97 08be
00000170: 62f5 663e 0287 25bf 0322 143d 6dbd 3bbf
00000180: 67d4 893e 4900 263f 0b34 183e ae33 5e3e
00000190: e1f1 243d fa0f 28bf edc5 413f bb21 2e3f
000001a0: 1552 193f da59 5cbe 76b1 413f d545 bcbe
000001b0: 5094 843f d4ef 433f 03b1 16bc 56f9 f6be
000001c0: a608 973d a761 28be fdca 2bbf 1361 6cbf
000001d0: 4615 dbbe dd66 0dbe c158 7bbd 5f0d b3bc
000001e0: f3d8 5bbd e565 aebe ad91 d13e b094 29bc
000001f0: 73be 51bd 8898 9abe fec0 f53e 2fa2 f8be

weight f4 [128, 128]
0.05091428 -0.064160384 -0.050537683 -0.16179314 0.34832984 -0.09401798 0.06304986 -0.23596077
0.02822685 0.10395383 0.21992047 -0.23333015 0.11085601 0.13105823 -0.09543809 -0.018478096
0.15376566 -0.16391781 0.17686525 -0.2036843 -0.66798574 -0.18878211 -0.29453725 -0.15851335
-0.22280447 0.25439364 0.2346378 -0.11375778 0.07682679 0.23619218 0.027933339 -0.119572
0.4106121 -0.16143668 -0.17316677 0.12013024 -0.14889455 -0.09036564 -0.10185646 0.08361988
0.33154017 -0.3889192 0.0022010372 0.023294043 -0.27894494 -0.017937046 -0.010672117 0.10941642
-0.12007248 0.06726 0.06800397 0.038436912 0.25087073 -0.03523979 0.42268944 0.9304293
-0.046072043 0.109458596 0.22797002 -0.17295182 -0.24530253 0.09477529 0.19475009 0.19211958
0.08587206 0.6511958 0.016587358 0.2902624 -0.12129018 -0.25908965 0.036836777 -0.20405413
0.22459194 0.03782952 0.0452881 0.18094173 -0.01323263 0.17168827 -0.1004486 0.06769009
0.14591384 -0.0012130945 0.20018442 -0.26174816 0.11717958 -0.016625255 -0.49620736 0.3489469
0.07798294 0.28909808 0.25599024 -0.54547435 0.039854784 -0.0131936055 -0.13630748 -0.011683949
0.053410195 0.313945 0.19843735 0.027941711 -0.24807087 -0.05079946 -0.12477797 0.36163735
0.0019849313 0.079273924 0.48547694 0.0080874665 0.3637124 -0.07438303 -0.36901826 -0.21970867
0.034251805 -0.0057293815 -0.036432173 -0.15060025 0.028994344 -0.11542564 -0.039930157 0.33817267
-0.18051444 0.016155075 0.13711645 -0.36078614 0.30496874 -0.101542674 0.73393124 0.18903421
-0.14858077 -0.4038392 -0.15738977 -0.18681161 0.5995343 -0.035661794 0.3602399 -0.110017605
-0.025894284 0.16251625 0.21872312 -0.12938257 0.059889853 -0.064448774 -0.10815395 0.018123494
-0.0010420431 0.27257633 -0.0025625173 0.24198136 -0.4902852 -0.18926217 0.087268956 -0.061405297
0.06778434 -0.13832302 0.35722253 -0.029729798 0.31491202 0.015217784 -0.13299891 -0.25048503
0.41486883 -0.004221201 -0.028514586 0.03457019 0.13998243 -0.1880881 -0.016238622 0.22336565
0.76505995 -0.4696086 -0.3552062 0.24802266 -0.19619574 -0.051970534 0.11579174 0.01894087
0.18254262 0.35799104 0.010849158 -0.081299275 -0.15888895 -0.18174127 0.817882 0.24240372
0.028512409 -0.34312224 -0.1604885 0.2711945 0.31713924 -0.29768452 0.013487698 -0.053541057
0.24514836 0.06722707 0.028151354 -0.08291215 -0.049918696 -0.2920909 0.0941835 -0.22983015
-0.27600014 -0.0017295012 -0.35591662 -0.30893043 0.17492849 -0.04158765 -0.058156002 -0.016090654
-0.3110054 -0.22469877 0.47499263 -0.012683557 -0.071152434 -0.048961647 -0.10379819 -0.21631175
-0.33321974 -0.49244508 0.055246167 -0.017542887 0.31419316 -0.1113176 -0.23133862 0.18113062
-0.0049240547 -0.06961032 0.05710858 0.22059564 0.20959173 0.2015141 0.13019554 -0.14349754
-0.54991513 0.3374138 0.38267773 0.20906805 0.14807065 -0.004564334 0.35019583 -0.011206347
-0.4262373 -0.35137844 0.22831099 0.35475162 0.2797452 -0.061599337 0.020308077 -0.5747437
0.05336412 0.6118366 -0.2824174 -0.46951115 0.03764809 -0.12208188 0.17651041 0.6008185
00000000: 7e8b 503d 8566 83bd 9a00 4fbd 1aad 25be
00000010: 4a58 b23e 808c c0bd 4920 813d b39f 71be
00000020: ff3b e73c bfe5 d43d d532 613e 19ee 6ebe
00000030: 7a08 e33d 2134 063e 0c75 c3bd 605f 97bc
00000040: bf74 1d3e 12da 27be 2a1c 353e 9e92 50be
00000050: 1d01 2bbf 1950 41be 96cd 96be 5351 22be
00000060: db26 64be e23f 823e e444 703e d7f9 e8bd
00000070: 5d57 9d3d 5ddc 713e 75d4 e43c 2ae2 f4bd
00000080: c03b d23e a84f 25be a152 31be d806 f63d
00000090: d077 18be 9f11 b9bd 1f9a d0bd e640 ab3d
000000a0: a2bf a93e 6b20 c7be 473f 103b 26d3 be3c
000000b0: dfd1 8ebe b6f0 92bc 1ada 2ebc b715 e03d
000000c0: 8fe8 f5bd 9cbf 893d aa45 8b3d 0670 1d3d
000000d0: 2172 803e 9957 10bd c06a d83e 9d30 6e3f
000000e0: 0ab6 3cbd d42b e03d f970 693e 481a 31be
000000f0: 9630 7bbe 8c19 c23d 916c 473e ffba 443e
00000100: b1dd af3d c5b4 263f 36e2 873c 469d 943e
00000110: fc66 f8bd 66a7 84be 29e2 163d 91f3 50be
00000120: 6efb 653e 20f3 1a3d 0480 393d ca48 393e
00000130: accd 58bc 0dcf 2f3e ffb7 cdbd 1aa1 8a3d
00000140: 706a 153e b200 9fba 25fd 4c3e db03 86be
00000150: d9fb ef3d b031 88bc e40e febe 2ba9 b23e
00000160: 85b5 9f3d aa04 943e 2711 833e 35a4 0bbf
00000170: c53e 233d fe29 58bc 3094 0bbe 096e 3fbc
00000180: a6c4 5a3d 66bd a03e 2933 4b3e 04e6 e43c
00000190: 4a06 7ebe 1813 50bd 988b ffbd 8828 b93e
000001a0: 9f15 023b 5e5a a23d 6f90 f83e 4b81 043c
000001b0: 8338 ba3e 2156 98bd f6ef bcbe 4ffb 60be
000001c0: 9f4b 0c3d 89bd bbbb e739 15bd f436 1abe
000001d0: 8c85 ed3c 4764 ecbd ce8d 23bd f824 ad3e
000001e0: c7d8 38be a657 843c 4168 0c3e f6b8 b8be
000001f0: dd24 9c3e 9bf5 cfbd ebe2 3b3f 2f92 413e
00000200: 8f25 18be 03c4 cebe c92a 21be 8b4b 3fbe
00000210: 147b 193f 1a12 12bd 5d71 b83e e950 e1bd
00000220: 4020 d4bc a96a 263e f4f8 5f3e dd7c 04be
00000230: 104f 753d b8fd 83bd d17f ddbd b977 943c
00000240: 2a95 88ba 208f 8b3e e8ef 27bb f6c9 773e
00000250: a906 fbbe f1cd 41be 11ba b23d 1f84 7bbd
00000260: 84d2 8a3d 8da4 0dbe dfe5 b63e e88b f3bc
00000270: 263c a13e 0354 793c de30 08be 933f 80be
00000280: b069 d43e 0052 8abb 6c97 e9bc 7999 0d3d
00000290: 8e57 0f3e 2b9a 40be dc06 85bc f7b9 643e
000002a0: f8da 433f 8a70 f0be 96dd b5be a7f9 7d3e
000002b0: 89e7 48be 0edf 54bd 3824 ed3d e229 9b3c
000002c0: 74ec 3a3e 9a4a b73e abc0 313c 3c80 a6bd
000002d0: c9b3 22be 621a 3abe b760 513f ae38 783e
000002e0: db92 e93c b8ad afbe 1957 24be 01da 8a3e
000002f0: 1360 a23e 1b6a 98be 81fb 5c3c de4d 5bbd
00000300: 2c08 7b3e 59ae 893d ab9d e63c d8cd a9bd
00000310: 8c77 4cbd f08c 95be 47e3 c03d 9858 6bbe
00000320: e44f 8dbe 6eb0 e2ba b43a b6be 212c 9ebe
00000330: 7420 333e d057 2abd fd34 6ebd 8cd0 83bc
00000340: 1a3c 9fbe 6f17 66be 3c32 f33e b2ce 4fbc
00000350: 5eb8 91bd 028c 48bd 2594 d4bd d480 5dbe
00000360: c79b aabe c321 fcbe ce49 623d 1ab6 8fbc
00000370: eddd a03e 7bfa e3bd 08e4 6cbe 4e7a 393e
00000380: f759 a1bb db8f 8ebd b0ea 693d d3e3 613e
00000390: 379f 563e b659 4e3e fb51 053e 05f1 12be
000003a0: 3dc7 0cbf 80c1 ac3e 56ee c33e ef15 563e
000003b0: d59f 173e 6990 95bb de4c b33e d39a 37bc
000003c0: c63b dabe e0e7 b3be 5bca 693e 01a2 b53e
000003d0: c33a 8f3e 964f 7cbd 205d a63c 6722 13bf
000003e0: 5694 5a3d 53a1 1c3f 0399 90be c463 f0be
000003f0: e234 1a3d 1106 fabd 25bf 343e 3ecf 193f

bias f4 [128]
0.14574662 -0.2480624 -0.030994121 0.05898205 0.015605636 -0.038157873 -0.12381714 -0.21731712
0.17235823 0.0061952253 -0.16135693 -0.14655378 0.15059535 -0.06195023 0.13047779 0.11258307
-0.13616505 0.065967955 0.060784556 0.0053243153 0.024711693 0.11282515 0.22754474 0.13339531
-0.25910813 0.011842801 0.1809455 -0.3085127 0.002315088 0.15892267 -0.13202752 -0.08127744
0.16296463 0.020144507 0.021545587 -0.14686632 0.20303303 0.0080481125 -0.0017091425 -0.023334222
0.11879672 -0.12017867 -0.018418746 0.08028973 0.08188769 0.10646451 -0.040246338 0.1257844
0.24549718 -0.22511953 0.12625086 -0.25452524 0.17897636 0.040540345 0.14760447 0.035492405
0.13979383 0.2548874 0.108703054 0.07149247 -0.078210324 -0.023478601 0.22714114 0.15867004
0.21635562 0.11580515 0.017897133 0.09415568 -0.102269016 -0.18696262 0.049139533 0.09630219
-0.09630848 0.18148799 -0.048276458 -0.24150391 -0.06849403 -0.21017703 -0.07072952 -0.09007115
-0.22422561 0.19519532 -0.08968482 -0.22533856 0.03703395 -0.1922316 0.08282261 0.19431451
-0.036500543 0.27291054 0.019044941 0.052164584 -0.14248545 -0.29378885 -0.19198473 0.051311035
0.2262477 0.14193247 -0.2955061 -0.1292223 -0.0068533737 -0.039487865 0.40234923 -0.3183923
-0.2843328 -0.07642001 -0.14302084 -0.18597993 0.19832137 -0.03556222 0.038804557 -0.06613696
-0.03801442 -0.003846283 -0.13591784 0.018628513 -0.07068219 0.19656359 -0.025088115 -0.3690878
-0.22946288 0.04391144 -0.12659179 -0.12092146 -0.15417449 -0.2255434 0.07736123 -0.19100074
00000000: 9a3e 153e 1204 7ebe 62e7 fdbc 2997 713d
00000010: c8ae 7f3c 6e4b 1cbd d793 fdbd 6188 5ebe
00000020: ad7e 303e 5101 cb3b c03a 25be 3212 16be
00000030: ab35 1a3e 86bf 7dbd f89b 053e f491 e63d
00000040: da6e 0bbe 351a 873d 3af9 783d 9877 ae3b
00000050: 2d70 ca3c df10 e73d 7d01 693e c898 083e
00000060: d2a9 84be 4f08 423c c749 393e 60f5 9dbe
00000070: bbb8 173b a0bc 223e 3932 07be c974 a6bd
00000080: 33e0 263e 1806 a53c 5f80 b03c 2064 16be
00000090: e4e7 4f3e 3bdc 033c 4e05 e0ba 6927 bfbc
000000a0: b24b f33d 3c20 f6bd e9e2 96bc f16e a43d
000000b0: bcb4 a73d 110a da3d 58d9 24bd a0cd 003e
000000c0: 9d63 7b3e bc85 66be e847 013e 2251 82be
000000d0: 9445 373e a20d 263d a025 173e 7c60 113d
000000e0: 1d26 0f3e 9a80 823e b59f de3d a56a 923d
000000f0: bc2c a0bd 3256 c0bc b097 683e 667a 223e
00000100: 548c 5d3e 402b ed3d 029d 923c b1d4 c03d
00000110: 6b72 d1bd 2173 3fbe 8946 493d 153a c53d
00000120: 613d c5bd fdd7 393e 89bd 45bd cd4c 77be
00000130: 9946 8cbd a638 57be a3da 90bd 3977 b8bd
00000140: 669b 65be 48e1 473e adac b7bd 27bf 66be
00000150: e9b0 173d 5cd8 44be e79e a93d 62fa 463e
00000160: 9881 15bd eeba 8b3e 2304 9c3c 88aa 553d
00000170: b5e7 11be 7e6b 96be a597 44be 852b 523d
00000180: 7aad 673e bf56 113e 934c 97be da52 04be
00000190: 4492 e0bb 07be 21bd b800 ce3e 5104 a3be
000001a0: 1294 91be 1882 9cbd 0e74 12be 8671 3ebe
000001b0: c214 4b3e b1a9 11bd 87f1 1e3d d172 87bd
000001c0: 02b5 1bbd ec11 7cbb 0c2e 0bbe d39a 983c
000001d0: d3c1 90bd f747 493e 9785 cdbc 13f9 bcbe
000001e0: 51f8 6abe 7bdc 333d 47a1 01be aca5 f7bd
000001f0: ebdf 1dbe d9f4 66be 916f 9e3d b395 43be

weight f4 [64, 128]
-0.18597238 -0.029611085 0.03393413 0.09218515 -0.19374143 0.05854927 -0.1555159 -0.10217616
-0.14711219 0.058971345 0.13852791 -0.03175548 -0.11660702 -0.2190141 -0.34786713 -0.20651856
-0.11588859 0.5091216 -0.4598631 0.1240225 0.115036115 -0.16046081 0.20830882 0.39221838
-0.12750657 0.2739006 0.26088467 0.22261988 -0.042948667 -0.16347024 -0.27531132 0.2816461
0.23230836 -0.025556836 -0.18458231 -0.22643916 0.112373464 0.0017101271 0.19691789 0.18974723
0.16321303 -0.032551613 -0.23755936 0.16049886 0.118484676 0.26461127 0.04011988 -0.4081873
0.30679947 0.110616796 0.2352059 0.056715667 0.14956899 -0.22406426 -0.0017227926 0.009404435
0.1091519 -0.22534293 0.022028875 0.27654064 -0.056519486 -0.2650945 0.08687182 0.12318927
0.23694547 -0.09566874 0.61926913 -0.17936067 0.18986633 0.029168809 -0.05734814 -0.077040665
-0.010295043 0.24432251 -0.10622973 0.14569291 -0.48474896 0.34212333 0.036144108 -0.59920454
-0.2768893 0.10296292 -0.27443922 -0.11086599 0.029626537 -0.1620183 0.03911873 -0.17505747
0.10410293 -0.019503139 0.07146091 0.25464043 -0.018435879 -0.087347165 -0.5854557 -0.11945782
0.4950861 -0.13703883 -0.12502971 0.24056026 0.37867945 0.13566414 -0.3831753 -0.12971407
-0.31108966 0.13391553 0.28363252 -0.32544148 0.37733606 0.3105575 -0.10184375 0.11893099
0.029310422 0.027326722 -0.14797856 -0.13580607 0.026875753 -0.39969355 -0.07586488 0.23948118
-0.32945225 -0.10024162 0.32624668 -0.41970152 -0.025541227 0.3959989 -0.41548398 -0.1400533
-0.159161 0.4589887 -0.04640486 0.08362743 0.10094804 0.32248852 -0.37606138 0.24722087
-0.11248205 0.087390244 -0.25539684 0.04969071 0.21682084 0.0035893219 -0.08893561 0.18315962
0.24639514 0.13376248 0.1163367 -0.0018278274 -0.03404645 0.20392056 0.08045423 0.19210194
0.6545671 -0.12120524 -0.55935514 -0.2960626 -0.26821718 0.12932685 0.36006573 0.27054718
0.102794535 -0.43029094 0.11640893 -0.48388305 -0.025114799 -0.18517835 -0.0444811 0.017464107
0.21758787 -0.2081059 0.20012353 -0.024332477 -0.12554143 -0.39652616 -0.1872819 0.45851058
-0.5153907 -0.10271708 0.1814388 -0.056472637 0.3266035 0.0045238533 -0.015046069 -0.7070822
0.12038169 0.099617384 -0.12513603 -0.44088197 -0.041824896 0.18367174 0.047940575 0.103785105
-0.37287292 -0.22420554 0.4545299 -0.1427013 0.073198915 -0.07635157 0.19061707 -0.47137502
0.33511114 0.39344057 -0.024612252 -0.04840454 -0.092409715 -0.31718692 0.37045223 -0.20654202
-0.42831528 -0.16191831 0.19925223 0.09350438 -0.1078353 0.14589949 -0.16443332 -0.0019163925
-0.41179106 -0.20351055 0.42028153 0.12783846 0.6529635 0.00043270888 -0.37281227 0.43237627
-0.3223098 0.06879208 -0.10313511 0.033171438 0.058401328 0.068546094 0.35873175 0.06728996
-0.22965457 -0.21768244 -0.092401356 -0.3008881 0.2951731 0.12829365 -0.040745392 -0.035486963
-0.14965077 -0.287267 -0.1020516 0.19226052 -0.25565058 -0.06145222 -0.11569617 0.26503137
0.23885937 0.025513647 0.17521922 0.28643364 0.1575006 -0.3010182 -0.29152802 -0.17944543
00000000: 8b6f 3ebe f292 f2bc 84fe 0a3d 91cb bc3d
00000010: 2764 46be 5cd1 6f3d 8f3f 1fbe bc41 d1bd
00000020: 94a4 16be f08b 713d 43da 0d3e 0912 02bd
00000030: a9cf eebd 3b45 60be a41b b2be 9a79 53be
00000040: ff56 edbd cb55 023f 2d73 ebbe 82ff fd3d
00000050: 0e98 eb3d d74f 24be e84e 553e d9d0 c83e
00000060: 1591 02be b33c 8c3e ad92 853e 77f6 633e
00000070: f1ea 2fbd be64 27be 9bf5 8cbe eb33 903e
00000080: 3ee2 6d3e 925c d1bc 2503 3dbe abdf 67be
00000090: 0f24 e63d 5826 e03a d8a4 493e 194d 423e
000000a0: 5121 273e d754 05bd c342 73be d059 243e
000000b0: 18a8 f23d 217b 873e be54 243d edfd d0be
000000c0: d214 9d3e 0f8b e23d d1d9 703e b04e 683d
000000d0: 9d28 193e 1a71 65be 54cf e1ba 0f15 1a3c
000000e0: 088b df3d 4cc0 66be e675 b43c bc96 8d3e
000000f0: fa80 67bd 77ba 87be dae9 b13d a84a fc3d
00000100: d5a1 723e f9ed c3bd 6c88 1e3f 53aa 37be
00000110: 526c 423e 6df3 ee3c e2e5 6abd 7fc7 9dbd
00000120: 8aac 28bc ae2f 7a3e f98e d9bd 8630 153e
00000130: 0431 f8be ca2a af3e d80b 143d 7865 19bf
00000140: 6fc4 8dbe 39de d23d 4c83 8cbe b50d e3bd
00000150: 5ab3 f23c 20e8 25be f63a 203d 4442 33be
00000160: eb33 d53d 0cc5 9fbc 195a 923d 3b60 823e
00000170: d706 97bc 12e3 b2bd 6de0 15bf 4da6 f4bd
00000180: ed7b fd3e e853 0cbe ca07 00be 6e55 763e
00000190: 46e2 c13e 8aeb 0a3e 8e2f c4be c4d3 04be
000001a0: 2547 9fbe 2721 093e 4838 913e 44a0 a6be
000001b0: 3132 c13e 6501 9f3e 7593 d0bd 1792 f33d
000001c0: 691c f03c 4adc df3c b187 17be bf10 0bbe
000001d0: 8a2a dc3c a2a4 ccbe 0c5f 9bbd 8e3a 753e
000001e0: f7ad a8be 7a4b cdbd ce09 a73e 1ee3 d6be
000001f0: d63b d1bc 5ec0 ca3e 51ba d4be 226a 0fbe
00000200: 1afb 22be 9100 eb3e 0613 3ebd dc44 ab3d
00000210: d9bd ce3d 371d a53e 1e8b c0be 7827 7d3e
00000220: fd5c e6bd a8f9 b23d 60c3 82be 7c88 4b3d
00000230: 4806 5e3e d43a 6b3b e023 b6bd 328e 3b3e
00000240: 024f 7c3e 08f9 083e f041 ee3d b693 efba
00000250: 4a74 0bbd 8dd0 503e 30c5 a43d 5fb6 443e
00000260: b691 273f 743a f8bd e631 0fbf 8495 97be
00000270: c353 89be 426e 043e 895a b83e 2985 8a3e
00000280: f185 d23d 184f dcbe ce67 ee3d 85bf f7be
00000290: 8dbd cdbc 659f 3dbe d031 36bd e310 8f3c
000002a0: 5bcf 5e3e b719 55be 2fed 4c3e e754 c7bc
000002b0: ef8d 00be 7a05 cbbe d4c6 3fbe e6c1 ea3e
000002c0: a5f0 03bf 555d d2bd 18cb 393e da4f 67bd
000002d0: 9338 a73e d53c 943b ca83 76bc 5703 35bf
000002e0: ad8a f63d 3304 cc3d a923 00be 48bb e1be
000002f0: 9550 2bbd 7214 3c3e 565d 443d 498d d43d
00000300: 33e9 bebe 2396 65be 25b8 e83e 4a20 12be
00000310: 50e9 953d 365e 9cbd 1f31 433e 1158 f1be
00000320: b093 ab3e 0b71 c93e a29f c9bc d743 46bd
00000330: 4e41 bdbd 5366 a2be eaab bd3e c07f 53be
00000340: 244c dbbe eacd 25be c708 4c3e 397f bf3d
00000350: c1d8 dcbd ad66 153e 3561 28be 762f fbba
00000360: 47d6 d2be 1265 50be 242f d73e 16e8 023e
00000370: 9e28 273f 34dd e239 40e1 bebe 6c60 dd3e
00000380: ca05 a5be dde2 8c3d 8038 d3bd c6de 073d
00000390: 3b36 6f3d e561 8c3d b0ab b73e 52cf 893d
000003a0: 912a 6bbe 25e8 5ebe ec3c bdbd 010e 9abe
000003b0: ee20 973e 695f 033e a4e4 26bd c75a 11bd
000003c0: 0d3e 19be a914 93be 6e00 d1bd f1df 443e
000003d0: a2e4 82be 53b5 7bbd 1df2 ecbd 31b2 873e
000003e0: 8d97 743e ff01 d13c ab6c 333e 6ea7 923e
000003f0: d647 213e 0f1f 9abe 2943 95be 8bc0 37be

bias f4 [64]
0.12994312 0.23733176 -0.07725819 -0.075835936 0.19098887 -0.25149772 -0.052085146 0.13423935
0.12443281 -0.33375078 -0.09453904 -0.22898015 -0.09805386 -0.31402025 -0.10389416 -0.14771512
-0.20564346 -0.14811437 0.081347205 0.09441629 -0.15144154 0.11266052 0.020140605 -0.05645865
-0.019479267 0.29963303 0.1499975 -0.12823093 0.14178355 0.069281854 0.2488304 0.19069245
-0.108630165 -0.11629527 0.1674066 0.008889076 -0.1818136 0.24385162 0.108695276 0.20183979
-0.1989934 0.019668428 -0.051038325 0.10851196 -0.18690173 0.013407726 0.19782355 -0.25963292
0.11590491 -0.22470723 0.07030332 -0.32832095 -0.0043878113 -0.04529438 0.058534235 -0.011362998
0.051662873 0.033471588 0.20814554 0.066115096 -0.36852643 -0.0060601546 -0.032568973 0.09995979
00000000: cf0f 053e 1907 733e 8b39 9ebd df4f 9bbd
00000010: 9692 433e 4fc4 80be 3c57 55bd 0a76 093e
00000020: a1d6 fe3d 62e1 aabe af9d c1bd c679 6abe
00000030: 76d0 c8bd 43c7 a0be 76c6 d4bd a242 17be
00000040: 3394 52be 4bab 17be 5d99 a63d 545d c13d
00000050: 7e13 1bbe 8fba e63d e9fd a43c 2f41 67bd
00000060: fc92 9fbc 8069 993e f298 193e f84e 03be
00000070: b52f 113e a5e3 8d3d 65cd 7e3e e244 433e
00000080: 7e79 debd 372c eebd a36c 2b3e 7da3 113c
00000090: 582d 3abe 3db4 793e a19b de3d 17af 4e3e
000000a0: edc4 4bbe af1f a13c 900d 51bd 853b de3d
000000b0: 2b63 3fbe 14ac 5b3c 4292 4a3e 9bee 84be
000000c0: 8e5f ed3d a719 66be 30fb 8f3d af19 a8be
000000d0: a1c7 8fbb 9a86 39bd 98c1 6f3d de2b 3abc
000000e0: 739c 533d 8119 093d 1b24 553e 5a67 873d
000000f0: 7faf bcbe 4394 c6bb 0b67 05bd b8b7 cc3d

weight f4 [6, 64]
0.056701668 -0.30509695 -0.2344258 0.040283605 -0.024815276 0.4345377 -0.34756172 -0.4348265
-0.20400599 -0.5125281 0.09167556 0.1824804 -0.14223364 -0.0006502155 -0.5043155 0.7734371
-0.16386172 -0.37832478 0.6943502 0.3282227 0.09141262 0.224076 0.14267708 0.013858882
0.28274068 0.29189458 0.5378153 -0.7221194 1.007555 0.74998254 0.7241886 0.076334395
-0.59401596 0.40446365 0.27274325 -0.38397083 -0.16259941 0.5481795 0.032970317 0.3690035
-0.6228853 0.5136244 -0.43083638 -0.04656105 0.19535504 0.44848722 -0.3577233 -0.41595563
0.4725316 -0.33868062 -0.21090434 0.18442652 0.60397434 0.15629035 0.093028866 0.099771805
-0.08349938 -0.85645384 -0.4170742 -0.08520521 -0.323038 -0.36511618 0.016913911 0.26572624
-0.72035307 -0.37511775 0.38745543 -0.86075366 0.5452256 -0.51233494 -0.55505705 0.45121345
-0.21462324 -0.002929514 0.22540888 -1.0069729 -0.26651388 -0.5400061 0.14099975 -0.36251867
0.26359332 -0.533019 -0.31083852 0.17462397 -0.9057653 0.11353784 0.13487554 -0.50235045
-0.36902758 0.27315626 0.059869044 -0.13149847 -1.013051 -0.28013086 -0.44875085 -0.24328063
-0.49002188 -0.7131506 0.488369 -0.32800537 0.0467763 0.032871842 -0.3900565 0.18561779
0.12191209 0.34069926 -0.012088643 0.38112321 -0.64479244 -0.24406825 0.45313296 0.46340457
-0.06061125 -0.31307393 0.4815871 -0.48549163 -0.33605677 -0.26648134 0.5701518 -0.5330443
0.0002454784 0.6481236 0.24757954 0.065984376 -0.048361454 0.59561336 -0.4575707 -0.30355233
-0.04548455 0.6928011 -0.63383466 0.3225308 -0.98676026 0.15871525 1.1415725 0.22727008
1.0308162 0.08205014 -0.41509524 0.732633 0.4460868 0.20986581 0.3217013 -0.583694
-0.6832542 0.45278466 -0.41723147 -1.0628973 0.4771284 -1.1944251 -0.46853694 0.77946705
0.57495904 0.13631636 -1.09088 0.7494893 0.15047897 -0.38847765 -0.3099173 0.6397731
0.8822301 0.008843218 -0.7844501 0.4187656 0.15845536 0.053428993 0.26461887 -0.45204425
-0.26022255 -0.8237934 0.35114565 -0.20394759 0.26662806 -0.34597328 -0.94992185 -0.50976235
-0.38573772 0.5891016 -0.2627611 -0.0997083 0.51855075 -0.19726892 -0.7868674 -0.3363445
0.6731513 0.27133363 0.64834756 0.20684014 0.39361566 -0.19579811 0.721582 0.5846132
0.27041966 0.46833938 -0.9176013 0.3749208 -0.13269493 -0.067843385 -0.050479017 0.5103752
0.20173259 0.33363438 -0.33526313 -0.2113431 0.48580706 -0.039847884 0.5540225 -0.09856809
0.19775423 1.263374 0.0700076 0.010384287 0.027510816 0.8775655 0.40048018 -0.04046688
-0.9562892 -0.03163459 0.22137623 0.02154864 -0.21741062 -0.18922053 -0.12744755 -0.14858289
0.5456104 0.5626364 0.20792201 0.15088472 -1.2502639 -0.020082768 0.37468815 -1.1171156
0.36204162 -0.06449207 -0.15098257 -0.1453661 0.52432364 0.02676812 0.5315374 -0.23832533
-0.18688482 0.71321946 0.046107892 -0.7914415 -0.012471068 0.66190195 0.06618358 0.6081941
-1.1414305 0.1489505 -0.046423014 -0.94103587 0.06911871 0.48489398 -0.4181994 0.37560534
00000000: 0240 683d ab35 9cbe 510d 70be 6c00 253d
00000010: 6849 cbbc ba7b de3e 9cf3 b1be 94a1 debe
00000020: f2e6 50be 0b35 03bf 65c0 bb3d 24dc 3a3e
00000030: b2a5 11be 3973 2aba d21a 01bf f9ff 453f
00000040: 5ecb 27be c9b3 c1be efc0 313f ce0c a83e
00000050: 8a36 bb3d 2e74 653e f119 123e 5d10 633c
00000060: 63c3 903e 3573 953e 43ae 093f d1dc 38bf
00000070: 90f7 803f dbfe 3f3f 6d64 393f 3555 9c3d
00000080: 6e11 18bf dc15 cf3e 01a5 8b3e d397 c4be
00000090: 7680 26be 7e55 0c3f e20b 073d 07ee bc3e
000000a0: 6975 1fbf e47c 033f 9696 dcbe cdb6 3ebd
000000b0: 270b 483e 1ea0 e53e 8227 b7be 23f8 d4be
000000c0: a9ef f13e 8c67 adbe 4ff7 57be 4eda 3c3e
000000d0: 109e 1a3f 940a 203e eb85 be3d 2955 cc3d
000000e0: b901 abbd 8f40 5bbf c08a d5be 1280 aebd
000000f0: 3d65 a5be 82f0 babe 0b8f 8a3c 450d 883e
00000100: 0f69 38bf 6f0f c0be 8f60 c63e 5a5a 5cbf
00000110: e893 0b3f 6228 03bf 3818 0ebf 7305 e73e
00000120: 32c6 5bbe 17fd 3fbb 96d1 663e 7de4 80bf
00000130: 8274 88be d73d 0abf 3d62 103e 0c9c b9be
00000140: b4f5 863e ef73 08bf 3a26 9fbe a0d0 323e
00000150: 3ce0 67bf 8786 e83d d01c 0a3e 0a9a 00bf
00000160: 2ff1 bcbe 23db 8b3e 3e39 753d 89a7 06be
00000170: a8ab 81bf 506d 8fbe acc2 e5be 8f1e 79be
00000180: 26e4 fabe 0a91 36bf 800b fa3e 52f0 a7be
00000190: 8198 3f3d a0a4 063d 7cb5 c7be 9712 3e3e
000001a0: 0cad f93d 2270 ae3e 720f 46bc 9522 c33e
000001b0: 1e11 25bf 07ed 79be 0b01 e83e 5d43 ed3e
000001c0: 8143 78bd 3a4b a0be 9692 f63e 5c92 f8be
000001d0: a20f acbe 3e70 88be 78f5 113f 9775 08bf
000001e0: 8eb3 8039 6eeb 253f 7e85 7d3e d122 873d
000001f0: a916 46bd 1e7a 183f b546 eabe 366b 9bbe
00000200: 024e 3abd 6a5b 313f fd42 22bf c222 a53e
00000210: 529c 7cbf 4086 223e 0c1f 923f 7db9 683e
00000220: c9f1 833f e709 a83d 5d87 d4be d68d 3b3f
00000230: 7d65 e43e 10e7 563e 08b6 a43e f86c 15bf
00000240: bfe9 2ebf 64d3 e73e 5d9f d5be 050d 88bf
00000250: 2c4a f43e ece2 98bf 13e4 efbe 278b 473f
00000260: 8430 133f 8496 0b3e f5a1 8bbf 88de 3f3f
00000270: 2917 1a3e 8be6 c6be 7bad 9ebe 2bc8 233f
00000280: d5d9 613f 25e3 103c b9d1 48bf 7268 d63e
00000290: 1f42 223e 5cd8 5a3d 207c 873e 5872 e7be
000002a0: e43b 85be 20e4 52bf 5dc9 b33e a3d7 50be
000002b0: 7983 883e 6923 b1be 142e 73bf c97f 02bf
000002c0: 6a7f c5be 5dcf 163f 9f88 86be dd33 ccbd
000002d0: bebf 043f dd00 4abe 2470 49bf 5935 acbe
000002e0: a553 2c3f 3eec 8a3e 1bfa 253f e7cd 533e
000002f0: fe87 c93e 4d7f 48be 99b9 383f 36a9 153f
00000300: 7274 8a3e 2eca ef3e ebe7 6abf 9ef5 bf3e
00000310: 2ee1 07be 79f1 8abd 16c3 4ebd f3a7 023f
00000320: fd92 4e3e 20d2 aa3e 9ca7 abbe 536a 58be
00000330: b4bb f83e 8937 23bd 6bd4 0d3f 11de c9bd
00000340: 1680 4a3e 3db6 a13f 2560 8f3d db22 2a3c
00000350: 5d5e e13c 22a8 603f bd0b cd3e 99c0 25bd
00000360: 5ecf 74bf 4693 01bd 73b0 623e c686 b03c
00000370: e4a0 5ebe 07c3 41be 9c81 02be 1d26 18be
00000380: 20ad 0b3f f008 103f 82e9 543e 8681 1a3e
00000390: a608 a0bf 9e84 a4bc 20d7 bf3e a5fd 8ebf
000003a0: 855d b93e 6b14 84bd 2d9b 1abe dada 14be
000003b0: 133a 063f d148 db3c d612 083f 8e0b 74be
000003c0: bc5e 3fbe 8d95 363f a1db 3c3d e99b 4abf
000003d0: 7353 4cbc 6872 293f 428b 873d 9cb2 1b3f
000003e0: 651a 92bf 7b86 183e 0f26 3ebd bae7 70bf
000003f0: 1c8e 8d3d 0644 f83e 3b1e d6be 584f c03e

bias f4 [6]
-0.053793944 0.08163803 0.048043877 -0.08384939 -0.33344048 -0.15269002
00000000: 0a57 5cbd d731 a73d a8c9 443d 3bb9 abbd
00000010: b6b8 aabe c65a 1cbe
