src/learning/models/64_64_64_notouch_800epoch.pt (torch, 39759 bytes, 8 tensors)

weight f4 [64, 5]
000000 3b 38 62 be 23 59 55 be 89 cd 91 be a4 a5 5d 3f
       -0.22091763 -0.20834784 -0.28477123 0.8658087
000010 65 45 a6 3e 3d f5 f3 3e ca 3a 3f be 04 f4 65 be
       0.3247482 0.4764804 -0.1867477 -0.22456366
000020 3e 99 c4 3e ff ce 2c 3f 76 57 1a bd 49 95 87 bc
       0.38398165 0.6750335 -0.037681065 -0.016550677
000030 aa 45 1c be 84 0e 44 be 4d 85 21 bf 86 98 0e bd
       -0.1526095 -0.19146162 -0.63094026 -0.034813426
000040 59 88 b8 bd 71 04 49 3d d6 d9 34 bd 47 ee 60 bf
       -0.09010381 0.0490765 -0.044153057 -0.8786358
000050 01 97 13 bf 15 c6 4d be 63 fd 09 3f 7f bc 63 be
       -0.5765229 -0.20095094 0.5390226 -0.22239874
000060 be a5 c2 be b4 57 fe bd 38 a6 05 3f 59 04 03 bf
       -0.38017076 -0.12419072 0.52206755 -0.5117851
000070 b3 ea 64 be 65 58 cd 3d 07 0e d5 bd a7 f0 e5 3e
       -0.22355156 0.100266255 -0.10403066 0.44910166
000080 ed c8 b1 3c 1a 53 c8 3e df 34 3b 3f 3e 53 69 be
       0.021702254 0.391259 0.7312755 -0.2278566
000090 d4 f7 b4 bd a6 8b 4f 3e d3 00 a1 3d 6b e4 e4 3d
       -0.08836332 0.20268115 0.07861485 0.1117638
0000a0 91 75 2c bd 4f 44 bb be ca 3c 9a be 74 a0 6a be
       -0.042104308 -0.36575553 -0.30124503 -0.2291277
0000b0 1b 21 18 bf 2f 41 78 bc af 80 11 3f 84 a3 60 3d
       -0.59425515 -0.01515226 0.5683698 0.05484344
0000c0 81 e8 5c 3e 9d 38 9a be d7 33 0a be 7b 6a 13 be
       0.21573068 -0.30121318 -0.13496338 -0.14396088
0000d0 7e 63 36 be 29 16 d9 3d 5b 7d 8f bf 8f 3b ba bd
       -0.17811391 0.1059993 -1.121013 -0.09093391
0000e0 80 c2 09 bf 83 c6 84 bc b0 c9 d7 be 2d e2 5b 3f
       -0.5381241 -0.016207939 -0.42146063 0.8589199
0000f0 6e 41 fe 3b 01 a9 b3 bd d9 9d 44 be 4d c1 87 bf
       0.0077592647 -0.08772469 -0.19200839 -1.0605866
000100 41 0c b2 be 5e c1 13 3f 11 0d cf 3e 91 a4 f6 3b
       -0.34774974 0.5771693 0.40439656 0.007526942
000110 26 6a a5 3d 79 4d 19 bf 80 23 3e 3e d8 87 59 3e
       0.08076887 -0.5988384 0.1856823 0.21243227
000120 3e f0 fc 3d ff 21 68 3e 77 55 fd be 24 5e a3 3f
       0.1235051 0.22669218 -0.49479267 1.2763104
000130 e5 81 f6 3e d1 45 47 3d f7 99 47 be fb fb 70 bd
       0.48145977 0.048650566 -0.19492327 -0.058834057
000140 9d 06 95 be d8 bc 27 3e 2e 39 96 be 88 14 84 be
       -0.29106608 0.16380632 -0.293405 -0.25796914
000150 9c 3b 1f 3f 0c 0a a1 3d 71 bb 95 3e 45 62 23 3e
       0.6220033 0.078632444 0.2924457 0.15955456
000160 29 e6 15 bf c3 0e 38 bf ec 3b f3 3e e2 47 d1 bd
       -0.5855432 -0.71897525 0.47506654 -0.10218789
000170 dc a3 39 bf 8b 3a a5 3d 4f 00 50 bf a1 69 78 bd
       -0.72515655 0.08067807 -0.8125047 -0.06064761
000180 1f 4d 73 3e 0d 1f 19 be 6b f6 b6 be ca 23 92 3f
       0.23759888 -0.14953251 -0.35734877 1.1417172
000190 3f 5f df 3d 74 15 53 bf 49 0f ab 3e a5 6f 63 3e
       0.109068386 -0.8245461 0.334101 0.22210558
0001a0 3f 34 de 3e 32 c1 de 3c ab 7b 29 be d3 a7 d9 3d
       0.43399236 0.027191732 -0.16551082 0.10627713
0001b0 2d 8f d1 be 7c 95 2a 3f bd bf e0 3c 5b 29 ce be
       -0.40929547 0.66634345 0.027435178 -0.40265927
0001c0 67 09 01 3d 0a b2 ea be 67 be 0f 3f 95 c3 b8 3e
       0.031503107 -0.45838958 0.56149906 0.36086717
0001d0 1b 59 11 be aa 22 23 3e 99 29 e3 3e 89 91 58 be
       -0.14194147 0.15931192 0.44367674 -0.21149267
0001e0 9c db 0e 3e 03 71 e7 be d3 9c 38 bf d6 3c 3d 3e
       0.13950962 -0.4520341 -0.72114295 0.18480238
0001f0 e0 f2 b8 3e 74 2a b2 3e 15 d2 19 3f 8a 5c c2 bd
       0.361228 0.34798014 0.60086185 -0.09490307
000200 c9 50 6f bd 9d c4 ac be c2 e1 71 3d 48 fb 0f be
       -0.058426652 -0.33743754 0.05905319 -0.140607
000210 5a 55 87 bf 4a 5e f0 3d 40 07 14 3f 05 3f 5c 3e
       -1.0572922 0.11736734 0.5782356 0.21508415
000220 49 5c 50 3f 50 c8 06 3e 70 3f d8 be 25 1e 9d be
       0.81390816 0.1316235 -0.422359 -0.3068706
000230 bf b7 4f be 68 cf e2 bd f4 8f e4 bc ec ce 34 bf
       -0.20284937 -0.11074716 -0.027900673 -0.7062824
000240 c1 60 1a be 67 6c 2f be 3e b4 8e 3d 5a b8 8d 3e
       -0.15075971 -0.17131196 0.06967972 0.27679712
000250 10 c6 15 3e 95 cd 8c 3f 84 67 72 3e a0 95 db 3d
       0.14626336 1.1000239 0.236723 0.10721898
000260 26 81 a4 3e 46 2b b3 be 2b 2a cc be b5 06 d1 3d
       0.32129782 -0.34993953 -0.39875922 0.102063574
000270 f8 5d 70 be 4b e2 0e bf 45 a9 d2 be 79 7b 3e bd
       -0.23473346 -0.55814046 -0.41144767 -0.04650447
000280 fa a4 8e be 7a 6e 82 3e ff a7 8c be 47 ab 29 bb
       -0.27860242 0.25474912 -0.2747192 -0.0025889443
000290 9c 43 15 bf 56 2f a0 be 1a 74 3c bf 05 c2 87 be
       -0.5830629 -0.31286114 -0.73614657 -0.26515213
0002a0 81 d3 48 be 3d a3 58 bf e1 39 0e 3e a4 c8 ed bd
       -0.19611932 -0.8462408 0.13889267 -0.11610535
0002b0 ac 01 76 bf b4 b4 1a bf a2 bf 99 3e cd c2 ac 3e
       -0.960963 -0.6043198 0.30029017 0.3374237
0002c0 1a 8c 8e 3e 69 2c 67 3e 74 f4 cf be 02 ed ff bd
       0.27841264 0.22575535 -0.4061619 -0.124963775
0002d0 e9 97 1f 3e 56 69 a6 be e9 38 00 3e 53 88 f6 3e
       0.15585293 -0.3250224 0.1252171 0.48150882
0002e0 3e 3a 6e 3f 94 a7 3f 3e a8 7d a2 be 25 26 46 be
       0.9305762 0.1871627 -0.31736493 -0.19350488
0002f0 c1 c7 e5 be 6f bd 84 bf 86 5b 3e bc b7 28 1c be
       -0.44878963 -1.037031 -0.011618501 -0.15249906
000300 2f 90 d8 3b 46 fb 84 bc 14 5d 61 bf d6 af 54 3e
       0.006608985 -0.016233098 -0.8803265 0.20770201
000310 b8 61 05 3e c2 ec 5b 3e be 3e eb 3d 29 73 8c 3e
       0.13025558 0.21477035 0.114865765 0.2743161
000320 dc 67 91 be 05 08 4b bf fa f1 d7 bd 16 c9 a8 3d
       -0.2839955 -0.7930911 -0.105442 0.08241479
000330 22 2d 1d bf 9d b9 43 3e 88 b3 21 be 13 4c 13 be
       -0.6139699 0.19113775 -0.15791142 -0.14384489
000340 3b ba c5 3e 29 a4 53 be 88 c6 12 3d db 22 77 bd
       0.38618645 -0.20668091 0.035833865 -0.060335975
000350 fd 30 eb 3e 89 09 0d 3f 13 49 7e 3d 69 b8 a0 bd
       0.45935813 0.55092674 0.062081408 -0.078476734
000360 3d d6 d2 3d 9e b6 94 be 08 c4 61 3f c0 4a 21 3f
       0.10294769 -0.29045576 0.88189745 0.63004684
000370 90 6a 1e 3f 37 90 1b 3d 32 bd ce 3c e1 c6 48 be
       0.6188135 0.03797933 0.0252367 -0.19607116
000380 0f 45 6d bf 47 17 23 bf 68 e6 a3 3c 44 15 8e 3f
       -0.926835 -0.63707393 0.020007327 1.110024
000390 00 8d 5d bf 4e 6c 1d bf b5 38 49 3e 92 3c f2 3d
       -0.86543274 -0.61493385 0.19650538 0.11827959
0003a0 03 9a cf 3e e9 92 2e 3e 41 65 cf 3e c6 2d d2 3e
       0.4054719 0.1704823 0.40506938 0.41050547
0003b0 88 12 b5 be a6 24 41 bd 2c 43 9a 3e d7 29 ed 3d
       -0.353657 -0.04715409 0.30129373 0.11580246
0003c0 be e6 f8 bd a4 7a 47 3d 5c 67 55 3e 25 f0 06 3e
       -0.121533856 0.048700944 0.2084021 0.13177545
0003d0 cc dd f0 bd d8 58 2e 3e 68 d3 95 be 42 16 50 3e
       -0.117610544 0.17026079 -0.29262853 0.2032099
0003e0 2c d9 08 3f 93 01 e4 be 5f bc 42 3e 2c 14 82 bc
       0.5345638 -0.4453245 0.1901717 -0.01587876
0003f0 88 4a b3 bf b7 1c a9 bd 57 5b f3 3e 41 8f 0b bd
       -1.400712 -0.0825743 0.47530624 -0.034072164

bias f4 [64]
000000 e2 2b 0b bf 03 97 2b bf 59 2f 08 bf 1c 93 91 3f
       -0.54363835 -0.670273 -0.53197247 1.1373019
000010 ee 59 bf 3e 09 bf 41 3e 75 53 a9 be d4 1c 62 3f
       0.37373298 0.1892053 -0.33071485 0.8832524
000020 e4 a4 89 3f f5 0a db 3e 98 54 7b 3f 6f 91 9b 3e
       1.0753446 0.42781797 0.98175955 0.30384395
000030 36 e4 2f 3f 55 c8 6d 3d 9d 74 3f bf 81 1c 1d 3f
       0.687076 0.05805238 -0.7478731 0.6137162
000040 54 4a 14 bf f9 f3 01 3f 3f e7 88 3f b1 b0 73 bd
       -0.57925916 0.507629 1.0695571 -0.059494678
000050 4b cf 01 3e 97 13 a5 be 4d 28 eb 3e 86 bc 01 3f
       0.12676732 -0.32241508 0.45929185 0.5067829
000060 42 25 83 3d 4e 3e 08 3f 7b 2a 1e 3f c5 82 11 3e
       0.06403591 0.5322007 0.6178357 0.14210041
000070 26 70 a0 3e c0 72 b0 be 64 e1 5d 3e 9a 9e 89 be
       0.31335562 -0.34462547 0.21668011 -0.26878816
000080 79 80 37 3f d7 2f f1 3e 4c 96 8e be ed 5c b2 3d
       0.7168041 0.4710681 -0.27849042 0.087091304
000090 b4 9f 83 3e a0 a7 e3 3e 6b 09 d6 be d0 ef 85 bf
       0.2570778 0.44463825 -0.4180406 -1.046381
0000a0 79 63 d5 3d 54 4b 07 3f 6d 37 3b bf 40 bc d3 bd
       0.104193635 0.52849317 -0.7313145 -0.1033864
0000b0 0f 93 74 3f 40 d5 8f 3e 0b ad 94 be e5 ec 0f bf
       0.95536894 0.28092384 -0.2903827 -0.5622085
0000c0 21 2d b1 3f 0e 48 f1 3e ea e5 d7 be fe ed 76 3f
       1.3841897 0.47125286 -0.42167598 0.964569
0000d0 95 d5 df be 72 b3 17 bf 45 af ca 3c 7f 3c b6 3e
       -0.43717638 -0.59258187 0.024741778 0.3559303
0000e0 92 0c 0c be ed c4 04 3f 7b 8d 71 3d c1 57 0d 3f
       -0.1367667 0.51862985 0.058972817 0.55212027
0000f0 a3 36 6e bf c6 5e 89 3f 66 81 1f bf 02 23 ab be
       -0.9305212 1.0732048 -0.6230682 -0.33425146

weight f4 [64, 64]
000000 56 1e b9 3e c0 3f 9a bd 6f 6c 83 be 52 89 14 3d
       0.36155957 -0.075316906 -0.25668666 0.03626377
000010 ae b0 4c 3e 8c 3c a6 3d d8 2a 94 bd ef de 4c 3e
       0.19989273 0.08117017 -0.07234734 0.20006917
000020 31 d8 04 3a cd a5 78 3e f0 62 26 3e 8a ad 63 3e
       0.00050676154 0.24281998 0.16248679 0.22234169
000030 2e 45 db bd f2 94 1e 3e 27 6a 15 3e 60 4b dc 3e
       -0.10706554 0.15486506 0.14591275 0.43026257
000040 d8 80 b3 be 43 a6 5b 3e ac d0 29 3e b2 51 05 be
       -0.35059237 0.21450143 0.16583508 -0.13019446
000050 10 4b f5 bd b7 5c 50 3e 85 14 ff 3d bd 2d e0 3e
       -0.11977208 0.20347868 0.12455086 0.43784896
000060 ac a3 84 3d 73 52 3b bd dc 22 59 bb 86 ca 52 be
       0.064765304 -0.045732927 -0.003313235 -0.20585069
000070 a9 8f 31 3e 84 9b b2 be d1 82 2b bc f5 8b 08 be
       0.17339958 -0.34884274 -0.010468201 -0.1333464
000080 b6 39 a2 3d 3c 58 8a 3d 12 9a 34 be d9 8a b9 be
       0.07921164 0.067551106 -0.17636898 -0.36238745
000090 44 5c 47 3f 2b ee ce 3e 27 92 b7 3b 2d c8 8f bd
       0.7787516 0.40416083 0.0056021395 -0.070206024
0000a0 30 2d da bd 0f 5f a4 3d cf 9b 47 be 51 47 f3 3e
       -0.1065315 0.080259435 -0.1949303 0.47515348
0000b0 ca 07 88 bd d2 03 13 be 8f 13 26 3e f8 d2 48 be
       -0.06642111 -0.14356926 0.16218399 -0.19611728
0000c0 90 a8 9d 3d 83 4a 5e be 9b c2 30 be 15 55 34 3f
       0.07698166 -0.21708111 -0.17261736 0.70442325
0000d0 82 cc 55 be 32 59 81 3e 45 8a 76 be 15 f6 ba be
       -0.20878795 0.25263363 -0.24076183 -0.3651587
0000e0 b2 72 a2 3d d4 f3 07 be 21 96 e1 3d 8d b8 91 3c
       0.07932033 -0.13276607 0.11014963 0.017788196
0000f0 b7 ad a5 be 80 e4 44 3e 77 4c 90 bd 22 42 7b be
       -0.32359096 0.19227791 -0.070458345 -0.24536946
000100 dc c3 27 bd e9 a3 3b be 3c 33 78 be d3 b5 9f bd
       -0.04095827 -0.18324246 -0.24238294 -0.07798352
000110 09 aa 4c be d0 f1 28 bf f7 ea a6 be 86 1d ac bd
       -0.19986738 -0.65993977 -0.3260114 -0.08404069
000120 9b ae d0 3d 9a 84 15 bf 55 16 3e bf c0 75 b4 3e
       0.10189553 -0.5840546 -0.74252826 0.35246086
000130 2b 19 20 be a5 ec 8c be 6c 01 c7 3d 65 b9 fe bd
       -0.15634601 -0.27524295 0.09717068 -0.12437705
000140 00 ee 04 3e 49 73 78 bd 70 51 c2 3e 1a a1 d7 bd
       0.12981415 -0.06065682 0.37952757 -0.105287746
000150 4e 03 93 3d 51 57 43 3d bb 97 2f 3f 70 55 55 be
       0.07178365 0.047690693 0.685909 -0.20833373
000160 9c 1b fc 3e bf cb 4b be 82 b2 6e 3e 87 03 81 be
       0.49239814 -0.19901942 0.23310283 -0.25198004
000170 75 47 e2 bc 51 d0 a0 3d 0d 8a 4f 3d c4 09 51 3e
       -0.027621964 0.07852233 0.050668765 0.20413882
000180 e9 f6 25 3e 69 1e 87 be ba 66 2f be b6 3d 11 3e
       0.1620747 -0.2639039 -0.17129031 0.14183697
000190 68 ad db 3c c7 cf b6 bd 9d 79 0f 3d 03 ca 60 3e
       0.026816085 -0.08926349 0.03502809 0.21952061
0001a0 d9 51 b5 bd 3c 00 64 3e 61 c0 b7 bd f3 ed fc 3d
       -0.08853502 0.22265714 -0.0897224 0.12350073
0001b0 fd 48 14 3d f6 1c 23 bd be 75 b7 bd 59 96 c3 3e
       0.03620242 -0.03982254 -0.089580044 0.38200644
0001c0 3b bf bb bc 57 17 fc bc 9e 10 a3 be 65 13 20 be
       -0.022918334 -0.030772848 -0.31848615 -0.15632398
0001d0 14 fb a5 3d 6c e6 07 be 22 b8 24 bf 38 4b 5a 3d
       0.0810453 -0.13271493 -0.64343464 0.05329439
0001e0 5a 41 5c 3e 0f d6 25 3e 24 3f 05 be d8 21 0a be
       0.21509305 0.16194938 -0.13012367 -0.13489473
0001f0 4c 06 48 3e a7 c9 fd 3d bf c6 10 3e 7e ef 78 3e
       0.19533652 0.12391978 0.14138316 0.24310109
000200 96 b6 9f 3d 34 4b e7 bd 82 34 af 3e 25 36 67 3e
       0.077984974 -0.11293641 0.34219748 0.22579248
000210 54 e7 ca be de 5e dd bd 51 9a 45 bf 75 aa 58 be
       -0.39629614 -0.1080911 -0.77188593 -0.21158774
000220 8f eb 64 3d 84 ea 19 be 42 f5 89 bb e9 5f 9a 3c
       0.05588871 -0.15030867 -0.004210145 0.018844562
000230 8a 55 29 3e 80 e7 8c bd 54 df a9 bd c1 63 d5 3d
       0.16536537 -0.068800926 -0.082945496 0.10419417
000240 76 bc e7 3c 35 6a 99 3e 8e 0d c5 3e b5 89 10 be
       0.028288107 0.29963842 0.38486904 -0.14115031
000250 93 b0 7a be be 3a d6 be 7b 88 06 3f 64 96 1c 3d
       -0.2448142 -0.41841692 0.52552 0.03822936
000260 24 04 3f be 4d fa 1f bd 31 8b 04 bf 80 ae 50 be
       -0.18653923 -0.039057065 -0.5177489 -0.20379066
000270 66 72 03 3e f9 24 71 3e 3c 49 8b 3d 45 f1 02 3e
       0.12836608 0.2354926 0.06801078 0.1278735
000280 cd 25 7e be 47 44 f0 3d 87 07 23 3e 61 51 09 be
       -0.24819107 0.11731773 0.1592084 -0.1340995
000290 37 2a f7 be e9 f2 8d 3d 49 fa 1d 3f ce ab d4 bd
       -0.48274395 0.06931097 0.6171003 -0.10384332
0002a0 c3 cd 11 3e a0 b4 7a 3d d7 11 57 3e b8 06 69 be
       0.14238648 0.061207414 0.21002899 -0.22756469
0002b0 5f 82 ce 3c bb 2d 6b 3e 1a 5c a1 be 9c 4d 4e be
       0.02520865 0.22966664 -0.3151558 -0.20146793
0002c0 0a e7 5c bd 75 d4 19 be 28 71 1a be 30 08 97 3d
       -0.053931274 -0.15022452 -0.15082228 0.073746085
0002d0 14 4b c2 bd cf 65 bd 3d 9b 57 11 3f d5 c7 cc be
       -0.09486976 0.09247934 0.567743 -0.3999621
0002e0 be 73 4f be 17 29 84 bd 23 5b 80 be 80 3f 93 3e
       -0.20258996 -0.0645315 -0.25069532 0.28759384
0002f0 ae 12 83 3e 5d ef a2 3e d1 36 45 be 74 39 54 be
       0.2560019 0.31823245 -0.19259192 -0.20725042
000300 e8 fa e5 3d 34 93 45 3e 5e bd 8e be 27 41 9e be
       0.11229497 0.19294435 -0.2787885 -0.30909082
000310 05 ed 3f be d7 3b 30 bf d8 5f ac be 6e f1 c0 be
       -0.1874276 -0.6884131 -0.33666873 -0.37684196
000320 77 e5 8e bd dc 11 d8 be 59 08 4e 3d c1 e2 a1 be
       -0.06977361 -0.42201126 0.05030093 -0.31618312
000330 eb 97 90 bf 99 eb 25 3e c1 69 84 3e 35 83 98 be
       -1.1296362 0.16203155 0.25861934 -0.29787603
000340 23 b0 fb 3e 97 cf 84 be 92 81 42 bf b7 4f fc be
       0.4915782 -0.25939628 -0.7597896 -0.49279568
000350 20 80 bf 3e 1f c9 13 be 8a d4 48 be a4 06 7a bd
       0.3740244 -0.1443219 -0.19612327 -0.06104149
000360 d2 0b b1 3d 33 09 4f 3e 57 aa cf be 47 15 73 be
       0.08644833 0.20218353 -0.40559646 -0.23738585
000370 78 0b 47 bd 10 97 d6 3e 1e 6f 82 be b0 3f d5 bd
       -0.04859492 0.41912127 -0.254754 -0.10412538
000380 64 f5 80 3e 4d fd 96 be 80 ff f7 be 28 f8 2e bd
       0.25187218 -0.29490128 -0.4843712 -0.04271713
000390 be f0 08 3e de 6f 32 bf 3e b8 1d 3e d2 3a 05 be
       0.13373086 -0.69701946 0.15402314 -0.1301072
0003a0 9e 1a 7d bd 3d 45 8d be 41 28 1d 3e b6 2c a9 3e
       -0.061792962 -0.27591887 0.15347387 0.33041924
0003b0 b4 9d 79 be e0 f8 20 3d 85 00 4e 3e 87 37 c6 be
       -0.24376565 0.039299846 0.20117386 -0.3871424
0003c0 e1 73 f6 bc 63 b3 92 3e 10 49 b8 3e 7a ba 1d be
       -0.030084552 0.28652486 0.35993242 -0.15403166
0003d0 55 1b 08 be 46 91 84 3f 76 c2 f7 3e c1 c2 32 be
       -0.13291676 1.0356834 0.4839055 -0.17457105
0003e0 96 fa 62 3e 9e dd 6d 3e 3a 9d 19 be 91 64 63 be
       0.22165903 0.23229071 -0.15001383 -0.22206332
0003f0 8a 07 35 bc 93 37 80 be 21 b6 a6 3e 6d fd 88 3c
       -0.011049161 -0.250424 0.32560828 0.016722405

bias f4 [64]
000000 f2 09 4b 3d 14 1e f7 3d e8 1e d8 3d 2b 84 cd be
       0.04957003 0.12066284 0.1055277 -0.401399
000010 de 7a 85 3d 7e a4 9a 3c 03 ca 9d 3e 8a ed 73 3e
       0.06517576 0.018877264 0.30818185 0.23821083
000020 32 ee 90 3e c3 ff 0f 3e b1 44 df 3b 19 93 8f bd
       0.2830673 0.14062409 0.0068136086 -0.070104785
000030 40 48 3b bd 10 2c 4f 3e 1a 1c 6e bd 34 a4 19 3e
       -0.0457232 0.20231652 -0.05813227 0.15004045
000040 8f 92 5f 3e 50 92 10 3d 3a 59 02 be 25 14 4f 3d
       0.21833251 0.035295784 -0.1272935 0.05055632
000050 c5 96 97 3e 27 1c 70 3e 55 21 d7 bd c6 d1 52 3e
       0.29607216 0.2344824 -0.105044045 0.20587835
000060 cd fe a9 3b f4 36 0d bc 73 16 83 3e 0f 51 a3 3e
       0.0051878453 -0.008619059 0.25603065 0.3189778
000070 03 87 eb 3c 32 1e c4 3d a6 b6 13 be 7a b9 14 be
       0.028750902 0.09576072 -0.14425144 -0.14523879
000080 7c e2 f7 bd b9 c6 88 bd 97 4c ec 3d dd 0f 7a be
       -0.12103745 -0.06678528 0.11538046 -0.24420114
000090 f0 be 89 3d cd 33 37 3e 1f 44 a9 3e 63 9e d8 bd
       0.067258716 0.17890854 0.33059785 -0.10577085
0000a0 52 96 a0 3e 00 26 89 be fc 63 05 3e b3 93 54 3e
       0.31364685 -0.26786804 0.13026422 0.20759468
0000b0 51 89 48 be ab 10 90 be ca f4 0a 3e a1 a3 e4 bc
       -0.19583632 -0.28137717 0.13569942 -0.027910056
0000c0 da 68 80 3d 31 21 2f bd 8b 18 99 be ef 48 08 bd
       0.06269999 -0.042756263 -0.29901537 -0.03327268
0000d0 71 90 2f be 2e 0e 68 be 6c 75 50 3d 9a 7f e6 3d
       -0.17144944 -0.22661659 0.050893232 0.11254807
0000e0 c6 9c f7 bc 83 75 2b 3c af 2d 0a 3e 3c 54 94 3d
       -0.030226123 0.010465029 0.1349399 0.07242629
0000f0 d3 43 df 3d 48 2f ca 3d db 55 56 be 53 89 b5 bd
       0.10901608 0.098722994 -0.20931189 -0.08864083

weight f4 [64, 64]
000000 98 44 9b bd 4f 4f 0f bd d1 9e 17 3f 54 ae b9 3e
       -0.075814426 -0.034987744 0.5922671 0.36265814
000010 c3 d1 db 3e 9b b9 20 bf ab 99 77 be e2 5e f1 be
       0.42933473 -0.6278321 -0.24179713 -0.47142702
000020 32 e8 a4 3d 6d 08 3f 3d 47 de 91 be e0 78 62 3e
       0.080521 0.046638895 -0.28489897 0.22116423
000030 a6 74 de 3e 8b 54 72 3d 9b 7e bb bd 3e 7c 8b 3e
       0.4344837 0.059162658 -0.091550075 0.27243227
000040 d2 f3 98 be ec 9c db 3e af 03 d3 be f4 54 3c 3e
       -0.2987352 0.4289316 -0.41213748 0.18391782
000050 31 46 e6 be 37 8f 02 3e aa e4 14 3e b9 1f 9b be
       -0.44975427 0.12749945 0.14540353 -0.3029764
000060 18 5c 85 be 23 07 35 bd 5b f5 76 3e b4 4a 53 3e
       -0.26046824 -0.04419626 0.24117033 0.20633966
000070 ce fd 04 bf 3e 89 53 bd d1 95 cc 3e 0c 97 c4 3e
       -0.51949775 -0.051644556 0.3995805 0.3839649
000080 03 a5 94 3e 8a 41 52 3d c8 c6 e1 3e 1c cc 6a 3b
       0.29032144 0.051332034 0.4409697 0.0035827225
000090 74 2b 93 3b b3 d0 fd bd ac 3d 83 3e 12 c2 6f 3e
       0.004491264 -0.12393322 0.2563299 0.23413876
0000a0 13 7c 7b 3e 6a b2 06 3f 4c 2a 06 3f e0 91 78 bc
       0.2455905 0.5261599 0.5240829 -0.015171498
0000b0 44 ac ae be 23 a6 c3 3e fe 7c 0b bf 36 84 ab 3e
       -0.34115803 0.3821269 -0.544876 0.33499306
0000c0 75 ca d7 3d 68 f6 55 be 87 50 29 be 66 3d 29 3f
       0.105366625 -0.20894778 -0.16534625 0.6610931
0000d0 12 b6 9d 3d b6 7e ce be d4 8c ac be 5b 31 8a 3e
       0.07700743 -0.40331048 -0.33701193 0.2699078
0000e0 3f 78 3f 3f bd 5e aa be 95 0c 49 3e 0f cf 8a be
       0.74792856 -0.33275405 0.19633706 -0.27111098
0000f0 cd 37 ae 3e 96 59 db be f8 1a 77 be d4 03 75 3e
       0.34026948 -0.42841786 -0.24131382 0.23927242
000100 f2 ed 55 3e eb 9b de 3e 38 5a 22 3d c1 70 2f 3f
       0.2089155 0.4347833 0.03963682 0.68531424
000110 0b c1 af be 06 97 b0 3e 2c 00 6c 3d 77 99 9c 3e
       -0.34326968 0.34490222 0.05761735 0.30585834
000120 dd 45 b7 3e e7 d1 60 3d c6 97 d0 3e d7 f3 05 bf
       0.3579549 0.05488768 0.40740794 -0.52325195
000130 55 da 7a be 5a 7c 16 3c 2e 9f 17 3d 76 f3 7d bd
       -0.2449735 0.009184921 0.03701704 -0.06199976
000140 9a 07 25 be 69 4b 8a bd e4 b0 1e 3f 19 4a ae 3d
       -0.16116181 -0.067526646 0.61988664 0.08510227
000150 f0 92 d5 be 0d db bd be bf fe 45 3e 02 66 91 be
       -0.41713667 -0.37081185 0.19335459 -0.28398138
000160 a6 bc a9 3e ed 0c ad be 7a 98 5c be e2 22 96 3e
       0.3315174 -0.33798924 -0.2154254 0.29323488
000170 2f 04 85 be 2d 81 97 3e 92 5f af be f2 dc b4 3e
       -0.25979754 0.2959074 -0.34252602 0.35324818
000180 ab 93 c7 bd aa d8 3d 3e df cf 94 3e 64 3a e1 3e
       -0.09744962 0.18539682 0.29064843 0.4398986
000190 46 5a e9 be 85 8a bc 3d 38 01 00 3d 34 68 aa 3e
       -0.45576686 0.09206108 0.031251162 0.33282626
0001a0 b3 10 5d 3e 32 f2 5a 3e 16 a2 51 3c f2 f5 f0 be
       0.21588401 0.21381453 0.012794992 -0.4706264
0001b0 ec 96 e1 3d e4 b0 fe 3e 02 d9 53 be 65 21 a3 3e
       0.11015114 0.49744332 -0.2068825 0.31861416
0001c0 5e fc 08 3f b0 e3 cd 3d b7 cc 02 bf 9f d4 b0 3e
       0.5351008 0.100531936 -0.5109362 0.34537217
0001d0 55 c1 31 bd 90 b6 00 be 1e 95 1d 3f 04 80 aa be
       -0.043397266 -0.12569642 0.6155566 -0.33300793
0001e0 00 60 d2 3e a0 1b fa 3d 99 76 e9 be 36 11 2c bf
       0.41088867 0.122123 -0.45598295 -0.6721376
0001f0 88 78 ee bd cc 54 05 3c cf ce fa be 7e e9 0d bf
       -0.11644083 0.008137893 -0.48985907 -0.55434406
000200 af 94 57 3d bb 74 a4 3e fd 7c 9a be 4a 67 46 3e
       0.05263203 0.32120308 -0.30173483 0.19375339
000210 2d 65 1a be dc 75 d7 3d 18 a6 9f 3e 77 6e b4 3e
       -0.15077658 0.10520527 0.31181407 0.35240528
000220 92 16 01 bf 24 6d 1d be 10 19 f4 3b 2a 40 42 bf
       -0.50425065 -0.15373665 0.0074492767 -0.75879157
000230 e9 fb 48 3c 25 19 e1 bd 0a a3 d0 be 43 13 76 3d
       0.012267091 -0.10991124 -0.4074939 0.060076963
000240 0b d4 c0 3b 14 32 ec 3e ba bc e6 bd f1 e9 14 3c
       0.0058846525 0.46131957 -0.112664655 0.009088979
000250 68 01 51 be ea 34 90 ba ed 0a 41 3d 3e aa 56 3d
       -0.20410693 -0.0011002098 0.04712956 0.05240845
000260 a5 b6 be bd ef b4 4f 3e 58 4f a6 be 2a e2 46 3b
       -0.093121804 0.20283864 -0.3248241 0.0030347207
000270 ac 79 8b 3e 7f aa 2f 3e 18 be 40 3e f4 80 5a 3d
       0.27241266 0.17154883 0.18822515 0.053345636
000280 13 a0 c6 3e 90 ba f9 3b e1 46 a7 3e 79 28 2b bd
       0.38794002 0.007621117 0.32671264 -0.041786645
000290 33 39 5d be 49 db 50 3e 49 8d af be 31 ea 21 be
       -0.21603851 0.2039615 -0.3428748 -0.15811993
0002a0 d8 2c 40 3e 7a cc 55 3e ac 16 53 be 2d f5 9a be
       0.18767107 0.20878783 -0.20614117 -0.3026518
0002b0 9a 03 e8 be a4 e8 a3 be 46 b8 ba 3d 7d 1b ab 3c
       -0.45315248 -0.32013428 0.091171786 0.02088713
0002c0 88 e6 e8 3e ca 7d 43 3e bf 02 1b bf 38 3d 8e bc
       0.4548838 0.19090953 -0.60551065 -0.017363176
0002d0 a2 cd 86 3e 53 64 9a 3e ef ae 3c 3d 5c 8b 2f 3f
       0.2632876 0.30154666 0.046065267 0.6857202
0002e0 7a ce 75 3e d4 05 c1 be 99 13 4a be dd 0d 9e 3e
       0.24004546 -0.3769976 -0.19734038 0.30869952
0002f0 64 67 ed 3d c7 d6 d8 3d 8a 5c fb be cf 62 55 be
       0.11591986 0.105878405 -0.4909404 -0.20838474
000300 71 4e b5 be 2a 74 5f bd 23 fc 0d 3e 49 c8 84 3d
       -0.3541141 -0.054554142 0.13865714 0.06483514
000310 d5 91 3c 3e 09 be 9f be 75 83 76 3e 24 55 a7 bd
       0.18415006 -0.31199673 0.24073584 -0.08170536
000320 6a 87 a1 bd 75 f8 1a bd 7c 2c 08 3e db 78 9e be
       -0.07887156 -0.037834603 0.1329822 -0.3095158
000330 92 aa ee 3e ba 3f 05 3f 7f 38 eb 3e 96 14 2e 3f
       0.4661451 0.52050364 0.4594154 0.6800016
000340 b2 21 1e bd 4e 6d 29 3f 4b 80 6d be 54 bf 8b 3d
       -0.038606353 0.6618241 -0.23193471 0.06823602
000350 63 f0 04 3d f7 d8 8e 3e 7a e7 a9 3d 0b b0 ce bd
       0.032455813 0.27899906 0.08296104 -0.10092171
000360 66 b9 af be 74 70 de be f7 c4 c0 bd 17 18 1a bd
       -0.34321135 -0.4344517 -0.09412568 -0.03762063
000370 d6 2c 0d 3f f0 39 af 3e 63 76 4e be c6 dc 4f 3e
       0.5514654 0.3422389 -0.20162348 0.20299062
000380 e3 ce bf 3d a5 18 99 3e 85 f8 58 3e 41 49 9f be
       0.093656324 0.29901615 0.21188553 -0.31110576
000390 9c fa 83 3e 02 56 d7 3d 60 9f de 3e 09 8d f5 bd
       0.25777137 0.105144516 0.43480968 -0.11989791
0003a0 ff d2 5e 3e 95 22 a6 3e 8d 8d e2 3e 5b 33 3d 3e
       0.21760176 0.3244826 0.4424862 0.18476622
0003b0 14 29 7c bc 22 3a d1 be 89 f7 a4 bd d5 50 b0 3e
       -0.015390653 -0.40864664 -0.08055026 0.3443667
0003c0 a6 55 10 3f f5 e4 00 3d 7e 79 6b be 58 05 d4 be
       0.5638069 0.03146835 -0.22995564 -0.41410327
0003d0 2f c4 7f bd 8f b8 1a be 3a 82 d2 bd 7c 27 4e be
       -0.062442955 -0.15109466 -0.10278745 -0.2013225
0003e0 85 e5 a8 be 72 be 27 be 06 02 46 3e 7c c8 a9 3e
       -0.3298761 -0.16381243 0.1933671 0.3316077
0003f0 7f f7 32 3c 22 87 7c be c1 e3 13 3e 1a bb 6d be
       0.0109232655 -0.24660924 0.1444235 -0.23215905

bias f4 [64]
000000 30 2d 6b bd ac 94 1a 3c f1 35 d5 bb f4 fb 32 3e
       -0.05741614 0.00943486 -0.0065066745 0.17478925
000010 5c c8 b7 bd 90 9c e4 be 6e 12 ba 3e 96 7d 3d 3e
       -0.089737624 -0.44650698 0.36342186 0.18504938
000020 ff d2 24 bd c6 57 dd 3e fb 7b a0 3d ff 66 8b bd
       -0.040240284 0.43231028 0.078361474 -0.06806754
000030 a5 75 90 3e da 77 2f bd c9 70 a6 3d cf 93 03 3e
       0.28214756 -0.04283891 0.08126981 0.12849353
000040 ac 23 17 be fa be 0b be 5e 23 2d be 28 f6 a5 3c
       -0.14759701 -0.1364707 -0.16908023 0.020258978
000050 c6 d3 bd 3e 67 a8 86 3e 06 2d 3f 3e d9 42 39 be
       0.37075633 0.26300356 0.18669519 -0.18091907
000060 00 77 ba 3c b0 13 4b 3d f2 84 1a 3f df a0 fd 3d
       0.022761822 0.049579322 0.6035911 0.12384199
000070 04 f4 f6 3c 07 40 e7 bc 40 7b 3d 3a 7b 14 97 3d
       0.030145653 -0.028228773 0.00072281435 0.07376953
000080 76 cd 9a 3e 20 b1 93 3e 30 02 dc 3d 72 95 6e be
       0.3023488 0.28846073 0.10742605 -0.23299196
000090 91 ac 83 bd 51 bd b0 3d 62 fc 7d bd 4c 65 99 3e
       -0.06429399 0.08629859 -0.06200827 0.29960096
0000a0 56 4c 3c be 46 b4 e2 3b e2 3a 36 3e de ef 39 be
       -0.18388495 0.006918463 0.177959 -0.18157908
0000b0 ab e0 6b bd bf 3c 87 3e 94 57 e5 3d 5c 9b b4 3e
       -0.057587307 0.26413533 0.11198345 0.3527478
0000c0 b7 65 3a 3e 8b 97 25 3d 07 88 4b 3e 35 df 4c be
       0.18202864 0.040427726 0.19876109 -0.20007022
0000d0 fc b1 95 bd 2c 7c e8 3d bf 6b 8b 3e f5 11 41 be
       -0.073093385 0.11351809 0.2723064 -0.18854506
0000e0 66 56 0b 3e ae 06 aa 3e bd 5f c3 3c 1b 3c 96 be
       0.13607177 0.3320822 0.023849363 -0.29342732
0000f0 d6 c1 70 be 95 f7 67 bc 1c b9 a8 3d 6b e7 97 be
       -0.23511443 -0.014158149 0.08238432 -0.29668745

weight f4 [6, 64]
000000 5b f3 d1 be f0 9e 38 bf 3b 59 43 bf 4b f8 51 bd
       -0.41005978 -0.7211752 -0.7630803 -0.05126218
000010 87 08 a4 be 98 91 c6 be 49 35 a4 3d ee 57 78 bf
       -0.32037756 -0.38782954 0.08017976 -0.9700917
000020 0c a7 7d be b0 d8 86 3e 63 ba f8 bd 00 05 c5 3e
       -0.24770755 0.26337194 -0.121449254 0.38480377
000030 51 2a af bd 90 36 32 3d 7f 54 10 3e 48 df 2f be
       -0.08552993 0.043509066 0.14094733 -0.17175019
000040 f3 d2 93 3e 26 0a 15 3f ef 5e a9 3e fc e4 30 be
       0.2887188 0.5821861 0.3308024 -0.1727485
000050 6b bc 7b bd e1 8b 87 3e f9 d3 86 3e d8 13 53 bf
       -0.061458986 0.26473907 0.26333597 -0.82452154
000060 06 48 9a bf f2 e9 1a bf 60 7a 7e 3e 17 ab 87 3e
       -1.205323 -0.6051322 0.2485137 0.2649772
000070 6f 21 c5 be f9 d7 4d 3e 93 cc 1d 3f 53 27 80 bd
       -0.3850207 0.20101918 0.6164028 -0.062575005
000080 1b 6a 6b 3e 47 18 0e 3d 62 32 60 bf c3 84 a8 3e
       0.22989695 0.03469112 -0.8757688 0.3291379
000090 4c c9 d8 be d9 7a e7 3e 03 e5 29 3e 5c 1a b1 3e
       -0.42341077 0.45210913 0.16591267 0.34590423
0000a0 5f 29 9d bd 94 68 07 3f ad 37 f4 3e 49 de 1b bf
       -0.076739065 0.5289395 0.47698727 -0.60886055
0000b0 6e 2a 9f 3e 8c 3f 7b be d8 ba ee bd 64 53 03 3e
       0.3108706 -0.2453596 -0.11656731 0.1282478
0000c0 4d 4b 0c 3f 08 ec a8 bb 61 ac 13 3f c8 5c 83 3e
       0.548024 -0.0051550902 0.57684904 0.25656724
0000d0 a2 40 d8 be 0a 76 c5 3e 3e 73 50 3e ee 27 79 3e
       -0.4223681 0.3856662 0.20356461 0.24331638
0000e0 ab 09 7d 3f 73 de 2a 3d cc a3 29 bf f5 79 38 be
       0.9884288 0.04171605 -0.6626556 -0.18015273
0000f0 0e 4a 2d 3e b6 fb af bd 15 22 03 bf 6f 79 55 be
       0.16922781 -0.08592932 -0.5122388 -0.20847104
000100 79 38 8f 3f 5c 1f 86 bc 65 60 cc 3e ca 6e d8 3e
       1.1189109 -0.016372375 0.39917293 0.42272025
000110 bd e2 16 3f 76 f3 5b 3e ab 3a 1a 3f 7e 23 ae 3e
       0.58939725 0.21479592 0.6024577 0.34011453
000120 9d 84 29 3c 8e b7 01 3f ad 09 0c 3f 88 80 25 bf
       0.010346559 0.5067071 0.54702264 -0.6464925
000130 87 6e 82 3e 28 02 60 be 20 40 16 3f 55 04 e0 3e
       0.2547495 -0.21875823 0.58691597 0.43753305
000140 5b 2a e4 be 56 85 c9 be 3e aa bb be 9b cb 9f be
       -0.44563565 -0.3935954 -0.36653322 -0.31210026
000150 57 8b a9 3d 0a ae aa 3e 6f aa c2 3d 8a 2a 44 3b
       0.0827853 0.33335906 0.09505164 0.0029932582
000160 58 ca 00 3f 87 85 fd 3e 0a a5 ba bd 4d c5 8b 3e
       0.5030875 0.49515936 -0.0911351 0.27298966
000170 3e d9 49 be 3d a8 11 bf 93 09 b8 be 79 ea 2d 3f
       -0.19711778 -0.56897336 -0.35944805 0.679359
000180 b1 68 d8 bd ae 87 ec 3e f4 ac e6 3e 41 76 0e bf
       -0.10566843 0.46197265 0.45053828 -0.5564919
000190 2f 9c 5f 3e cf 51 21 bf 81 bd 7c bf 4a ae e8 3d
       0.21836923 -0.63015455 -0.9872666 0.11361368
0001a0 cc eb 4b bf 6e 8d a8 ba 45 bd e4 3d 28 2a 4f 3f
       -0.7965667 -0.0012859532 0.11168913 0.809237
0001b0 39 c4 c2 be da cf 82 3e b8 aa 7d 3b 68 cb b5 3e
       -0.3804033 0.25549203 0.0038706493 0.3550675
0001c0 22 33 48 be 54 54 14 bf 00 33 1f 3d f2 ef 69 bf
       -0.19550756 -0.57941175 0.038866997 -0.9138175
0001d0 b2 6e 80 be 37 c8 a1 3d 19 f6 d4 be fc 28 4d bf
       -0.25084454 0.07899516 -0.41594008 -0.8014066
0001e0 07 22 00 bf 7d 2e 17 be f0 f0 84 3e 18 04 86 3c
       -0.5005192 -0.14763828 0.2596507 0.016359374
0001f0 da b5 f1 bb c4 dd fb be 5e 3a 3b 3f 99 74 98 3d
       -0.0073764147 -0.4919263 0.73135936 0.07444114
000200 05 f9 e0 bd 8e 8b 88 3f d7 06 81 be 62 55 22 bf
       -0.10984997 1.0667589 -0.2520053 -0.63411534
000210 7d 1d e8 be 81 8d 31 3f a8 53 87 bf 51 a5 65 3f
       -0.45334998 0.6935654 -1.0572405 0.8970538
000220 dd ed c5 be bb a7 2f bf 56 16 a5 be 2a 3d 0c be
       -0.38658038 -0.6861531 -0.32243603 -0.13695207
000230 46 72 6c 3d e1 90 58 3f 5d 20 9f bf 5b 57 39 bd
       0.057726167 0.8459607 -1.2431751 -0.045249324
000240 75 45 4a bf b1 8d 02 bf a0 10 3b 3d 02 65 ab 3f
       -0.79012233 -0.50997454 0.04567015 1.33902
000250 a3 01 11 3f a4 14 4e 3e c2 ad d2 3d 25 55 c0 3f
       0.5664312 0.20125061 0.10287048 1.5025984
000260 66 99 e8 3d 5a 59 c9 3e 65 57 b1 be f0 59 53 bf
       0.113573834 0.39325982 -0.3463699 -0.8255911
000270 21 2e d7 3e ab 6d 75 3f c3 fc 44 be cb 88 38 bf
       0.4202738 0.95870465 -0.19237046 -0.7208373
000280 cf 3d 28 3e 4a 74 61 3d 57 08 cc be 33 fb 1e 3f
       0.16429828 0.055042543 -0.39850113 0.6210205
000290 ec f8 8d 3e 1c 2e 1f 3f 38 12 45 3f d2 85 4d 3e
       0.27728975 0.6217973 0.76980925 0.2007058
0002a0 0e e3 20 3f c0 b7 43 bf 59 34 8b bf 5c 76 29 bf
       0.6284646 -0.76452255 -1.087535 -0.6619623
0002b0 8e a9 e3 3c 01 ae 40 3f 96 7f 6e bf 4c 62 4d bf
       0.02779081 0.7526551 -0.9316343 -0.80228114
0002c0 84 11 00 3f e2 9b 4c 3f 83 29 d0 be 8f f2 c3 3e
       0.50026727 0.7992536 -0.4065667 0.38270995
0002d0 23 76 6e 3f 80 20 3c be 9d 27 25 3f 5e 72 fe be
       0.9314901 -0.18371773 0.6451357 -0.4969663
0002e0 f1 ac 15 bf 34 57 9c 3e 00 ee bb 3e c9 46 06 3f
       -0.5846701 0.3053528 0.36705017 0.5245176
0002f0 ca 5c f6 be 50 a7 1d 3f 6a ba 0e bf 3b f5 72 3f
       -0.48117667 0.61583424 -0.55753195 0.9490544
000300 81 87 6c bf ca 40 f2 bd 39 18 01 3f f1 ff 38 bf
       -0.9239426 -0.11828764 0.50427586 -0.72265536
000310 40 b6 a8 3d 98 bc e4 be 4e 34 86 3d f8 e0 38 3f
       0.082378864 -0.44675136 0.06552945 0.72218275
000320 4a 88 ae 3f 3e 9c a5 3e f2 e0 b7 be 3f 69 05 3f
       1.3635342 0.32345766 -0.35913807 0.5211372
000330 b4 be 26 bf f8 3e 21 3f 29 c6 f1 3d 2c fc 6c 3f
       -0.6513474 0.6298671 0.11805374 0.92572284
000340 84 42 0a 3e 5e f1 5d be 5c cb bb be c7 67 12 be
       0.13501936 -0.21674106 -0.36678588 -0.142974
000350 8a 5e 90 3e 36 94 94 bf 40 ac e1 be cb fa 35 be
       0.28197128 -1.160773 -0.4407673 -0.17771451
000360 e8 30 b9 3e 9b b5 f2 3d 75 8e 55 3e 49 7c c6 be
       0.36170125 0.11851045 0.20855124 -0.38766697
000370 b4 fb 08 3f 9e 54 54 be bc cd f6 3e c0 c1 03 3f
       0.5350907 -0.20735404 0.48203838 0.51467514
000380 5d 62 02 3c 6e 58 1c bf 7b fb 04 3f e2 71 72 3e
       0.007958022 -0.61072433 0.5194623 0.23676255
000390 d8 d7 1f 3f 5f 3b 58 3e 25 c6 80 3f 17 c4 24 bf
       0.62438726 0.21116398 1.0060469 -0.6436171
0003a0 62 9d fd 3c e7 65 d5 be 22 89 28 3d 40 f8 ef 3d
       0.030958835 -0.41679308 0.041146405 0.11717272
0003b0 7c 3d b9 be ae 5e c9 be 29 20 43 3f 88 69 20 be
       -0.3617972 -0.39330047 0.7622095 -0.15665257
0003c0 89 63 9f be 1b 44 90 be 86 93 d3 be 3e 81 c1 3d
       -0.31130627 -0.2817696 -0.4132349 0.09448479
0003d0 17 6b 19 bf 45 8b 58 bf f5 79 60 be f8 b7 7e 3f
       -0.5992903 -0.8458751 -0.21921523 0.99499464
0003e0 e7 8f 6b 3e df 66 96 bd 67 de ae 3f ef c8 f9 be
       0.23004113 -0.0734384 1.3661622 -0.48786113
0003f0 4f ea 07 be 2d d7 02 3f 72 f1 aa bd c1 07 e1 bd
       -0.13272975 0.5110958 -0.08346833 -0.10987807

bias f4 [6]
000000 55 bb d8 3d b9 53 00 3d 89 5b b2 3d 65 5b 3e 39
       0.10582606 0.031329844 0.08708865 0.00018153859
000010 60 d4 cb be 67 fc cb be
       -0.39810467 -0.39841005
