src/learning/models/64_64_64_400epoch_tanh.pt (torch, 39759 bytes, 8 tensors)

weight f4 [64, 5]
00000000: 446d 6abd 2002 cd3d 80eb 053f 6ebd c73e
00000010: 7368 8dbd 9806 08be 0d24 b0bd 7b7b 80bd
00000020: 2326 e8bd 536b 1e3f d42c 29be 26be 383d
00000030: 6754 b23d 6f88 373d 6875 a9be e6bf ab3e
00000040: 1ef7 14bf ae90 0dbe a1b9 39bf 858b e03d
00000050: 0275 583d 8153 83be 5f90 55bf 971f 743e
00000060: bae5 c23e efec 22be aa6c 3ebf d094 8fbd
00000070: 8adf 043d 012e 13bf 2034 cabe 2a1e c03e
00000080: 96d2 9dbd fb30 c8be 6f0c 15bf 6688 3dbe
00000090: d585 afbe c023 d9bb 5520 83be 572b a03e
000000a0: 625e 94bd 1655 353e 604b 3e3e 951b 973d
000000b0: 47a2 473f 255d 7abf ab62 54be 29e9 313e
000000c0: 7d85 29be 0983 2abe 7a54 4b3d 001b 38bf
000000d0: 5178 33be 7c54 ab3e 11f5 a63d 7dc2 0aba
000000e0: a664 acbe eda6 db3d 8134 13be 3b6b 44bf
000000f0: 8234 a2bd 1067 3cbe dd3e a63b c076 0abf
00000100: 0ae7 bbbe 39a5 cbbd 6c69 683e 01b1 cf3d
00000110: cfcd 91be 038b cbbe 9540 bf3d ac35 d63c
00000120: 8c1a 86bd e005 26bf 6bd9 ac3c 01d6 59bf
00000130: ba76 60be 07d5 b63e ea2c a53d 5245 bf3e
00000140: f46e 8e3c c73f 94bd b133 36be 3acf fe3e
00000150: 413b fdbd af39 50be 8acd 1c3f 71fe d53e
00000160: 5df3 c73d a295 00bf 0f20 dabe b670 15be
00000170: 43cc 853d 2b5b cfbe b0b1 133f 2b62 ba3d
00000180: e600 313f c6d6 82bd 2153 bb3d 65ef fdbe
00000190: a714 903e e5be e6bd 82a1 fdbd 5f3d 1a3f
000001a0: a6c8 dd3e 4897 6e3d 2932 f5be f6f6 67be
000001b0: 5692 843e 141e 2a3f f6cf 2bbf 8ccd f9be
000001c0: b211 17be d53b 08be 399c 253e 08a1 c3bd
000001d0: a6d3 12bf d821 dbbd fced e1be b6bc cd3d
000001e0: dc2c 613c 6597 863c 4dc6 e63d 5c20 56be
000001f0: 00f6 383f 2b41 d0be 1ec5 68bc 6382 fa3e
00000200: b607 84bd 9ff0 2abf 671c d1be 92ae 0b3e
00000210: 225c 2fbe 8f90 53be 54ea 123f 4cbb 493e
00000220: 7f7a 8f3e 6ebf 773d a4c3 763d 49ea 6d3f
00000230: 96d1 b73b 8d78 c0be 183c 153d 4090 16bf
00000240: a96f bb3e 1773 b13d c3b9 983e 2b86 08bf
00000250: 4a58 e23e 3159 d63e b2e1 ddbd dd81 f7be
00000260: 5587 75bd fbf5 ab3e 8c14 ee3e 6141 17bf
00000270: 7cbf dc3b 60da 093c a670 283f d450 abbe
00000280: 55fe 2a3d 21a1 093e eea6 8abf 0411 853c
00000290: c09c 61be e52a 843e 79a2 debe 7929 0a3d
000002a0: 2d16 3c3f 57ea d2b9 e203 c2bd 686b 553e
000002b0: 234a 4f3e b724 07bf 9a17 07bf a01d 033d
000002c0: c403 18bf 7b9c c13c 6ca0 18bd af25 1c3c
000002d0: 3162 8a3d 6df8 89be 94e8 bcbb 6053 a6be
000002e0: 6a9b 6abd 458b 553e c60d 47be be85 8a3e
000002f0: 7890 efbe c9f3 60bd 2c1e 6a3d 2011 853d
00000300: cc90 c73e b598 2d3d fb6e a0bc 420e 87bf
00000310: 7538 20be 8ba7 b83e 47fd c63e c218 a5bd
00000320: 863b a2bd 25ee 3cbe b219 c73e 78c6 58bf
00000330: 9183 8ebe 6269 5f3e 60df 47be 4528 0c3f
00000340: 1f94 343e d255 26bd 3741 023f 4046 343e
00000350: de7a c53e 979d f8be 1bc7 a63e 603d 783e
00000360: 899f 5bbe 1cd1 acbe 4f1e 343d fdba 21bf
00000370: 0ba9 09be c383 a4bb 0ff0 25be 284b 2b3e
00000380: 897f 06bf f14a 3cbd 2e73 c33e ef7f 2cbd
00000390: 9895 a43e 1076 9bbe 3b71 2e3d 3565 f03d
000003a0: c15f 533f be95 cbbe 066f 913d 301e e73a
000003b0: 0862 68bb dffb fbbc 6e5a f7bb 56b7 603f
000003c0: 5a8e 29be 8a3f 0c3e a60c 393f 977e cebc
000003d0: 80bd c3be fd2a 4abe 95bb 84bd d8a3 02bd
000003e0: 4660 3dbf 5456 fbbe acf6 1fbd aadb 1dbe
000003f0: 7f73 25bc 2ec5 40be f725 4a3f fcbb acbe
-0.05723311 0.10010171 0.5231247 0.3901171 -0.06904688 -0.13283765 -0.08600626 -0.06273552
-0.11335399 0.61882514 -0.16521007 0.045103215 0.08707505 0.044807848 -0.33097386 0.33544844
-0.5818957 -0.13824722 -0.7254887 0.10964111 0.052845962 -0.25649646 -0.8342342 0.23840176
0.38065892 -0.15910695 -0.7438456 -0.070108056 0.032439746 -0.5749207 -0.39492893 0.37523013
-0.07706182 -0.3909987 -0.582221 -0.18509063 -0.34281793 -0.006626576 -0.25610605 0.31283066
-0.072445646 0.17708239 0.18583441 0.07378308 0.7798199 -0.9779838 -0.20740764 0.173741
-0.16554828 -0.16651548 0.04964111 -0.719162 -0.17526366 0.33462894 0.081522115 -0.0005293263
-0.3367054 0.10725198 -0.14375497 -0.7672612 -0.07920171 -0.1839869 0.005073412 -0.5408745
-0.36699706 -0.09943623 0.22696465 0.10141183 -0.28477332 -0.39754495 0.0933849 0.02614864
-0.06548032 -0.64852715 0.021099767 -0.8509217 -0.2192029 0.35709402 0.08065207 0.37357575
0.017386891 -0.07238727 -0.17793156 0.49767476 -0.123648174 -0.20334505 0.6125113 0.41795686
0.09763215 -0.5022832 -0.42602584 -0.14593777 0.065331005 -0.40499243 0.57693005 0.09100755
0.69141996 -0.06388621 0.09146715 -0.49596706 0.28140756 -0.11266879 -0.12384321 0.60249895
0.43317145 0.05824974 -0.47889832 -0.22652802 0.25892895 0.66452146 -0.671142 -0.48789632
-0.14752844 -0.13304074 0.16172875 -0.09552199 -0.573542 -0.106998146 -0.4412688 0.100457594
0.013743605 0.016429612 0.112682916 -0.20910782 0.72250366 -0.4067472 -0.014207153 0.48927602
-0.06446783 -0.6677341 -0.40841982 0.13640812 -0.1712499 -0.20660613 0.57388806 0.19700354
0.28023145 0.060485296 0.06024517 0.92935616 0.0056097014 -0.37591973 0.036434263 -0.5881386
0.36608627 0.0866453 0.29829225 -0.53329724 0.44207984 0.41864923 -0.108340636 -0.48341265
-0.059943516 0.33586106 0.4650005 -0.59084135 0.006736694 0.008413881 0.6579689 -0.33460104
0.041746456 0.13440372 -1.0832193 0.016243465 -0.22032452 0.25813976 -0.43483332 0.033730958
0.7347134 -0.00040228918 -0.09473397 0.20841753 0.20243125 -0.527904 -0.5277039 0.032010674
-0.59380746 0.023634186 -0.037262365 0.009530469 0.0675701 -0.26947346 -0.00576503 -0.32485485
-0.05727712 0.20853908 -0.19438848 0.27055162 -0.46789908 -0.05491999 0.05715768 0.06497407
0.3897766 0.04238196 -0.01958417 -1.0551226 -0.15646537 0.36065325 0.3886511 -0.08061363
-0.079215094 -0.1845022 0.3888679 -0.8467784 -0.27834752 0.21817544 -0.19518805 0.54748946
0.17634629 -0.04060919 0.5088076 0.17604923 0.38570303 -0.48557732 0.3257378 0.24242163
-0.21447577 -0.33753288 0.043974217 -0.63175946 -0.13443391 -0.00502059 -0.16204856 0.16727889
-0.52538353 -0.045969907 0.38173813 -0.042114194 0.3214538 -0.30363512 0.042588454 0.11738054
0.82567984 -0.39762682 0.07101254 0.0017632898 -0.0035458822 -0.03075975 -0.007548622 0.8777975
-0.16558209 0.13696113 0.72284925 -0.025206847 -0.38230515 -0.19742961 -0.06481091 -0.031894535
-0.73975027 -0.490893 -0.039053604 -0.15415826 -0.010098337 -0.18825218 0.7896418 -0.3373717

bias f4 [64]
00000000: a679 0e3f 3d44 46be d0ea 3d3f 3c0e de3e
00000010: 0e5d 833e 6382 9a3b 76b5 4b3f 8938 83be
00000020: 775e 60bf f49f d33e 3ed7 853d 6fe5 493e
00000030: cf49 c93e f27d 0a3f c55c e73e 2b80 afbd
00000040: 0b6e 56bc 7188 75be b488 eabe 677b 423f
00000050: 0152 a63e 1980 43bf 78c1 8b3e ea7a 163f
00000060: bb19 8cbe d79c 843f 11c8 8bbe de4c 05bf
00000070: 1a24 ecbd cf32 143f b52d 113f 53e7 223f
00000080: 922a c9bd d9b6 03be 5276 dc3d 8423 85bf
00000090: aa62 8bbe 523f 74be 2089 323e b80c c6be
000000a0: c53c 59bd 4a8c 3d3d 39f8 2b3c 8c40 603d
000000b0: 9aa9 293e 7595 03bf 5765 2abd 931a 84be
000000c0: 9ab3 bd3d cdb7 233f c493 183f 2203 d0bd
000000d0: 57ca b73e 8941 803f 66ac 883f 820e 083f
000000e0: c1ba 073d 4067 d43e 590f f73e b72f 7ebe
000000f0: f22b abbe 7d29 123f c3a5 d3be b635 cb3d
0.5565437 -0.19361968 0.7418642 0.43370235 0.25656933 0.0047152503 0.7957376 -0.2562907
-0.8764414 0.41332972 0.06535195 0.19716428 0.39314124 0.5409843 0.45187965 -0.08569368
-0.01308776 -0.2397783 -0.4580742 0.7596955 0.3248444 -0.76367337 0.27296042 0.587813
-0.2736338 1.0360364 -0.27301076 -0.52070415 -0.11530323 0.5789003 0.5671037 0.6363422
-0.09822573 -0.1286272 0.10764755 -1.0401464 -0.27223712 -0.2385228 0.17435122 -0.3868158
-0.05303647 0.04627637 0.010496193 0.054749057 0.16568604 -0.5139993 -0.04160055 -0.25801525
0.09262772 0.6395233 0.5960047 -0.101568475 0.3589656 1.002 1.0677612 0.5314714
0.033137087 0.41485023 0.48253897 -0.2482289 -0.33431965 0.57094556 -0.41337404 0.09922354

weight f4 [64, 64]
00000000: 7e96 dcbd 5610 d83b 3a01 3c3e ff0e 11be
00000010: d2f6 743e ddee 39be 0817 aabc 683a 843d
00000020: fd76 063e e057 87be 93bf 80bd a6bb 613e
00000030: f66b bebd 3374 953d 9a66 12be af22 71be
00000040: 11bc 943d 6832 03bf b515 bb3e e877 473e
00000050: e1fb cd3c e346 f13d 8d7f ce3d 67a6 603e
00000060: 679f 913d 5b30 213d dab4 293e dcb8 a7be
00000070: 6c1f 11bc a628 7a3e f231 bbbe 7395 6abd
00000080: 5609 9dbd 21a7 0dbd d8bd 3bbd b7ec 63be
00000090: bd3b ddbc 1f8e c73d b876 1abe d4de 763c
000000a0: a0ea be3e f556 58be 533a fc3e 7c72 973e
000000b0: 41c6 7dbc bb73 80be 2e9c 3cbe a3c4 4a3d
000000c0: dc7b 123d cd0b 29be 0996 cbbd e862 3dbe
000000d0: db9f 46be dc01 353e 1e88 263d 2f51 f5bd
000000e0: a676 243e fc2a 22be d819 e03d 1c75 e5bc
000000f0: 0a5e 803c 7680 4f3d 96a3 ddbe 351b ad3d
00000100: 4210 223e 15c2 9a3d fc0c 91bc 02d5 0f3e
00000110: 83eb ab3c 028c 9abc c41d 0d3e 47c2 85bd
00000120: ee88 d73d 474d 3e3e 9322 4dbe 42f0 40be
00000130: 5fe8 94be f317 2f3e 2661 0d3e a64c 963d
00000140: 91d6 2bbe 6692 04bf e0b7 0abd ebf0 e93c
00000150: 1cce 1abe 0848 fd3e 6f8f d3bd 4c5e 073e
00000160: 9721 8b3d 62da 4e3e 8bf3 10be 0763 8dbd
00000170: 5fd8 e8be 4484 01be e31c fc3d d98d 483c
00000180: 33d6 69bd 8438 253e 214c 3d3d 1e82 9bbd
00000190: cfd4 3f3e 7857 92be 57a3 183e 10ed 23be
000001a0: da94 6f3e d0d3 c33d 41c9 3fbe dd49 6c3e
000001b0: 86f8 45be 3ed9 f0bd e65b 81bd 3260 28be
000001c0: 75e3 ee3d 42b2 093d 0ae0 3c3d 96e3 523e
000001d0: 868f a03e 4a94 263e 32aa 00be ea27 2b3e
000001e0: 0715 413e 6ca9 06be 3a59 90be 5285 a8be
000001f0: b713 d43c 8945 d8bd 70ff af3d 751b eebd
00000200: fde8 2b3e 53b3 c93d 3857 2fbe 2f35 813e
00000210: bc43 0f3e a70f 553e 6706 d93d e4e0 0b3e
00000220: 185f e63d 89b9 903d 64ea 0dbd 8b01 26be
00000230: e658 41be 2f14 1d3e 5392 813e 5823 a33d
00000240: fc0e 9bbe 816d 64be b55f 873d 7422 cbbe
00000250: 9ba1 23be d0d6 51bd ef48 ab3e af3a 833e
00000260: 56b6 8e3e 4e1f 543d 5e78 6ebd 6081 763e
00000270: e364 e93e 1fc5 9abe 9de9 813d 6954 473e
00000280: 60c2 7dbe a834 85bd ed6b ad3e 7e94 113d
00000290: 2b6a f93d 4708 8c3e 27fa 16be 5158 c33d
000002a0: c546 24be 0736 8bbe 3aef 13be 14ec 99bd
000002b0: 7008 3bbe 016f afbe 8871 08be 152e 633e
000002c0: b0ab 38bd d605 01bf 87a1 3dbe a616 8abe
000002d0: 01d9 b73d e2b7 9fbe 25c0 b2bd 884b 9dbe
000002e0: b219 023f c182 ebbd a281 e7be cbad 9fbe
000002f0: ffc3 363d c33e 34be a116 3fbf ae57 fcbd
00000300: 1f67 debe fa30 b73c 7f86 f7bd 2c2d d23d
00000310: 2cf8 8cbc 30e9 64bd 071e 41be b0e0 a0bd
00000320: 796b ac3e 3ede a33d 05a6 31bb 2506 7b3e
00000330: ee3e 263e 17e5 e7bd 99c6 4cbe eb1a 443e
00000340: bcd4 41be d4af dab9 47c0 fe3d fcec 7e3e
00000350: 40a7 fb3d e471 87be a973 29be 4a9b f73c
00000360: e01d 2f3e cf98 b0be 6dc1 973e 86f8 213e
00000370: c9d9 3ebd 6366 a53d 8521 a23d c7b5 f9bd
00000380: 4fe3 74be 0cf0 abbd 0302 d2bd 04e5 8d3d
00000390: 4c04 fb3e 31e8 bd3e 500d 65be 2dfb 9d3d
000003a0: aaf0 803c 1eb5 2e3e f9f2 debd 2ff6 083d
000003b0: 5fac 423e 7d18 4e3e 5011 1bbe 3e61 65bc
000003c0: e975 0f3e 73bd e63d 469c 36be d0c9 4abb
000003d0: 83fc 02be 94b2 863e 6e5d 41be 7715 1cbe
000003e0: a3e7 ba3b b929 f13d da82 2cbe 3d9c 1d3c
000003f0: f201 893e db67 85be d98c 8c3d d044 4cbc
-0.107708916 0.0065937443 0.18359843 -0.14165877 0.2392228 -0.18157525 -0.020762935 0.064564526
0.13131328 -0.2643423 -0.0628654 0.22044238 -0.09297936 0.07297554 -0.14296952 -0.23548387
0.07262433 -0.5124879 0.3654 0.19479334 0.02514452 0.11781099 0.10082922 0.21938477
0.07110482 0.039352756 0.16572896 -0.32758224 -0.008857589 0.24429569 -0.36561543 -0.057271432
-0.07667796 -0.034583215 -0.045835346 -0.22258268 -0.027006024 0.09743904 -0.1508435 0.015067775
0.3728838 -0.21126921 0.49263248 0.29579532 -0.015489162 -0.25088295 -0.18418953 0.049503934
0.035762653 -0.16508408 -0.09940726 -0.18494761 -0.19396918 0.1767649 0.040657155 -0.11978375
0.16060886 -0.1583671 0.10942429 -0.028009944 0.015669841 0.05065962 -0.4328887 0.08452455
0.15826514 0.075565495 -0.017706387 0.140461 0.020986324 -0.018865589 0.13780886 -0.06531196
0.10524164 0.18584166 -0.2003272 -0.18841651 -0.29083535 0.1709898 0.1380659 0.07338838
-0.1678107 -0.51785886 -0.033866763 0.028557261 -0.15117687 0.49469018 -0.10330092 0.13219565
0.06793516 0.20200494 -0.14155404 -0.069036536 -0.45477578 -0.12648112 0.12310197 0.01224085
-0.057089042 0.1613484 0.04621518 -0.07593177 0.18733524 -0.28582358 0.14906059 -0.16008401
0.23396626 0.095618844 -0.18729116 0.23075052 -0.19333085 -0.11760186 -0.06316356 -0.16442946
0.11664478 0.033617266 0.046112098 0.2059463 0.313595 0.16267505 -0.12564924 0.16714445
0.18855678 -0.13150567 -0.28193074 -0.32914215 0.025888307 -0.10560138 0.08593643 -0.11626331
0.16788097 0.098486565 -0.17123115 0.25235888 0.13990682 0.20806752 0.10596924 0.13660008
0.112486064 0.07066638 -0.03464736 -0.16211526 -0.18881568 0.1533973 0.2530695 0.07965726
-0.3028487 -0.22307397 0.066100515 -0.39674723 -0.15979616 -0.05123025 0.3345408 0.2563071
0.27873486 0.051787667 -0.05822026 0.2407279 0.45584783 -0.30228516 0.06343386 0.19465794
-0.2478118 -0.06504184 0.33871403 0.035542004 0.12178453 0.27350065 -0.14743863 0.095383294
-0.16042621 -0.27189657 -0.14446726 -0.075157315 -0.18264937 -0.34264377 -0.13324559 0.22185548
-0.04508561 -0.5039953 -0.18518649 -0.26970404 0.08976937 -0.3119498 -0.08728055 -0.30721688
0.5082046 -0.11499549 -0.4521609 -0.3118728 0.04462051 -0.17602067 -0.74643904 -0.12321411
-0.4343805 0.022362221 -0.120862 0.10262522 -0.017208181 -0.055886447 -0.18859111 -0.07855356
0.33675745 0.08001374 -0.0027107012 0.24514063 0.16234943 -0.11322992 -0.19997634 0.19150893
-0.18928808 -0.00041711202 0.12439018 0.2489509 0.1228776 -0.2645408 -0.16548027 0.030225415
0.1710124 -0.34491584 0.2963976 0.1581746 -0.046594415 0.08076169 0.079165496 -0.121928744
-0.23914836 -0.08395395 -0.1025429 0.06928447 0.49026716 0.3709121 -0.2236836 0.077139236
0.015739758 0.17061278 -0.10886187 0.033437904 0.19011067 0.20126529 -0.15143323 -0.014000235
0.14009823 0.11266603 -0.17833051 -0.0030943044 -0.12791638 0.2630812 -0.18883297 -0.15242563
0.005703883 0.11775536 -0.16846791 0.00961977 0.26759297 -0.26055798 0.06862802 -0.012467578

bias f4 [64]
00000000: d55d 87bd b5cf 073e 0ced 28be 397d 093d
00000010: c2be 36be e8c4 173e 6dca 893d 6e5d e43d
00000020: f059 e63c 5658 87be df20 9abd 9815 31be
00000030: 2404 9cbe 78f9 123e a04b 3e3d 701d 3e3e
00000040: f44e ebbc ffcb 00be af13 d8bd 8777 103d
00000050: 094f 8f3d 5c78 23be 9752 e63b a5d0 eebd
00000060: 9049 683d 5f2b 633d 1714 09bd 9df1 283c
00000070: 3fb7 5cbe ade8 c83d f250 183d 7424 8ebd
00000080: 9b09 7dbe d59f 3c3d 9d2a eabc 9181 323e
00000090: e25a 433e 2176 44bd 7c81 c0bd 268e bebd
000000a0: e46f 5fbd c667 37bd 94d4 51be ca11 653e
000000b0: eaae a7bd 6cb3 d1bd e60d f73c aa47 183e
000000c0: a415 993a 3a53 dc3d bfe7 89bc 0f9b bd3c
000000d0: 0dbc 48be dd37 06be 250e 01be 7997 0e3d
000000e0: 8429 24bd 7d0f d13d 5d2c 97be a1df 03be
000000f0: faa4 9bbd 5df0 153e d78f ecbc 322d 7fbe
-0.06609694 0.13262828 -0.16496676 0.033566687 -0.17846206 0.14821208 0.06728063 0.11150633
0.028119057 -0.26434582 -0.07525801 -0.17293394 -0.3047191 0.14352977 0.04645884 0.18565917
-0.028724171 -0.12577818 -0.10550629 0.03527024 0.06997497 -0.15963882 0.0070288884 -0.116608895
0.05671078 0.055461284 -0.033466425 0.010311511 -0.21554278 0.098100044 0.03718657 -0.06940547
-0.24710695 0.046050865 -0.028584773 0.17432238 0.19077638 -0.04796422 -0.09399697 -0.093044564
-0.054550067 -0.0447767 -0.20491248 0.22370067 -0.08187659 -0.102393 0.030157994 0.14871088
0.0011679423 0.10758062 -0.016834138 0.023145227 -0.19602986 -0.13107248 -0.12603052 0.034812424
-0.040078655 0.10208032 -0.29526034 -0.12878276 -0.07599826 0.14642473 -0.028877182 -0.24919584

weight f4 [64, 64]
00000000: 62c2 dbbe 97a0 b5bc 0c26 aebe f70d 1f3c
00000010: 9674 8c3e 50b6 ab3e 2dcc e33d fe1c a4bc
00000020: a177 8e3d 8fed 89bd 7ba2 36be fde8 eebe
00000030: 96fc a3be c523 19be 9864 15be cbab df3b
00000040: 89ee 503e 8abf 10be 32fc 653d a3a4 52be
00000050: 97e1 fc3d b188 023e 663f 683e e72e 4a3e
00000060: 2ccd b4be 349a ef3e 1d48 46be f8d9 0e3d
00000070: b428 30be 3882 b03b b674 00be d490 223d
00000080: 499a 663e 4e2b 9bbe 16b2 303e 9b5b 013f
00000090: b1ae b03d 05ca cc3d 4652 a83c cae1 bf3e
000000a0: a6d2 613e 33b3 f33d 1d1f 8f3e a12d 293e
000000b0: 35ee 45bd 5426 863c 2354 3ebe 83c4 bb3c
000000c0: d45c 303c fb67 04bf 96a1 d63d b72d be3e
000000d0: 8a2d b63d bea5 9e3d 7c75 b23b eded 87bd
000000e0: 8998 1dbe 3eea d73d 19b3 c1bd fa8c 02be
000000f0: fd65 663e 51c3 41be 8f16 913e 65b8 debe
00000100: c377 ab3e 9a97 a93d 1a2c 4ebe 1540 90bd
00000110: 8619 1abe c9cc 19be d183 273c 179a 303e
00000120: 027f 3e3e a68c 83be 4aae a23e f8f3 67bd
00000130: ac00 003d 1269 6ebd 72df 0abe a5c0 4b3e
00000140: 9d53 823e 2c1c a33e 7787 f83c 8883 893e
00000150: 41b0 7dbe 929d 92bf c790 34bd 53ac a4be
00000160: ecd3 03be 9f8a d53d 86af e43d 30d5 16be
00000170: 2cbb b03c 1e4d aebe eb99 2b3e 5abb 06be
00000180: 3f5b 8a3e 99e1 bc3d b1b1 71be 6c88 b23e
00000190: dcf2 ac3c 3893 bc3e 3bcc a73d d546 d03d
000001a0: 665e 6b3e 3694 293d 3024 06be 19c9 803d
000001b0: 40dc c43e 7aea 803e 1aff 01bf a803 2c3d
000001c0: 4fb6 213d f5c3 383e 1f80 673d 622c 4ebe
000001d0: 23c8 383d b949 55be b69c 583e 9db9 78be
000001e0: 1696 7b3e 5070 14be b2dd 123e ef2d 2c3e
000001f0: 0b50 56be 72f6 1e3e 42a0 30bd 45f2 4f3e
00000200: 1f82 6d3d bbc0 513d 9eda be3d bf3f 67be
00000210: 6a44 163e 6a13 473e 2456 87be 0c55 dc3d
00000220: 7e03 84bd 503f 78bd ffbd 403d b689 c6bd
00000230: 0f3b ebbe 6ee5 053e c104 8b3e 4cdb 5f3d
00000240: b35e 563e 6516 883d 79e6 f73d 7eb0 89bd
00000250: 2eda 4cbe 3927 02be 954e c7bd 61af 68be
00000260: bb3a fd3d d853 8cbd e579 c5bd ad2c ce3d
00000270: c1a7 633e 47ba b63d fd6d c13d ab35 95bd
00000280: d12b 39bc c190 a3ba 895a 0abe 7c3b 27be
00000290: d0aa 5f3e 1001 993e 01b2 efbd a36a 83bd
000002a0: 85fb a0be 28fb 94be 0c16 46be dbde 95be
000002b0: 8a07 d1be cb91 693d 83a5 c3bd 583d 203d
000002c0: ab74 79bd 9019 883e 49bf 96bd 7048 92bd
000002d0: af12 88bd bb86 413e efad ad3c 8be7 3dbd
000002e0: ebae 803e 5dac 8a3e 2dc6 83be aa1b 86bd
000002f0: 8f1c 08bd 9923 1dbe 1618 33bd 7e20 21bd
00000300: 398b 99be 58b5 02be a3c2 bdbe 97b9 203d
00000310: b1a1 84be 8bf1 eebd 3119 b73d 4223 fd3c
00000320: 5971 b9bd c4a0 d4bd 96e5 853e 0f91 84be
00000330: 93fa b5be 1e6b afbe 28f5 0e3d a429 0dbe
00000340: ce8f b9bd c0bf 81be 9972 03be b2f6 02bc
00000350: 1b6d bcbe 3328 76bc fc12 9d3d 10a2 ef3c
00000360: d92c c6be 7a2d 343e 90bd b9bd c615 7d3c
00000370: b671 0ebd 8ac2 fd3d f231 f23c 0a58 073e
00000380: ec6a 3b3e 0511 8b3e 7f54 7dbe 3f12 4f3e
00000390: e8a1 ebbd 6c90 463e 4e12 7fbe fb30 383e
000003a0: 5d61 a53e dddc 3d3d 145e fc3d c117 bf3e
000003b0: 678a af3e 1c32 18be 07ca d8be c6aa b93e
000003c0: 9c85 3dbe eec6 4ebd a4c1 5bbc c0b1 b23d
000003d0: 1d3e d43d 56fe 813e 6cd2 c4bd 51e3 a33e
000003e0: b51a 573e 8ea0 1cbe f9dc 853e 5241 84be
000003f0: c082 0e3e d75a 0c3e ae88 9dbe bc01 8c3d
-0.4292174 -0.022171302 -0.34013402 0.009707919 0.27432698 0.3353753 0.11122928 -0.020033356
0.06956411 -0.06734764 -0.17835419 -0.4666213 -0.32028645 -0.14955051 -0.14589155 0.0068258992
0.20403494 -0.14135566 0.056148715 -0.20570616 0.12347715 0.12747456 0.22680435 0.19744454
-0.35312784 0.46797335 -0.19363447 0.03487584 -0.17203027 0.005386617 -0.12544522 0.0396889
0.22519793 -0.30306476 0.17255434 0.50530404 0.0862707 0.0999947 0.020547044 0.3747695
0.22053012 0.11899414 0.27953425 0.16521312 -0.048322875 0.016375698 -0.18586783 0.022920853
0.010764319 -0.5172116 0.10480039 0.37144253 0.08895405 0.077464566 0.005446134 -0.066371776
-0.15390219 0.10542725 -0.09457988 -0.12749091 0.22499843 -0.18922164 0.28337523 -0.43500057
0.33489808 0.08280869 -0.20134011 -0.07043473 -0.15048799 -0.15019526 0.010224299 0.1724628
0.18603137 -0.25693244 0.31773597 -0.05662915 0.03125064 -0.05820567 -0.135618 0.19897707
0.25454417 0.3185743 0.030338032 0.26858163 -0.24774267 -1.1454337 -0.044083383 -0.32162723
-0.1287381 0.104268305 0.11166291 -0.14729762 0.021573626 -0.3404321 0.16757934 -0.13157406
0.2702274 0.09222717 -0.2360294 0.34869707 0.021111898 0.3683107 0.08193251 0.1016976
0.22985229 0.04140111 -0.13099742 0.06288356 0.38449287 0.2517889 -0.5077988 0.041995674
0.039480504 0.18043502 0.05651867 -0.20134118 0.04511274 -0.20828904 0.2115353 -0.24289556
0.24568972 -0.14495969 0.14342383 0.16814397 -0.20928971 0.15523699 -0.043121584 0.20307262
0.05798542 0.051209193 0.09319042 -0.22582911 0.14674535 0.19441 -0.26432908 0.10758409
-0.064459786 -0.060607255 0.047056194 -0.09694235 -0.45943496 0.13075802 0.27152064 0.054652497
0.20934562 0.066448964 0.12104506 -0.06723116 -0.20005104 -0.12710275 -0.09731785 -0.22723152
0.123647176 -0.068519294 -0.0964239 0.10067115 0.22231962 0.08922248 0.09444807 -0.07285627
-0.011301951 -0.0012479053 -0.13511099 -0.16331285 0.21842504 0.29883623 -0.117038734 -0.06416824
-0.31441894 -0.29097867 -0.19344348 -0.29271588 -0.40826064 0.057023805 -0.09553053 0.039121002
-0.06090228 0.26582003 -0.073607035 -0.071427226 -0.066441886 0.18899052 0.021201102 -0.046363395
0.25133452 0.27084628 -0.25737134 -0.06548245 -0.03323036 -0.1534561 -0.043724142 -0.039337628
-0.2998903 -0.1276449 -0.3706256 0.039239492 -0.2590461 -0.116671644 0.08940352 0.030900601
-0.090548225 -0.10382226 0.26151723 -0.2589192 -0.35542735 -0.3426141 0.034901768 -0.13785416
-0.09060632 -0.25341606 -0.12836684 -0.007993387 -0.3680199 -0.015024233 0.076696366 0.029252082
-0.3870609 0.17595473 -0.09069359 0.015447086 -0.034776412 0.12390621 0.029564831 0.13217178
0.18302506 0.27161422 -0.24739264 0.20221804 -0.115054905 0.1939103 -0.24909326 0.17987435
0.32300845 0.04635321 0.123226315 0.3732281 0.3428528 -0.14862865 -0.42341635 0.36263102
-0.18507999 -0.050482683 -0.013412867 0.08725309 0.1036341 0.25389355 -0.09610447 0.32009366
0.21006282 -0.15295622 0.2614515 -0.25831085 0.13917065 0.13706528 -0.3076834 0.06836268

bias f4 [64]
00000000: 8258 f4bd b7d5 433e 831f 043e d5df a6bd
00000010: 149b ba3d ad42 be3d 1120 8a3d 9614 37be
00000020: e7a7 99bd 0ff5 b3bd 4f4b 5bbe 92c1 d6bd
00000030: 7523 9ebc 3c64 6bbc 1500 eb3d 400b ff3d
00000040: 0741 23be 830c b7bc 8744 27be 34d1 073e
00000050: 94d2 a7bd efc5 283e 8fab 4f3d 62f9 6e3e
00000060: d849 35be 2557 15bd e35e 7bbe b398 a13d
00000070: 6f2e 713e 7c72 9e3d f9ec 013e eb66 91bd
00000080: 2e68 903d c390 a8bd ec0d 9e3d 25c6 e7be
00000090: 0df7 693e 9067 98bc 3669 a73d 67d6 ec3d
000000a0: 636a 483e 2fb0 163e bcf1 33bc 44bb 85bd
000000b0: 6e23 80bc 153b bdbe 9b6d 873e 8c8d 7dbd
000000c0: 319c 023e 640b 45be c4b5 ec3d 12f2 eebd
000000d0: b08d d43d 0742 243e 3b44 313e 6586 423e
000000e0: 59f0 26be b366 5fbe ff61 9c3d dcbd 13be
000000f0: a647 af3c 79e2 67be 47de 39be 236a 2cbe
-0.11930944 0.19124494 0.12902646 -0.08148161 0.0911161 0.09290061 0.067443974 -0.17878947
-0.07502728 -0.087869756 -0.21415447 -0.10486139 -0.019304017 -0.014367159 0.11474625 0.12453318
-0.15942775 -0.022344833 -0.16334735 0.13263398 -0.081944615 0.16481756 0.05070072 0.2333732
-0.1770395 -0.03646006 -0.24547915 0.07890453 0.2355287 0.0773668 0.12688054 -0.07099708
0.07051121 -0.08230736 0.07717499 -0.4526836 0.22848149 -0.01860407 0.08174364 0.115643315
0.19571833 0.14715646 -0.010982927 -0.06529859 -0.015641894 -0.3695914 0.2645081 -0.061902568
0.12754895 -0.19242626 0.115581065 -0.11667265 0.10378587 0.16040812 0.17311184 0.1899658
-0.16302623 -0.2181652 0.07635879 -0.14427894 0.02139647 -0.22644986 -0.18151198 -0.16837363

weight f4 [6, 64]
00000000: 3615 453f 04bd a6be c229 f3bd fd42 e93e
00000010: edd7 b4be 4ae3 b5be e555 4d3e 8857 863c
00000020: e559 e8bd 08d0 02bd ca44 85be 9760 433e
00000030: c6cd d13d 8bd0 33bd 0124 02be 4228 013f
00000040: 133c 40bf b817 2abf 496c 0dbe 4898 cebd
00000050: c398 6bbc 7557 f73d 4ff3 92be b88c c5be
00000060: 9dac 7bbb fa40 bebe 357c febe 76d8 903e
00000070: 1c39 093f d5dd f8bd 53af e8be bbe8 083f
00000080: e165 923d b9fb e9be 66b8 773e e125 9ebe
00000090: 63f2 57bd 31ab 253d 64a1 c5be 838f 153e
000000a0: 2c69 f13e 0c96 c23e 7043 bebe 9c05 103e
000000b0: ffff bc3e 3919 e9be 8001 b9be 5452 18be
000000c0: 5917 47bc f152 a33e 2435 ca3d a29b 3abe
000000d0: 0eb5 a93e bff3 c83e 724f 13bf 4427 113f
000000e0: 32a5 8a3e 4b85 76be ba38 393e dc6c 5cbf
000000f0: dd98 1a3f c5e5 d9bd a484 18be dd66 c53d
00000100: 47b1 77bd 2e75 213f d3e9 cabd 0881 5d3d
00000110: 6fdf a13e 8d0c c93e 93c9 c43c 62af bdbe
00000120: 6a10 d8be 98e4 01bf ac4f 92be facd 113e
00000130: 6ede 0b3f 24bf 8b3e 5897 363e cc07 fd3e
00000140: ebff ab3d a906 60be 44e3 9cbd 2b6e 023f
00000150: 2822 23bd cc58 c7be 61b8 b33e fe43 f13e
00000160: dc42 e43c 193d 8d3d 92da 2dbe b29c 873e
00000170: 98de 913e 3280 fb3e 9b13 0fbe 2e65 c7bb
00000180: 5346 c1be d60d 0dbe b61e bd3e 8a23 c3bd
00000190: e5c5 f03d 0a5d 3b3f be27 f03d 563f b4be
000001a0: 03d1 673e 495c 3bbe f45c 2bbe d8ee db3d
000001b0: 7cfa f4be 2db2 47be 1252 663e 5011 cdbe
000001c0: 7592 9d3d 7014 fdbe a3a6 0bbf 20de 963e
000001d0: fe13 09bf 7f71 43bd 4850 133f 5a4e 07be
000001e0: de68 05bf 5d52 a13c 056b 893e eefd c23e
000001f0: f822 b2be 5d42 54be b7e1 acbe 9c79 1c3d
00000200: 8c56 2fbe 4fd9 71bf 0532 bd3d d16f cebe
00000210: 9600 4e3e 662d fb3d 599d 86be c226 88bd
00000220: 591e 013f 51d3 053f 341c d73e c897 513d
00000230: 3a6d 2fbf f843 f2bd f8bb ce3e 6985 42be
00000240: 82bb f03e 7762 823f b141 a8be 4763 063e
00000250: 12ee 043f 2a95 883e d683 0f3e 4d75 83be
00000260: bed2 80be 4ccf cd3e 49bf 68be cac4 0bbf
00000270: cc8f efbe 6d84 463e 9e62 e23e 5949 fbbe
00000280: 1704 ca3d 20a1 953d ecd8 2ebf 6cc1 99be
00000290: e93f 893e f88a 4dbf d1ef 0dbf d10a b53e
000002a0: 41ff b7be f6ba e73e c1b7 073f 6516 433d
000002b0: efa0 613e 9d1a 98be ea4b 6e3e e962 b03e
000002c0: bb06 19bf 16bb 04be 0aa2 aa3e b0b3 02bf
000002d0: 5c99 95bd 9c69 24bf 031b 72be 7b4a 80be
000002e0: 97d5 eb3e 2658 d7be 3178 f5be 21d7 8e3e
000002f0: 20d2 c6be 3fc8 343e b520 31bd bff5 d7be
00000300: d8a5 62be afcc e1be 8957 d03d 3e86 2dbf
00000310: 8f7e 803e dee3 f4be 49e5 1dbe 132b 4d3e
00000320: e5ff 0abe 56af 103f 5564 b53e 997a 24bf
00000330: 21cb 42bd a041 83be 7d11 eb3d 4374 9abe
00000340: f298 653d 0d03 16bf 8a53 c5bd 78ab 00bf
00000350: 76c1 86bf 7ef3 1d3d 97cf 4e3e 00f0 2b3f
00000360: 68fd 303f b3ec 6e3d 506f ff3e c539 f93e
00000370: 0302 1fbf b623 99bd b027 d23d 787e b5bd
00000380: 0a31 4a3e 0ebf adbd d8f3 2e3f 5147 d7be
00000390: cda6 69bf 19e7 09bf 8ad2 893e 6b19 d6be
000003a0: 7815 37be 3a78 08be a879 423e fdea 09bf
000003b0: 852c 943e 2b24 7dbe dfb6 c93e a734 483e
000003c0: 85f5 5d3f 886f ae3d 00f8 fcbd 6694 5b3e
000003d0: eb48 2e3e c42d 153f e182 95be 1506 96bd
000003e0: ae36 693e c4de 0fbe 567c 85be f086 af3e
000003f0: 552b 943d 5e6b d0bd 33b5 5c3e 97b0 2b3e
0.7698549 -0.32566082 -0.11873199 0.4555892 -0.35320988 -0.3552497 0.20052297 0.01639916
-0.11345271 -0.031936675 -0.26029044 0.19079815 0.10244326 -0.043900054 -0.12709047 0.50452054
-0.75091666 -0.6644244 -0.13810839 -0.10087639 -0.014379683 0.12077228 -0.28701255 -0.38583922
-0.0038402446 -0.37158948 -0.49704137 0.28290147 0.53602767 -0.12151686 -0.45446262 0.5348012
0.07148338 -0.45699862 0.24191436 -0.30888274 -0.052721392 0.040446464 -0.38599694 0.14605527
0.47150552 0.38005102 -0.37160826 0.1406464 0.3691406 -0.45527056 -0.36133957 -0.14875156
-0.012151563 0.31899217 0.09873417 -0.18223432 0.33145946 0.39248464 -0.575431 0.5670054
0.2707916 -0.24074285 0.18088046 -0.86103606 0.603895 -0.10639528 -0.14894348 0.0963876
-0.0604718 0.63069427 -0.0990788 0.054078132 0.3161578 0.39267388 0.0240219 -0.3704787
-0.42200023 -0.5073943 -0.2857641 0.1423873 0.54636276 0.27294266 0.1783117 0.4942001
0.08398422 -0.2187754 -0.07660535 0.5094935 -0.039827496 -0.38934934 0.35101607 0.47122186
0.027863912 0.06896419 -0.16977909 0.26486737 0.28490138 0.49121243 -0.13972323 -0.0060850596
-0.37748966 -0.13774809 0.36937493 -0.09528263 0.117564954 0.7318884 0.1172633 -0.3520457
0.22638325 -0.18296923 -0.16734678 0.10738915 -0.47847354 -0.19501562 0.22492245 -0.4005227
0.0769395 -0.49429655 -0.5455114 0.29466343 -0.5354613 -0.04771566 0.57544374 -0.13213482
-0.5211314 0.019692594 0.26839462 0.38084358 -0.34792304 -0.2072844 -0.33765957 0.038201913
-0.17122859 -0.9447221 0.09238056 -0.40319684 0.20117411 0.122645184 -0.26291922 -0.066480175
0.5043693 0.5227557 0.42013705 0.05117014 -0.6852604 -0.1182937 0.40377784 -0.18996204
0.47018057 1.0186299 -0.3286262 0.13123809 0.51925766 0.26676303 0.14015135 -0.2567543
-0.25160784 0.40197217 -0.2272922 -0.5459715 -0.46789396 0.19386454 0.44215864 -0.49079397
0.09864061 0.07306123 -0.68299747 -0.30030382 0.26806572 -0.80290174 -0.55444056 0.35359815
-0.3593693 0.45259827 0.5301476 0.04762878 0.22034048 -0.29707804 0.23271146 0.34450462
-0.59775895 -0.12961993 0.3332675 -0.5105543 -0.073046416 -0.6422365 -0.23643117 -0.25056824
0.46061394 -0.4205944 -0.4794326 0.27898505 -0.38832188 0.17654513 -0.043244082 -0.42179677
-0.22133577 -0.44101474 0.10172946 -0.6778296 0.25096557 -0.478301 -0.15419497 0.20035963
-0.13574179 0.5651754 0.3542811 -0.6424957 -0.047557 -0.25636005 0.11477945 -0.30166826
0.056054063 -0.58598405 -0.096350744 -0.5026164 -1.052779 0.03856229 0.20196377 0.67163086
0.6913667 0.058331203 0.49889612 0.48676887 -0.62112445 -0.074775144 0.10261476 -0.088620126
0.1974527 -0.084837064 0.68340826 -0.42046598 -0.9127014 -0.5386825 0.2691844 -0.41816267
-0.17879283 -0.13327113 0.1899172 -0.5387419 0.28940216 -0.24720828 0.39397332 0.19551335
0.8670276 0.08517367 -0.1235199 0.21443328 0.17020003 0.5827296 -0.29201415 -0.07325379
0.22774765 -0.14049822 -0.26071423 0.34282637 0.072348274 -0.10176729 0.21553497 0.16766582

bias f4 [6]
00000000: 0df4 ee3c 2a72 f73d a232 03bd b78f 013e
00000010: 3fe1 61be cc3e 86bd
0.029169107 0.12082322 -0.03203071 0.12652479 -0.22058581 -0.06554946
