src/learning/models/64_64_64_touch_800epoch.pt (torch, 40015 bytes, 8 tensors)

weight f4 [64, 6]
-0.05516487 -0.12038632 1.4330581 0.02070869 0.29494753 0.66738784 -0.0072130105 0.012389511
-0.005460435 -0.17203523 1.0571307 -0.7966773 0.11382154 -0.2998366 -0.45092267 -0.016804256
-0.71363 -0.73131263 0.23001485 0.086635396 0.33872378 -0.01640598 -0.14012909 0.19166067
0.43106768 -0.16517857 -0.23966055 -0.26481843 -0.36202985 0.5517051 -0.14007953 -0.5717805
0.42076486 -0.29501897 -0.25955054 0.54448426 -0.043064654 0.68434197 0.24728048 -0.14530027
-0.10955811 0.29475322 0.11033571 -0.43991306 -0.22051574 0.52440596 1.1571381 -0.06476205
0.7052117 -0.10762711 0.00835276 -0.83533335 0.5845483 0.4843926 -0.09654299 0.4541574
-0.69947964 0.47573274 0.20283405 0.8711411 0.39119583 -0.60204494 0.15436147 0.09243879
0.10339544 0.22426029 -0.41125345 0.2757959 -0.30350414 -0.16847727 -0.24643332 0.049745224
0.39655548 -0.2670208 -0.46612096 0.263192 -0.032420654 -0.5446798 0.1378133 0.44949958
-0.1126557 -0.690999 -0.23253252 -0.19082317 0.114922285 -0.39601973 -0.21988314 -0.68385017
-0.11882123 0.32085025 -0.074231714 -0.55332947 -0.2677829 -0.057832334 0.23050228 -0.54137933
0.09207982 -0.20540956 -0.56663024 -0.42285055 0.2943425 0.26656958 -0.20837176 0.682519
-0.022584518 -0.29209858 -0.33456862 -0.44951856 0.11744681 0.07500668 0.9059444 -0.27277792
-0.13891484 0.11480867 -0.51071644 0.1954446 -0.16496305 -0.4167939 0.24672018 0.28559792
0.20720036 -0.3900536 0.51457626 0.07438952 -0.23303163 -0.28962886 0.2102689 -0.049959183
-0.7491097 -0.46878332 -0.38034788 -0.7955306 -0.26839226 0.12613104 -0.20869301 0.2823683
-0.37693053 0.24459217 0.0086185755 -0.35868976 0.027224937 -0.52790254 0.2322906 0.22065991
0.2031956 0.16536841 -0.08869469 0.23876731 0.6584521 0.2578103 -0.40566948 0.17334996
-0.048694465 -0.21843612 0.05505682 -0.7737867 -0.101265065 -0.2880732 0.3117381 0.22026166
0.57662404 0.79671156 0.66417193 0.435634 -0.014247217 0.3796594 0.0049556317 0.29933587
-0.23055251 -0.4477154 -0.21648481 -0.03887735 -0.5226392 1.1942931 0.21329175 -0.17424193
-0.06347751 0.6631426 -0.4080775 -0.1836989 -0.40034515 -0.26560467 -0.4205087 -0.13180342
0.048191663 0.41989914 -0.35073885 -0.009401284 0.37673062 0.89009756 0.263638 0.4457868
-0.03432348 0.42595357 -0.051304743 0.28637257 -0.32397175 -0.52247214 0.39762267 -0.37979627
-0.17007802 0.32874846 0.49945068 0.76130503 -0.7620075 -0.4141664 0.018389912 0.29595163
0.16791902 0.15983996 0.45657846 -0.1598657 0.12781215 0.40964293 0.47975266 -0.15059476
0.20863292 -0.20726314 0.19864826 -0.13056453 1.0425389 -0.4062669 0.40359852 -0.3280008
-0.1058209 0.47739092 0.081141695 0.51134485 -0.789626 -0.13764203 0.46889225 -0.24879184
0.2997669 -0.4823222 0.1664015 -0.37872317 0.45805186 -0.5038994 0.5659103 0.3612909
-0.91526675 0.08201808 0.20231709 0.81129056 0.6892947 0.05582125 0.12901717 0.057581287
0.16032302 0.39921808 -0.55835193 0.36301798 -0.17479782 -0.32802656 -0.25633788 -0.04216421
00000000: 8ff4 61bd 1a8d f6bd 736e b73f 45a5 a93c
00000010: 5d03 973e eed9 2a3f 1e5b ecbb 60fd 4a3c
00000020: 73ed b2bb 012a 30be 0f50 873f 0bf3 4bbf
00000030: 441b e93d 2f84 99be 56df e6be 14a9 89bc
00000040: 75b0 36bf 4e37 3bbf 0389 6b3e e66d b13d
00000050: 346d ad3e d565 86bc 007e 0fbe b242 443e
00000060: e7b4 dc3e 9224 29be 9369 75be 4896 87be
00000070: fa5b b9be 8c3c 0d3f 0271 0fbe 3560 12bf
00000080: 7e6e d73e ba0c 97be cfe3 84be 5263 0b3f
00000090: 9064 30bd 0931 2f3f 1837 7d3e 98c9 14be
000000a0: 0160 e0bd e5e9 963e b0f7 e13d 493c e1be
000000b0: e1ce 61be 783f 063f 1a1d 943f f7a1 84bd
000000c0: c188 343f 9a6b dcbd 04da 083c 68d8 55bf
000000d0: f5a4 153f 4f02 f83e 55b8 c5bd 5287 e83e
000000e0: 1911 33bf 3e93 f33e bbb3 4f3e 1a03 5f3f
000000f0: d24a c83e 9e1f 1abf ef10 1e3e 8c50 bd3d
00000100: fdc0 d33d 7da4 653e d08f d2be 1f35 8d3e
00000110: e564 9bbe 4e85 2cbe 0459 7cbe a6c1 4b3d
00000120: 5209 cb3e f3b6 88be 68a7 eebe 1ac1 863e
00000130: 85cb 04bd 2370 0bbf ee1e 0d3e cf24 e63e
00000140: 08b8 e6bd 4fe5 30bf 011d 6ebe 2667 43be
00000150: 605c eb3d 19c3 cabe 0c29 61be ce10 2fbf
00000160: 8c58 f3bd 7c46 a43e cc06 98bd 00a7 0dbf
00000170: d71a 89be 99e1 6cbd ca08 6c3e d697 0abf
00000180: 5894 bc3d e256 52be ae0e 11bf de7f d8be
00000190: 0fb4 963e cf7b 883e 685f 55be 91b9 2e3f
000001a0: 2b03 b9bc f28d 95be 944c abbe 4c27 e6be
000001b0: f487 f03d 1a9d 993d f9eb 673f 8ca9 8bbe
000001c0: b13f 0ebe cf20 eb3d 50be 02bf a122 483e
000001d0: 13ec 28be 0366 d5be 37a4 7c3e e439 923e
000001e0: 552c 543e 1bb5 c7be 45bb 033f 8859 983d
000001f0: d89f 6ebe 3c4a 94be bb50 573e 00a2 4cbd
00000200: a7c5 3fbf 5e04 f0be f5bc c2be e5a7 4bbf
00000210: b66a 89be 7f28 013e 9fb3 55be 9492 903e
00000220: 0afd c0be 5f76 7a3e ed34 0d3c 2fa6 b7be
00000230: d506 df3c 9f24 07bf 96dd 6d3e acf4 613e
00000240: 8212 503e 5656 293e 90a5 b5bd 6b7f 743e
00000250: 5190 283f b6ff 833e e9b3 cfbe a782 313e
00000260: d973 47bd b8ad 5fbe 4383 613d e316 46bf
00000270: 0f64 cfbd 557e 93be 239c 9f3e 468c 613e
00000280: a29d 133f 4af5 4b3f 2c07 2a3f 6b0b df3e
00000290: 296d 69bc b862 c23e da62 a23b 8d42 993e
000002a0: f515 6cbe f43a e5be 32ae 5dbe db3d 1fbd
000002b0: afcb 05bf 99de 983f 2769 5a3e 7a6c 32be
000002c0: 7f00 82bd b7c3 293f 89ef d0be 901b 3cbe
000002d0: 0afa ccbe 56fd 87be eb4c d7be 7af7 06be
000002e0: 9f64 453d 05fd d63e 0b94 b3be d807 1abc
000002f0: d6e2 c03e 6fdd 633f 8ffb 863e 2b3e e43e
00000300: c796 0cbd 9616 da3e ec24 52bd 6d9f 923e
00000310: a0df a5be bcc0 05bf 3395 cb3e a874 c2be
00000320: ef28 2ebe b851 a83e 00b8 ff3e e3e4 423f
00000330: ec12 43bf 9e0d d4be 71a6 963c f986 973e
00000340: f7f2 2b3e 16ad 233e a7c4 e93e d6b3 23be
00000350: 30e1 023e b8bc d13e 24a2 f53e 8335 1abe
00000360: dea3 553e ca3c 54be 736a 4b3e b5b2 05be
00000370: ea71 853f 3702 d0be 77a4 ce3e b9ef a7be
00000380: a1b8 d8bd 956c f43e 9e2d a63d 7fe7 023f
00000390: ee24 4abf 08f2 0cbe a512 f03e 4ac3 7ebe
000003a0: 0c7b 993e eff2 f6be 2865 2a3e 01e8 c1be
000003b0: c685 ea3e 8dff 00bf 7fdf 103f 1ffb b83e
000003c0: ec4e 6abf 18f9 a73d 362c 4f3e bdb0 4f3f
000003d0: 9e75 303f d3a4 643d 141d 043e 5bda 6b3d
000003e0: b82b 243e 5066 cc3e 27f0 0ebf 7edd b93e
000003f0: 33fe 32be 19f3 a7be b83e 83be 61b4 2cbd

bias f4 [64]
-0.70840394 -0.37705088 0.76003456 -0.16269939 0.61360496 0.16886955 -0.34294575 -0.09766938
-0.60738045 -0.21097243 -0.19801645 0.44934767 0.19937661 0.61945117 -0.32839504 0.39186382
0.47781777 0.32846886 0.55715555 0.06252696 0.83304816 0.9656355 0.5965898 -0.63007224
0.14905147 0.039535448 0.4719975 -0.75750643 0.062710665 0.4205752 0.22295024 -0.13851626
0.3575974 -0.41199654 -0.75325525 -0.05196716 -0.6915985 -0.044581857 -0.16271308 0.13761708
-0.30276322 0.42574155 0.353162 -0.63586444 0.66743463 0.4349943 -0.16451819 -0.60671514
0.067013554 -0.6663788 1.0297266 1.006614 0.45121813 -0.7696542 0.74061984 0.4365073
-0.018944848 0.26167458 -0.67796135 -0.24857397 -0.5604413 0.5127343 -0.41412207 -0.78513217
00000000: f659 35bf d00c c1be a091 423f ab9a 26be
00000010: 3715 1d3f 24ec 2c3e 9696 afbe e206 c8bd
00000020: 497d 1bbf 2809 58be d3c4 4abe e610 e63e
00000030: 6229 4c3e 5a94 1e3f 6523 a8be 60a2 c83e
00000040: 88a4 f43e 122d a83e bfa1 0e3f 230e 803d
00000050: a542 553f e333 773f 1cba 183f 6a4c 21bf
00000060: f3a0 183e ecef 213d a8a9 f13e f1eb 41bf
00000070: 736e 803d a255 d73e 114d 643e 35d7 0dbe
00000080: 0217 b73e 36f1 d2be 56d5 40bf 84db 54bd
00000090: 990c 31bf 779b 36bd 429e 26be 7eeb 0c3e
000000a0: c803 9bbe ccfa d93e a6d1 b43e 03c8 22bf
000000b0: ffdc 2a3f 93b7 de3e 7577 28be af51 1bbf
000000c0: 673e 893d cd97 2abf 15ce 833f bad8 803f
000000d0: 1006 e73e 0f08 45bf 4399 3d3f e37d df3e
000000e0: 3a32 9bbc 36fa 853e e08e 2dbf 2d8a 7ebe
000000f0: 1579 0fbf 8e42 033f cf07 d4be 6cfe 48bf

weight f4 [64, 64]
-0.09589733 0.19624172 0.12043972 -0.21429306 0.042575363 -0.07721998 0.021580104 0.3621147
0.41352704 -0.07324286 -0.41969812 -0.15112662 -0.16407685 0.24117157 -0.27585945 -0.21088082
-0.31168443 -0.26115617 -0.048703223 0.36561367 0.3267113 0.06454432 -0.2368543 -0.1019053
0.06863195 -0.24417642 -0.40215808 -0.3102974 -0.42814955 -0.18969157 -0.09854103 -0.19915676
-0.022045933 -0.19129556 -0.37750328 -0.12600496 -0.07923624 -0.22424404 0.51879364 -0.00018431754
0.08675976 -0.3130306 0.44739765 -0.3334386 0.32937673 -0.19497171 -0.04510417 -0.2321124
0.27329633 -0.3026371 -0.17279814 -0.3607334 0.07645899 -0.039327078 0.31900823 -0.09349891
0.06761511 0.25097343 -0.21148485 0.32316792 0.2205443 0.053499684 0.32993662 -0.19376439
0.27566 0.15338092 -0.1091609 0.21980326 -0.103226885 -0.5327274 -0.26704097 0.04725686
0.14171901 -0.014501387 0.053762183 -0.18087198 0.23912126 -0.12701951 -0.48588702 -0.06366758
0.01079513 -0.15768972 0.03787872 0.29911423 -0.102949925 0.2555044 -0.16132183 0.26424363
0.1862414 -0.24294698 -0.11478592 -0.09864316 0.27337122 -0.17199498 0.23128404 -0.13850597
0.15076518 -0.19588067 0.17170136 0.075353175 -0.71667075 0.03859946 0.11840948 0.24744284
0.2145248 0.046959147 0.19399112 0.36493146 -0.26488712 0.21705723 0.18730135 -0.42433578
0.014359911 0.024099614 0.1677234 -0.0128312735 -0.18240528 -0.1213493 -0.15195292 -0.10944571
0.41256347 -0.30726856 -0.32691652 -0.13654973 -0.36920774 0.2179234 -0.19348156 -0.26881814
-0.3878263 0.5100986 0.45924634 -0.16548324 -0.11975896 0.22258651 -0.061075818 0.2861232
-0.0080886055 -0.046098366 -0.2294178 0.027277417 -0.060355294 0.43236357 -0.5791263 0.0905647
-0.36163995 0.19502227 0.18525343 0.19163051 0.08615774 0.24340495 -0.04513034 0.0056980276
-0.050316624 0.1943406 -0.01564401 -0.08304142 0.05364086 0.4968551 -0.08253772 -0.31032193
0.2947552 -0.28552994 -0.14487223 0.47375068 0.14714107 -0.05488191 -0.08335307 0.40741163
0.3330356 -0.61309355 0.36044544 -0.1102911 0.21873203 -0.1479271 0.02671337 -0.27245513
-0.12931117 -0.019078258 0.15796798 -0.18158159 -0.37451294 -0.4229181 0.02781744 0.08908622
0.11664555 0.061119903 -0.16196777 0.19583525 -0.21801206 0.11520687 0.083112165 -0.12677294
-0.08455807 0.11470432 -0.1234513 0.056393668 0.07099648 0.17380764 -0.029724585 0.32011813
-0.14971882 0.3562051 -0.39489526 -0.012917568 0.17462489 -0.3632247 0.40847078 0.014095435
-0.06355458 0.12735054 0.1650916 -0.30396044 -0.31680635 -0.56042886 0.21062624 0.12490647
0.07676588 0.12343558 0.56744456 0.20825909 0.42760816 -0.007903335 0.207824 -0.08592886
0.27757 0.05990656 0.120479934 0.29703957 -0.2813697 0.15213498 -0.6686989 -0.3387684
-0.3574267 -0.2652434 -0.13106567 0.056274205 0.025348581 0.021236612 -0.1682267 0.004666984
-0.023396714 0.18893324 0.21916372 0.26364616 0.37901834 -0.021508208 -0.0011216982 -0.22330502
0.18604136 -0.019952605 -0.45350355 -0.2101549 0.06470034 -0.2268679 -0.19177815 0.03238597
00000000: d265 c4bd 97f3 483e 1aa9 f63d a46f 5bbe
00000010: 8163 2e3d 8225 9ebd c2c8 b03c 1967 b93e
00000020: d1b9 d33e 5a00 96bd ace2 d6be f0c0 1abe
00000030: c303 28be aef5 763e 733d 8dbe 24f1 57be
00000040: 1a95 9fbe 43b6 85be 087d 47bd b731 bb3e
00000050: b446 a73e d02f 843d ef89 72be bab3 d0bd
00000060: e88e 8c3d 6209 7abe aae7 cdbe 4ddf 9ebe
00000070: 6b36 dbbe 823e 42be e1cf c9bd c0ef 4bbe
00000080: ac99 b4bc fce2 43be 1c48 c1be 7207 01be
00000090: 9c46 a2bd 3ba0 65be a9cf 043f 5d45 41b9
000000a0: 1aaf b13d 8c45 a0be 4e11 e53e 77b8 aabe
000000b0: 11a4 a83e aaa6 47be 26bf 38bd dfae 6dbe
000000c0: 7fed 8b3e 40f3 9abe fff1 30be 0cb2 b8be
000000d0: 8896 9c3d 6e15 21bd 0c55 a33e 5b7c bfbd
000000e0: ca79 8a3d 977f 803e 7c8f 58be 4476 a53e
000000f0: 5dd6 613e 7c22 5b3d 74ed a83e 2c6a 46be
00000100: 4f23 8d3e e30f 1d3e c08f dfbd 1b14 613e
00000110: 9e68 d3bd d360 08bf 98b9 88be 6990 413d
00000120: ca1e 113e 3a97 6dbc bc35 5c3d 8136 39be
00000130: 34dc 743e 6711 02be 2fc6 f8be 2664 82bd
00000140: 0fde 303c 6a79 21be b726 1b3d 8025 993e
00000150: 69d7 d2bd 79d1 823e 8d31 25be f14a 873e
00000160: 11b6 3e3e 18c7 78be e114 ebbd 6d05 cabd
00000170: 50f7 8b3e 741f 30be b9d5 6c3e 82d4 0dbe
00000180: 3062 1a3e f194 48be 7bd2 2f3e c452 9a3d
00000190: bc77 37bf 781a 1e3d ab80 f23d a861 7d3e
000001a0: 64ac 5b3e 3c58 403d 9ca5 463e 4cd8 ba3e
000001b0: 499f 87be 4044 5e3e edcb 3f3e 8a42 d9be
000001c0: d545 6b3c 8e6c c53c afbf 2b3e 433a 52bc
000001d0: 73c8 3abe fb85 f8bd 8c99 1bbe 1325 e0bd
000001e0: 853b d33e 4e52 9dbe 9a61 a7be b1d3 0bbe
000001f0: cc08 bdbe 5027 5f3e 0820 46be 88a2 89be
00000200: 2b91 c6be d295 023f 5622 eb3e 7074 29be
00000210: 3044 f5bd b8ed 633e a32a 7abd bd7e 923e
00000220: 1286 04bc a4d1 3cbd 80ec 6abe e474 df3c
00000230: 1d37 77bd c25e dd3e 9f41 14bf fc79 b93d
00000240: df28 b9be ebb3 473e 13b3 3d3e ca3a 443e
00000250: 7873 b03d 263f 793e 97da 38bd 85b6 ba3b
00000260: ce18 4ebd 3901 473e de27 80bc 9f11 aabd
00000270: 85b6 5b3d cb63 fe3e 8909 a9bd 84e2 9ebe
00000280: 27ea 963e fb30 92be 6359 14be 738f f23e
00000290: 26ac 163e dbcb 60bd 04b5 aabd 4298 d03e
000002a0: a483 aa3e b3f3 1cbf 4e8c b83e 4de0 e1bd
000002b0: 4afb 5f3e 347a 17be ffd5 da3c 3d7f 8bbe
000002c0: 266a 04be 024a 9cbc 5cc2 213e 86f0 39be
000002d0: 29c0 bfbe b988 d8be 66e1 e33c d672 b63d
000002e0: dde3 ee3d dd58 7a3d e1da 25be 0989 483e
000002f0: 8e3e 5fbe 94f1 eb3d b636 aa3d c4d0 01be
00000300: c82c adbd 19ea ea3d 09d4 fcbd 0cfd 663d
00000310: 9a66 913d a1fa 313e f980 f3bc 86e6 a33e
00000320: e44f 19be 8460 b63e b62f cabe 35a4 53bc
00000330: ded0 323e 96f8 b9be 1523 d13e 8af0 663c
00000340: e728 82bd 2e68 023e c60d 293e b4a0 9bbe
00000350: 7134 a2be 4478 0fbf 68ae 573e f7ce ff3d
00000360: 6e37 9d3d cbcb fc3d 0c44 113f df41 553e
00000370: 75ef da3e fd7c 01bc d1cf 543e 78fb afbd
00000380: a81d 8e3e 9560 753d 2fbe f63d 9215 983e
00000390: b00f 90be 46c9 1b3e da2f 2bbf 0d73 adbe
000003a0: a200 b7be fccd 87be 1436 06be c87f 663d
000003b0: d4a7 cf3c 67f8 ad3c 9f43 2cbe 80ed 983b
000003c0: 77aa bfbc b777 413e 746c 603e a1fc 863e
000003d0: b10e c23e fb31 b0bc f205 93ba 12aa 64be
000003e0: a081 3e3e a573 a3bc 9e31 e8be d932 57be
000003f0: 9d81 843d 0f50 68be 7e61 44be 27a7 043d

bias f4 [64]
-0.11277045 -0.08898803 -0.18995115 0.19037198 0.18100476 -0.16256627 0.40763044 -0.10156945
-0.16402934 -0.334809 0.13657258 -0.038574036 0.18865733 -0.15016678 -0.04434259 0.4139974
-0.17318252 -0.15956296 0.2029462 0.3615524 -0.18779032 -0.00951459 -0.01874634 -0.06237796
-0.12191506 -0.030328428 -0.034387603 -0.3104248 -0.012907419 0.0004087533 -0.06102937 -0.22435318
-0.3499246 -0.47323322 -0.13373643 -0.25243843 0.22542906 -0.38631907 -0.049035314 0.0016581733
0.23246528 0.3019565 0.15540886 0.11133593 -0.18356498 -0.12175746 0.0013928936 -0.20085375
0.14040685 0.06470108 -0.2214624 0.024908107 -0.02979858 0.48234674 -0.38595575 -0.060549945
0.09336192 -0.30347642 -0.14848943 -0.24617831 0.06846224 0.13684672 -0.29172596 0.21074657
00000000: 32f4 e6bd 5b3f b6bd 8e82 42be dff0 423e
00000010: 5059 393e c677 26be f0b4 d03e a503 d0bd
00000020: 4ff7 27be 166c abbe afd9 0b3e cfff 1dbd
00000030: 632f 413e 52c5 19be 93a0 35bd 78f7 d33e
00000040: c256 31be 7964 23be 21d1 4f3e 651d b93e
00000050: 1b4c 40be 15e3 1bbc ed91 99bc 0880 7fbd
00000060: 9aae f9bd 5373 f8bc 04da 0cbd 00f0 9ebe
00000070: a479 53bc f04d d639 eff9 79bd d7bc 65be
00000080: 5129 b3be a04b f2be 34f2 08be 9c3f 81be
00000090: e0d6 663e 9dcb c5be 41d9 48bd 1057 d93a
000000a0: 610b 6e3e 0b9a 9a3e 8023 1f3e 1804 e43d
000000b0: 75f8 3bbe fa5b f9bd c191 b63a 9bac 4dbe
000000c0: d0c6 0f3e 0082 843d 0ac7 62be 160c cc3c
000000d0: 271c f4bc 27f6 f63e fe9b c5be 3803 78bd
000000e0: 8934 bf3d 4361 9bbe 9d0d 18be 2b16 7cbe
000000f0: ee35 8c3d 8c21 0c3e 1b5d 95be f3cd 573e

weight f4 [64, 64]
0.36540973 -0.009717074 0.028070074 0.042824466 0.13549845 -0.10125899 0.17020355 0.04274877
0.2823446 -0.37235612 -0.13623232 -0.20771979 0.18043028 0.1790958 0.1797224 0.0175106
0.27527684 0.15005691 0.0321445 -0.28634313 0.2626577 0.085379325 -0.023140805 -0.12935737
-0.19471991 -0.5396781 -0.24867713 0.0651067 -0.055527933 0.19266745 0.48459896 0.2633096
-0.103229865 -0.16290976 -0.2639615 -0.08469113 -0.21869746 -0.2897575 -0.05059037 0.31514317
0.22919106 0.20813137 0.31919405 -0.6703006 0.18006371 0.40798604 -0.4833606 -0.26329398
-0.04076878 -0.2810555 0.1282254 -0.0057778633 -0.054325197 0.08823603 -0.400922 -0.12311628
-0.038015302 -0.3621428 0.35048568 0.065805346 0.5345623 0.16020054 0.18910153 -0.24491486
0.18923235 0.18488227 0.1466317 0.41180712 -0.07442176 0.41835123 0.31403732 0.3244948
0.11182516 0.29707623 0.64239687 0.31110436 -0.17835082 0.10714974 -0.4258135 -0.019381013
-0.025161114 0.18394552 -0.075866655 0.30156463 -0.38278994 -0.012465894 -0.18725689 -0.1817741
0.38949138 0.0018907251 0.21096468 -0.49170372 0.016395956 -0.5268582 1.2373596 0.30241844
-0.4607642 -0.38009506 -0.552731 -0.02015781 -0.3329106 0.34828717 0.11447725 0.5451854
0.25420925 -0.13435255 -0.16456759 -0.0140417665 -0.6150229 0.5475317 -0.15910828 -0.99198794
0.79768515 0.41022202 -0.19300145 0.05214885 0.48002154 0.607074 -0.2606054 -0.67793906
0.8650551 -0.12557532 0.25465018 -0.07996934 0.17762998 0.5183424 -0.031237585 -0.40082827
0.7099832 -0.48790622 0.39386913 -0.015813163 0.100312345 -0.36308834 0.13264762 0.38250774
-0.31826782 -0.1280164 -0.24899004 0.27332607 -0.483679 0.353421 -0.04277738 0.3303629
0.6203883 0.16363136 0.48038843 -0.0627329 -0.021224637 0.20116252 0.28809214 0.086988755
0.25368893 0.17721155 0.33098614 -0.2805735 -0.13555588 0.26421106 0.017369458 0.5240611
0.1531659 0.021999387 0.20849921 -0.32135358 0.0591232 0.6428124 0.71215165 0.11509893
0.010692853 -0.35538092 0.31801906 -0.41109973 0.52391714 -0.048772838 -0.22754295 -0.26052356
0.32784 0.19564356 -0.013825386 0.5516455 -0.34318796 -0.16094825 0.1645235 -0.34514827
-0.00481381 -0.043894283 0.093092956 0.62381536 0.4425923 -0.17936459 0.24507777 -0.25395587
-0.14504625 0.2612674 -0.2184782 0.59789866 -0.012328316 -0.1295333 -0.1645054 0.07788555
0.20525742 -0.7423771 0.06449878 -0.22653049 0.06920802 0.30103448 0.16953883 0.65249425
0.06187913 -0.11057178 -0.027618257 0.21992366 -0.124869235 -0.10548433 -0.13459332 0.450438
-0.0714994 -0.08043596 -0.066911854 -0.30872965 0.2573531 -0.103570804 -0.044817086 -0.13666408
-0.14736317 0.15206052 -0.22018583 0.02129384 0.25402078 -0.075011976 0.11983514 0.04457533
-0.31903982 -0.07340907 0.3380056 0.11187536 0.21716456 0.36079738 0.38744196 -0.2319399
-0.15445225 -0.23549363 -0.3835721 0.1471796 -0.102480195 -0.6674213 0.03150713 -0.027901413
-0.53959155 -0.22393987 -0.044542573 -0.04168961 -0.15621999 -0.17960265 0.22374901 -0.108344875
00000000: fc16 bb3e 5d34 1fbc 36f3 e53c b568 2f3d
00000010: 1bc0 0a3e e060 cfbd d749 2e3e 5619 2f3d
00000020: 798f 903e 76a5 bebe 7c80 0bbe 7fb4 54be
00000030: b7c2 383e e464 373e 2609 383e 6472 8f3c
00000040: 16f1 8c3e 85a8 193e f4a9 033d 919b 92be
00000050: 127b 863e 5bdb ae3d c991 bdbc 4276 04be
00000060: a864 47be 5828 0abf 38a5 7ebe a956 853d
00000070: 4271 63bd 9e4a 453e 5b1d f83e 84d0 863e
00000080: 2e6a d3bd d1d1 26be f625 87be 8b72 adbd
00000090: 3af2 5fbe 185b 94be d937 4fbd 725a a13e
000000a0: 10b1 6a3e 6420 553e 676d a33e d298 2bbf
000000b0: 9f62 383e 8ce3 d03e 0a7b f7be 78ce 86be
000000c0: 2afd 26bd 82e6 8fbe 854d 033e 3b54 bdbb
000000d0: 1984 5ebd 17b5 b43d a645 cdbe 6324 fcbd
000000e0: efb5 1bbd c86a b9be dc72 b33e f4c4 863d
000000f0: 13d9 083f 9c0b 243e d5a3 413e f6ca 7abe
00000100: 20c6 413e c751 3d3e 9f26 163e 62d8 d23e
00000110: 706a 98bd 2232 d63e 80c9 a03e 2f24 a63e
00000120: 9704 e53d 601a 983e 1f74 243f 1249 9f3e
00000130: 99a1 36be 5371 db3d 3a04 dabe eec4 9ebc
00000140: ae1e cebc 375c 3c3e fa5f 9bbd ae66 9a3e
00000150: 0bfd c3be c03d 4cbc 45c0 3fbe fd22 3abe
00000160: 6a6b c73e 35d2 f73a 2007 583e 97c0 fbbe
00000170: d050 863c 2ee0 06bf cd61 9e3f 97d6 9a3e
00000180: 49e9 ebbe d29b c2be c77f 0dbf fe21 a5bc
00000190: 4273 aabe b252 b23e 0c73 ea3d 4591 0b3f
000001a0: b727 823e b793 09be 6884 28be 700f 66bc
000001b0: 2472 1dbf 0a2b 0c3f 48ed 22be ecf2 7dbf
000001c0: 1835 4c3f 9f08 d23e 2ca2 45be 089a 553d
000001d0: 62c5 f53e 3469 1b3f 126e 85be 6a8d 2dbf
000001e0: 4074 5d3f d196 00be 8261 823e f7c6 a3bd
000001f0: a2e4 353e 16b2 043f f7e5 ffbc 5d39 cdbe
00000200: 76c1 353f d8ce f9be 37a9 c93e 9b8a 81bc
00000210: 8f70 cd3d b7e6 b9be c7d4 073e 0ed8 c33e
00000220: 00f4 a2be bb16 03be 3ff7 7ebe 65f1 8b3e
00000230: c6a4 f7be 99f3 b43e 5637 2fbd 5325 a93e
00000240: c5d1 1e3f fb8e 273e 79f5 f53e 1b7a 80bd
00000250: 4adf adbc 8cfd 4d3e d080 933e 2927 b23d
00000260: 84e3 813e f276 353e 0477 a93e 54a7 8fbe
00000270: 29cf 0abe ac46 873e 654a 8e3c de28 063f
00000280: 86d7 1c3e 0f38 b43c d180 553e 7588 a4be
00000290: 2b2b 723d 5a8f 243f 924f 363f fdb8 eb3d
000002a0: 1331 2f3c 7df4 b5be 65d3 a23e aa7b d2be
000002b0: 6f1f 063f 07c6 47bd 0501 69be 5863 85be
000002c0: a5da a73e c956 483e df83 62bc a438 0d3f
000002d0: 55b6 afbe 9ecf 24be d978 283e 46b7 b0be
000002e0: 2abd 9dbb 7eca 33bd 85a7 be3d 5db2 1f3f
000002f0: 759b e23e 5aab 37be abf5 7a3e 8106 82be
00000300: 0187 14be d7c4 853e c0b8 5fbe e30f 193f
00000310: b5fc 49bc 61a4 04be 1b74 28be 7682 9f3d
00000320: 002f 523e 6d0c 3ebf f017 843d 9cf7 67be
00000330: efbc 8d3d 3121 9a3e 969b 2d3e dd09 273f
00000340: f874 7d3d 7573 e2bd af3f e2bc ab33 613e
00000350: 71bb ffbd 2b08 d8bd d5d2 09be cf9f e63e
00000360: 476e 92bd 9cbb a4bd 1509 89bd d011 9ebe
00000370: c9c3 833e ee1c d4bd 1f92 37bd abf1 0bbe
00000380: 5fe6 16be c1b5 1b3e 6578 61be 6b70 ae3c
00000390: 030f 823e e19f 99bd 206c f53d 9f94 363d
000003a0: 3059 a3be 7f57 96bd 120f ad3e e91e e53d
000003b0: 6360 5e3e 6fba b83e cb5e c63e a781 6dbe
000003c0: bb28 1ebe 3e25 71be 9063 c4be 40b6 163e
000003d0: 23e1 d1bd 1fdc 2abf 9f0d 013d 8191 e4bc
000003e0: ac22 0abf 7e50 65be 4672 36bd b9c2 2abd
000003f0: 22f8 1fbe c2e9 37be 761e 653e ebe3 ddbd

bias f4 [64]
0.14505126 -0.05266757 -0.2026577 0.038487997 -0.077830926 0.14859067 0.15156205 -0.3515119
-0.0126191005 0.20757903 0.2743285 0.058356456 0.2099118 -0.21375193 -0.022245202 0.25721046
0.18942367 0.18544397 -0.25647995 -0.5111532 -0.20191501 -0.07925217 -0.35807028 0.29532138
0.26344046 0.16182473 -0.19373065 -0.08789103 0.2704952 -0.1401286 0.05255777 -0.061322574
0.023956476 0.23827419 -0.05373341 0.23594898 -0.10213827 -0.08652501 0.20740491 0.25773805
-0.32812175 -0.021668097 -0.028529422 -0.54003555 0.032685727 -0.040498305 -0.12489257 -0.17513771
-0.047946602 0.22472012 -0.0038002627 -0.120136395 -0.08776503 0.15839149 0.09780524 -0.33905217
0.45991346 0.32758775 -0.24339367 0.27953228 -0.23552147 0.24626818 0.08555196 0.06660304
00000000: 5188 143e f3b9 57bd 8085 4fbe 97a5 1d3d
00000010: d265 9fbd 2728 183e 1533 1b3e 5ef9 b3be
00000020: 58c0 4ebc 998f 543e c974 8c3e 2e07 6f3d
00000030: 1ef3 563e c9e1 5abe 923b b6bc 17b1 833e
00000040: 47f8 413e 06e5 3d3e 5751 83be f0da 02bf
00000050: cfc2 4ebe f64e a2bd fd54 b7be 5d34 973e
00000060: abe1 863e 62b5 253e 5461 46be 3600 b4bd
00000070: 597e 8a3e df7d 0fbe d146 573d 612d 7bbd
00000080: 5f40 c43c 26fe 733e 9017 5cbd 9c9c 713e
00000090: df2d d1bd 0634 b1bd f461 543e 3ef6 833e
000000a0: 93ff a7be 4b81 b1bc 89b6 e9bc c53f 0abf
000000b0: 78e1 053d 8de1 25bd adc7 ffbd 4d57 33be
000000c0: a863 44bd 081d 663e d40d 79bb 120a f6bd
000000d0: 27be b3bd 6131 223e 1d4e c83d 3f98 adbe
000000e0: c779 eb3e 95b9 a73e 313c 79be db1e 8f3e
000000f0: 8a2c 71be ba2d 7c3e de35 af3d 2d67 883d

weight f4 [6, 64]
-0.28935826 -0.9536288 -0.5230855 0.18683022 0.44243363 -0.29545018 0.08362339 -0.042836156
-0.98814625 -0.3194228 -0.2056496 0.53616685 0.47579324 0.0875749 0.8280854 0.31293577
0.51079625 0.58447635 -0.7957743 -0.39664254 -0.0043690754 -0.11824164 -0.5306487 0.33685675
0.36232185 0.08544311 -0.23516953 -0.3004297 0.59754187 0.0007014972 -0.20111184 -0.1931511
-0.03302461 0.19418383 0.26633915 -0.7978443 0.29097027 -0.33271766 0.66250306 -0.16908492
-0.09509942 -0.4680057 -0.1273724 -0.19789334 0.0073100314 -0.47461194 -0.45264658 -0.6730098
0.58349365 0.55285895 -0.082370564 -0.13320008 -0.7626817 0.016144264 -0.9563182 0.209164
0.5941909 -0.09716477 -0.1508532 0.2873023 -0.25786898 0.17950997 0.59745264 -0.029115535
0.7819463 1.2264872 0.36737087 0.13680714 -0.36621463 0.34608892 0.14043081 -0.22186983
0.29641902 0.23002155 0.41270104 -0.12269428 0.16405876 0.11256184 -0.13076895 -0.11676796
-0.4171221 -0.005658371 -0.297789 0.23865378 -0.026355876 0.41485986 -0.50631636 0.7162474
0.2705033 -0.33441886 -0.9235803 -0.09501194 -0.08160099 0.79227746 0.04362076 0.48616365
-0.07645194 0.17348912 -0.21840942 0.6362214 -0.8199706 -0.24253644 0.03427528 0.63183147
-0.06862098 -0.17730775 -0.6994348 -0.3833236 0.31085357 -0.062301528 0.2842044 0.121962845
-0.9979904 -0.025855923 0.4396284 -0.33679822 -0.21426918 0.67222595 -0.050198548 -0.51558053
-0.8909391 0.9726726 -0.008881591 0.135174 -0.55374 0.17138052 0.031553738 -0.13009365
-0.101183325 -0.17553268 0.93284863 -0.79078317 -0.2833497 0.50976026 0.0062415446 -0.1546173
1.1527606 0.26245567 -0.078818426 -0.6796639 -1.0366004 -0.58707 -0.4751033 0.09032314
0.07479564 -0.3421198 0.6781259 -0.38234103 -0.47934663 -0.4935176 0.9132626 -0.7073697
-0.37158078 -0.21534167 0.7725407 0.48142233 -0.71839285 -1.184655 -1.1743178 -1.0722697
0.9136097 -0.005694722 -0.9210264 0.097278886 -0.031556636 0.92530704 -0.64165235 -0.44898638
0.6192012 0.51496375 1.1032938 0.42403296 -0.072213255 0.8792731 -0.5422705 0.020574246
0.64596504 -0.23027161 -0.82030874 0.20071177 1.3153473 -1.1849333 0.11756076 0.33609632
0.33166152 -0.24821778 -0.012323482 0.10155909 0.57872456 -0.7139516 0.18953905 0.6542566
-0.28157383 0.033850215 -0.48476404 -0.33343482 0.4270756 0.020171123 -0.05653391 0.719473
-0.5489744 -0.31375882 0.018592112 -0.6781484 0.054446347 0.017897781 -0.087926224 0.22173944
-0.37868106 -0.14308037 0.15607181 0.31826857 0.36654007 -0.026042536 -0.1528235 -0.42109513
-0.35572052 0.16111864 -0.015732802 0.44279945 0.23283061 -0.054239478 0.90116733 0.11398228
-0.7455216 0.15023126 0.82265586 0.23206036 0.55121666 0.3561406 0.07764314 -0.0942501
-0.6359429 -0.4752604 0.0020260415 0.5254587 -0.46124405 0.06515739 0.34569427 -0.13831882
-0.22913113 -0.60695916 0.041047476 0.84758395 0.46968257 -0.30600858 0.7773765 0.11218351
-0.28129277 -0.16419123 -0.11048582 -0.667266 0.66023624 0.6312909 -0.879164 -1.1237338
00000000: c426 94be 0421 74bf eee8 05bf 6c50 3f3e
00000010: a986 e23e 3f45 97be bd42 ab3d f774 2fbd
00000020: 27f7 7cbf 638b a3be cf95 52be 3b42 093f
00000030: 2c9b f33e 785a b33d 68fd 533f 1e39 a03e
00000040: 8bc3 023f 3ea0 153f ddb7 4bbf bb14 cbbe
00000050: 762a 8fbb ac28 f2bd 98d8 07bf 7d78 ac3e
00000060: 4082 b93e ccfc ae3d 48d0 70be ecd1 99be
00000070: 81f8 183f aee4 373a 43f0 4dbe 67c9 45be
00000080: d044 07bd 20d8 463e 9b5d 883e 863f 4cbf
00000090: 0efa 943e f859 aabe cd99 293f 9924 2dbe
000000a0: 7cc3 c2bd 719e efbe e96d 02be 8da4 4abe
000000b0: fd88 ef3b 5600 f3be 4bc1 e7be 5f4a 2cbf
000000c0: d75f 153f 2a88 0d3f e6b1 a8bd 9a65 08be
000000d0: 1c3f 43bf fa40 843c 45d1 74bf 162f 563e
000000e0: e51c 183f 53fe c6bd 4379 1abe 4919 933e
000000f0: 6707 84be 76d1 373e a8f2 183f b483 eebc
00000100: a22d 483f 88fd 9c3f 0918 bc3e 2c17 0c3e
00000110: 7c80 bbbe 9132 b13e 18cd 0f3e d831 63be
00000120: 3cc4 973e c58a 6b3e 8d4d d33e 2447 fbbd
00000130: 05ff 273e d286 e63d 4ce8 05be 0a24 efbd
00000140: 0791 d5be db69 b9bb cd77 98be a861 743e
00000150: 47e8 d7bc 8368 d43e f39d 01bf fd5b 373f
00000160: 697f 8a3e f338 abbe c26f 6cbf 9f95 c2bd
00000170: 6b1e a7bd b2d2 4a3f afab 323d 71ea f83e
00000180: d692 9cbd 22a7 313e b8a6 5fbe 68df 223f
00000190: 98e9 51bf 795b 78be 3c64 0c3d b5bf 213f
000001a0: 2889 8cbd 2a90 35be 290e 33bf fe42 c4be
000001b0: 3328 9f3e e32f 7fbd 3d83 913e a8c7 f93d
000001c0: 4d7c 7fbf cdcf d3bc f916 e13e d170 acbe
000001d0: 6169 5bbe 0017 2c3f fe9c 4dbd 16fd 03bf
000001e0: 9614 64bf 1201 793f 1884 11bc 0e6b 0a3e
000001f0: e8c1 0dbf 607e 2f3e 7e3e 013d 4537 05be
00000200: 3439 cfbd d7be 33be 2bcf 6e3f c470 4abf
00000210: 3613 91be a67f 023f df85 cc3b ff53 1ebe
00000220: a98d 933f 9760 863e 8e6b a1bd 74fe 2dbf
00000230: 52af 84bf 384a 16bf bd40 f3be 57fb b83d
00000240: 752e 993d 542a afbe a999 2d3f 34c2 c3be
00000250: ec6c f5be 57ae fcbe 94cb 693f 2e16 35bf
00000260: d63f bebe 8782 5cbe 3ac5 453f fd7c f63e
00000270: 98e8 37bf c6a2 97bf 0c50 96bf 2240 89bf
00000280: 53e2 693f ca9a babb 63c8 6bbf 273a c73d
00000290: 8841 01bd ece0 6c3f 5443 24bf 8be1 e5be
000002a0: f883 1e3f aad4 033f bb38 8d3f d91a d93e
000002b0: 8be4 93bd 0b18 613f 3dd2 0abf 528b a83c
000002c0: f75d 253f 52cc 6bbe c1ff 51bf 6387 4d3e
000002d0: 4d5d a83f e5ab 97bf b2c3 f03d d114 ac3e
000002e0: 8acf a93e cd2c 7ebe 6ee8 49bc 36fe cf3d
000002f0: 4b27 143f 88c5 36bf 8616 423e 5c7d 273f
00000300: 722a 90be 86a6 0a3d fe32 f8be f8b7 aabe
00000310: a7a9 da3e e93d a53c 1a90 67bd 622f 383f
00000320: 9689 0cbf ffa4 a0be 7c4e 983c 229b 2dbf
00000330: 2203 5f3d 5e9e 923c aa12 b4bd aa0f 633e
00000340: 7ce2 c1be a983 12be 4ad1 1f3e 19f4 a23e
00000350: 24ab bb3e 2857 d5bc c37d 1cbe c899 d7be
00000360: 0021 b6be 49fc 243e 14e2 80bc 9cb6 e23e
00000370: 266b 6e3e 372a 5ebd e7b2 663f 8b6f e93d
00000380: 81da 3ebf 39d6 193e 9399 523f 3ba1 6d3e
00000390: 891c 0d3f 1058 b63e 5e03 9f3d 3206 c1bd
000003a0: 27cd 22bf 5555 f3be 56c7 043b 7684 063f
000003b0: 2e28 ecbe 3d71 853d d7fe b03e 73a3 0dbe
000003c0: 5aa1 6abe ad61 1bbf 6621 283d 43fb 583f
000003d0: 3c7a f03e 28ad 9cbe 2502 473f 78c0 e53d
000003e0: 9b05 90be bf21 28be 6446 e2bd f2d1 2abf
000003f0: 3e05 293f 489c 213f e410 61bf 82d6 8fbf

bias f4 [6]
-0.003299305 0.26817405 0.0043128403 -0.07931159 -0.4871346 -0.13870691
00000000: 2739 58bb 1c4e 893e ba52 8d3b 1d6e a2bd
00000010: b569 f9be 2f09 0ebe
