src/learning/models/touch_64_64_64_tanh.pt (torch, 40015 bytes, 8 tensors)

weight f4 [64, 6]
00000000: 5b86 99bc 9e6b 183f a0d7 dabd aeea b43e
00000010: cff7 4d3e 1046 1cbf 9363 d33a a61b 40bf
00000020: 25bc e5bd c80b 8fbe 3041 703e 3cfd a1be
00000030: cba9 483e 38a4 df3d 24df ec3d 7bbf 243e
00000040: eeab ab3d 84f5 673d 917c 7bbe c55d a8bd
00000050: 1899 783c 496d 923d 05a7 ce3c 3efc 62bf
00000060: caf7 343d 8b2c 3bbe b3df 79bd 0b1e a43e
00000070: 2d3c 333f d57c cabe b7d4 493f 0b78 333d
00000080: d16a 93be d8ad f13e 8f1d 843e 7c92 c93c
00000090: 6771 4c3f fb0a b93e 406d 39be cb72 903e
000000a0: 3019 93bd f76f 2fbf 9b5a cb3d 20af 8cbe
000000b0: e54f 0abd dc92 72be f25d 11bf b17e e03d
000000c0: 03f1 ac3a 7e8b b5bd b57a 80be 254a fd3e
000000d0: 39cf dfbe d90b df3e 6d60 0f3d a525 ce3c
000000e0: a765 adbe 7ec0 76be 0c53 013f 1c4a 1ebf
000000f0: 4dad aa3e e958 db3e 181a db3d 32ab 253e
00000100: cf88 993e cf2a 92bd 3c77 143e ded2 943d
00000110: 78b8 d43d 2db6 643e cfd7 d9be 010c 193f
00000120: 5cdc 423e d470 583f 3260 e33d 93a3 bebb
00000130: 006e 683c 19f7 e4bd 7a2b d83b c6a4 b9be
00000140: f818 163d 48e1 11bf 8d02 853e ea52 7a3e
00000150: 689a 80be fdca 33be 1224 66be c38d 86be
00000160: 27ff 8a3e 009b 0c3e 4991 1cbd b10a dc3d
00000170: ff8b 90be cd39 0a3f 7dd4 8f3e 7809 22bf
00000180: 29a2 09bd 631b b1bd a1f5 1dbe 2939 e1be
00000190: 9417 87be d284 89be f5d3 84be f0c4 a03d
000001a0: 5ab2 92be 6aa1 8f3d b4aa 393f 99b0 143f
000001b0: c0af b33d 6ed8 ecbe f7cd 5fbe f3b1 18bd
000001c0: 0bfd ee3e 5233 c7be ba6b ee3d 4ea5 2abe
000001d0: b8bc ef3d 0760 1dbe 936b 54bf a270 4e3e
000001e0: 3fa0 c03e 9470 a03e e7df 933e a0db 823d
000001f0: bedf 5fbe bc47 c1be 2b92 0fbe 8fa2 b3be
00000200: a892 a43d 8d6e 41be 1c77 0cbf 2b89 d33e
00000210: 0c28 a2ba d0a5 04bf 1488 36bf dced e83e
00000220: a6fe 8a3e 74a8 493f 3f40 46be e01c bb3d
00000230: f9d6 0bbf 2316 eabe 4053 29bf 3375 85be
00000240: e5b3 68be 1285 e43e 5c0b cabe b99c 49be
00000250: b496 ad3e 98e7 cbbd 4798 e73c 2605 f4be
00000260: bb35 f8bd 4ef2 5ebe 354f edbe 7d87 323d
00000270: 3273 24bb 35d0 d23d cf97 e03c f1a6 113e
00000280: 5a52 cfbe 8feb 87bf 42e3 2f3e 5781 2fbf
00000290: ca26 23bd 378a 323e 71c1 4cbe 281a 403f
000002a0: f610 f3bd 8acb 553f dfd9 76bd 7ba6 a0bd
000002b0: cc41 57bd a841 62bf 5017 27bf 300f 583d
000002c0: 778f 7bbc 2b44 133f c93d 2fbe 2762 cbbe
000002d0: 78bf 6d3e 8e25 0f3e 0c2e e53d 3f99 91bf
000002e0: 0c14 56bd c83f 03bd e9df cebc 8e9b 263d
000002f0: 754b 6bbd 43b6 263d 3322 60bf c5da b9bd
00000300: f102 c4bd 36be a3bd bd32 6b3b 16bf 84be
00000310: a52a 0fbe cf21 ccbe ae11 453e 781a ef3d
00000320: 525e 80bf e906 8cbd 6f82 263d 7c41 983e
00000330: e1a9 893e c425 8c3c cad7 0d3e 46e9 923e
00000340: 35cf ce3e 9a77 e7be 4ba9 533e 0bd9 0abe
00000350: 0833 3a3d 9c11 b1be f86e bdbc 1b0c 823e
00000360: 0d25 10be ed00 903d d7b1 f93e 679a dcbe
00000370: d6cb 94be d8fd 863e efb1 8ebd 54a8 3cbd
00000380: 2e55 933f 6bcf 833d 595c a2bd 88f1 7d3d
00000390: 7587 1d3e c16c 5dbe 6f7b b3bc 7d71 273e
000003a0: c110 ae3e 650e 083f abe6 54bd 11f0 e73e
000003b0: 85aa 343e d4f0 e23e abd1 00be fc2c 1a3f
000003c0: e033 2b3d fc19 0abe c728 23be d61f b0bd
000003d0: fca8 adbe 7d05 3fbf e31b 32bf 15bb 753e
000003e0: 9550 3abe dc13 55be 3b6e 783e e531 c93e
000003f0: 12ac 1e3e 261b d13d a2b3 e73d a2a4 c8be
-0.018740823 0.5953921 -0.106856585 0.35335296 0.20114063 -0.61044407 0.0016127698 -0.7504219
-0.11217526 -0.27938676 0.23462367 -0.31638515 0.19596021 0.10919994 0.11565998 0.16088669
0.08382402 0.056630626 -0.24559237 -0.0822101 0.015173219 0.07149751 0.025226125 -0.8866614
0.044181623 -0.1827871 -0.06100435 0.3205417 0.70013696 -0.39548364 0.788402 0.043815654
-0.28792432 0.47202945 0.258038 0.024605982 0.7986054 0.3614119 -0.18108082 0.2821258
-0.071825385 -0.6853022 0.09929391 -0.2747736 -0.0337676 -0.23688835 -0.56783974 0.109616645
0.0013194386 -0.08864497 -0.25093618 0.4947063 -0.43712786 0.43563727 0.03500407 0.025164435
-0.33866617 -0.24096867 0.50517344 -0.6183183 0.33335343 0.4284127 0.10698336 0.16178587
0.2998719 -0.07137071 0.1449861 0.07266782 0.10386747 0.2233512 -0.4254746 0.5978394
0.19029373 0.8454716 0.11102332 -0.0058178394 0.014186382 -0.11179943 0.0065969797 -0.36258525
0.036644906 -0.56984377 0.2597851 0.24445692 -0.25117803 -0.17557903 -0.22474697 -0.2628003
0.2714779 0.13731003 -0.038224492 0.10744227 -0.2823181 0.53994447 0.28091803 -0.632957
-0.033601914 -0.08647802 -0.15425731 -0.43988922 -0.26385176 -0.26859146 -0.2594296 0.07850063
-0.28651696 0.07013209 0.725261 0.58081967 0.08773756 -0.46258873 -0.21855913 -0.03727908
0.4667743 -0.38906342 0.11641641 -0.16664621 0.11705917 -0.15368663 -0.82976645 0.20160154
0.37622258 0.3133589 0.2888176 0.063895464 -0.21862695 -0.3775004 -0.14020602 -0.3508496
0.08035785 -0.18889828 -0.54869246 0.41315588 -0.0012371554 -0.5181551 -0.7130139 0.45493972
0.27147406 0.78772664 -0.19360445 0.09136367 -0.546249 -0.45720014 -0.66142654 -0.26065978
-0.22724874 0.44632775 -0.39461792 -0.19688691 0.3390404 -0.099562824 0.028270854 -0.47660178
-0.12119623 -0.2177212 -0.46349493 0.043586243 -0.0025093076 0.102936186 0.027416138 0.1422384
-0.40492517 -1.0618762 0.17176536 -0.6855673 -0.039831914 0.17435537 -0.19995667 0.7503991
-0.118684694 0.835137 -0.06026637 -0.07844254 -0.052552983 -0.88381433 -0.6526995 0.05274886
-0.015354029 0.5752589 -0.17113413 -0.39723322 0.23217571 0.1397917 0.11190423 -1.1374892
-0.052265212 -0.03204325 -0.025253253 0.040675692 -0.05744501 0.040701162 -0.87552184 -0.0907493
-0.095708735 -0.07995264 0.0035888397 -0.25927037 -0.13981111 -0.39869544 0.19245026 0.116749704
-1.0028784 -0.068372555 0.040651735 0.2973746 0.2688742 0.017107852 0.13851848 0.28693599
0.4039246 -0.45208436 0.20670049 -0.13559358 0.045458823 -0.34583747 -0.023124203 0.2539986
-0.14076634 0.070314266 0.48768494 -0.4308655 -0.29061764 0.26365542 -0.06967532 -0.046058968
1.151037 0.06436046 -0.0792777 0.06199792 0.15383704 -0.21623518 -0.021909444 0.16351886
0.33997157 0.53146964 -0.051977795 0.45300344 0.17643173 0.44324362 -0.12579982 0.6022489
0.04179752 -0.13486475 -0.15933524 -0.08599822 -0.33917987 -0.7461775 -0.695738 0.23997147
-0.18194802 -0.20808357 0.242608 0.3929588 0.15495327 0.10210256 0.11313559 -0.39188105

bias f4 [64]
00000000: 7de6 33be a388 2c3e f15b 143e dc53 3a3f
00000010: a249 a1be fc3b 83be 5809 69be b2c7 e43e
00000020: bc90 9fbe 01fc aa3e d9b9 afbd cc4f 003f
00000030: 9441 8f3e d9d8 29bf ff0f 8bbc 7dac dd3d
00000040: fa78 1fbe 99e6 57bf 3444 24be 78b0 843e
00000050: 213c 103e fbba 623e d7a9 c8be 66c7 8bbd
00000060: 13d8 7e3d c19a 993e 539d b4be ca25 2c3e
00000070: adf2 41bd ecfa f93e 5fd0 9ebe a465 8c3e
00000080: 1896 003d 74d7 86be 10c6 15bf b257 193f
00000090: 97f0 023e c332 aabe e388 09be 5220 07bf
000000a0: cb7b 273f 58ef adbd 0e1f 00be a020 5e3e
000000b0: 04a4 a0be 5a45 d93e fb65 26bc f185 16bf
000000c0: ad56 c6bd 0fbf 06be e78f ecbe 5596 e33d
000000d0: 6710 ca3e 1684 b2be b540 a0be c324 00bd
000000e0: 37ad 6abe 57cf 073f 55e5 34be cd3a febe
000000f0: 3a2e 15bf 01fb 093f e252 853e 4382 dbbe
-0.17568393 0.16848998 0.14488198 0.7278421 -0.3150149 -0.25631702 -0.2275747 0.44683605
-0.3116511 0.3339539 -0.085803695 0.5012176 0.2797972 -0.6634651 -0.016975401 0.10823915
-0.15573493 -0.8433624 -0.16041642 0.25915885 0.14085437 0.2214164 -0.39192078 -0.068251416
0.062217783 0.3000088 -0.3527628 0.1681129 -0.047350574 0.4882425 -0.3101835 0.27421296
0.03139314 -0.26336253 -0.58505344 0.5989944 0.1278709 -0.33241853 -0.13431124 -0.5278369
0.6542327 -0.08492917 -0.12511846 0.21692133 -0.31375134 0.42435724 -0.01015615 -0.5879813
-0.09684501 -0.1315882 -0.4620354 0.11112658 0.3946564 -0.348664 -0.31299368 -0.03128506
-0.22917639 0.5305075 -0.17665608 -0.49654236 -0.5827366 0.53898627 0.26039797 -0.4287282

weight f4 [64, 64]
00000000: 4273 c93e d4ed b4bb 4140 abbd 112f 0abb
00000010: 6bf3 c93d f418 2f3e 7fd9 09be 2b85 e5bc
00000020: f830 a63e a076 2ebe a98f 393e db00 583e
00000030: 00f2 543e 4a0b 923e 33ac 473e 2ea4 5cbc
00000040: 9fd5 58bc c0cd 07be 26f5 eb3d f55c 3d3d
00000050: aa3b abbe 243f efbd 253d f63b 9f26 2cbe
00000060: 4e9a 3cbe 97d4 fdbc 27c8 5e3e 3039 d938
00000070: a6cb a5be aaf1 e83c a621 d33d 5e65 fabc
00000080: fcf7 5f3e af07 e23c aa44 0bbe 75ad 8fbe
00000090: 4489 e4be 2bd7 a4bd 0c22 92be a059 e43d
000000a0: 689f 35be 9c11 2bbe 8790 f8bd 4b51 b33d
000000b0: 55fc 8b3d bf29 05be c630 423e 678d 3abc
000000c0: 07f4 30be 256c 5c3d 27b0 a33e 8a96 e8bd
000000d0: f095 663e c6c3 b33d f593 32bd aa3a 073f
000000e0: 3f2d a03d ee51 4bbe c7d8 1fbf c631 0a3d
000000f0: 8f2c c1bc 1add 923e e920 a8bd 7ea5 91bd
00000100: 0af4 6ebd c306 88bc b346 ba3d e9bf cbbd
00000110: 5c0d 91bd 0189 eebc d993 47be c419 a13e
00000120: fa37 73be 4bb9 7b3e 0b7f 5b3d a428 933e
00000130: 8bb9 8c3d a41f 4e3e 63fc e53b d61d 903c
00000140: 0666 733d aa13 ac3d 1571 053e 2f94 c53d
00000150: 828c 3abe 5f63 a7bd e541 453e cc0a 283e
00000160: 127d c53d de67 5c3e 676d 6cbe a83b 8c3e
00000170: 4fd4 b5be 7c2c c5be 3833 81be 2bfd 473e
00000180: de8d eabd b2e3 753e 3d48 113e d10f b23e
00000190: 513f 95be 2e9b 80be 2645 723e efad 2abe
000001a0: 71f6 c33d 7194 08bf b494 1b3d 44ec ff3e
000001b0: 5770 ab3c 9a28 fa3d 5af2 1dbe eea9 833e
000001c0: 4509 983e a0ae 48be c719 d83e 88d3 393e
000001d0: 9ae1 9f3e c196 3c3e 9efe 8f3e f25e c1bc
000001e0: 6064 69bd 4868 7b3e 6941 1ebe cff0 f53e
000001f0: 7e82 863e 43fe 533d 45f3 fb3c 816a 5d3d
00000200: deaa d23d 149d 9d3e e47b 153c 64cf 59be
00000210: 4456 ad3e cb39 b23d 277a 8cbe aa32 db3d
00000220: 6b0e 963d 7b0c b03e 5383 823c 88f5 08be
00000230: 0c82 78be 80a7 d8bd 26f6 be3e 5f9d 84bd
00000240: ee06 df3d ff79 68be 4d3b 293e 066c bb3c
00000250: 1e84 3ebc 32c4 903d bfcf 3cbe 7dfd 0d3f
00000260: 725f 103d 3961 003d c0ee ab3e 8320 bbbd
00000270: a39d 70bc fd9e 4b3e e850 603e 56cf 053f
00000280: 00e9 18be a17a 2c3e 309a b83b afc4 793d
00000290: d6b3 86bd 175c b73d 6769 c43d 7a82 a93e
000002a0: 2ff0 4a3d c71a 83bd f048 70bd 05cf 71be
000002b0: 7429 833e d67a 0d3e 903b d83c 421d ab3e
000002c0: 0aa3 4cbe babc b53d 0555 dcbd 2c31 5b3d
000002d0: 3f73 08be 3c9c b53e 3b4a 773e e198 d0bd
000002e0: be2a de3c ec7b 123d eab4 cd3c 9658 19be
000002f0: a33e b43d 9445 af3d dec5 f13d a930 243e
00000300: 1458 8dbe 8cb3 03bd 4ccf c9be 117c c63d
00000310: 61f3 46be 7e34 113d 033a f23d 3b62 e73d
00000320: 18e1 dc3e 60d9 d2bc 0847 1fbd a0b9 16bc
00000330: 9e91 143b 97f5 a13e 80d7 693d 840e d0bd
00000340: c6b6 723e ec2a 073d bcc3 78be 35b1 803d
00000350: 30ab 98be 8b69 e13d 212a b9be 8808 b53e
00000360: 0d52 f2bc fbeb 283e afe6 9b3d f1e6 f73d
00000370: 7729 b63e f0ce 843c 88ff 9f3e f3e3 e73d
00000380: 24c5 8c3d 5a90 943d 5164 053d 8d8e 8abd
00000390: 5097 8cbd 10b0 2cbe 1662 53be 58fe 84bd
000003a0: c7e5 d7bd fe18 bcbe d6c8 97be f53a 75be
000003b0: 8c83 8dbe eb2f d3bd 015e 503e fca2 b33d
000003c0: 5437 f6be 6ddd 0dbe 61d1 68bd 4b8d 48be
000003d0: 8396 c6be 39ad a63d 43c1 553e 91a4 493e
000003e0: c12b 11bd 2ecc 26be 9a99 5fbc e20c 43be
000003f0: 9cc3 e33b e5ad 693d 4784 9abe 0c1f 973e
0.39345747 -0.0055215154 -0.08361865 -0.0021085183 0.098608814 0.17099363 -0.13461874 -0.028017601
0.32459235 -0.1703744 0.18121208 0.21094076 0.2079544 0.28524238 0.19499283 -0.013466878
-0.013234525 -0.13262081 0.11521368 0.04623123 -0.33443958 -0.11681965 0.007514613 -0.16811608
-0.18418238 -0.03098516 0.2175604 0.00010358018 -0.32381934 0.028435547 0.10309152 -0.030565914
0.21871942 0.027591554 -0.13600412 -0.28062025 -0.44635975 -0.080488525 -0.285416 0.11149907
-0.1773659 -0.16705936 -0.121369414 0.0875574 0.06835238 -0.13004206 0.18963918 -0.011386252
-0.17280589 0.053814072 0.3197033 -0.11356838 0.22518134 0.08777575 -0.043598134 0.5282389
0.0782113 -0.19855472 -0.6244015 0.033738874 -0.023580818 0.28684312 -0.08209402 -0.07111643
-0.058338203 -0.016604787 0.09095516 -0.09948713 -0.07082626 -0.029118063 -0.19489993 0.3146497
-0.23751822 0.24582402 0.053587954 0.28741944 0.06871327 0.20129257 0.007018612 0.017592352
0.05942347 0.08402188 0.13031419 0.096474044 -0.18217662 -0.081732504 0.19263418 0.16410369
0.09642996 0.21523997 -0.23088609 0.27389264 -0.3551354 -0.385105 -0.2523439 0.1953017
-0.1145284 0.2401264 0.14187713 0.34777692 -0.2914987 -0.25118393 0.2365919 -0.16667913
0.09568489 -0.53351504 0.03798361 0.49984944 0.020927591 0.122147754 -0.15424481 0.25715584
0.29694572 -0.19597864 0.42207167 0.18147099 0.31226808 0.18416883 0.28123945 -0.023604844
-0.05698049 0.24551499 -0.1545464 0.48035285 0.26271433 0.051756155 0.030755648 0.05405665
0.102864966 0.30783904 0.009123776 -0.2127052 0.33854878 0.087024294 -0.27436945 0.10703023
0.07326969 0.34384522 0.01593176 -0.13374913 -0.24268359 -0.10578823 0.3729717 -0.06475329
0.108899936 -0.22702788 0.16526528 0.022878658 -0.011628179 0.07068671 -0.18438624 0.5546492
0.035247274 0.03134272 0.3358059 -0.091370605 -0.014686021 0.19884868 0.21905863 0.52269495
-0.14932632 0.16843654 0.005633615 0.060978588 -0.0657727 0.089531116 0.095904164 0.33107358
0.049545463 -0.06401592 -0.05866331 -0.23614128 0.25617564 0.1381639 0.02639559 0.3342076
-0.1998407 0.08873887 -0.10758404 0.05351369 -0.13325213 0.3547076 0.2414941 -0.10185409
0.02711999 0.035762712 0.02511068 -0.14975199 0.088010095 0.08558193 0.11805318 0.16034187
-0.2760626 -0.03215365 -0.39415967 0.096916325 -0.19428779 0.03545045 0.11827471 0.11298033
0.43140483 -0.025738418 -0.0388861 -0.00919953 0.0022669802 0.31632683 0.057090282 -0.10159019
0.23702535 0.032999918 -0.24293417 0.062837996 -0.29818106 0.11006459 -0.36164954 0.3535807
-0.02958014 0.1649627 0.07612359 0.121045955 0.3557851 0.016211957 0.31249642 0.11322775
0.06873539 0.072540954 0.032566372 -0.06765471 -0.06864798 -0.16864038 -0.20642886 -0.06493825
-0.105418734 -0.36737818 -0.29645413 -0.23948272 -0.27639425 -0.10311874 0.2034836 0.08771321
-0.48089087 -0.13853998 -0.056840304 -0.19585149 -0.38786706 0.08138508 0.20874505 0.19691683
-0.035442118 -0.16288826 -0.013647461 -0.19047883 0.0069508087 0.057050604 -0.30179045 0.29515874

bias f4 [64]
00000000: d218 033c 37c8 5e3d f437 903d 6b45 693e
00000010: 5f5f 2abb a926 71be 70f8 b9bd 12cc babd
00000020: a096 13be 96f0 103d be6f bb3d 05fc 3f3e
00000030: cdfc 60be 8f5d 803d 89a7 17bd c1b3 4c3e
00000040: 5820 f7bc 4ecb 3dbe 485d c6bd 82e3 40bd
00000050: c5a2 133d c7df 9b3d da09 313e e1ad cebb
00000060: b228 9c3a ea13 183e 9427 a0bd a7a7 e7bd
00000070: a737 913a 31e8 0dbe 7cbe 17be a3b5 1a3e
00000080: 1803 a6be 7d4c 3abe 582b 32be 5fd0 dcbd
00000090: 4342 bbbd 47a5 a1bc 0696 133e 2dee 9b3e
000000a0: 8475 4cbe a54d 04be 8297 d23c f497 f03c
000000b0: 1250 803e 1915 f63c c103 15be 0981 9cbe
000000c0: 35fd 50be 792c 5a3d ca32 ac3d c13c d63d
000000d0: bdc2 29bd d8db 803b 3390 943d fa40 80bb
000000e0: cb62 a7be f18a 3d3d c25a 32be 5a0a 6e3d
000000f0: 9d53 db3e b828 a73d 41f3 3b3e ba37 173e
0.008001523 0.05439016 0.07041922 0.22780387 -0.0025996787 -0.23549904 -0.09080589 -0.091209546
-0.14412928 0.03538569 0.091521725 0.18748482 -0.21971436 0.06267845 -0.03702501 0.19990446
-0.03016679 -0.18534586 -0.09685761 -0.04709197 0.0360439 0.076110415 0.17288914 -0.006307349
0.0011913984 0.14851347 -0.07820049 -0.11311274 0.0011079208 -0.13858105 -0.14818758 0.15108351
-0.32424235 -0.1819324 -0.17399347 -0.10781931 -0.09143498 -0.01973213 0.14412698 0.3045515
-0.19966704 -0.12920244 0.02570701 0.029369332 0.2506109 0.030039357 -0.14552213 -0.30567196
-0.20409091 0.05326507 0.08408125 0.10460807 -0.041445483 0.0039324574 0.07254066 -0.003913996
-0.3269256 0.046275083 -0.17417434 0.05811534 0.4283723 0.08162063 0.18354513 0.14767352

weight f4 [64, 64]
00000000: c7c2 823e f001 db3d 361f 863e d58e 563e
00000010: a8f3 3c3e 9b3c 603d fdb3 763d ff3f 0ebe
00000020: e5fd 08be bf25 7cbd 6593 f13d 7ccd c93e
00000030: 2fea ccbd a8ee 4b3d 7435 a13d 684e a0be
00000040: 8b45 ccbd af5c 2a3e 3052 4abd b93d adbd
00000050: e2f2 7a3e d9e1 663b 495f 013e 741c a13e
00000060: 1479 d23c 8775 bc3e 32c9 a7be bd00 033e
00000070: 288e c4bd 6708 83bd e094 be3d 2a2d 1f3e
00000080: 8f78 1ebd 8802 8d3d 97a1 37be ed73 adbc
00000090: b51f 30be b586 b93d b9ca 863e 6846 6d3c
000000a0: 44dc 58be ec7d 41bd 446a 3ebe 87e5 c13d
000000b0: 648d 773e b9e7 b9bd d377 b7bd 1896 6b3e
000000c0: 637e c9be 3193 c63d c386 3ebe 59d4 52be
000000d0: 047e 9b3d d38d a5bd 080f ba3e fc53 2dbd
000000e0: db28 52bb 8974 a4bd 003a 703d f7f5 913d
000000f0: b630 63be 9e46 063e 24ca de3d b202 e13e
00000100: ad49 2c3d b36f 17bd 6589 4b3e 79aa 693e
00000110: 2b9e e93d 52ae 25be 2215 89bd 768c fdbc
00000120: 0338 86bd 332d d63e ad5f 713e b0bd ba3d
00000130: 0cef 9fbe cba8 343e 550f e2be 1f29 543e
00000140: 997f 51bd 42d4 633e 824e 9b3c e46a 9cbe
00000150: 5883 a3bd 3b88 f33a 2a22 843e ecd6 ab3c
00000160: 12d1 d93d eff5 553c 4813 a93b 645d 813d
00000170: 8da1 c4bd 2b5f 8a3d 15c4 5cbf ed4d d6bc
00000180: 104a 04bf c527 05bf 875b 27b9 6588 5dbe
00000190: 2357 4d3e e8d3 303e 0ecd 043e cd0c d63d
000001a0: 6c7c 423e e441 913d 9e79 1e3e ffb8 e0bd
000001b0: 2d8b 9b3e 1d07 abbe 14f5 08bf 2ccf f7be
000001c0: 5823 5fbe 0c6a 8e3e 14d4 5f3e de20 a03e
000001d0: 920c 183e 85d5 bcbc efb7 9cbe aeae ba3e
000001e0: 09cf cabd 4e3e 48be a2f0 2fbe 1979 e03d
000001f0: d18c b2bd eba4 203e 7443 e8bc 2cd6 afbd
00000200: 54a2 693d f202 d2bc 9bec 7bbe 0a0b d4be
00000210: 163d 91be 688b 023e a0fc 813e 6bf3 cc3d
00000220: 4775 903c 27d7 37bc fbc4 81be 9207 213e
00000230: d1bc 2a3e 1a2b 09bf 484b 8fbe 633c 453e
00000240: 434c af3c 328c c43c f970 413e c165 f53d
00000250: e2e1 123d 15a2 663d faa6 96be adc1 f2bb
00000260: 6516 e4be 9f9b 843e abd9 9ebe ceb3 3f3e
00000270: ecea 85be 0466 f5bd 3010 d0bd 2792 023e
00000280: c6c6 5b3e 4282 d53d c008 47bd 63ea b1bc
00000290: 7bb1 39be e570 ebbc ea90 3a3e 8926 b7bd
000002a0: 941f 393b dc98 fd3e 38ad d33e b2e2 a23e
000002b0: bffa 86be 4403 14b9 74a6 3cbd cd88 bd3c
000002c0: f828 a93e a7fe e6be 0b82 0f3e 2e2d 8cbd
000002d0: f575 203e 6d4f abbd af39 f8bd a9ff f7be
000002e0: 91c2 42be e5b0 86be a4cd bbbb 5305 573e
000002f0: 8715 e2bd 3ff7 8d3e 1ebe 13bc 879a 143f
00000300: 3f5b d8be 7aff ba3d 7998 59be db8d 72be
00000310: 1805 693e c178 81bc 661f 6d3e 7d82 fdbe
00000320: bf4a 803e eb5e 80be 0725 8b3c eada 0fbe
00000330: 3a89 a33d c0f7 4bbe ada0 053f 2c8f b53e
00000340: e6d3 723d c08d 85be a805 cdbe 78b6 703d
00000350: 1a20 53bd 8540 4e3c a0b2 19be 8493 11be
00000360: deec 303e 1a4d 2dbe 1c15 03bd b562 803d
00000370: e5be a0be 771e 59be c61c b93e fb67 cdbd
00000380: a64c cdbd aa97 e13e d18a 163e 2138 27ba
00000390: 3233 16be 9e28 83be 8bca 493d bf58 fcbd
000003a0: 0cc8 d33d 4596 f53d 9ea5 55be 1cbc c2be
000003b0: c6aa 76be 3a39 ceba fa61 123f fdcd 86bd
000003c0: 35e0 6a3e 3a32 1a3e d2c3 08be 780a c6be
000003d0: 048b 333d 7cfd 85be 0d2c 033e f7bf 7f3d
000003e0: 896c 96bd 3760 0dbd 71b9 013e debf 133f
000003f0: 9035 c6bd d0b9 8fbe ab51 8fbe 73d0 043e
0.25539228 0.10693729 0.26195687 0.20952924 0.18452322 0.054745298 0.060230244 -0.138916
-0.13378103 -0.061559435 0.117956914 0.39414585 -0.100056045 0.049788147 0.078715235 -0.3130982
-0.09974202 0.16636918 -0.049394786 -0.08459038 0.24506715 0.003522983 0.12634005 0.3146702
0.0256925 0.36808416 -0.32770687 0.1279325 -0.09597427 -0.06398087 0.093057394 0.15544572
-0.038689192 0.068852484 -0.17932735 -0.021173442 -0.17199595 0.090588965 0.2632654 0.014482118
-0.21177775 -0.04723923 -0.18595225 0.09467607 0.2417503 -0.09077401 -0.089584015 0.23006475
-0.39354238 0.09696043 -0.18606095 -0.20588817 0.07592395 -0.080836914 0.36339593 -0.042316422
-0.0032067809 -0.0803004 0.058649063 0.07126992 -0.2218655 0.13112876 0.10878399 0.4394737
0.04206245 -0.03697176 0.1987663 0.22818936 0.11407121 -0.16179779 -0.06693484 -0.030950766
-0.06553652 0.4183136 0.23571654 0.09118211 -0.31237066 0.17642514 -0.44152322 0.20718811
-0.051147077 0.22248939 0.018958334 -0.305503 -0.07984036 0.0018580029 0.25807315 0.020976506
0.1063558 0.013059123 0.005159769 0.06316641 -0.09601126 0.06756433 -0.862367 -0.026160205
-0.5167551 -0.5201381 -0.00015960458 -0.21634062 0.20052771 0.17268336 0.12968847 0.1045166
0.18992776 0.07092646 0.15476081 -0.10972785 0.3037962 -0.33403865 -0.5349896 -0.48400247
-0.21790826 0.27815282 0.21858245 0.31275076 0.14848545 -0.023051033 -0.3060908 0.36461395
-0.0990277 -0.19555017 -0.17181638 0.109605975 -0.08718265 0.15687911 -0.028352477 -0.08585772
0.057039574 -0.02563617 -0.24601977 -0.41414672 -0.28366917 0.12748492 0.2538805 0.10007366
0.017634047 -0.01122073 -0.25345597 0.15725544 0.1667359 -0.5358139 -0.27987123 0.19261317
0.02139867 0.023992632 0.18890752 0.11982299 0.03585995 0.056306917 -0.29424268 -0.007408342
-0.44548336 0.2589998 -0.31025442 0.18720934 -0.26155794 -0.119823486 -0.101593375 0.12751065
0.21462545 0.10425235 -0.04859233 -0.02171821 -0.1813411 -0.028740356 0.18219343 -0.08942897
0.0028247582 0.49530685 0.41343093 0.3181358 -0.2636318 -0.00014115596 -0.04605718 0.02313652
0.3303907 -0.4511616 0.14014451 -0.06844555 0.15669997 -0.08364759 -0.12120377 -0.4843724
-0.19019534 -0.26306835 -0.0057313014 0.20998125 -0.11039262 0.27727696 -0.009017495 0.5804829
-0.42257115 0.091307595 -0.2124957 -0.23686926 0.2275585 -0.01580465 0.23156509 -0.49513617
0.25057027 -0.25072417 0.01698543 -0.14048353 0.07985158 -0.19918728 0.52198297 0.35460794
0.059284113 -0.2608471 -0.40043378 0.058767766 -0.051544286 0.012588625 -0.15009546 -0.14216429
0.17277858 -0.16923943 -0.032002553 0.06268827 -0.3139564 -0.21203028 0.36154765 -0.10029598
-0.10024385 0.44061023 0.14701392 -0.00063789083 -0.14667967 -0.25616926 0.049265426 -0.123216145
0.1034089 0.11991552 -0.20863959 -0.3803414 -0.24088582 -0.0015733608 0.5718075 -0.06582258
0.2293709 0.15058222 -0.1335595 -0.38679862 0.043833748 -0.26169956 0.12809773 0.06243893
-0.0734492 -0.034515586 0.12668397 0.5771464 -0.09678185 -0.2807145 -0.27991995 0.12970142

bias f4 [64]
00000000: 4150 183e 9b9a 8a3e a820 98be ae4d b2bd
00000010: e93c f6be a187 81be 3b2f 983e f9ab 58bd
00000020: 1379 edbe c064 8cbe 64ad d93d 9a6e e33c
00000030: d0c8 6e3d f365 4cbe 9627 c3be b2b0 29be
00000040: 11ef 8dbe 2a6a 15bd 32b5 11be ee10 89bd
00000050: 9abe f93d 164d d8bd bfbb 6d3d ffee 01bc
00000060: 8c2f 62be f0ae b1be 98bc ed3d 6f32 313d
00000070: f6f7 0abe 94fe b2be 534d c33d 8e00 ee3c
00000080: d9ee 3bbd 13ba f8be 67bf 83be 6bb0 d33d
00000090: 75ba 5dbe 1b8d 98bd b1d0 9c3d ab33 a9bd
000000a0: 4057 ad3d c9f5 323e 174c 963d 1e92 89bd
000000b0: 48db ea3d bb68 013d 8853 093f f556 94be
000000c0: 4eb2 c13c 34ee ff3d 59bf 853d d070 82bd
000000d0: fa59 06be 7859 72be 4225 d93d 85f8 043e
000000e0: 8381 0dbe c039 88bd 387b 89be 1ddb 9dbc
000000f0: 3f72 073e 4478 483e 68c4 aa3d e18d 913c
0.14874364 0.2707108 -0.29712415 -0.087062225 -0.48093346 -0.2529879 0.29723534 -0.05289838
-0.46381435 -0.27420616 0.10628775 0.0277627 0.05829698 -0.19960766 -0.3811614 -0.1657131
-0.27721456 -0.0364782 -0.14229277 -0.06692682 0.121945575 -0.10561578 0.058040377 -0.007930516
-0.2208845 -0.3470378 0.11608237 0.043260988 -0.13571152 -0.34959853 0.09536233 0.029052999
-0.04588208 -0.48579463 -0.25731966 0.103363834 -0.21653159 -0.07448789 0.07656992 -0.08261808
0.08463907 0.17476572 0.07338732 -0.06717323 0.11467606 0.03159402 0.53643084 -0.28972593
0.023644593 0.124966055 0.06530637 -0.063691735 -0.13120261 -0.23666942 0.106028095 0.12985428
-0.13818936 -0.0665164 -0.2685182 -0.01926952 0.13227175 0.19577128 0.08338243 0.017767848

weight f4 [6, 64]
00000000: cd5b df3e e900 8a3d ac59 b23e b4e6 693c
00000010: 6510 2a3e b8d4 f5be eb5d b13b 3f86 813f
00000020: 072d 083d 111c 34bf 5a81 c8bd f8c5 79bd
00000030: 2075 523e f8fd 33be 99a4 aaba 0cb2 413e
00000040: a497 d9be 7f26 9bbe 19a9 9c3d 62f2 153e
00000050: 1cb9 5d3e 0659 ad3e ab5a 5f3d 3240 1dbf
00000060: 917b 92be 78cb 54be 1b93 86bc b618 5d3e
00000070: 530f d53e caa5 b63e 7f56 1f3f 238a e9be
00000080: 52a3 983e 7a5c 67be 5d6f adbe 346e 693e
00000090: 135e c9be 2d55 8dbe 846b 663e 0d67 a43e
000000a0: 43bb cbbe 7a4a 9bbe 7142 173f 1e79 ddbe
000000b0: e833 923e 76e5 62be f0a8 17be 7173 08bf
000000c0: eedc c23e f422 95bd 1dc6 88bb 6d98 66be
000000d0: d762 c8bd 768d b3bd b2e8 593e a827 903e
000000e0: 724c 88be 8a59 0bbf 9f3f e43e ecdf eebe
000000f0: bd67 a4be 2bfb 253f b936 1abc f235 5c3d
00000100: 2cbf 9bbe 4a3e f93e 7067 57be af1a cdbe
00000110: b556 a93c 6560 223e 8d69 043f 5aaa 1fbe
00000120: 87b9 c73d 63c8 9d3e b168 ecbc b44f a53e
00000130: 6f3e 943e 8b98 043e ca88 53be 97bb 993d
00000140: 51b5 2d3e f3c4 c73e 26e4 ecbe e9e4 2abc
00000150: c3f6 afbd 52f8 86bd 8afb d63d b9cf 103f
00000160: 8e75 0c3e 0269 97bd 54f9 ca3e 340a 0fbf
00000170: 6ceb 0bbf d492 1fbe 8594 a03e 0af8 e9bd
00000180: 3b7c 04bf ded6 58bd acca 81be 95dc 7a3e
00000190: 83af 5fbe b416 97be 3b38 4dbe 9927 ad3e
000001a0: 9b53 79be 3da5 4ebe 299f 553e ac7a 883e
000001b0: 2173 ebbd f756 553f 6b34 123e 1551 b73d
000001c0: 261a f9bd cfd4 acbd db45 79be 4fa7 053f
000001d0: 8e47 1f3d b65d a83e fe5c 00bf 4548 a13e
000001e0: b91e e03e 6e2b 963b c927 bcbe 5823 6b3e
000001f0: a8dd f03e 3375 aa3d 563f 44bf 8b86 0ebe
00000200: 6cec 9a3e f227 1abe 646d e1be a3f3 3e3f
00000210: f6cd c8be 47ef adbe 59be aabe 95b4 38bf
00000220: 87a1 073d 6aac a0be 9a35 063f 479b e1bb
00000230: a02b 34bf c19e 0ebf 04d7 11bf ba96 c1bd
00000240: fbfb 6c3d 5683 16bf 3af4 46be e6cc 8fbe
00000250: ed41 0e3e 36d4 4cbf 0847 bbbe 3d9c 9ebd
00000260: d5fd 083f 16b6 b6be 022c 10bf e9e4 b53e
00000270: 00ab d73e ad22 e8bd f98d 43bf 8b05 2b3e
00000280: 2fc5 f5be 3141 873c 662e 1f3f 929a d2be
00000290: 79d4 f0bc b94f 1b3f 7da5 36bf 4c56 1dbf
000002a0: 8c14 243d 2de3 253e db9e 0dbf 75b7 f4be
000002b0: 7615 01bf e012 08bd c046 e13e 121c 85bd
000002c0: 66f1 953e 8b4c 263d e78f ae3e c292 2ebe
000002d0: 8b00 70be 2205 6cbf bf51 96be 6081 c93e
000002e0: b5b0 99be 14d2 893e 9fba 2dbe e2cb 9b3e
000002f0: aaa3 83be f0a4 6ebf 34e7 da3d 3ddd b9be
00000300: e1be 31be 48d0 aebe e0ed 5cbe 1fbc 733e
00000310: 7065 1fbf 9b7c 5dbe a63c c9bc 277c 88bd
00000320: e54b 47be f26e 833e ede6 3f3f 6c31 97be
00000330: 9a6c 06be b823 513f 9709 7dbe ab68 00bf
00000340: 4e30 ebbe a263 45bd 729a 553f 856d 47bf
00000350: c002 57bf ed3b 4f3e 59ca ba3d 2d70 64be
00000360: ea41 493e 8541 bc3d 4e0f a63e 2619 8c3c
00000370: f01c 34be cfe2 b23c 615d 0e3d 3777 333e
00000380: 8820 f7bd eb60 a3bd 1a93 8abe 6fbf 9fbe
00000390: 217a 063f a81a ff3c 8a46 033f 7e67 3fbe
000003a0: 9b0a 8e3f 9b04 cb3e 998f b3be 6725 143f
000003b0: 8ff8 923e 9110 82be 0187 3c3d a329 52be
000003c0: 7c62 d3be 234a 2e3f f324 96be 40ed eabd
000003d0: 34f1 453f 5ccf 71bd d703 8a3e cc59 32bf
000003e0: 54d9 ae3e a9d7 ea3d 250c 743e fd9c 773e
000003f0: 48ff f23d 7f97 b53e f08a 703f 42b3 3a3f
0.43624726 0.06738455 0.3483404 0.014276195 0.16607817 -0.48013854 0.005412807 1.0119094
0.033246066 -0.70355326 -0.09790297 -0.060979813 0.20552492 -0.1757735 -0.0013019025 0.18915576
-0.42498505 -0.30302808 0.0764944 0.14643243 0.21652645 0.33856982 0.054529827 -0.6142608
-0.286099 -0.20780742 -0.016427567 0.21591458 0.41613254 0.35673362 0.6224136 -0.45613202
0.29812104 -0.22593871 -0.33874026 0.22795945 -0.39329585 -0.27604046 0.22501951 0.32109872
-0.39791307 -0.3033026 0.59085757 -0.43256468 0.28555226 -0.22157845 -0.14810538 -0.5330115
0.3805918 -0.072820574 -0.0041740076 -0.22519083 -0.09784477 -0.08767216 0.21280172 0.28155255
-0.26620823 -0.544335 0.4457979 -0.46655214 -0.32110396 0.64836377 -0.009412461 0.053762384
-0.3041929 0.48680335 -0.21035552 -0.4005942 0.020671228 0.15857084 0.5172356 -0.15592328
0.097521834 0.30816945 -0.028858515 0.3228737 0.28953883 0.12948816 -0.2065765 0.07506483
0.16963698 0.39017448 -0.46267813 -0.010430553 -0.08591988 -0.06590332 0.10497196 0.5656696
0.13716719 -0.073930755 0.39643347 -0.55874944 -0.546561 -0.15583354 0.3136331 -0.11424263
-0.5175206 -0.05293929 -0.2534994 0.24498208 -0.21844296 -0.2950951 -0.20040981 0.33819273
-0.24348299 -0.20180221 0.20861496 0.2665609 -0.114965685 0.8333582 0.14277808 0.08951012
-0.121631905 -0.084390275 -0.24343054 0.5220842 0.0388866 0.32883996 -0.50141895 0.3150045
0.4377344 0.004582814 -0.36749104 0.22962701 0.4704411 0.08323135 -0.7665914 -0.13918512
0.302585 -0.150543 -0.4402877 0.7459051 -0.39219636 -0.33971617 -0.3334835 -0.72150546
0.03311303 -0.31381541 0.5242554 -0.0068849656 -0.70379066 -0.5571099 -0.5696871 -0.09452577
0.057857495 -0.5879415 -0.19429103 -0.28086013 0.13892336 -0.8001131 -0.3657763 -0.07744644
0.53512317 -0.35685796 -0.5631715 0.35526207 0.4212265 -0.11334739 -0.7638851 0.16701333
-0.48002002 0.016510578 0.62180173 -0.41133553 -0.02939819 0.6066852 -0.71346265 -0.61459804
0.040058658 0.16199942 -0.5532052 -0.47796217 -0.5042337 -0.033221126 0.4399929 -0.064994946
0.29285735 0.04060034 0.34094164 -0.17048171 -0.23437707 -0.9219533 -0.29359242 0.39356518
-0.3001763 0.2691809 -0.16965722 0.30428988 -0.25710803 -0.93220425 0.1068863 -0.36301604
-0.17357971 -0.3414328 -0.21575117 0.23802231 -0.62264156 -0.21629564 -0.024565052 -0.06664305
-0.19462545 0.25670582 0.7496174 -0.29529893 -0.13127366 0.8169513 -0.2471069 -0.5015971
-0.4593529 -0.04819072 0.8343879 -0.7790149 -0.8398857 0.20237704 0.09120626 -0.22308417
0.1965405 0.09192184 0.32433552 0.017101835 -0.17589164 0.021836666 0.03475702 0.17525946
-0.12066752 -0.0797747 -0.27065355 -0.3120074 0.52530104 0.03114064 0.5127951 -0.18691823
1.1096987 0.3965195 -0.35070494 0.5786957 0.2870526 -0.25403264 0.046027187 -0.20523696
-0.41286075 0.68081874 -0.29325065 -0.11471033 0.7732117 -0.059035644 0.26956055 -0.6966827
0.34150183 0.11466915 0.23832758 0.2418098 0.11865097 0.35467145 0.93962 0.72929776

bias f4 [6]
00000000: 7ee5 bc3c 1ff6 143c dfad 153e 3261 033e
00000010: d0a8 0dbf c91d 80be
0.02305865 0.009091883 0.14617108 0.12830046 -0.5533571 -0.25022724
