src/learning/models/touch_deep_wide_tanh.pt (torch, 11023 bytes, 8 tensors)

weight f4 [32, 6]
000000 50 ed fb 3d 0f 4b 0f bf 8d 4f 51 3e df 1d ef bd
       0.12301123 -0.55973905 0.20440502 -0.11675619
000010 04 90 0f bf 5c e2 81 be 3a e1 2a bd 79 94 b1 3d
       -0.56079125 -0.2536801 -0.0417187 0.08670897
000020 76 2f 12 3d 7e 55 2a 3e a6 b9 f2 bd 30 d7 b1 be
       0.035689794 0.16634175 -0.11851816 -0.34734488
000030 33 56 0a 3f 72 2e da 3d ab 81 d8 3d 04 2e 58 3e
       0.5403778 0.1065339 0.10571607 0.21111304
000040 ff 06 10 bd 1b eb bb be 8c 76 93 be 2a 83 51 be
       -0.035162922 -0.3670281 -0.28801382 -0.20460191
000050 55 4f 61 3c bc 55 38 be 1a 6c a0 3e 34 9d a9 3e
       0.013751824 -0.18001455 0.31332475 0.3312775
000060 45 54 07 3f 5a 6f ea bd ae 2f 20 be 36 ce b6 ba
       0.5286296 -0.1144702 -0.15643188 -0.0013946954
000070 eb 7b b1 be 43 69 40 bf 90 78 5b 3e 01 7e 2c bc
       -0.34664854 -0.75160617 0.2143271 -0.010528089
000080 61 6e 05 3d ac 9d 38 3e ca 4c ed 3c 15 bb 3a 3f
       0.03257597 0.18028897 0.02896728 0.72941715
000090 aa 43 d1 3e f4 f6 6d 3d 38 2e 76 be 84 97 ad 3e
       0.40871936 0.05809684 -0.24041069 0.3390466
0000a0 5a 3b de 3e aa cf fa be eb e8 43 3f 50 8c 9c 3e
       0.43404657 -0.4898656 0.7652728 0.305758
0000b0 56 1f 7e 3c 8c f8 b4 3d b0 15 9c be f2 51 1c 3f
       0.015510401 0.08836469 -0.30485296 0.6106254
0000c0 19 f2 04 3e 20 c7 e2 be c3 13 fb be a7 24 b5 3e
       0.12982978 -0.44292545 -0.49038514 0.35379526
0000d0 21 8c a2 bc 77 e3 d4 be 8f 05 f3 3b 41 16 d1 be
       -0.01984221 -0.41579792 0.007416434 -0.4083729
0000e0 c5 86 03 3d 17 4c 18 be bc 32 c4 3d cd 5f 38 3e
       0.032110948 -0.14872776 0.09579989 0.18005295
0000f0 95 5b 50 be f9 d0 c9 bc 88 8e 4c be 4b 27 bf bd
       -0.20347436 -0.024635779 -0.19976246 -0.093336664
000100 21 a5 a9 3c c6 8f 1a 3f fe 7a 94 bc f1 ad ab 3e
       0.020708622 0.6037563 -0.018125053 0.33531144
000110 9d cc 33 bd 2d b1 fc 3e 9f 75 44 be 8a b6 48 3d
       -0.043896306 0.49353924 -0.19185494 0.049002208
000120 c7 ed ba 3c 8a 96 32 bd 07 31 b6 bd 04 63 38 3e
       0.02281846 -0.043600596 -0.0889607 0.18006521
000130 15 1e 33 bf 69 e3 39 3f a7 0d 38 3e 72 fa 34 3e
       -0.69967777 0.72612625 0.17973958 0.17673662
000140 dd 55 4c bf ec 1e 1c be 93 3f a5 be 66 da 16 be
       -0.79818517 -0.15246171 -0.32275066 -0.1473175
000150 02 17 58 3e 95 c9 43 bb a8 ce d7 3e 26 55 e2 be
       0.21102527 -0.002987479 0.42149854 -0.44205588
000160 28 fc 17 bf 05 5b 6f 3e e3 70 34 3f 0c 8c 8a 3e
       -0.59369135 0.23374565 0.7048475 0.27059972
000170 6b e6 87 3e 8e e8 24 be 10 a7 9d 3e 07 80 1b 3f
       0.26542982 -0.16104338 0.3079152 0.6074223
000180 f3 fe b6 3e f4 d9 a0 be bc c6 61 3e e3 d5 2b 3e
       0.35741386 -0.31416285 0.22048467 0.1678081
000190 1c 5c d3 be c6 6c 23 be c4 24 88 bd b5 04 4b be
       -0.4128121 -0.15959463 -0.066476375 -0.19826014
0001a0 29 05 11 bd 62 10 4a be fa ae af 3e 8e 8e 33 3e
       -0.03540531 -0.19732812 0.34313184 0.17534849
0001b0 93 23 0d 3e 56 73 0e 3f 97 c8 8d 3e 3e f0 68 3d
       0.13783102 0.5564474 0.276921 0.056869738
0001c0 72 a7 8d 3d f8 d9 2b bf 73 7f 95 3a 81 88 29 3f
       0.06916703 -0.6712947 0.0011405781 0.66223913
0001d0 10 8c 50 3f 00 13 84 be b9 d3 20 bf 96 69 2a 3e
       0.8146372 -0.25795746 -0.62823063 0.1664184
0001e0 ce d0 88 bc 89 bd af bd ae 18 02 3f ce 4b 0e bf
       -0.016701128 -0.08581073 0.5081891 -0.5558442
0001f0 ff 7a c2 be da ef ef bd dd 00 72 be 26 97 81 bd
       -0.37984464 -0.1171567 -0.23633142 -0.063276574
000200 8a 63 b2 3d 3d bf ce be 59 5e 09 bf c8 9f f4 bd
       0.08710392 -0.40380278 -0.5365959 -0.11944538
000210 78 81 07 bd 0d 0a 47 be 3e 66 c2 bb d9 59 83 be
       -0.033082455 -0.19437428 -0.0059325984 -0.25654486
000220 2a f8 41 3f 53 b5 6f be 7a 50 b5 3e 94 2a 0f 3e
       0.75769293 -0.23409013 0.3541296 0.13981086
000230 ff b3 b7 3e e0 89 29 3d 5d c1 05 3e 33 ca b1 bc
       0.35879514 0.041391253 0.13062043 -0.021702861
000240 03 66 5a 3c f5 ef 47 3e 41 81 19 be f2 b5 cb 3a
       0.013329986 0.1952513 -0.14990713 0.0015541895
000250 f4 e5 2b bf 83 8f 26 be 67 52 2f 3d 00 63 5e bd
       -0.67147756 -0.16265683 0.042803194 -0.054293633
000260 e5 3c be 3d 5e cb 11 3f f8 b3 32 bc 6a 14 9c 3e
       0.092889585 0.5695094 -0.010907166 0.30484325
000270 e4 a6 53 be 15 8d c6 3e ae ff 98 3c b8 aa 20 bf
       -0.20669132 0.38779512 0.018676605 -0.62760496
000280 67 96 35 3e e1 93 1f bb 75 4b 1c 3e 94 53 e0 be
       0.17733155 -0.0024349617 0.1526316 -0.43813765
000290 a0 91 c8 3e 0f ec 75 3d df 5f 66 3f f0 95 e1 3d
       0.39173603 0.060039576 0.8999004 0.110149264
0002a0 89 c4 55 bc 89 bb 01 3f 98 7e 05 3e 15 b0 b3 bd
       -0.013047346 0.5067678 0.13036573 -0.08773819
0002b0 5d 01 a6 bc b1 3c 9b bd 3b 94 6d 3e 0f ff a7 3e
       -0.020264322 -0.07579935 0.23201077 0.32811782
0002c0 87 13 6b bd 9a d6 7b 3e 72 6d 2f 3e 54 32 49 be
       -0.05739167 0.24593583 0.17131594 -0.19648105
0002d0 c6 7f cc bd 6e dd 08 3e 13 97 15 3f 01 13 1a be
       -0.09985308 0.13365719 0.58433646 -0.15046312
0002e0 fd 09 b4 be 32 ee 43 3e 30 82 dd 3c 1b 05 8e be
       -0.3516387 0.19133833 0.027039617 -0.2773827
0002f0 ce 77 50 3d 44 96 2e be 8b 4c 66 be 19 76 86 3e
       0.050895505 -0.1704951 -0.22490136 0.26261976

bias f4 [32]
000000 dc 8f 4e be 46 b6 df 3e a4 a6 80 be 97 f3 b8 3e
       -0.20172065 0.4369375 -0.25127137 0.36123344
000010 a2 9a 94 3e 00 2a 07 bf ac 8a 06 bf 34 dc d9 3e
       0.29024225 -0.5279846 -0.52555346 0.42550814
000020 29 72 d2 be 39 53 24 bf 81 c1 0e be d4 13 82 3d
       -0.41102722 -0.6418949 -0.13941003 0.06351438
000030 eb 23 78 bd 8b 04 0a bd cb e5 36 3f 14 6f 13 3e
       -0.06058113 -0.03369574 0.71444386 0.14397842
000040 79 7f 44 3f 36 56 83 3e 9a a0 04 be 97 0b ad be
       0.7675701 0.2565171 -0.1295189 -0.33797905
000050 e5 d3 b6 3d 85 c4 83 3e ad b6 33 3d 8a 81 35 be
       0.089271344 0.2573587 0.043875385 -0.17725196
000060 89 1f b0 bb d6 dd c7 be 6d d2 a6 be 6b 54 07 bf
       -0.005374853 -0.39036435 -0.32582417 -0.52863187
000070 81 6d 81 be be ae cf bd 0f 21 2a 3f 99 4d 11 3e
       -0.25278857 -0.10140751 0.66456693 0.14189757

weight f4 [32, 32]
000000 28 41 5d 3e 04 84 09 3d 50 34 ce bd c2 4c b4 3e
       0.21606886 0.033573166 -0.100685716 0.35214812
000010 9c 33 31 3d 70 6b f2 bd d0 b5 09 3e 58 43 91 3d
       0.04326211 -0.11836898 0.13448262 0.07092923
000020 b3 fe c7 3c 1f 23 ee 3e f0 77 6e 3e d2 26 ef be
       0.024413442 0.4651117 0.2328794 -0.46709305
000030 e7 e7 c6 3d d9 3a 97 bd d9 4b c2 be b0 30 58 be
       0.097122006 -0.07384271 -0.37948492 -0.21112323
000040 3b b5 cd bd 17 c7 b4 bd ba 93 32 bd 0c 56 d0 3e
       -0.100443326 -0.08827036 -0.043597914 0.4069065
000050 93 26 4c be fa cf bb 3e e7 d2 00 3e b7 50 1d 3e
       -0.1993659 0.3668211 0.12580453 0.15362822
000060 d1 ec 3b 3d 31 7d 34 bd 23 4e 46 3e 62 d7 c7 3e
       0.045880143 -0.044064704 0.19365744 0.39031512
000070 7f 19 69 bd 57 c1 24 3e bc 36 1e 3d 99 2d 86 3e
       -0.05690908 0.16089378 0.038626418 0.26206663
000080 84 52 44 bd 34 aa 3f be f4 23 13 3d 61 01 f5 bd
       -0.047930256 -0.18717271 0.03592296 -0.11963154
000090 f1 2c b5 3d 7a db 11 3e f6 70 04 bf 68 e7 22 3e
       0.088464625 0.1424388 -0.51734865 0.15908587
0000a0 34 ec 5e 3e 44 5c 4f 3d 69 ac 54 3c 26 40 d5 3c
       0.21769792 0.0506251 0.012980559 0.026031565
0000b0 94 c2 08 3d f7 87 c8 bc d3 c5 0d 3e 0a b4 84 3e
       0.03338869 -0.024478896 0.13844995 0.2591861
0000c0 fa e9 0f be 10 f7 80 be fc c6 41 bd 39 8c d2 be
       -0.14054099 -0.25188494 -0.047308907 -0.41122606
0000d0 6a 88 d9 3d 14 0d 66 3e 1a 9e 05 be 2e f3 c3 3d
       0.10621722 0.22465926 -0.13048592 0.09567867
0000e0 8d b0 53 3e 0b 63 9b bc 8a 10 92 3d b5 71 00 be
       0.20672818 -0.018968126 0.07132061 -0.12543376
0000f0 29 eb 96 bb 0d 9e 87 3e fd b3 a0 3d 41 53 54 3c
       -0.00460567 0.2648777 0.0784683 0.012959302
000100 27 4b 43 3e 02 3a 48 be 97 f4 b5 3e d5 ea c0 bd
       0.19071637 -0.19553378 0.3553817 -0.09419791
000110 79 08 6f bd 5a 2d 84 be 97 4e a4 3e b6 a6 95 3e
       -0.05835769 -0.2581585 0.3209121 0.29228753
000120 50 b0 2d be bf 04 8a be 91 25 48 3e ae 33 e9 3d
       -0.16961789 -0.26956746 0.1954558 0.1138681
000130 39 ea 11 bf ec d3 2d 3e b8 3a fc bd c4 0e 1e bf
       -0.5699802 0.16975373 -0.12315887 -0.6174128
000140 7f 39 99 be 24 ee e8 bd 8a 4e a3 3b eb 34 2f be
       -0.2992668 -0.11373547 0.004983728 -0.1711003
000150 ea 76 27 be a1 e2 12 be db 23 61 3e 8e 3f 83 3e
       -0.16353956 -0.14344265 0.21986334 0.25634426
000160 8d 91 08 be 6b 4e 14 3e 0f d6 35 3e 15 7d 48 3e
       -0.13336773 0.14483039 0.17757438 0.19578965
000170 f2 52 f6 3b 90 0e 83 3e a2 e4 2b 3e 4d 4b 16 bd
       0.007517212 0.25597048 0.16786435 -0.036692906
000180 a5 ba c3 3c 40 93 70 3e f5 db 15 be 2e 98 84 3e
       0.02389271 0.23493671 -0.14634688 0.25897354
000190 f0 77 01 3f ef 2c e8 3d d0 58 f5 bc fc 29 aa 3e
       0.50573635 0.113366954 -0.029949576 0.33235157
0001a0 2a e8 e9 bd 18 7b c5 3e 13 8e 35 3e 63 41 3b be
       -0.11421235 0.38570476 0.17729978 -0.18286662
0001b0 35 98 63 3e be 60 cd ba fd 33 c3 3c cc ed 3f 3e
       0.22226031 -0.001566909 0.0238285 0.18743056
0001c0 37 15 a5 3e 59 9a 88 bd d6 29 fa be 8f 60 fb 3e
       0.32242748 -0.066700645 -0.48860043 0.49097106
0001d0 20 0c 1a bf 5c a6 42 bb 95 6f 2b be 81 f6 2a be
       -0.6017475 -0.0029701209 -0.16741784 -0.16695596
0001e0 dd ad 89 be 5b ba 5a 3d 2c 4d 99 3e bb 04 36 bc
       -0.2689046 0.05340038 0.2994169 -0.011109526
0001f0 22 cc b8 bc 43 ba ca 3e a0 5a 2f bd bd 40 1d 3d
       -0.022558276 0.3959523 -0.042811036 0.038391817
000200 8d 4d ab 3d 8b 51 b1 bd 1c 1a 42 3d e4 36 bb 3d
       0.08364401 -0.08658131 0.04738818 0.09141329
000210 c1 3a 23 3d 2d 6c 08 be 52 44 fa 3d 5c fd ad 3e
       0.039850954 -0.13322516 0.12220062 0.3398236
000220 f0 ca e3 3d 57 b3 30 be 7d 21 9b bd 2e 24 be be
       0.11122692 -0.17255913 -0.07574747 -0.37136978
000230 89 8e 9c be f7 e7 23 3e c0 49 be 3c b4 e0 2a 3e
       -0.30577496 0.16006456 0.023228526 0.1668728
000240 28 75 92 bd 86 c5 3b 3e 28 61 ee 3e c9 66 bd 3e
       -0.07151252 0.18337068 0.465585 0.3699248
000250 3f e8 cc be 96 42 21 3f 08 27 65 bd 62 b6 59 3e
       -0.4002094 0.6299223 -0.055945426 0.2126098
000260 d1 41 8c bc 48 33 ff be 57 c3 b5 bc 09 26 b6 3e
       -0.017121227 -0.49843812 -0.022187872 0.35575894
000270 f6 a4 21 bd 1b 85 24 bd 82 0c f2 3e ed 8f 9e 3e
       -0.03946396 -0.040166 0.47275168 0.30969182
000280 18 af de bc 31 3c 3c bd 5c 88 c3 bc 8f 40 64 be
       -0.0271831 -0.04595584 -0.023868732 -0.22290252
000290 91 04 36 3e ce 49 c3 be 09 da 08 be 27 85 67 3e
       0.1777518 -0.38142246 -0.13364424 0.22609387
0002a0 b1 67 7f 3d 96 bf 6d be f0 33 68 be 20 7c 0f bd
       0.062354747 -0.23217615 -0.22676063 -0.035030484
0002b0 32 b4 0c be 75 66 3e be bd 54 28 3e 4c be 4a bd
       -0.13740614 -0.18593772 0.16438575 -0.049497887
0002c0 c1 42 a9 3e 4c 86 33 3e 9d 1c 88 3e 9a 99 82 3e
       0.33058742 0.17531699 0.2658433 0.25507814
0002d0 47 05 20 be 60 bc fb 3e 3f ec 6c 3e dd 3a e1 3d
       -0.15627013 0.49167156 0.23136996 0.109975554
0002e0 be 7f 10 be ca b9 33 be 0b f1 07 be 48 b0 1f 3e
       -0.1411123 -0.17551342 -0.13275544 0.1559459
0002f0 8b c3 f1 bd 67 b8 92 3e 72 9b 8b 3d 2a ba ae be
       -0.11804875 0.28656313 0.06816758 -0.34126407
000300 6b f7 25 bd d7 a9 02 be 7d 8b d0 bc 77 be 32 3d
       -0.04051916 -0.12760101 -0.025457138 0.043638673
000310 78 d4 3d bd c3 30 05 be f2 07 48 3e 32 e9 44 be
       -0.046345204 -0.13006882 0.19534281 -0.19229582
000320 18 cc fa bd e8 b7 b9 3e eb 2d 2d 3d 01 f1 71 bd
       -0.12245959 0.36273122 0.04228012 -0.05906773
000330 17 9d dc 3d ae 29 fc 3d 1c 56 fe 3d 17 4f 4a bb
       0.1077215 0.12312637 0.12418768 -0.0030869895
000340 c8 a7 5e be de 2f 06 bd 96 0f 47 3d b8 ac e3 bd
       -0.21743691 -0.032760493 0.04859885 -0.11116928
000350 c8 f4 39 3e b8 d0 4f be 7d e4 7f 3e 4f da 4b be
       0.18159783 -0.20294464 0.24989505 -0.19907497
000360 d8 d9 18 3e 44 7a d5 3c 30 0b e2 3b 4f 14 50 be
       0.14926851 0.026059277 0.0068983063 -0.20320247
000370 84 df f6 bd b8 ad 9b be a4 31 36 be d0 27 2b bd
       -0.12054351 -0.30405974 -0.17792374 -0.041786015
000380 ec 2d 9e 3e f5 c6 a7 be ac cd 21 be 78 8e 7e bb
       0.3089441 -0.3276898 -0.15801114 -0.0038842242
000390 e8 cd d0 3d cd 5f 2c bc f3 41 a5 3d 8f 65 fc bc
       0.101955235 -0.010520888 0.080692194 -0.030810146
0003a0 1b 13 66 be 3a 55 bb bd 53 e5 7f bd 3a f1 b7 3e
       -0.22468226 -0.09147115 -0.06247456 0.3592623
0003b0 e3 16 74 3e cc 37 5d be 4b 8d 4d 3b 77 69 af be
       0.23836856 -0.21603316 0.0031364735 -0.3426015
0003c0 f2 9e 01 3f e9 48 72 bd 84 8b af be 01 ef 0a be
       0.50633156 -0.059151564 -0.3428613 -0.13567735
0003d0 ed bb 47 3e 33 6b be 3d 7f 01 34 be 74 f6 da 3d
       0.19505282 0.092977904 -0.17578696 0.106915385
0003e0 e3 51 f7 3d d6 aa fc be 58 f4 f8 bd a3 a8 b3 3d
       0.120761655 -0.49349087 -0.1215598 0.08772399
0003f0 57 32 af 3e ed 86 1b 3e df 8b 80 3e a6 17 96 3e
       0.34218094 0.15188189 0.25106713 0.29314917

bias f4 [32]
000000 02 cc bc bd 96 c6 fe bc d0 92 17 be 98 f3 07 3e
       -0.09218599 -0.031100553 -0.14802098 0.13276517
000010 79 4a c9 bd 2e ba 17 be 76 84 3b 3e 49 eb a0 3e
       -0.09828658 -0.14817116 0.18312249 0.31429508
000020 8f 0f 1d bd c6 9d 12 be 98 ec 7a 3e 63 e3 0d bd
       -0.038344916 -0.14317998 0.24504316 -0.03464068
000030 b1 60 6d 3e 7e 1a e4 be 33 1f c1 bd 41 3e d1 be
       0.23181416 -0.44551462 -0.09429779 -0.40867808
000040 9f 32 3a be fb 92 09 be f8 5c b8 be bd 4a 25 be
       -0.18183373 -0.13434975 -0.3600843 -0.16141792
000050 68 aa b4 3e 4b a6 94 be 38 94 24 be f7 57 4b 3e
       0.3528626 -0.2903312 -0.16072166 0.19857775
000060 15 c9 77 be 49 e9 24 bc d1 90 bb 3d f9 7a 95 3e
       -0.241978 -0.010065385 0.09158481 0.29195383
000070 78 2d 9c 3d f6 d4 9f be 9e 08 0b bf 6e ae 2a be
       0.0762586 -0.31217164 -0.54310024 -0.16668102

weight f4 [16, 32]
000000 1e 71 d7 3e 70 6d 0a 3f 94 59 90 bd 02 fb 22 3e
       0.4207849 0.5407324 -0.07048336 0.15916064
000010 06 c5 36 bf de 9c 91 be 5e ab 5b be 9c 06 b5 3e
       -0.71394384 -0.28439993 -0.2145209 0.35356605
000020 0a a8 a9 3e 30 58 88 3e d2 c2 bc 3e 14 c7 18 3e
       0.33136016 0.26629782 0.36867386 0.14919692
000030 52 5c 56 3e 22 72 b1 bd 71 a7 ca be a2 aa 00 bd
       0.20933655 -0.08664347 -0.39580873 -0.031412728
000040 ba 83 1f bf b7 48 e0 3e f6 70 18 3f 44 9d a5 be
       -0.62310374 0.43805477 0.59547365 -0.32346547
000050 f0 45 67 3e 77 08 a3 be 63 f0 c9 bd 7e 52 25 3d
       0.22585273 -0.31842396 -0.09860303 0.040361874
000060 35 f3 0b bf 8e ae 66 3e 54 d5 44 3e 01 f2 e4 3e
       -0.5466798 0.22527525 0.19222003 0.44715884
000070 49 df 03 be d3 4d 34 3e 46 c7 e5 be 34 50 e2 be
       -0.12878145 0.17607813 -0.44878596 -0.44201815
000080 26 ab 83 bd 68 7a 69 be 10 86 86 be 4c 3b 39 3e
       -0.06429128 -0.228006 -0.26274157 0.18089026
000090 91 1b 7d be 3f ad ff 3c 9e 27 9c 3d 37 8d 92 be
       -0.24717547 0.03121054 0.07624744 -0.28623363
0000a0 90 6e 1d be 2b e1 a7 3d a9 9f bf 3e ef f0 64 3e
       -0.15374207 0.08197244 0.374265 0.22357534
0000b0 93 1a f4 bd 47 99 5d be 71 a8 24 be ef af 57 3e
       -0.11919131 -0.21640502 -0.1607988 0.21063207
0000c0 8d 94 da bd 56 d2 33 3e c3 3f 6c bd 88 48 f5 be
       -0.10672865 0.17560706 -0.057677995 -0.479069
0000d0 65 c0 9b be 74 25 48 3e c0 1f a6 bd df 05 b2 3e
       -0.30420223 0.19545537 -0.081115246 0.34770104
0000e0 22 20 c8 3d 3c 54 a8 bd 02 32 3d be dc 31 57 be
       0.09771754 -0.082191914 -0.18476108 -0.21015114
0000f0 58 58 f2 bc 6a e5 18 3e c8 4a 9f be 14 d4 2f 3e
       -0.029583141 0.14931265 -0.3111174 0.17170745
000100 93 60 fc be 4f 11 75 3e 50 d3 a9 3b 6f 5f 80 3e
       -0.4929243 0.23932384 0.005182661 0.2507281
000110 6f 7a 24 3e 9d 8a b8 bd fb 33 36 bd a1 7a 1e 3f
       0.1606233 -0.090108134 -0.044483166 0.61905867
000120 f5 cf 17 3e f5 74 5f 3e a0 b9 9e be 70 3f 9f be
       0.14825423 0.2182196 -0.31000996 -0.31103086
000130 67 6c 42 3e a3 fe 26 3f 65 36 d7 3d 90 0d 45 be
       0.18986665 0.65232295 0.10508422 -0.19243455
000140 e8 7e dd 3e ca fe 76 bd 0c bc 22 3e ad 79 b6 3e
       0.43260884 -0.06030158 0.15892047 0.35639706
000150 41 ac 2c 3f 56 ec 1a 3d 5e dd 91 bd 3e 2f 84 bc
       0.6745034 0.037823044 -0.071223006 -0.016135808
000160 06 c1 4c 3d d2 c7 cf 3e 95 6c 2e 3f 0c 51 1f bd
       0.04998877 0.40582138 0.68134433 -0.03889565
000170 11 f7 0a 3e af 9b cc bd d8 9f 01 bc 36 03 28 3c
       0.13570811 -0.09990632 -0.007911645 0.010254672
000180 a4 05 b4 be ee 52 dd 3e a8 0f 9f be ae 53 4d bf
       -0.35160553 0.43227333 -0.31066632 -0.8020581
000190 1b ff d5 3e 30 d0 4b 3e 0c a1 63 3d 73 b5 e9 bd
       0.41796193 0.19903636 0.05557351 -0.11411562
0001a0 72 93 7a bf ee 45 08 3e 86 6a 92 bd 6d 3d b3 3e
       -0.97881234 0.13307926 -0.07149224 0.35007802
0001b0 a9 c5 92 be f6 c4 d5 3e 18 06 93 3e f4 37 1e 3e
       -0.28666428 0.41751832 0.28715587 0.15451032
0001c0 26 10 fc 3e 08 7f 81 3e fb a7 25 be 7c 6f 32 3e
       0.4923107 0.2529223 -0.1617736 0.1742534
0001d0 49 60 e2 be c6 9d ba 3d cf 70 7c 3e 0b e0 e8 3e
       -0.44214085 0.09112124 0.24652408 0.4548343
0001e0 ac 1b 1d 3f ed 9e 20 3e 3c 0f a8 3d ec 23 de 3d
       0.6137035 0.15685625 0.08206031 0.10846695
0001f0 26 56 ec 3d fb 8a a1 3d 15 22 35 3e 73 a7 09 3e
       0.11539869 0.078878365 0.17688783 0.13442783
000200 77 f2 2c bf b8 6b cb 3e bb 9c 57 3e dc 61 bb be
       -0.6755747 0.3973062 0.21055882 -0.36598098
000210 c2 e7 e9 3a 56 d2 fe 3d 90 b5 58 3e a6 ae 9c 3d
       0.0017845558 0.12442462 0.2116301 0.07650499
000220 c7 08 82 bd f1 0d b2 bd 67 2f d7 be 9e 7a f5 3e
       -0.063493304 -0.08694065 -0.42028353 0.47945112
000230 0d 51 21 bf b0 16 f0 3b db 85 a8 3e a9 9e 78 bd
       -0.630143 0.0073269233 0.32914624 -0.060698185
000240 90 05 a2 be dd 3a 7c 3e 7a 06 d7 be 02 b0 d6 3e
       -0.3164487 0.2463183 -0.4199713 0.41931158
000250 0f 7b 1c 3f 38 bd fc 3d ff a4 37 3e 93 a2 21 bd
       0.6112527 0.12340778 0.17934035 -0.039461683
000260 41 9f 21 bd 25 16 20 3f e3 f0 2e 3e de 7a 76 be
       -0.039458517 0.6253379 0.17084078 -0.24070308
000270 34 f6 ae 3d 2e 51 6a be d7 be ee 3d 39 b0 8e be
       0.08543053 -0.2288253 0.116574936 -0.27868822
000280 6e 36 60 3e b8 94 34 bd d9 b2 89 bd e4 e5 18 be
       0.21895763 -0.04408714 -0.067235656 -0.14931446
000290 ce 6c 18 3f 9f 03 05 3f 89 4a ae be 8b da a8 be
       0.5954102 0.5195865 -0.3404124 -0.32979235
0002a0 b2 f5 24 be ba ab 90 3d 1d 8b 93 bc 98 e2 d2 be
       -0.1610935 0.07064004 -0.01801067 -0.41188502
0002b0 ce ab 2f 3e c5 0c 75 3e f5 1b cd bb 8f 28 fc 3e
       0.17155382 0.23930652 -0.0062594363 0.49249694
0002c0 30 c6 90 3e 1e f0 28 bd ca 15 c9 3e 21 55 39 3f
       0.28276205 -0.04124462 0.39274436 0.7239552
0002d0 1b 30 05 bf ea 39 fd 3d ac 4e 87 3e 7c 1a 6b be
       -0.5202653 0.12364562 0.2642721 -0.22959322
0002e0 81 53 1d 3e ee 01 30 bd 34 f4 99 bd dd b7 1e 3c
       0.15363885 -0.04297059 -0.07517281 0.009687391
0002f0 bd a8 1f 3e aa cf fa 3e db 80 69 be b7 5d ef 3e
       0.15591712 0.4898656 -0.2280306 0.46751186
000300 e8 3b ae be e4 aa b7 be 88 29 91 bc 7d 9d d9 be
       -0.3403008 -0.35872567 -0.017719999 -0.42502967
000310 4d 37 5c 3d e6 88 99 bd c6 c3 93 3d ae 6b d2 be
       0.053763676 -0.074968144 0.07215075 -0.41097778
000320 17 52 37 bf af 77 9f be e2 24 8a be e3 df 5e bb
       -0.71609634 -0.31146 -0.26981264 -0.0034007959
000330 80 2c fe be ef aa f2 bd a9 26 c9 bd 33 c9 66 3e
       -0.49643326 -0.11849009 -0.09821827 0.22537689
000340 5e d1 24 3d c2 7f 4c bf 0b 29 84 be 34 26 50 3f
       0.04023873 -0.7988244 -0.25812563 0.81308293
000350 ed 48 0f bd 81 ae fe be 94 0f 81 3e fa df c3 be
       -0.034981657 -0.4974251 0.25207198 -0.38256818
000360 e4 96 9f 3e d6 27 fd 3e fe 84 a5 be 38 ec d4 be
       0.31169808 0.49444455 -0.32328027 -0.4158647
000370 48 08 90 3e 6b 97 87 3d 5e c6 0a be 25 39 f8 3e
       0.28131318 0.066206776 -0.13552234 0.48481098
000380 22 8d 37 be b8 af df be d3 a4 94 3c 2c 5c af 3d
       -0.17924932 -0.4368875 0.018145 0.08562502
000390 ba 32 5d 3e 82 2d e4 be 52 c9 8a 3e 31 ea 9c bd
       0.21601382 -0.4456597 0.2710672 -0.07661856
0003a0 ea 28 ef bd f7 c4 7e 3e 75 47 75 3e 91 8d 23 3d
       -0.116777256 0.24879824 0.2395304 0.03992993
0003b0 ad 20 ad be 0b f4 05 bf 76 8d 13 bd 95 00 dd bd
       -0.33813992 -0.52325505 -0.03602358 -0.10791127
0003c0 07 25 be be 1a 8d 2c be 89 1b 6e be a7 51 f6 bc
       -0.37137625 -0.16850701 -0.23252691 -0.030068232
0003d0 5d 04 a3 3e fc ec 2b bd b4 f6 15 bf 85 00 82 be
       0.31839266 -0.041974053 -0.58579564 -0.2539102
0003e0 ca 95 04 bf ea 02 61 be 46 a8 ed be ed db ec 3d
       -0.5179106 -0.21973768 -0.46417445 0.11565385
0003f0 16 10 9d 3e cb 3e 85 bd b5 82 c4 3d 8b 4c dd be
       0.30676335 -0.065061174 0.09595243 -0.4322246

bias f4 [16]
000000 be 9a ed 3e 38 41 ef 3c 1e 44 5f 3e 6b 10 c8 be
       0.4640712 0.029205903 0.21803328 -0.39075026
000010 52 2d 42 bd dc b4 3b be fb 30 3c be ae 1d 5d 3e
       -0.047406502 -0.18330711 -0.1837806 0.21593353
000020 21 21 16 3e e9 7e cd be 7e d7 2f 3c 3e d1 ad bd
       0.14661075 -0.40135887 0.01073253 -0.084871754
000030 10 a4 2a bd cd 54 d3 bd 9d 6f 29 3e 40 12 53 be
       -0.04166037 -0.10318909 0.16546483 -0.2061243

weight f4 [6, 16]
000000 66 4f 99 3d dd 60 94 3f ce 02 a1 be 44 31 cb bd
       0.07485847 1.159206 -0.31447452 -0.09921506
000010 dc 03 0c bf b8 b9 1f 3d b9 9a 89 3d ff 9e d3 3e
       -0.5469339 0.038995475 0.06718964 0.41332242
000020 eb a9 80 3e d9 b0 dd be fb e0 b7 3e 23 24 64 bf
       0.25129637 -0.43298987 0.35913834 -0.8911764
000030 29 66 42 bf 41 97 45 bf 7d 84 c2 bd 61 08 86 be
       -0.75937134 -0.7718392 -0.094979264 -0.26178268
000040 7a 42 62 3e a4 77 c5 be 05 95 29 3e 17 d3 e9 be
       0.22095671 -0.3856784 0.16560753 -0.4566886
000050 b5 61 21 3f 6d fb 1c bf 3d 01 93 bd ff 06 33 3e
       0.63039714 -0.61321145 -0.071779706 0.17483138
000060 7b a2 c2 be c3 49 60 3e 96 3c 5d 3f a4 c6 27 3f
       -0.38014588 0.21903138 0.8642057 0.65537477
000070 69 48 0b 3f ad fb 05 bf 81 d2 6c be 92 b8 3e be
       0.54407364 -0.5233715 -0.23127176 -0.18625095
000080 99 14 fb 3e 99 52 62 3e d4 70 31 3e c9 f2 e9 be
       0.49039152 0.22101821 0.17328197 -0.45693043
000090 d2 dd 69 bf 82 d3 d4 3e 89 6a 71 bf d2 2d 08 3b
       -0.91354096 0.41567618 -0.94303185 0.0020779264
0000a0 23 e0 53 3e a2 58 32 3f 58 4b 8b be f1 4f 35 bf
       0.2069097 0.6966649 -0.2720592 -0.70825106
0000b0 29 c1 0e 3f dc 0f 6f 3f ff 12 dc be 39 f8 8b 3f
       0.5576349 0.93383574 -0.42983243 1.0935127
0000c0 23 25 6e 3e 04 47 ad be ca 44 b1 3e 7d 88 e5 3e
       0.23256354 -0.33843243 0.34622794 0.44830695
0000d0 f5 20 34 3f 7f 7f 90 3e 52 af 8e bc bc eb 1c bf
       0.7036279 0.28222272 -0.017417584 -0.612972
0000e0 8a 8a 0d 3f 05 3f 1d bd ec 1d 42 bf 22 0d 30 bf
       0.5528952 -0.03839018 -0.7582691 -0.6877004
0000f0 10 64 4a 3e 0e a9 dd 3e be c0 e2 3f 80 fc cd 3c
       0.19764733 0.4329304 1.771507 0.025144815
000100 51 bc c6 be 0e c0 a8 3e 08 c6 9e bf df 37 b3 3e
       -0.3881555 0.32959026 -1.2404184 0.35003564
000110 e9 87 0a bf 09 16 e3 3e b4 3f 38 3f 9c c7 24 bf
       -0.5411363 0.4435275 0.71972203 -0.6436708
000120 84 35 49 3d 0e 31 0d 3f 14 f9 a0 bf f3 76 11 bf
       0.049123302 0.55152977 -1.2576013 -0.5682213
000130 9e e5 3a 3d 06 b5 94 be af 0e c6 bf 92 62 fd bd
       0.045629136 -0.2904436 -1.5473231 -0.123723164
000140 86 08 bc bf a0 e6 d2 bd ee 1f a4 be da 63 56 3f
       -1.4690101 -0.102978945 -0.3205561 0.8374611
000150 1a 5b ac 3d ec e7 4a 3f a0 19 9c 3f 2e b3 94 3e
       0.08415814 0.79260135 1.219532 0.29042953
000160 92 cb bf be ea 07 86 3f c3 f8 25 bf 95 de 3d 3f
       -0.3746 1.0471165 -0.64832705 0.7416776
000170 4a a8 d4 bc 73 30 d5 be fc 35 e7 bd cb e1 72 3f
       -0.025959153 -0.41638526 -0.112895936 0.9487578

bias f4 [6]
000000 24 14 b2 3e 6c f3 d7 3d 24 b5 41 3e 97 49 a2 3c
       0.3478099 0.10544476 0.18916756 0.019810481
000010 3d cc 88 be 65 b5 25 be
       -0.2671832 -0.16182478
