src/learning/models/touch_400epoch_32_32_32_tanh.pt (torch, 13519 bytes, 8 tensors)

weight f4 [32, 6]
00000000: 059b 3f3e 0109 913d 3553 38bf 9b64 20bf
00000010: 5780 a3bd aac6 20bc 62d4 d8bd 16a8 7b3e
00000020: 81b2 8a3e 2221 9f3e dc19 0cbf f2f7 14bf
00000030: f82c b9be 5342 9d3e 3a1d 33bf cb76 12bd
00000040: a823 e73e b80c 843f 02e2 75bf 9fe5 c1be
00000050: 31c7 343e 8dcc 8e3d f2ba bc3e 99e8 94be
00000060: afa0 f5be 3206 3bbf dbe7 03bd 5c81 a9be
00000070: d4bc 1b3d 3f62 07bf e5e5 0ebf 69e3 8bbd
00000080: 12af d7bd 3c2d 803e f8ef 29bf c1f9 17bd
00000090: 3a18 18be 866a d23e 1e98 9ebe 3fcf 083d
000000a0: 243a ec3e b20f 5b3e a232 62bf f342 aabe
000000b0: 4c27 79bd a9da 49be ff2e 52be 8eed 7f3c
000000c0: 1dc5 f4bd 465d 84bd b546 153f 2369 89be
000000d0: f91b 8fbe ec78 073f bca2 b4bd 09e1 263e
000000e0: a597 523f f08e b63d f721 ae3d fc1b 8c3e
000000f0: 2360 e7bb 4924 033f 8fdf 113e 6c2f 4f3e
00000100: 81be 293e f65c bd38 643e 9b3e c52a 893f
00000110: 41c5 b63c d72b 03bf f128 f43e d068 613e
00000120: b119 3a3f de7b 6cbd 8e41 21bd d9ce bdbc
00000130: e58e 38bf 4ac4 703d 3ae3 7c3d a659 8abe
00000140: 090a aebb 2298 7cbe 5abc 2bbf dd84 61bf
00000150: 9a52 b7be b094 28be 2b86 e63d bb92 36bf
00000160: f798 603d dd84 303f 1beb 883b ff41 c83b
00000170: 9c81 fabb 8064 103d f245 71bf 2d4c 963e
00000180: ee8b b4b9 f433 72be d39f 773c c413 88be
00000190: d50a 403f 4f08 b63e 9d36 433d ac5b 433c
000001a0: 13ee d73d 8e64 e3be 2bad d53d dbaa b83e
000001b0: 48df 9cbe 388c 983e 6ec9 e13e e08e 15be
000001c0: 9a3b 17bf 125a 763e 88b9 5ebe e0c2 d0bd
000001d0: 204a 0fbe 3ec0 c33e 2b9c b9be 9b94 bbbe
000001e0: 6d30 a93e e5f4 0dbe eda1 0f3e 11d6 073e
000001f0: 3aad 8e3f e8e8 de3e 319a abbe 3d01 5c3d
00000200: e8e0 633e c6ac 04be e5a5 fd3e 5794 363f
00000210: 35f3 29bf 4455 983e eeb2 443f 2452 ef3d
00000220: a888 d53e d0a7 1dbf c105 61bf b5b5 873d
00000230: da5b fbb8 c913 803e e0a5 5ebe 35d8 40bf
00000240: 0dfa bfbb d776 d8bc bda2 48be 1001 0d3f
00000250: de84 ea3e 669c 223f 69af a93e ed78 8ebf
00000260: 0095 033d 6da6 613e 4497 383e 8aef 583c
00000270: 5f04 ddbe d886 1ebe 49ab c2be 0bc1 29be
00000280: a6db e93d 442f 19bf 4623 4bbf d27b 2a3e
00000290: 95f0 183e d03a f83d e18a 3dbf 7c15 df3d
000002a0: 2abc db3d 4514 38bc a056 9dbe da36 f2be
000002b0: a640 c33b 4b69 273f a3c1 9c3e 5edf 29bf
000002c0: e7cd 813e 0539 b63e 6079 6abe f547 783f
000002d0: c662 b43d 4558 053b c806 ff3d 7a92 ae3d
000002e0: 17b9 353d e385 a9bf 9aa1 78be 49d0 883e
000002f0: 0b5a 96be f22e 653e 053d 1f3f 2bef 31bf
0.18711479 0.070817955 -0.72001964 -0.6265351 -0.07983463 -0.00981299 -0.10587384 0.24575838
0.27089313 0.31079966 -0.5472696 -0.58190835 -0.3616712 0.30714664 -0.6996647 -0.03575782
0.4514439 1.0316381 -0.96047986 -0.378705 0.1765411 0.06972609 0.36861378 -0.29083708
-0.47974154 -0.7305633 -0.032203536 -0.33106506 0.038021877 -0.52884287 -0.5581954 -0.068304844
-0.10531439 0.2503451 -0.6638179 -0.03710342 -0.14852992 0.41096896 -0.3097543 0.03340077
0.46138108 0.21392706 -0.8835851 -0.33254203 -0.060828492 -0.19712318 -0.2052574 0.015620602
-0.11951659 -0.06463103 0.58311015 -0.26838025 -0.2795103 0.5291889 -0.088201016 0.16296782
0.8226264 0.08913982 0.08502572 0.273651 -0.007061021 0.5122724 0.14245437 0.20232934
0.16576578 9.0295376e-05 0.30321038 1.0716177 0.022310855 -0.5123877 0.47687486 0.22012639
0.7269545 -0.057735316 -0.03936916 -0.023169922 -0.7209304 0.058780946 0.061740138 -0.2702152
-0.005311255 -0.24667409 -0.67084277 -0.8809336 -0.35805207 -0.1646297 0.11256059 -0.7131764
0.05483338 0.68952733 0.0041784174 0.006111383 -0.007644845 0.035252094 -0.94247353 0.29354993
-0.0003443653 -0.23652631 0.015113789 -0.2657758 0.7501653 0.35553214 0.047659505 0.011923712
0.10543456 -0.44412655 0.1043342 0.36067852 -0.306391 0.29794478 0.4409899 -0.14605284
-0.5907532 0.24057797 -0.21750462 -0.101934195 -0.1399312 0.38232607 -0.3625196 -0.36636814
0.33044758 -0.13862951 0.14026614 0.13265254 1.1146615 0.43537068 -0.33516076 0.05371212
0.22253764 -0.12956533 0.4954063 0.713201 -0.6638673 0.29752553 0.76835525 0.11685589
0.41705823 -0.61584187 -0.87899405 0.06626455 -0.00011985721 0.25015095 -0.21742964 -0.75329906
-0.005858666 -0.026423855 -0.1959333 0.55079746 0.45804495 0.63519895 0.3314164 -1.1130654
0.03212452 0.22036143 0.18026453 0.013240704 -0.43167397 -0.15481126 -0.38021305 -0.16577546
0.11418848 -0.59837747 -0.793507 0.16648796 0.14935525 0.121205926 -0.7404004 0.1089277
0.10729249 -0.011235301 -0.30730152 -0.47307473 0.0059586344 0.6539504 0.30616483 -0.66356456
0.25352404 0.35590377 -0.22897863 0.969848 0.08807902 0.0020346802 0.12452465 0.08524032
0.04436597 -1.3243984 -0.24280396 0.2672141 -0.29365572 0.2238119 0.62202483 -0.69505566

bias f4 [32]
00000000: d6b1 edbe 1c2a 5bbe 967e 64bd c30a 78be
00000010: 996d 2f3e e1ac 643e b88f a93d 4645 2e3f
00000020: 84e4 a23e 992c 05bf 57b3 1ebe a794 e83e
00000030: b2b6 383f 7bf0 5bbd 4d3b 54be 7506 cdbd
00000040: d8f9 6e3e 21b8 ccbe bffa 363f 6476 0b3f
00000050: 1083 57bf 5de4 34bf 4223 6fbe e982 11bf
00000060: ca12 cb3e c90b 80bd 6e8f 0bbf 66a2 d53e
00000070: a0e4 d0be 5f18 a53e f78b 08bf 810a 82be
-0.4642474 -0.21402782 -0.055784784 -0.24222855 0.17131652 0.22331573 0.08279365 0.6807445
0.3181497 -0.52021176 -0.154981 0.45425913 0.7215377 -0.053696137 -0.20725746 -0.10010997
0.23337495 -0.3998423 0.7147636 0.54477525 -0.8418436 -0.70660955 -0.23353294 -0.5684038
0.39662772 -0.06252248 -0.5451573 0.41725463 -0.40799427 0.32245156 -0.5333857 -0.2539864

weight f4 [32, 32]
00000000: 414a b1be 93c5 143f 6396 9dbe a6d7 3fbd
00000010: 112f 20be 2c3f 4cbe 0725 cfbe 3fc9 a23c
00000020: 55b5 00be 4b75 433e 6a3d 593d 1a87 1abf
00000030: 24f8 25bd 1078 c13e 7e6e 173f 9528 0abe
00000040: dd78 d3be d801 17be 67f3 783d 7252 bc3b
00000050: d267 ef3d 0763 e23e 6e8b 34bf 914f cd3e
00000060: 39fc ff3d c062 7bbd 3cb7 ae3d c1aa 003e
00000070: 157e 523e 210f 1cbe 3f76 853e 9a0f e7bd
00000080: ff59 a93e 342b 06bd 2b35 8e3e c376 b4bb
00000090: bbc9 583e ac13 d2be 70d7 dabe acf8 133e
000000a0: d1d9 aabe 9250 393e 9525 ef3e 7c1d 8e3e
000000b0: 0111 01be bb70 453d 2ad7 bd3e 6363 7c3e
000000c0: 926c 3cbe 4bdf b03e 339a 81be 2110 3e3e
000000d0: beb7 193e 4a75 c8bd 79b5 76bd 4f93 d33e
000000e0: 4ead 8dbd 89e2 13be 933e 103d 63cb cabe
000000f0: 365d 7f3c 215f e33e 8e08 82be ae09 f2bd
00000100: 362b e43e 5741 74be 7acb bb3e 419a dfbc
00000110: 29e0 453d bf25 40bd 4bdf b8be 18da 45bd
00000120: 74a3 3b3e 5598 54be d394 d23b d063 763e
00000130: 2efc f83b 54f8 373e 2822 88be c61d 0ebd
00000140: f360 3b3f cf57 3fbf dc49 ce3e dfd7 0abe
00000150: 64f0 583e b6b9 0bbe d9e1 8dbe 430d 62bd
00000160: 10a3 c0be 2de0 c13e d89e d73e c2ee 7f3e
00000170: 4d9c 40be 3d3c 04bf 5f26 e83e 13ae 00bd
00000180: f103 a23e 272f 8abe 748b cf3e 4012 1d3f
00000190: f57f 0c3f 8b02 1c3e ab17 0c3d 396a b23e
000001a0: 5228 35be 0165 35be 9239 2dbf 55af 44be
000001b0: 140d fd3d a82b c63e f9a1 843d c5f0 8e3e
000001c0: e670 87be 8b19 46be 497f 913e 39c1 953d
000001d0: 47cb d33e 0e1c 273e 18f4 153d fa02 68be
000001e0: bf60 6d3e e9a9 00bf 1b20 2a3f d87e ab3e
000001f0: aea1 d73e 0bd0 963c c214 39be b9cc 483c
00000200: 78fa 9b3e 3b98 29bd d0fe ea3d 9f2a 8d3e
00000210: 51bf 0c3f 2771 933d cb87 bfbe e756 3d3e
00000220: 17a2 b63e b997 013d d19c 503e 85dd 003f
00000230: 84ce 11be aa6b 29bd 2d0a 76bd df61 9cbe
00000240: 9304 153f 6626 2abe d98b 913c 6f12 d03e
00000250: 895f aabd 1a94 00bf e757 66be 130c a83d
00000260: 2a2f 15bf b485 e63e 984c e6bc 5139 003e
00000270: cc8c fc3e fb5d 223f 0a91 983d 74dc a93e
00000280: 164b 91bd 9c73 5bbe 1be5 b63e 8b9c 6dbe
00000290: 67df 08bf 64cf d53e 5fff 423e b62f 21be
000002a0: 858e fa3e bb0e 04be e335 bc3e 8910 873f
000002b0: 3f02 ac3e b7fb be3e baa6 e13e 83e6 e93e
000002c0: f8bf 00bf 0623 cc3e 71bc 47be 68d7 c1be
000002d0: 058f af3e 628d cebc 8748 613d b293 4cbf
000002e0: cd02 8cbe 50e0 18be cca6 693e 752b d2be
000002f0: 4592 373d e267 db3e 5a65 bebe 943b 39bd
00000300: 99ed 09bf ea5a 5ebe ac94 823d c810 fc3e
00000310: be63 96bd da08 053e 9a39 9b3e 066c 013e
00000320: f85c 9e3d f586 623d f95f 13be 7973 15bf
00000330: 5906 7cbe 8947 8fbe 8886 bfbe 802e 593e
00000340: 1754 bf3d 76c5 b93d 4a00 79be 0d41 74be
00000350: 6dbf f03e efb3 303e fa17 4abe ba3c 283e
00000360: 9501 c5be 4cf7 803e b0f6 23be 22e1 f93d
00000370: a468 2dbe 85ac d9be 412c b93e b1ef a8bd
00000380: 5ffe dfbd cdfd 6a3c bdc0 25be e702 6abe
00000390: a999 65be 6a31 b13e 2b70 89be e90b 67bd
000003a0: 19c0 6ebe ff82 7b3e 4628 1f3e e44b 053e
000003b0: 93ad b73e 02a6 4d3d c962 2dbd 322e 533e
000003c0: c67c bd3e c78b 5a3e 6d6b 883e 1994 2bbe
000003d0: 6a5d 8fbe 4d4e 65be a46b a7be b4bc b0be
000003e0: 51c8 c53e 0896 0ebf fd12 e63e ac96 bdbd
000003f0: 16f9 313d f27a 87be 87ff c5bd 43bf 92be
-0.34626964 0.58113974 -0.30778798 -0.046836518 -0.15642954 -0.19945973 -0.40457937 0.019871352
-0.12569173 0.19087712 0.053037085 -0.603624 -0.04051985 0.37786913 0.5915297 -0.13492043
-0.4130315 -0.14746797 0.060779 0.005747133 0.11689724 0.44216177 -0.7052525 0.40099767
0.124992795 -0.061373472 0.08531043 0.12565137 0.20555909 -0.15240146 0.26066777 -0.11282273
0.33076474 -0.032756045 0.2777494 -0.0055073216 0.21170704 -0.41030633 -0.4274249 0.1445033
-0.33369306 0.18097141 0.4670836 0.2775687 -0.12604143 0.04820321 0.3707822 0.24647288
-0.18400791 0.3454536 -0.25312957 0.1856084 0.15011498 -0.09787996 -0.06023166 0.41323325
-0.06917821 -0.14441885 0.035215925 -0.39608297 0.015586188 0.44408515 -0.25397152 -0.118182525
0.44564217 -0.2385305 0.36678678 -0.027295234 0.04830948 -0.046910997 -0.3610786 -0.048303694
0.18324071 -0.20761235 0.0064264326 0.24061513 0.0075984215 0.17965823 -0.2658856 -0.034696363
0.7319481 -0.7474336 0.40290725 -0.13558911 0.21185452 -0.13645062 -0.2771137 -0.05518843
-0.37624407 0.37866345 0.42113376 0.24993423 -0.18809624 -0.51654416 0.45341775 -0.03141601
0.31643632 -0.269891 0.40536082 0.6135597 0.54882747 0.15235345 0.03420226 0.34846666
-0.17691162 -0.17714311 -0.6766597 -0.19207509 0.1235601 0.38705182 0.06476206 0.27918068
-0.26453322 -0.19345681 0.28417423 0.07312245 0.41366026 0.16319296 0.03660974 -0.22657385
0.23181437 -0.5025926 0.6645524 0.33495212 0.4211554 0.01840975 -0.18074325 0.012255841
0.3046453 -0.041404944 0.11474383 0.2757158 0.54979426 0.071993165 -0.3740829 0.18490182
0.3567054 0.031638835 0.2037232 0.5033801 -0.14238936 -0.041362442 -0.060068298 -0.3054342
0.58210105 -0.1661621 0.01776688 0.40639064 -0.08319003 -0.50225985 -0.2249447 0.08205428
-0.5827509 0.45023882 -0.028112695 0.12521864 0.4932617 0.6342465 0.07449539 0.33176005
-0.070944 -0.2143082 0.3572167 -0.23204248 -0.53465885 0.4175979 0.19042729 -0.15740857
0.4893686 -0.12896244 0.36759862 1.0551921 0.33595464 0.37301418 0.44072515 0.4568368
-0.5029292 0.3987047 -0.19505478 -0.37859654 0.34288803 -0.025213901 0.055000808 -0.79912865
-0.27345887 -0.14929318 0.22817534 -0.4104878 0.044817228 0.42852694 -0.371867 -0.045222834
-0.5387817 -0.21714368 0.06376013 0.49231553 -0.07343243 0.12991658 0.30317384 0.12638864
0.07732576 0.055304486 -0.1439208 -0.5837932 -0.24611796 -0.27984264 -0.37407327 0.21209145
0.09342211 0.09070866 -0.24316517 -0.2385294 0.47021046 0.17256139 -0.19735709 0.16429415
-0.3847777 0.25188673 -0.16012073 0.12201144 -0.16934448 -0.42514434 0.36166576 -0.082488425
-0.10937189 0.014342737 -0.16186805 -0.2285267 -0.22421898 0.34608012 -0.2684339 -0.056407843
-0.23315467 0.2456169 0.15542707 0.13017231 0.35874614 0.050207146 -0.042330537 0.20623091
0.37009257 0.21342383 0.2664446 -0.16755714 -0.28000957 -0.2239315 -0.3269931 -0.3451897
0.38629392 -0.5569768 0.44936362 -0.09257254 0.043450437 -0.26460987 -0.096678786 -0.28661546

bias f4 [32]
00000000: a8d6 3ebe 23ef 64bd ebdb 443e 2fcf 333e
00000010: a304 743e 12c5 c33d 09f3 a63d 385c 82bd
00000020: 38a7 15be e06b 9abd e9a2 5bbe fc9f 973d
00000030: 6247 2bbe 7203 89be a805 b6be 1ba9 443e
00000040: ec2e 1a3c 7878 b2be 5022 20be 76fa 773d
00000050: ddb0 473e b8c3 34be 8dc3 db3e 05c9 96bd
00000060: 2c2d 223e e4e1 e83e 2847 773d 1d6b 7a3d
00000070: fe38 d0bc b80d 223e 395f 1cbe 327f b23e
-0.18636572 -0.05589212 0.19224517 0.17559503 0.23829894 0.095590726 0.08151824 -0.063652456
-0.1461457 -0.07540107 -0.21448864 0.074035615 -0.16726449 -0.2676044 -0.3555119 0.19205134
0.009410601 -0.34857535 -0.15638089 0.060541593 0.19501062 -0.17652786 0.4292263 -0.0736256
0.15837544 0.4548484 0.060370594 0.061137307 -0.025417801 0.15825546 -0.152707 0.34862667

weight f4 [32, 32]
00000000: 0fc4 15be 765b 443f 4b47 7abe ed5a a83e
00000010: 407f d7be 55b4 8dbe 12cb 1bbe dd26 a83c
00000020: 57f4 4a3e 277e 28be 6ea6 b7bd 0875 27bf
00000030: d30f 9d3d 16da 603d 418a 8cbe 1556 c1be
00000040: 7f73 3dbe 8cfc 87be f1fa 38be c002 9c3e
00000050: 5cd9 02bf 50b2 a6be 0493 fc3e 7cd2 94be
00000060: d174 7b3e b5f3 31bf ff69 5dbe 0dd5 4bbd
00000070: 2afc 893e 026c 583d 27ce 4d3e e282 afbc
00000080: 2531 93be 1f92 4e3c 743f 883e 26aa a13e
00000090: b8e4 92be 533f 9c3e 5150 a4bc 4cf3 58be
000000a0: 2b89 bdbc 711c 34bd d04b f5bd 023e fe3d
000000b0: e8a7 0d3e fc76 1a3e 31d4 35bd 5387 b43e
000000c0: ee6d 2fbe 092b 77bd c330 9f3e 8685 423e
000000d0: b827 d73d 1926 35bf c03a bbbe 5940 e8be
000000e0: 6a7e 893e 5084 7bbe d1d6 8cbe 7c60 853e
000000f0: 5c3a df3e 8e3b 8e3e 643d 413e d8e9 54be
00000100: 8520 cabe a08d 293c ba03 03bf 9974 213c
00000110: d041 4abe 9f86 d7bc 60f2 93be 5c6e c0bd
00000120: 9ee4 6bbc 3dbe 40bf 93c9 283e 0575 19be
00000130: 2613 3e3d 6650 11bf d348 453e f342 ee3e
00000140: f54b 8bbd 47fb 773e 0738 cebe e7da 2d3f
00000150: 09e6 0c3f 772f 313f e6d2 e6bd 7ed1 3ebe
00000160: 55a7 0abf 9644 39be bf5b 0cbf a512 0fbe
00000170: 3dfc 10be b320 85be 1767 4cbf 77e9 38be
00000180: b679 2d3f 67e4 cc3d f6d9 2b3e 3ed6 00bf
00000190: 562e c8be 7edf 0e3f 3559 d93d a690 e9bb
000001a0: 3f98 773e fe6e 83bd d14b a03e 5a56 e93d
000001b0: 105b 7c3e 4dcf c7be 0714 9d3e d0ea 0abf
000001c0: 485d 6a3d 2beb 283e 584b 863e 3c70 713f
000001d0: 8fa9 bfbf 6b93 80bb b2ad dfbe adf5 f33e
000001e0: 5116 7d3e 508a 57bd 1ed0 e73d 5e48 c33d
000001f0: c9a3 bbbd f8ea 42be 1207 043f 4576 88bd
00000200: cc42 4a3c 3c2f 2a3e 0d25 17be c123 bdbe
00000210: 6a64 683e 5373 713f 4656 89bc 3b2f 223f
00000220: 2cf7 7ebe dcb3 a83c 205a 7c3d 8331 3b3c
00000230: d8d5 5e3e 6ba1 00bf d553 ca3d 83a7 5ebe
00000240: 59e4 a23e 723c 8b3e 57e5 913e ba3c f6bc
00000250: 6645 27bd ee53 0c3f 34f6 60bd 6bef e03d
00000260: 9de8 1ebe 262b 5f3e 51e9 083a cd56 ad3d
00000270: 85f8 45be 2611 b83e 0300 af3e e51a e13c
00000280: 228b 0abf 29cc e7bd 2ffe 39bd 5878 3f3e
00000290: ac13 18be af8a 2f3e b564 2f3e 3ee3 3cbe
000002a0: cf89 b3be f925 d93e bdff c03d 3dfc febd
000002b0: c134 b8bd 3a52 a83e 581f de3e e875 bbbd
000002c0: cd13 b83d 9fd9 0ebe 7d51 bebd 68d8 9a3d
000002d0: 281c cbbd 6037 febe a3f2 b9bd 1f67 843d
000002e0: c71c c63e 9fcc 133e 2ff3 c0bd 8c6e 6ebb
000002f0: 7426 a93e 90b7 813e b6ab e73d c6a9 1ebb
00000300: 9897 203d e396 15be 5d9e 7f3d 8f24 a6be
00000310: c372 d53d b851 61be 96e1 3c3d 5ce5 9d3e
00000320: e574 7a3e 2592 ae3e 0f58 8c3c 72e1 81bd
00000330: f1bd 35be c591 a33e d5d1 2ebc c153 b13e
00000340: adfb d03e 6dc3 2a3f 876e f5be 6f09 82be
00000350: b5d3 3a3e 1cec 933c c201 183e 60b0 f33e
00000360: eac3 713e 6032 ae3d 99f1 8fbe dc59 47be
00000370: 643c b53e e34c 97be 46d8 f63e 3caa 88be
00000380: 59a6 563e 72aa 70be 492e 16bf 2d36 21bf
00000390: 7af4 bebe 894c c43d 9788 2ebe 7e0c 6bbe
000003a0: 8828 ae3e 11f7 00bf 4b2e 223f 7786 133e
000003b0: b70e bdbe e2ab 22bf da60 d7bd 5487 0bbf
000003c0: c436 123f a4cc 9c3e 93ef da3e 1ec1 69bc
000003d0: a049 8abe a05d 093f 172d 48be 9016 2dbe
000003e0: f61d 29bd 1198 03bf 15dd ba3e bbd1 953e
000003f0: cf43 89bd 2055 373e 486f 8dbe 66d7 62be
-0.14625572 0.7670206 -0.24441259 0.3288187 -0.42089272 -0.27676645 -0.15214184 0.020526344
0.19819771 -0.16454373 -0.08967291 -0.6541295 0.07669034 0.054895483 -0.2744923 -0.37760988
-0.1850109 -0.26559865 -0.18064477 0.30470848 -0.51112914 -0.32557917 0.49330914 -0.29066837
0.2455628 -0.6951249 -0.21622466 -0.049763728 0.26950198 0.05283738 0.20098172 -0.021424714
-0.28748432 0.01260808 0.2661091 0.31575125 -0.28690124 0.30517063 -0.02005783 -0.2118656
-0.023136696 -0.043972436 -0.11977351 0.12414171 0.13833582 0.15084451 -0.044391815 0.35259494
-0.17131779 -0.060343776 0.3109189 0.18996248 0.105056226 -0.7076126 -0.3656826 -0.45361593
0.2685426 -0.24562192 -0.27507642 0.26050174 0.43599212 0.27779812 0.18871075 -0.2079233
-0.39477935 0.010348707 -0.5117756 0.009854459 -0.19751668 -0.02630931 -0.28895855 -0.093960494
-0.014397768 -0.7529028 0.16483144 -0.14986046 0.04640498 -0.56763303 0.19266061 0.46535453
-0.06801597 0.24216948 -0.4027712 0.67912143 0.55038506 0.6921305 -0.112706944 -0.18634602
-0.5416158 -0.1809257 -0.54827493 -0.13971956 -0.14158721 -0.2600151 -0.798448 -0.1805781
0.6776384 0.10004502 0.16782364 -0.5032691 -0.39097852 0.5580977 0.10612718 -0.007127839
0.24179171 -0.064176545 0.31307843 0.113934234 0.24644113 -0.39025345 0.30679342 -0.54264545
0.057217866 0.1649596 0.26229358 0.9431188 -1.497362 -0.0039238236 -0.43687207 0.47648373
0.24715544 -0.05262214 0.11318992 0.09535287 -0.09162099 -0.19034946 0.5157329 -0.06663183
0.012345027 0.16619581 -0.14760228 -0.3694134 0.22694555 0.94316596 -0.016764771 0.6335332
-0.24898976 0.020593576 0.061609387 0.011425379 0.21761262 -0.50246304 0.09879271 -0.21743588
0.3181484 0.27194554 0.28495285 -0.030058254 -0.040837668 0.54815567 -0.054922298 0.10983165
-0.15518422 0.21793804 0.0005222755 0.084638216 -0.19333084 0.35950583 0.34179696 0.027478645
-0.5411855 -0.11318237 -0.045408424 0.18698251 -0.14851254 0.17142747 0.1712826 -0.18446061
-0.35066077 0.42411783 0.09423778 -0.124504544 -0.08994437 0.32875234 0.43383288 -0.09153348
0.08988152 -0.13950203 -0.092928864 0.075608075 -0.0991748 -0.49651623 -0.090794824 0.06464981
0.3869383 0.14433526 -0.094213836 -0.003638181 0.3303715 0.2533536 0.11312048 -0.002421008
0.03920707 -0.1460834 0.062406886 -0.32449767 0.1042228 -0.2200383 0.046113573 0.3083905
0.24458654 0.34095874 0.017131833 -0.063418284 -0.17748238 0.3194715 -0.010670145 0.34634212
0.40817013 0.66704446 -0.47935888 -0.25397822 0.18244822 0.018056922 0.1484442 0.475955
0.23609892 0.08505702 -0.28114012 -0.19467872 0.35397637 -0.29550847 0.4821188 -0.2669238
0.20961894 -0.2350252 -0.58664376 -0.6297329 -0.37295896 0.095849104 -0.17044292 -0.22953984
0.34015298 -0.50376993 0.6335189 0.14406763 -0.3692529 -0.6354352 -0.1051652 -0.5450337
0.57114816 0.30624878 0.42760906 -0.014267234 -0.27009296 0.53658485 -0.1954845 -0.16903138
-0.04128834 -0.5140391 0.36496797 0.29261574 -0.067023866 0.17903566 -0.27623963 -0.2215248

bias f4 [32]
00000000: e92f 583e 4903 dfbc dd9c 95be feef 59be
00000010: ed25 b03d c9d2 d73d 2cee 8c3d 19b6 e4bc
00000020: dcb5 b53e 3e0f 9dbe 0e96 4dbe 84ae b4bd
00000030: 194b 85bd 882b 27bd 28c4 41be d58d b33d
00000040: 5b92 24be 2b00 27bd 0b49 04bd a12d 233e
00000050: 1365 153e 5114 213f ac0e 90bd a021 d7be
00000060: c801 823e 3ad0 b43d 93fa 26be 12ef 58b9
00000070: 2291 3cbc c8d5 6d3d 7547 a6bd 29f5 db3d
0.21112026 -0.027223246 -0.2922124 -0.21282956 0.08600984 0.10538251 0.06881365 -0.027918862
0.3549031 -0.3067569 -0.20076773 -0.08822349 -0.06508464 -0.040813 -0.18922484 0.08767287
-0.16071455 -0.040771645 -0.03229622 0.15935375 0.14589338 0.62921625 -0.070340484 -0.4201784
0.25391984 0.088287786 -0.16306524 -0.00020688426 -0.011509212 0.058065206 -0.08119098 0.1074012

weight f4 [6, 32]
00000000: 20dd 493f 5776 d5bd 8b88 e43e 4e6a f1be
00000010: 3c20 71be dfea 85bc 0cf3 fcbe aaef ddbd
00000020: 54b8 f73e 8bef 5fbf 40fe 6abf 658d a03e
00000030: 6638 613e adb2 173f b305 8f3e a7a3 853d
00000040: a786 2ebe ba84 99be 8381 693f 5ccf 86be
00000050: 4d31 1cbf 9773 dc3d 3fae 8e3e 9f34 23be
00000060: 3830 913f ab2f b9be 0d43 383e a1f1 f23e
00000070: 34d1 86be fb6f 2ebe cb2b 16bf 09a6 da3e
00000080: 5521 5a3e f147 423f 909f 31bf 84dd e4bd
00000090: 80d4 3abb c18d 9f3e ba07 113f d9f3 1fbf
000000a0: 0076 593e cd92 a33e 816d 78be b4ec bdbe
000000b0: 2421 debe 060f 18bd 9c43 adbe 20f0 25bf
000000c0: 15c2 a73e c3ad 843e a3ea 183d 8596 653f
000000d0: af90 82bc 4dbc b8be 2dc3 2dbf 236b d6be
000000e0: aecb b7be 5660 df3e abc3 1bbf 9920 a03e
000000f0: 7a74 823f 47d1 ca3c 54b2 df3e 8ac6 9c3e
00000100: 5e0d eabe 912d 16be 9435 ec3d 5cfc c43e
00000110: a55e 1b3f 79d2 dcbe ae72 e0be 9928 873f
00000120: 0814 f53e 190d 0d3c 173c 913f c6f9 adbe
00000130: 1dc6 0a3f 89f4 e1bc f2a5 e03e 3d9c 79be
00000140: 9a9a 1f3e 6ccc 9abe 924a e13d e83c 14bf
00000150: b874 333f eb33 813f d7db 47be d093 933e
00000160: 06be ffbd ab3f 863f 1ab2 a0bd 64b3 37bf
00000170: 74e1 25bf e25e 523f 46b5 e73d bbd5 1bbf
00000180: dfcf d7bf d330 283e e39d 4c3d 3733 dd3d
00000190: cc22 ef3d 1b40 a6be fdcc 00bd 29e4 81be
000001a0: b3d2 a83d 529e 9e3f 4b14 08bf cd56 da3e
000001b0: 2cb9 8abd c61f babe ab1e bdbe 5929 b13f
000001c0: 3772 bebc 0382 f43e 2c5a 89bf 5a48 0dbe
000001d0: f6b4 03be 5b8b b23d 50f7 82be b381 e1be
000001e0: 1535 41be 9f16 a5be 70fa 3e3f 1455 a7bd
000001f0: 8131 b4be e82a 14bf 6d31 29bf 5caa 5abf
00000200: 9c99 933f 8b30 cfbe a262 c43e 2c83 0240
00000210: 580b 0cbf c601 d6be 890a 883d 64d6 8fbd
00000220: a8fc 52bf c8d8 503e 5f20 dfbe bef0 e33e
00000230: b8cc c23e c13c 223f 3720 223c f28f 173f
00000240: c9b9 8bbe 9b87 633e 2f8f b1be 5581 38be
00000250: 3224 3b3d 5b45 40bf 1840 553f ec36 d03f
00000260: fc05 ebbe b3b6 3cbd c6e3 bc3d 0b6a 00bf
00000270: 662a 113f fd56 74bf 8d8a 753f b0cb 503e
00000280: c6d9 4f3e 1976 82bf 8eb3 96be 40b0 cc3e
00000290: 2d55 483e 1e7c 37bd 99e4 cf3e a57e b93e
000002a0: acc2 7bbf ee9e 9fbe 3233 e73d f159 803f
000002b0: 9368 0ebf de1b 3cbe 105a 1040 d37e 08be
000002c0: 92c0 2fbf 8593 1ebf aa17 26be e944 36be
000002d0: 1928 c73e 8d4d 94bf 9d3b 1fbf 066b 853f
000002e0: d3dd a5bd a045 a8be 82c7 483e b171 043f
000002f0: 5329 d7be d32b a63d 7089 67be a026 b4be
0.78853035 -0.10422962 0.44635424 -0.47151417 -0.23547453 -0.016347347 -0.4940418 -0.10836728
0.4838282 -0.8747489 -0.91794205 0.31357875 0.2199417 0.5925701 0.27934036 0.06525355
-0.17043553 -0.29984075 0.91213244 -0.26330078 -0.6101273 0.107642345 0.27867314 -0.15938042
1.134284 -0.3616918 0.17994328 0.47449973 -0.26331484 -0.17034905 -0.5866057 0.427048
0.21301778 0.75891024 -0.693841 -0.11175063 -0.0028508008 0.31162837 0.56652415 -0.62481457
0.2123642 0.31947938 -0.24260522 -0.37094653 -0.4338466 -0.037123702 -0.33840644 -0.64819527
0.3276526 0.2591382 0.037333142 0.896828 -0.015938131 -0.36081162 -0.6787594 -0.41878614
-0.35897583 0.43628186 -0.6084544 0.3127487 1.0191796 0.024757994 0.4369074 0.30620223
-0.45713323 -0.1466582 0.11533657 0.38473785 0.6069129 -0.43129328 -0.43837494 1.0559264
0.47866845 0.00860908 1.1346463 -0.33979625 0.54208547 -0.027582424 0.43876606 -0.24376006
0.1558632 -0.30234087 0.11000551 -0.57905436 0.70099974 1.0093969 -0.19517456 0.2882371
-0.12487416 1.048818 -0.0784647 -0.71758103 -0.6479714 0.8217603 0.11313872 -0.60873
-1.6860312 0.16424875 0.04995526 0.10800784 0.11676559 -0.32470784 -0.031445492 -0.25369385
0.08243313 1.2392066 -0.53155965 0.4264435 -0.067736 -0.36352366 -0.3693746 1.3840743
-0.023247821 0.4775544 -1.0730643 -0.13797131 -0.12862 0.08717986 -0.2557931 -0.44044265
-0.18867905 -0.3224382 0.7460089 -0.08170524 -0.35194018 -0.5787797 -0.6609104 -0.854162
1.1531253 -0.40466723 0.383565 2.039256 -0.5470481 -0.41798228 0.066426344 -0.07023314
-0.8241677 0.20395195 -0.43579385 0.4451961 0.38046813 0.63373953 0.009895376 0.5920402
-0.2729018 0.22219698 -0.34679553 -0.18018086 0.045688815 -0.7510583 0.83300924 1.6266761
-0.45903003 -0.046072673 0.09223132 -0.5016181 0.5670532 -0.95445234 0.95914537 0.203902
0.20297918 -1.019229 -0.29433864 0.39978218 0.19563742 -0.0447961 0.40604094 0.36229435
-0.9834392 -0.3117594 0.112890616 1.0027448 -0.5562832 -0.18370005 2.255497 -0.1332963
-0.68653214 -0.61943847 -0.16219965 -0.17799725 0.3889778 -1.1586167 -0.6220034 1.0423286
-0.0809895 -0.3286562 0.19607356 0.5173598 -0.42023715 0.081138276 -0.22611022 -0.3518572

bias f4 [6]
00000000: 1fd9 373e 9659 03be 7341 9d3c 28ca 7dbd
00000010: 5768 27bf 2517 0bbf
0.17953919 -0.12827143 0.019196248 -0.06196037 -0.65393585 -0.5433219
