src/learning/models/touch_64_64_16_400epoch.pt (torch, 26383 bytes, 8 tensors)

weight f4 [64, 6]
0.11049325 -0.100770324 -0.16873497 0.3054747 0.035011493 0.59570974 -0.117450014 0.0856634
0.4060218 -0.38811845 0.10772362 0.74785167 0.11387708 -0.43183398 -0.08925384 -0.38723394
-0.039410844 -0.598207 0.18447682 0.5495013 0.016773049 0.19002955 0.42583528 -0.57160354
0.041406687 -0.019172562 0.13705724 -0.013957388 -0.67353344 -0.33321118 -0.15269002 0.0034613155
0.41034517 0.7043241 0.11621803 -0.61137533 -0.047445167 -0.20360613 -0.01075541 -0.27526072
0.7365895 -0.46320492 1.0701798 0.47091976 -0.11900996 0.03621234 -0.3439084 -0.30815732
0.03475987 -0.12363677 -0.023850504 -0.10178274 -0.9279997 -0.54678756 -0.32808024 -0.029338896
0.04585504 -0.59142846 0.7554324 0.08538458 -0.53747636 0.048664875 0.13108464 -0.023664836
0.36880875 0.9773453 -0.04128247 0.40591532 -0.029877758 0.3440677 0.32715333 0.6019546
0.08699215 0.08347645 0.25325537 -0.43185234 0.11031701 -0.2946433 0.666927 0.049675122
-0.3283028 0.15800829 0.058495436 0.36080286 -0.3294521 0.029914198 0.13979322 0.74083304
-0.122213006 -0.57285553 0.22887406 0.5874957 -0.11289048 0.112093195 0.42191485 -0.41866168
-0.10762226 -0.054433912 0.08346288 -0.43315682 -0.21807158 -0.42316008 -0.18030094 -0.17142738
-0.22093885 0.69231874 0.30799785 -0.40221518 1.0087346 0.11133733 0.025963789 -0.34059712
-0.30077764 -0.0561461 0.110498816 -0.4579391 -0.13672003 -0.1699576 0.32843888 -0.79911035
-0.019340355 0.02993289 0.704741 -0.020107439 -0.59771866 0.37357914 -0.02967081 -0.1556142
0.36476287 0.46513855 -0.30220866 -0.9813585 -0.037159484 -0.48837933 0.33784658 0.2098202
-0.58271766 -0.0073924144 -0.21222551 -0.21754596 -0.19724727 -0.3028772 -0.04609756 -0.11896732
-0.07628323 -0.42910856 -0.24116223 -0.03803942 -0.102718525 0.39061037 0.26177803 0.09684834
0.19457285 -0.28172073 0.25121742 -0.7715635 -0.17753498 -0.016930543 -0.24669105 -0.41564387
0.050754778 0.6427862 -0.2646457 0.084316276 0.06804556 -0.4011847 0.22695391 0.09854771
0.016868325 0.32266483 0.35241354 -0.14255632 -0.8166808 0.65526456 0.29630673 -0.21326886
-0.10304075 0.0042676525 -0.2914725 0.14893997 -0.36452177 -0.35014102 -0.073169686 0.44169366
1.1199467 -0.24179551 -0.37957326 -0.049193714 0.8470158 -0.02792302 -0.3813735 0.20122778
0.0020511579 -0.021618403 -0.23256922 -0.2940183 -0.24066633 -0.79056287 0.10117597 0.6458811
-0.004467015 -0.2736167 -0.19961335 -0.8241475 -0.13727453 0.29167092 -0.07492792 -0.3008675
0.81969476 -0.30588347 0.71079546 -0.06655424 0.29099536 -0.04674043 0.6523052 -0.22144945
-0.08361885 -0.03198887 -0.11370343 -0.12207905 -0.60653704 0.40932766 0.6661014 0.32705677
0.26384947 -0.2832064 -0.13481145 -0.20917606 0.23748462 0.17011909 0.15303695 -0.50358903
0.18355732 -0.64047813 -0.01987149 0.5339206 0.07890263 0.09993245 -0.47791836 0.19829994
-0.16768415 -0.045681097 -0.15676437 -0.07428235 -0.40487647 -0.32610404 -0.33228818 0.066320136
0.10004181 0.32848743 0.18647103 -0.7885743 -0.6403768 -0.5185959 0.04099929 0.13115147
00000000: 494a e23d ac60 cebd dcc8 2cbe 2e67 9c3e
00000010: 3668 0f3d 6f80 183f a289 f0bd 4b70 af3d
00000020: 17e2 cf3e 76b7 c6be 349e dc3d 3573 3f3f
00000030: 6338 e93d 5819 ddbe b8ca b6bd 8743 c6be
00000040: 446d 21bd 1824 19bf 7ee7 3c3e 1eac 0c3f
00000050: a267 893c 1b97 423e 1507 da3e 9c54 12bf
00000060: 0f9a 293d c70f 9dbc bc58 0c3e 87ad 64bc
00000070: b06c 2cbf a89a aabe c65a 1cbe 3dd7 623b
00000080: c318 d23e 964e 343f b803 ee3d 1883 1cbf
00000090: dd55 42bd 207e 50be 7637 30bc f9ee 8cbe
000000a0: 2191 3c3f 3229 edbe a7fb 883f 651c f13e
000000b0: 7ebb f3bd 6453 143d c314 b0be ccc6 9dbe
000000c0: 5e60 0e3d 4635 fdbd 2262 c3bc 7873 d0bd
000000d0: 6391 6dbf 45fa 0bbf 22fa a7be 2058 f0bc
000000e0: 7fd2 3b3d db67 17bf 0564 413f 1cde ae3d
000000f0: 0d98 09bf d254 473d 0d3b 063e c2dc c1bc
00000100: 80d4 bc3e 4d33 7a3f cf17 29bd 22d4 cf3e
00000110: 33c2 f4bc a429 b03e a480 a73e b219 1a3f
00000120: f128 b23d b3f5 aa3d b0aa 813e c01b ddbe
00000130: e2ed e13d 7ddb 96be babb 2a3f 2478 4b3d
00000140: 4e17 a8be edcc 213e e998 6f3d 27bb b83e
00000150: f2ad a8be 9f0e f53c f425 0f3e 3ca7 3d3f
00000160: d04a fabd a9a6 12bf f65d 6a3e 1e66 163f
00000170: 2033 e7bd 1e91 e53d 3905 d83e d35a d6be
00000180: 0f69 dcbd 18f6 5ebd 96ee aa3d bbc6 ddbe
00000190: 284e 5fbe 70a8 d8be cfa0 38be a98a 2fbe
000001a0: cb3d 62be cd3b 313f e5b1 9d3e 26ef cdbe
000001b0: 371e 813f d304 e43d 03b2 d43c bf62 aebe
000001c0: 87ff 99be 74f9 65bd 344d e23d fe76 eabe
000001d0: 5600 0cbe 5d09 2ebe 2429 a83e 7f92 4cbf
000001e0: aa6f 9ebc d235 f53c e869 343f 5bb8 a4bc
000001f0: 1704 19bf c445 bf3e 3310 f3bc 5459 1fbe
00000200: 33c2 ba3e a426 ee3e 18bb 9abe 503a 7bbf
00000210: 8b34 18bd db0c fabe 3afa ac3e 1bdb 563e
00000220: fc2c 15bf 113c f2bb a551 59be 5ec4 5ebe
00000230: 30fb 49be b812 9bbe ccd0 3cbd 23a5 f3bd
00000240: 623a 9cbd 1eb4 dbbe 3bf3 76be 39cf 1bbd
00000250: 175e d2bd 15fe c73e c507 863e 6c58 c63d
00000260: 1b3e 473e b33d 90be 929f 803e 2f85 45bf
00000270: bbcb 35be ecb1 8abc 949c 7cbe 46cf d4be
00000280: 3ee4 4f3d a38d 243f a47f 87be 03ae ac3d
00000290: 785b 8b3d 1568 cdbe 9b66 683e 62d3 c93d
000002a0: 712f 8a3c 5334 a53e 8c6f b43e 49fa 11be
000002b0: fe11 51bf 6bbf 273f 84b5 973e 2763 5abe
000002c0: 0707 d3bd aad7 8b3b e23b 95be b883 183e
000002d0: 99a2 babe af45 b3be fdd9 95bd ac25 e23e
000002e0: 6a5a 8f3f 3e99 77be 6d57 c2be 597f 49bd
000002f0: 07d6 583f d1be e4bc 6343 c3be a80e 4e3e
00000300: b86c 063b 1419 b1bc a026 6ebe 9189 96be
00000310: 3c71 76be 5462 4abf 5935 cf3d 7758 253f
00000320: 0a60 92bb 7d17 8cbe 7167 4cbe 55fb 52bf
00000330: b291 0cbe e455 953e cf73 99bd 4e0b 9abe
00000340: 84d7 513f c29c 9cbe b1f6 353f 974d 88bd
00000350: 58fd 943e e572 3fbd 79fd 263f a5c3 62be
00000360: 5c40 abbd c306 03bd 58dd e8bd 9504 fabd
00000370: 0346 1bbf 6593 d13e 9f85 2a3f fc73 a73e
00000380: 4717 873e 6e00 91be 030c 0abe 4032 56be
00000390: 2b2f 733e b333 2e3e b8b5 1c3e 36eb 00bf
000003a0: 73f6 3b3e 60f6 23bf 89c9 a2bc 05af 083f
000003b0: b497 a13d 62a9 cc3d b7b1 f4be 240f 4b3e
000003c0: 65b5 2bbe 1a1c 3bbd d786 20be 5821 98bd
000003d0: f84b cfbe 1cf7 a6be ad21 aabe dad2 873d
000003e0: b8e2 cc3d 812f a83e 43f2 3e3e 01e0 49bf
000003f0: bcef 23bf b3c2 04bf dfee 273d 924c 063e

bias f4 [64]
0.025814189 -0.31328717 -0.13685179 -0.287235 0.84809506 0.7782724 0.29894862 -0.12965591
-0.41078618 -0.38126925 -0.08804003 -0.032362685 0.26416263 -0.37666705 -0.33971578 0.023633301
0.37708995 -0.36523232 -0.07481027 -0.22510906 0.18828115 0.4182064 0.06861752 0.20175713
-0.3027901 0.24087784 -0.6476244 -0.11743773 -0.28978863 0.60279864 -0.587923 0.20893063
0.15625861 0.51910347 -1.0780289 0.07726346 0.58995616 -0.046145283 -0.16628352 -0.12623009
-0.328064 0.3656222 0.16857025 0.24145924 -0.6666609 -0.49495253 -0.066310816 0.59200597
0.47426963 -0.32925716 0.6034756 -0.9043033 -0.0029830954 0.30867034 0.5845487 0.40616238
0.15266508 0.76259565 0.4196584 0.038285293 -0.20107049 -0.21498446 0.19494395 -0.19540174
00000000: 4778 d33c 2d67 a0be e022 0cbe 7710 93be
00000010: c21c 593f dc3c 473f cb0f 993e 85c4 04be
00000020: 9152 d2be b935 c3be 554e b4bd bc8e 04bd
00000030: 5340 873e 81da c0be 3aef adbe a09a c13c
00000040: ef11 c13e bbff babe 2036 99bd fd82 66be
00000050: c6cc 403e 261f d63e 5887 8c3d 6c99 4e3e
00000060: 4e07 9bbe aea8 763e b6ca 25bf 3183 f0bd
00000070: 2d5f 94be 0351 1a3f 1f82 16bf e9f1 553e
00000080: 4202 203e f7e3 043f dafc 89bf 4e3c 9e3d
00000090: 5e07 173f d602 3dbd 3a46 2abe 7642 01be
000000a0: 01f8 a7be d532 bb3e ae9d 2c3e 1741 773e
000000b0: 4aaa 2abf 6b6a fdbe f7cd 87bd b48d 173f
000000c0: 78d3 f23e 6594 a8be 607d 1a3f 6c80 67bf
000000d0: 0980 43bb 0a0a 9e3e fca4 153f 84f4 cf3e
000000e0: 3c54 1c3e 7839 433f 77dd d63e 0ad1 1c3d
000000f0: 6ce5 4dbe e324 5cbe 639f 473e 6517 48be

weight f4 [64, 64]
0.1581524 -0.11694396 -0.15985586 -0.056822963 0.077550285 -0.20903935 0.12655368 0.090126425
0.25022027 0.058496725 0.3613439 -0.32430327 0.015269078 -0.1953847 0.23640366 -0.3284152
-0.21946335 0.21667792 -0.10696934 0.19397746 -0.36473706 -0.23977278 -0.046081007 0.44202003
0.79187036 -0.3400914 -0.41147584 -0.00089965115 -0.22374882 0.011180908 -0.4507206 0.20153673
0.26663062 0.008243756 -0.07369487 0.06574522 0.119951926 -0.076216556 -0.07323468 0.16127093
0.21782812 0.10860691 0.39783856 -0.16209927 -0.061600536 -0.18843089 -0.045890547 0.13176367
-0.08658385 -0.22688049 -0.232636 -0.18920377 0.2852396 -0.26580217 0.06959841 -0.47090468
-0.016757054 0.071376726 0.16794027 0.24040322 -0.63995695 -0.1676264 0.025534654 0.15550794
-0.25284484 -0.14924794 0.074159205 0.00021828481 -0.04061167 -0.08662913 0.1645404 0.10902854
-0.17830418 -0.3303281 0.43449664 0.21069662 0.057967987 -0.11233919 0.14124005 0.054009367
-0.008570767 -0.20760109 -0.38432756 0.07699118 -0.3332796 0.16310515 -0.116491005 0.18026656
-0.28693616 0.16738759 0.0892879 0.24740739 -0.30612382 -0.07408094 0.19743457 -0.26056156
-0.04685759 0.17446269 -0.3734817 0.12479676 0.0020731078 -0.039526522 0.07493448 0.0053079957
-0.03100293 0.22735685 0.051657323 -0.43567577 -0.12848574 -0.111484684 -0.39692497 -0.19875622
0.62077534 -0.0002447593 -0.05600225 -0.3389737 -0.097390726 0.097603306 -0.13362718 -0.26605242
0.029905401 -0.115491726 0.15235597 -0.3665868 -0.14880565 -0.057442125 0.13490544 -0.17730063
-0.18466428 -0.0032508394 -0.33006355 -0.12907453 -0.039094243 0.024203496 0.03774733 -0.28044814
0.11476612 -0.2276984 0.026284924 -0.21935916 0.07818447 -0.038439017 0.23987211 -0.14764628
-0.14972465 0.02321168 -0.30767098 -0.2627682 -0.15867725 -0.27174065 0.044342924 0.1295406
0.12962459 0.14919841 -0.20906024 -0.04774505 -0.13454738 0.103721336 0.05619574 -0.30179223
-0.11413336 0.114634104 -0.12926872 0.03421931 0.0017230398 -0.004277729 0.32149294 0.55224085
0.016541814 0.07574038 -0.26780087 -0.13670132 -0.08422485 -0.1276197 0.11821 -0.009713453
0.04867811 0.18641071 0.20973149 -0.26630408 -0.080287226 0.0913968 -0.084947005 -0.0831011
-0.2563171 0.07509437 -0.15691216 -0.043256525 -0.24153331 -0.13160068 0.061760776 -0.04049532
0.15954086 -0.3218178 0.032366507 -0.053514514 -0.04340632 0.3242385 0.03898685 0.051858168
-0.08065903 -0.12166715 0.33402786 0.03495626 0.26831836 -0.09100906 -0.0015830896 -0.036128633
-0.36625648 -0.29905555 -0.1132882 0.032896813 0.09150298 -0.1130667 -0.31115553 0.443937
-0.6267796 0.12867609 -0.06083145 -0.32527068 0.050149914 -0.24496132 0.013428917 -0.4789793
-0.33907768 0.12734206 -0.16737026 -0.0045394944 0.20950492 0.05312495 0.32113293 -0.18043439
0.070979305 0.24608062 0.08840515 0.07727564 0.07807293 -0.2758877 0.10333129 -0.14581245
0.32711795 0.117991515 -0.3224495 0.1271935 -0.12190042 -0.3320015 -0.043765176 0.043879196
0.21629785 0.07006578 -0.07517626 0.46830675 0.18661213 0.17889367 0.07414816 0.04043434
00000000: b4f2 213e 5180 efbd 41b1 23be 32bf 68bd
00000010: afd2 9e3d 690e 56be 4a97 013e 3494 b83d
00000020: df1c 803e 439a 6f3d 1102 b93e 140b a6be
00000030: 282b 7a3c ed12 48be cd13 723e 0926 a8be
00000040: 00bb 60be d1e0 5d3e be12 dbbd 07a2 463e
00000050: d1be babe ff86 75be 70bf 3cbd 7350 e23e
00000060: 04b8 4a3f 7620 aebe f6ac d2be 91d6 6bba
00000070: 691e 65be 2130 373c dac4 e6be a55f 4e3e
00000080: cf83 883e d210 073c 56ed 96bd 6ea5 863d
00000090: 5ba9 f53d 6d17 9cbd 10fc 95bd 3524 253e
000000a0: 560e 5f3e 4d6d de3d 7fb1 cb3e 5afd 25be
000000b0: d850 7cbd 07f4 40be baf7 3bbd 0eed 063e
000000c0: e052 b1bd 5c53 68be 2238 6ebe a2be 41be
000000d0: ed0a 923e 3917 88be 9c89 8e3d 6b1a f1be
000000e0: 1746 89bc f62d 923d 89f8 2b3e 432c 763e
000000f0: 38d4 23bf 41a6 2bbe 0d2e d13c 793d 1f3e
00000100: e174 81be 74d4 18be c8e0 973d 62e3 6439
00000110: 6c58 26bd 9d6a b1bd 477d 283e 5b4a df3d
00000120: 5f95 36be c420 a9be 5876 de3e dbc0 573e
00000130: d76f 6d3d 1712 e6bd 3ba1 103e ed38 5d3d
00000140: 676c 0cbc 6195 54be 95c6 c4be 8dad 9d3d
00000150: a0a3 aabe 0905 273e d692 eebd cc97 383e
00000160: 4ce9 92be a767 2b3e 93dc b63d 5d58 7d3e
00000170: 43bc 9cbe bfb7 97bd 4a2c 4a3e 5368 85be
00000180: bfed 3fbd 59a6 323e fe38 bfbe 7295 ff3d
00000190: fadc 073b 90e6 21bd 4077 993d b2ee ad3b
000001a0: dbf9 fdbc 3cd0 683e a196 533d e510 dfbe
000001b0: c491 03be 1552 e4bd c039 cbbe c086 4bbe
000001c0: 22eb 1e3f 0a53 80b9 9e62 65bd f68d adbe
000001d0: ca74 c7bd 3ee4 c73d 90d5 08be 0638 88be
000001e0: 2cfc f43c ed86 ecbd 3403 1c3e 44b1 bbbe
000001f0: 8260 18be 6f48 6bbd a724 0a3e 4c8e 35be
00000200: a218 3dbe 090c 55bb 17fe a8be 1d2c 04be
00000210: 4921 20bd 6946 c63c f29c 1a3d e696 8fbe
00000220: 800a eb3d c529 69be 7b53 d73c b09f 60be
00000230: 2e1f a03d 3b72 1dbd 09a1 753e 9630 17be
00000240: 6b51 19be 6c26 be3c 0d87 9dbe 8e89 86be
00000250: 4a7c 22be 9721 8bbe eda0 353d 4ba6 043e
00000260: 4fbc 043e 78c7 183e e313 56be 5090 43bd
00000270: cac6 09be da6b d43d 812d 663d 8384 9abe
00000280: c0be e9bd 49c5 ea3d 055f 04be 8c29 0c3d
00000290: 9fd7 e13a 312c 8cbb b99a a43e a85f 0d3f
000002a0: b382 873c c61d 9b3d 321d 89be 6efb 0bbe
000002b0: 147e acbd bdae 02be 1618 f23d 2d25 1fbc
000002c0: b362 473d 73e2 3e3e dac3 563e 0259 88be
000002d0: a16d a4bd 3f2e bb3d b2f8 adbd e930 aabd
000002e0: ff3b 83be 14cb 993d 95ad 20be c12d 31bd
000002f0: 8254 77be 54c2 06be def8 7c3d 6cde 25bd
00000300: ae5e 233e 4dc5 a4be be92 043d 0932 5bbd
00000310: d3ca 31bd 9702 a63e adb0 1f3d 3b69 543d
00000320: 9030 a5bd a02c f9bd b305 ab3e 4c2e 0f3d
00000330: 0661 893e f562 babd ac7f cfba 9efb 13bd
00000340: f885 bbbe cf1d 99be a503 e8bd cfbe 063d
00000350: ea65 bb3d 848f e7bd c74f 9fbe b64b e33e
00000360: a174 20bf aac3 033e 662a 79bd e189 a6be
00000370: ff69 4d3d 24d7 7abe f604 5c3c c63c f5be
00000380: 979b adbe f565 023e 1c63 2bbe 0ac0 94bb
00000390: 7588 563e 8c99 593d 896b a43e cbc3 38be
000003a0: 995d 913d 8ffc 7b3e c20d b53d b142 9e3d
000003b0: b3e4 9f3d 2741 8dbe 5b9f d33d dc4f 15be
000003c0: 017c a73e 89a5 f13d 1a18 a5be 033f 023e
000003d0: eda6 f9bd 1afc a9be 1d43 33bd acba 333d
000003e0: 2f7d 5d3e a67e 8f3d 03f6 99bd e7c5 ef3e
000003f0: 4017 3f3e e72f 373e feda 973d 7a9e 253d

bias f4 [64]
0.32536063 -0.10487669 0.07030678 -0.112717316 -0.27156094 -0.17497636 -0.38694805 -0.015170777
0.37736142 -0.08565703 -0.021502262 -0.13572568 0.13280205 -0.143584 0.083405 0.010727578
-0.1576567 -0.061014466 -0.22981924 0.28116277 0.034333877 -0.25433555 0.12017452 0.059046775
-0.15392208 -0.015027445 0.12070653 -0.08524314 -0.164788 -0.0124468 0.14126514 -0.07298114
0.19256192 0.19626182 0.04335209 -0.12522906 0.16555953 0.13862298 -0.18718584 0.22147395
0.25543898 0.040619757 0.09402474 -0.060257252 0.16944288 -0.14573765 0.2594351 0.27650598
0.25800562 -0.2940876 0.20583692 0.10593493 0.19845448 -0.14725152 -0.25006366 -0.16181518
0.11855632 -0.06805688 0.07866658 -0.10930062 0.19921973 0.25088948 -0.0118425535 -0.05938559
00000000: ab95 a63e 97c9 d6bd 00fd 8f3d 56d8 e6bd
00000010: 090a 8bbe 012d 33be 0e1e c6be da8e 78bc
00000020: 8435 c13e f46c afbd 8325 b0bc acfb 0abe
00000030: 43fd 073e af07 13be 3ed0 aa3d b9c2 2f3c
00000040: c270 21be 4eea 79bd bc55 6bbe 91f4 8f3e
00000050: aea1 0c3d 4538 82be 0f1e f63d 08db 713d
00000060: c09d 1dbe ac35 76bc fc34 f73d f593 aebd
00000070: 2fbe 28be aaed 4bbc cfa7 103e 2377 95bd
00000080: f42e 453e dcf8 483e f691 313d 0c3c 00be
00000090: 7088 293e 2ff3 0d3e a5ad 3fbe 11ca 623e
000000a0: e6c8 823e e760 263d 0b90 c03d 4fd0 76bd
000000b0: 6f82 2d3e 403c 15be add4 843e 3192 8d3e
000000c0: 5019 843e a692 96be eac6 523e 6af4 d83d
000000d0: a737 4b3e 1ac9 16be 5808 80be e1b2 25be
000000e0: a8cd f23d 6861 8bbd f21b a13d 01d9 dfbd
000000f0: 4200 4c3e 9674 803e 4507 42bc 4e3e 73bd

weight f4 [16, 64]
-0.14910656 0.27601346 -0.39415997 -0.013569594 0.14245585 -0.01909218 -0.3812372 -0.18167268
0.25913525 0.09760038 -0.13242878 0.677241 0.0037590559 0.78093696 -0.12048901 0.2396264
0.3703347 -0.14831313 -0.40917543 0.487851 -0.34730563 -0.33096415 -0.20867392 0.041877422
-0.2875783 -0.25002882 0.00818044 0.16519833 0.047104266 0.5958813 0.29017112 -0.5068203
-0.06871863 -0.17548326 0.030044563 -0.40098652 -0.397454 0.1763579 0.11433151 -0.0784969
0.013212621 0.21349491 0.08832734 -0.19495411 0.14712748 -0.14987332 0.1548372 0.11311776
0.101841435 0.12329141 -0.090216495 -0.16687459 0.16954787 -0.287093 -0.1170023 0.5298644
0.29103416 -0.4732169 -0.17881532 -0.009445022 -0.035813645 0.034716815 0.38261926 0.021398542
0.810573 -0.035452463 0.66330177 -0.0023981621 -0.103367925 -0.38554633 0.6887825 0.32019302
-0.37567833 -0.4102287 -0.06762545 0.06620848 0.1770145 -0.30223116 0.16808438 0.2807282
-0.6274872 0.066032626 0.31024778 0.7639841 -0.060643967 -0.59441304 0.28602725 -0.59860873
0.28395903 -0.13331133 0.41589943 -0.527229 0.03990607 -0.5802026 -0.21473192 -0.6287606
0.0017308014 0.30170217 0.47202086 -0.23584996 0.08665199 -0.053694207 -0.30005267 0.38289943
-0.3576981 -0.058737855 -0.3228392 0.12814994 0.18902257 -0.06897541 -0.022511525 -0.6593504
-0.4042545 0.24506655 -0.35228294 0.13108054 0.011016176 -0.1387257 0.38974738 -0.31632373
1.0725634 -0.015974674 -0.5233613 0.12155499 -0.0036007897 0.12857242 0.8202471 0.25031337
0.11263438 0.040919334 -0.20242837 -0.019025402 -0.3499899 -0.2969302 0.02877875 -0.33655822
-0.0015261332 0.11395657 0.36292303 -0.21742448 -0.0032448608 0.1019867 -0.08616186 -0.01639687
-0.45103922 -0.35233197 -0.3102662 0.05700346 -0.015709545 0.051474676 0.030431211 -0.09407549
-0.26536068 0.111854166 0.58519167 -0.78189665 0.5157481 -0.14342727 0.37602064 0.4471286
0.26512885 0.19862695 -0.17824225 0.18671098 0.2198683 0.07534614 -0.109636 0.079210065
-0.10508698 -0.027942609 0.2688829 0.123012595 -0.27871042 -0.5672564 0.17833659 0.4266689
0.07827166 -0.016358005 0.18009238 -0.21827927 0.2134918 -0.19485101 -0.52130634 -0.80768424
0.10413742 -0.4506555 -0.13197798 -0.37474787 -0.08034566 0.33891913 0.2630399 -0.37972873
0.17547762 0.12875937 0.5689488 0.15676093 0.16195077 -0.078707255 -0.90175873 0.26876575
0.8409562 -0.12370234 0.25922868 -0.16919719 0.1103358 -0.106684886 0.1539816 0.026028268
-0.6844275 -0.65189445 0.423509 0.4416704 -0.24395728 -0.07171276 0.39304438 -0.23633502
-0.36369398 -0.20932211 0.21379605 -0.04954444 0.14014 -0.60835034 0.27515316 0.25596684
0.28407806 0.051080268 -0.10830391 0.207397 -0.24281459 0.28865466 -0.6743967 0.47770795
0.23537885 0.10168074 0.3533722 -0.31127182 0.2093736 0.12926142 0.058529403 0.70051503
0.2814198 -0.24596983 0.3782664 0.7231709 0.2580921 0.22362188 -0.18464093 -0.20855081
0.34802613 -0.2700117 -0.28100166 0.17208637 1.0878981 0.42682335 -0.040612694 0.23273724
00000000: 64af 18be a351 8d3e 56cf c9be 0153 5ebc
00000010: f2df 113e 3467 9cbc 8631 c3be 6708 3abe
00000020: 60ad 843e b5e2 c73d 699b 07be ab5f 2d3f
00000030: 7e5a 763b 7ceb 473f f1c2 f6bd 9f60 753e
00000040: 839c bd3e 66df 17be 717f d1be 9bc7 f93e
00000050: 0bd2 b1be 2274 a9be 9eae 55be a987 2b3d
00000060: 773d 93be c703 80be 4107 063c c029 293e
00000070: 67f0 403d ad8b 183f 4f91 943e fabe 01bf
00000080: 5abc 8cbd e2b1 33be 0420 f63c 1b4e cdbe
00000090: 177f cbbe 2a97 343e a426 ea3d fcc2 a0bd
000000a0: c079 583c 699e 5a3e f7e4 b43d 0da2 47be
000000b0: 96a8 163e 6478 19be a58d 1e3e 49aa e73d
000000c0: 3e92 d03d 3580 fc3d 6dc3 b8bd 2ce1 2abe
000000d0: f59d 2d3e dbfd 92be e79e efbd 31a5 073f
000000e0: 6e02 953e 7c49 f2be 5d1b 37be 4bbf 1abc
000000f0: 54b1 12bd 3833 0e3d ace6 c33e ff4b af3c
00000100: b681 4f3f 9a36 11bd 25ce 293f 7c2a 1dbb
00000110: 90b2 d3bd 5466 c5be 0d54 303f 57f0 a33e
00000120: e958 c0be 7f09 d2be 367f 8abd 5098 873d
00000130: 4a43 353e 0bbe 9abe 501e 2c3e 9bbb 8f3e
00000140: 00a3 20bf 1d3c 873d ccd8 9e3e 7694 433f
00000150: cf65 78bd 742b 18bf 2a72 923e 6c3e 19bf
00000160: 1463 913e c482 08be c5f0 d43e 7bf8 06bf
00000170: 8c74 233d 2888 14bf afe2 5bbe 74f6 20bf
00000180: 0fdc e23a b578 9a3e b8ac f13e a782 71be
00000190: 9976 b13d 75ee 5bbd 81a0 99be 650b c43e
000001a0: 3524 b7be 1b97 70bd 2e4b a5be bd39 033e
000001b0: 228f 413e fb42 8dbd 176a b8bc 30cb 28bf
000001c0: 72fa cebe baf2 7a3e 6e5e b4be fa39 063e
000001d0: 317d 343c 1c0e 0ebe f88c c73e 2ff5 a1be
000001e0: c249 893f 52dd 82bc 02fb 05bf d3f1 f83d
000001f0: 3afb 6bbb 7da8 033e b7fb 513f 1329 803e
00000200: dbac e63d 089b 273d 6249 4fbe 29db 9bbc
00000210: e031 b3be 3c07 98be 6ac1 eb3c 5c51 acbe
00000220: 8808 c8ba 1062 e93d 0cd1 b93e 86a4 5ebe
00000230: bba7 54bb 67de d03d a175 b0bd bb52 86bc
00000240: 9dee e6be db64 b4be 36db 9ebe 767c 693d
00000250: 4eb1 80bc 1cd7 523d e04a f93c a7aa c0bd
00000260: 5bdd 87be cc13 e53d 1fcf 153f 612a 48bf
00000270: 1108 043f 99de 12be c785 c03e 0aee e43e
00000280: f8be 873e dd64 4b3e 2385 36be 2a31 3f3e
00000290: 2825 613e 144f 9a3d d788 e0bd e338 a23d
000002a0: d837 d7bd e6e7 e4bc 05ab 893e 07ee fb3d
000002b0: 22b3 8ebe b737 11bf de9d 363e 5974 da3e
000002c0: e44c a03d 3901 86bc 236a 383e 9a84 5fbe
000002d0: 989d 5a3e 0687 47be 5574 05bf 65c4 4ebf
000002e0: 0046 d53d 51bc e6be 3c25 07be f4de bfbe
000002f0: 448c a4bd cf86 ad3e 2aad 863e ce6b c2be
00000300: 68b0 333e 7fd9 033e a1a6 113f f085 203e
00000310: 6cd6 253e 4531 a1bd a9d9 66bf aa9b 893e
00000320: e848 573f a757 fdbd 9fb9 843e 0742 2dbe
00000330: bcf7 e13d 9b7d dabd 5aad 1d3e 3c39 d53c
00000340: a436 2fbf 8ee2 26bf 2cd6 d83e 9f22 e23e
00000350: f0cf 79be 24de 92bd 1d3d c93e cf01 72be
00000360: 1936 babe 8958 56be 5aed 5a3e 1cef 4abd
00000370: dc80 0f3e d9bc 1bbf e0e0 8c3e 160e 833e
00000380: ae72 913e 8b39 513d 71ce ddbd e15f 543e
00000390: 63a4 78be 8bca 933e 43a5 2cbf 2396 f43e
000003a0: 2707 713e fe3d d03d 33ed b43e 055f 9fbe
000003b0: 0866 563e 1b5d 043e 87bc 6f3d f454 333f
000003c0: 4216 903e 84df 7bbe 22ac c13e ba21 393f
000003d0: a624 843e 22fd 643e 8312 3dbe 588e 55be
000003e0: 7b30 b23e f93e 8abe 73df 8fbe 6937 303e
000003f0: 3f40 8b3f 9788 da3e 7f59 26bd ac52 6e3e

bias f4 [16]
0.26228356 -0.090699345 0.07250191 0.40119943 -0.15942824 0.0032479183 -0.08939541 0.014654952
-0.23908308 -0.07224244 0.060484756 0.19372949 -0.008525316 -0.16577746 -0.008087138 -0.14313936
00000000: 084a 863e 94c0 b9bd e27b 943d 036a cd3e
00000010: 2841 23be 07db 543b f114 b7bd 531b 703c
00000020: 32d2 74be d8f3 93bd ddbe 773d 0661 463e
00000030: c4ad 0bbc 91c1 29be ea7f 04bc 2093 12be

weight f4 [6, 16]
-0.38289186 0.9573333 0.042080704 0.8422392 -0.23465599 -0.48535252 0.76738936 1.549822
-1.2504507 -1.7704399 -0.03446596 0.1480754 0.46246678 0.56952643 -0.48466113 -0.46754742
0.7686616 -0.74731976 0.6878563 0.88013273 -0.15101902 0.8050511 0.042074192 -0.68559116
-0.5671406 -0.56534016 0.9562137 0.13788317 -0.89177823 -0.972219 0.46133128 0.48675722
-0.23466294 -0.14710012 -0.73320806 -1.1725899 -1.4375658 -0.3515911 -1.030695 -0.4047236
0.6493769 0.26847363 1.1181319 -1.4333762 0.308759 0.8830752 -1.5236907 0.5556463
0.32091224 -0.81155777 -0.8426484 -0.40669677 0.78256786 -0.8420337 -0.93876684 -0.19658037
1.5733708 0.1477631 -0.9271667 0.83467126 -0.26595184 0.46244994 0.03716966 -0.9938336
-2.7484813 1.0747831 -0.08533541 -0.65900785 1.1259933 0.26254123 1.4980304 -1.4722382
0.8380977 0.69737256 -0.9505348 0.34445295 0.99883753 0.029118652 1.0847751 1.1304866
0.4773719 0.010029925 -1.3432112 -0.118023634 0.94864196 0.049975604 1.584449 1.0140594
1.2662823 0.95478374 -0.66768444 -1.1198114 1.2242094 0.111247815 0.3008269 0.59065735
00000000: 670a c4be cc13 753f d15c 2c3d fd9c 573f
00000010: a949 70be 2080 f8be a173 443f 9160 c63f
00000020: c50e a0bf c69d e2bf 2e2c 0dbd 14a1 173e
00000030: 72c8 ec3e 7ccc 113f 8125 f8be 6062 efbe
00000040: 02c7 443f 5950 3fbf 5a17 303f 6150 613f
00000050: bba4 1abe d417 4e3f fd55 2c3d e782 2fbf
00000060: 2030 11bf 22ba 10bf 6cca 743f 3f31 0d3e
00000070: 944b 64bf 58e3 78bf 9d33 ec3e 3e38 f93e
00000080: 7b4b 70be 6aa1 16be 86b3 3bbf 6d17 96bf
00000090: 2802 b8bf c003 b4be d0ed 83bf ef37 cfbe
000000a0: 913d 263f 6075 893e f21e 8f3f df78 b7bf
000000b0: a915 9e3e 3711 623f 4c08 c3bf d63e 0e3f
000000c0: 9c4e a43e 40c2 4fbf ceb7 57bf 8f3a d0be
000000d0: 5e56 483f 858f 57bf 0653 70bf 5d4c 49be
000000e0: 3764 c93f 364f 173e cc5a 6dbf 04ad 553f
000000f0: d72a 88be 3dc6 ec3e 373f 183d e16b 7ebf
00000100: 1ee7 2fc0 7e92 893f 55c4 aebd bdb4 28bf
00000110: 8c20 903f ce6b 863e 76bf bf3f 4d72 bcbf
00000120: 928d 563f 0287 323f 4056 73bf 235c b03e
00000130: d1b3 7f3f 3d8a ee3c e9d9 8a3f c9b3 903f
00000140: 176a f43e 8e54 243c 58ee abbf 60b6 f1bd
00000150: 33da 723f 38b3 4c3d 3acf ca3f b3cc 813f
00000160: 8a15 a23f b56c 743f 5eed 2abf fb55 8fbf
00000170: e5b2 9c3f e5d5 e33d fc05 9a3e 5235 173f

bias f4 [6]
0.33017063 -0.105450295 0.44184014 -0.25271976 -1.2390392 -0.886239
00000000: 200c a93e 53f6 d7bd df38 e23e 7c64 81be
00000010: d698 9ebf 8fe0 62bf
