src/learning/models/train1_deep_wider_tanh.pt (torch, 10895 bytes, 8 tensors)

weight f4 [32, 5]
0.11561023 -0.2342335 -0.78033143 0.31493574 0.6228602 0.023494206 -0.094202176 0.11184994
0.019053629 -0.50905997 -0.42041615 0.31779698 0.11315975 0.15930803 -0.29984537 0.13943447
-0.2609351 -0.022426948 -0.26761028 -0.07407013 -0.050935384 0.36061853 0.041050725 -0.6557416
0.0704909 -0.33079496 0.044405043 -0.13135645 -0.4108719 -0.37043348 0.10926975 0.05513722
-0.0526805 0.3666192 0.19713701 -0.20170355 -0.37896717 -0.14598668 -0.5362258 0.5450556
0.12884824 -0.58682144 0.2637499 -0.08351899 -0.13853857 -0.015585515 -0.20007631 0.0047165076
-0.44266757 -0.4877596 0.35860762 -0.3220589 0.24502937 0.19913176 -0.5425642 0.10478038
0.41491872 -0.27419645 -0.14353879 -0.5408976 -0.005755285 -0.6063807 -0.16712858 -0.33020428
0.19750692 -0.55281544 -0.3591406 -0.0123339575 -0.10684878 0.57605577 -0.20232031 -0.6552276
-0.1437457 0.3044226 -0.099155 0.44102436 -0.37978375 -0.28593785 -0.65429014 0.24936461
0.00944181 -0.01148574 0.06573559 -0.33662707 0.5339956 0.13921233 -0.6013944 -0.542937
-0.032701183 -0.3001011 0.07754878 -0.57279533 0.26411784 0.5654386 -0.1173886 -0.21790062
-0.48602673 -0.25215933 -0.689972 -0.4836061 -0.036111783 0.5049905 0.025405217 0.5211506
-0.8158483 0.031733323 -0.0045584794 -0.019292787 0.00019787456 -0.7146748 0.041814055 -0.070118584
-1.1399335 -0.04433349 0.065683246 0.005792819 0.5319605 -0.4257261 0.31904572 0.023454776
0.27992833 0.95396686 -0.42749232 -0.36420906 0.062234536 -0.5443067 0.049787138 -0.049880717
0.48725644 -0.2095952 0.15492894 -0.2943215 0.22158949 0.35342976 -0.5790824 -0.30564782
-0.06901879 -0.23285386 0.37411916 -0.4939488 0.02118495 -0.2647213 0.087164186 -0.49583519
0.01905286 0.26735115 -0.22265197 0.23600179 -0.020658165 0.325819 0.34508306 -0.26111746
-0.1833313 0.5262652 -0.5961301 -0.0022970089 0.7280014 0.19326279 -0.24202275 0.031898126
00000000: 0ec5 ec3d e8da 6fbe cdc3 47bf 423f a13e
00000010: c473 1f3f ec76 c03c 12ed c0bd 9511 e53d
00000020: 5b16 9c3c c151 02bf c940 d7be 49b6 a23e
00000030: 4dc0 e73d a521 233e 5585 99be e9c7 0e3e
00000040: 4999 85be b8b8 b7bc 3704 89be 15b2 97bd
00000050: 9fa1 50bd fea2 b83e ce24 283d aede 27bf
00000060: 885d 903d f55d a9be 10e2 353d 4e82 06be
00000070: cd5d d2be 75a9 bdbe d2c8 df3d 91d7 613d
00000080: 82c7 57bd 83b5 bb3e 49de 493e 608b 4ebe
00000090: fc07 c2be 887d 15be 1846 09bf c488 0b3f
000000a0: cbf0 033e ee39 16bf 3a0a 873e 010c abbd
000000b0: 0edd 0dbe 635a 7fbc cee0 4cbe ef8c 9a3b
000000c0: 53a5 e2be a0bb f9be 6b9b b73e e7e4 a4be
000000d0: fbe8 7a3e 32e9 4b3e 7de5 0abf 1997 d63d
000000e0: 3a70 d43e 7a63 8cbe d5fb 12be 4478 0abf
000000f0: d496 bcbb c43b 1bbf c123 2bbe 8910 a9be
00000100: 413f 4a3e 5085 0dbf 47e1 b7be 5e14 4abc
00000110: 88d3 dabd 6478 133f 0e2d 4fbe ffbc 27bf
00000120: 1332 13be 47dd 9b3e c711 cbbd f2cd e13e
00000130: 0473 c2be 7266 92be 8f7f 27bf 7059 7f3e
00000140: d2b1 1a3c af2e 3cbc 62a0 863d 625a acbe
00000150: f0b3 083f ad8d 0e3e fcf4 19bf ebfd 0abf
00000160: adf1 05bd daa6 99be e5d1 9e3d b7a2 12bf
00000170: 743a 873e 96c0 103f 6f69 f0bd 5721 5fbe
00000180: 7fd8 f8be 071b 81be 01a2 30bf 389b f7be
00000190: f3e9 13bd 0f47 013f 9a1e d03c 206a 053f
000001a0: 6fdb 50bf cdfa 013d 4c5f 95bb e80b 9ebc
000001b0: 8c7c 4f39 edf4 36bf 3745 2b3d 559a 8fbd
000001c0: 57e9 91bf 0997 35bd f084 863d b0d1 bd3b
000001d0: 902e 083f c5f8 d9be f659 a33e 3b24 c03c
000001e0: c452 8f3e 2c37 743f 46e0 dabe 9c79 babe
000001f0: a4e9 7e3d af57 0bbf 99ed 4b3d b94f 4cbd
00000200: ad79 f93e 20a0 56be b1a5 1e3e 4fb1 96be
00000210: 5be8 623e bff4 b43e bf3e 14bf df7d 9cbe
00000220: b959 8dbd 3e71 6ebe 8c8c bf3e dbe6 fcbe
00000230: 0f8c ad3c 8d89 87be 2383 b23d 1cde fdbe
00000240: be14 9c3c 40e2 883e e1fe 63be 74aa 713e
00000250: 503b a9bc bfd1 a63e baae b03e 30b1 85be
00000260: 33bb 3bbe 51b9 063f fb9b 18bf 6a89 16bb
00000270: 4d5e 3a3f aee6 453e d0d4 77be 9ca7 023d

bias f4 [32]
-0.11540506 -0.34033084 -0.04071853 0.5957167 -0.48653266 0.10444488 0.29537582 -0.19707632
-0.38957784 0.1241365 0.08883751 0.07682225 0.50292915 -0.6028672 -0.03704625 -0.1588979
0.14828485 0.22905436 0.21323846 0.08027459 0.04297492 -0.48809633 -0.33412358 0.4718512
-0.30607253 0.10824508 -0.18283853 0.1480062 -0.29251373 -0.4136833 0.48199925 -0.49545014
00000000: 7d59 ecbd d83f aebe 79c8 26bd e480 183f
00000010: cf1a f9be 32e7 d53d 803b 973e 60ce 49be
00000020: bf76 c7be 473b fe3d 71f0 b53d fc54 9d3d
00000030: f7bf 003f 8155 1abf cfbd 17bd 22b6 22be
00000040: fcd7 173e 3a8d 6a3e 2f5b 5a3e 0167 a43d
00000050: 7806 303d c3e7 f9be 3f12 abbe 7b96 f13e
00000060: 8ab5 9cbe 99af dd3d 063a 3bbe f08e 173e
00000070: 5cc4 95be 4cce d3be 9bc8 f63e a4ab fdbe

weight f4 [32, 32]
0.026868897 -0.028301582 -0.050045975 0.21668275 0.25822115 0.013026 -0.08063089 0.0018311627
0.2105126 -0.045925017 0.059752356 0.18207975 -0.34091356 -0.22706085 -0.12360162 -0.098003425
0.01929402 0.23655936 0.001046208 -0.08492205 -0.24776854 0.18076321 -0.28698754 -0.109420665
-0.16456115 -0.05254508 0.12804987 0.09860716 0.15010595 -0.2636116 -0.2719591 0.058465928
0.18705225 -0.16958973 -0.17806265 0.24999529 0.025368374 0.02337221 -0.024599973 0.14430262
0.17318836 -0.10487871 -0.06914317 -0.039784737 0.28831908 -0.20427483 -0.17811547 0.06429343
0.36242303 0.23044516 0.17453712 -0.00866779 -0.23769324 -0.5141759 -0.031328246 0.3249958
0.27032652 0.03409969 -0.09992517 0.03808943 -0.23196797 -0.05410309 -0.035804156 -0.031715646
-0.10066826 0.16660282 -0.20077606 -0.031606726 0.34911758 -0.11548906 -0.103625186 -0.3222781
-0.009144535 -0.14221391 0.00266481 0.35074714 -0.18675067 -0.08032075 0.025035497 0.013480706
-0.43598524 -0.28720853 -0.018161079 -0.13909817 0.08915265 -0.14511646 -0.05220914 -0.13790762
0.06964549 -0.06634699 0.117085174 -0.052266445 -0.21181744 -0.10848591 0.07849622 -0.028515352
0.19352125 -0.13232936 -0.026917182 -0.14225672 -0.22993569 -0.017971482 -0.091863 0.4567346
-0.23510538 0.093749516 -0.10052045 -0.043047767 0.3176878 0.14679724 0.16808191 -0.08087256
0.25320888 0.16991185 0.25498188 -0.06700877 0.111948505 -0.20469582 0.15080431 0.09195657
-0.10437312 -0.10358738 -0.01595563 -0.30868155 0.115685984 -0.08452079 0.14107521 -0.13935564
-0.008743491 0.07683239 0.01772276 -0.28895703 -0.11111301 -0.033840947 -0.09765586 -0.029879162
0.19849485 -0.337398 0.04684712 -0.09150631 -0.011035061 -0.186843 -0.08111717 -0.021534905
0.06716293 0.3719563 0.01865914 -0.3170596 -0.20603387 -0.1236838 -0.21662745 -0.07363598
0.12169661 -0.08584289 -0.3148308 -0.020093031 -0.11079119 -0.13413145 0.06589101 -0.22812006
0.1977398 -0.26582408 -0.16193476 -0.1646447 0.20443214 0.12403818 0.19143905 -0.10370171
0.1629291 0.012579048 0.020578606 -0.13720769 -0.0051611476 0.082548365 -0.004608586 -0.022469012
0.45783204 0.12671147 0.009042899 -0.11991363 0.028176202 -0.14158978 -0.18387197 0.12287112
0.043848936 -0.09515014 0.17560264 -0.1941928 0.1878702 0.3165148 0.15662256 0.14681464
-0.016416967 -0.26124728 0.007109984 0.23003888 -0.14519122 -0.16718003 -0.14612687 0.19829138
0.20953546 -0.17989121 0.20469733 -0.1760479 -0.14758863 -0.14740379 0.24796988 -0.13638653
0.08110285 0.17621623 -0.10366111 0.1846092 -0.23084418 -0.16174087 -0.22718781 0.079657875
-0.14162378 -0.15293013 -0.02353279 -0.4185458 -0.009507056 0.06620835 -0.13852762 -0.35225815
0.14980133 -0.0034484847 -0.14916904 -0.25536323 0.06449076 0.06984132 -0.11691086 0.31158647
-0.024684876 -0.20466653 0.15887204 -0.295764 0.08235309 -0.28629693 -0.16573752 -0.1343938
0.3961822 0.35217935 0.07141193 -0.22438319 0.020560732 -0.23915304 -0.23955041 -0.03469094
-0.07557655 -0.1198075 -0.039365828 -0.118067265 -0.094968125 0.22466025 0.12215737 0.09675388
00000000: 291c dc3c b8d8 e7bc 02fd 4cbd 15e2 5d3e
00000010: 9035 843e 016b 553c cf21 a5bd a003 f03a
00000020: 9d90 573e df1b 3cbd e3be 743d 1d73 3a3e
00000030: 398c aebe a482 68be d922 fdbd 05b6 c8bd
00000040: 7e0e 9e3c 9e3c 723e ea20 893a 9deb adbd
00000050: 09b7 7dbe fe19 393e 08f0 92be f117 e0bd
00000060: b882 28be 8339 57bd 811f 033e 8df2 c93d
00000070: 60b5 193e 1af8 86be 393e 8bbe f879 6f3d
00000080: a08a 3f3e eea8 2dbe 0e56 36be c4fe 7f3e
00000090: 56d1 cf3c 1477 bf3c e285 c9bc 11c4 133e
000000a0: 4a58 313e a6ca d6bd ef9a 8dbd 52f5 22bd
000000b0: 8f9e 933e 6c2d 51be e763 36be 46ac 833d
000000c0: 838f b93e d1f9 6b3e dcb9 323e 5903 0ebc
000000d0: db65 73be 08a1 03bf 0c52 00bd d965 a63e
000000e0: 3d68 8a3e 1eac 0b3d 91a5 ccbd aa03 1c3d
000000f0: 0389 6dbe 349b 5dbd 61a7 12bd 44e8 01bd
00000100: 292b cebd ee99 2a3e 3d98 4dbe 0e76 01bd
00000110: 8abf b23e 8785 ecbd 7139 d4bd a301 a5be
00000120: f6d2 15bc 86a0 11be 18a4 2e3b 2195 b33e
00000130: 913b 3fbe 357f a4bd 3e17 cd3c 2ede 5c3c
00000140: 7539 dfbe ff0c 93be 8bc6 94bc c06f 0ebe
00000150: aa95 b63d 6999 14be 40d9 55bd a837 0dbe
00000160: 4ba2 8e3d eee0 87bd 5aca ef3d 5715 56bd
00000170: ace6 58be dc2d debd a0c2 a03d 0799 e9bc
00000180: 6f2a 463e 5981 07be 6c81 dcbc bfab 11be
00000190: 4374 6bbe ee38 93bc ab22 bcbd 1ed9 e93e
000001a0: 77bf 70be bfff bf3d aadd cdbd db52 30bd
000001b0: faa7 a23e 0452 163e aa1d 2c3e 83a0 a5bd
000001c0: 98a4 813e 5ffd 2d3e fc8c 823e e53b 89bd
000001d0: 4245 e53d c89b 51be 726c 1a3e ba53 bc3d
000001e0: 93c1 d5bd 9f25 d4bd 62b5 82bc 820b 9ebe
000001f0: c6ec ec3d 3c19 adbd 0576 103e 3fb3 0ebe
00000200: dc40 0fbc 4d5a 9d3d 522f 913c 2df2 93be
00000210: 388f e3bd ce9c 0abd ccff c7bd 25c5 f4bc
00000220: 3c42 4b3e 6ebf acbe c4e2 3f3d a967 bbbd
00000230: 67cc 34bc c553 3fbe c220 a6bd f869 b0bc
00000240: b88c 893d 0e71 be3e 0edb 983c a355 a2be
00000250: 8bfa 52be ef4d fdbd 96d3 5dbe 76ce 96bd
00000260: 123c f93d 66ce afbd 8131 a1be 249a a4bc
00000270: 7ee6 e2bd c159 09be def1 863d 4e98 69be
00000280: 4d7c 4a3e 181a 88be 3ad2 25be 9f98 28be
00000290: a956 513e bb07 fe3d 9908 443e 9061 d4bd
000002a0: e3d6 263e 5a18 4e3c 7794 a83c 2c80 0cbe
000002b0: d81e a9bb 1e0f a93d 9f03 97bb ef10 b8bc
000002c0: f668 ea3e a7c0 013e ab28 143c 4795 f5bd
000002d0: c7d1 e63c e9fc 10be ef48 3cbe dba3 fb3d
000002e0: f19a 333d 14de c2bd 2ed1 333e 7ada 46be
000002f0: 0c61 403e 3a0e a23e aa61 203e 9456 163e
00000300: e07c 86bc 34c2 85be defa e83b 508f 6b3e
00000310: 02ad 14be 3e31 2bbe 48a2 15be e50c 4b3e
00000320: 7790 563e 6735 38be 2d9c 513e e745 34be
00000330: 7921 17be 05f1 16be d1eb 7d3e e9a8 0bbe
00000340: 4019 a63d 0772 343e 474c d4bd 320a 3d3e
00000350: 6b62 6cbe 669f 25be eca3 68be ab23 a33d
00000360: d305 11be b799 1cbe d6c7 c0bc a34b d6be
00000370: 7cc3 1bbc 3e98 873d 2fda 0dbe 2e5b b4be
00000380: 8565 193e f9ff 61bb c5bf 18be f8be 82be
00000390: bb13 843d f708 8f3d f66e efbd 4388 9f3e
000003a0: f037 cabc 1a94 51be 5aaf 223e 616e 97be
000003b0: bda8 a83d 8395 92be 19b7 29be 879e 09be
000003c0: 65d8 ca3e da50 b43e 6b40 923d b5c4 65be
000003d0: fb6e a83c 89e4 74be b44c 75be 1618 0ebd
000003e0: e1c7 9abd a25d f5bd 103e 21bd 40cd f1bd
000003f0: a67e c2bd 560d 663e a52d fa3d e626 c63d

bias f4 [32]
-0.022007126 -0.33250034 -0.06818761 -0.12821183 -0.2890734 0.05655128 -0.13189772 -0.06798795
-0.23990119 -0.19847487 -0.2128425 -0.17600274 -0.023849837 0.19897518 0.13306588 0.14324063
0.10219994 -0.16169196 -0.03314579 0.13599937 0.1296534 0.029457627 0.2822065 0.24123931
0.1833702 0.15235533 0.18091574 0.26359674 -0.0863704 -0.24169359 -0.10727132 0.16880995
00000000: 4a48 b4bc 7c3d aabe f2a5 8bbd f649 03be
00000010: 6e01 94be 51a2 673d 3210 07be 443d 8bbd
00000020: a8a8 75be ff3c 4bbe 62f3 59be 103a 34be
00000030: bc60 c3bc 26c0 4b3e 6c42 083e acad 123e
00000040: 344e d13d 9492 25be e1c3 07bd 6b43 0b3e
00000050: dcc3 043e 1f51 f13c 5f7d 903e 7007 773e
00000060: 66c5 3b3e 0903 1c3e fa41 393e 27f6 863e
00000070: f7e2 b0bd 867e 77be 11b1 dbbd 84dc 2c3e

weight f4 [16, 32]
0.07991808 0.26818743 -0.04075491 -0.1415699 0.23568888 0.43487304 0.182468 0.21971497
-0.010121218 -0.010660648 0.6360069 0.22806932 0.018986408 -0.04047307 -0.37004367 -0.0882837
0.20490052 -0.20893621 0.0318607 -0.31861287 0.5475678 -0.02704498 -0.09835989 -0.119319476
0.2430815 -0.39895925 -0.5410166 -0.065415725 0.120148644 0.5564452 0.14878404 -0.70711523
-0.38517985 -0.30478427 -0.14048342 0.19722193 -0.06358662 0.28286916 -0.046842713 -0.09674666
0.11857029 0.20319024 0.1265129 0.07201117 0.28762165 0.0040440527 -0.28910527 0.16347857
0.45198014 -0.50132287 0.27552304 0.32047015 -0.09161677 -0.22929372 -0.0587329 -0.2853788
-0.43955836 0.10832504 -0.30199233 -0.3035396 0.39711642 -0.103368014 0.07992163 -0.14971676
-0.29275882 0.28284064 0.15195294 -0.08906797 -0.40497094 -0.17451508 0.20264605 -0.47225133
-0.1524516 -0.48171008 0.12604408 -0.72282785 -0.3178193 0.17856266 0.4160102 0.047971185
-0.1903421 0.14423615 -0.3787984 -0.43071234 -0.062301066 0.20759603 -0.17631513 1.1217128
1.1256665 -0.22094123 0.25648203 0.14169127 -0.05320814 0.07889465 0.12578452 -0.2995261
0.01181742 -0.6286235 -0.16179653 -0.3097977 -0.42750624 -0.13121699 -0.1298946 -0.40323225
-0.19574155 -0.4648593 -0.23613535 -0.17375998 -0.38601893 0.4099282 -0.009317125 0.18589668
-0.30137125 0.42646185 -0.16024393 -0.01959101 -0.040552158 0.032561667 0.5674087 0.41243398
0.14386061 0.36431506 0.2541787 0.0071209967 0.037041955 -0.6896096 0.059023626 0.32789612
0.001046562 0.3851759 0.013945696 0.04126059 0.2330373 0.32695207 0.22375253 0.14675981
0.40877014 0.3975013 0.2163129 0.27618793 0.53248644 -0.30492288 0.044116635 0.0017283171
0.41273597 -0.4241987 -0.118105344 0.1889456 -0.13818137 -0.08795813 -0.6431415 -0.6121601
-0.014485066 -0.48188365 -0.22724657 -0.20506153 -0.08868812 0.4868127 -0.04785452 -0.028626183
-0.011436983 -0.05523606 -0.19906715 0.011933505 -0.26853216 0.087757446 -0.18563387 -0.08911198
0.2463645 0.06663504 -0.11038536 0.08897159 0.19959325 -0.061803572 0.11107271 0.29123473
0.32666233 -0.37909782 -0.08264397 0.30692336 -0.016847067 -0.14797081 -0.41403526 0.12145393
-0.16432844 0.09340683 0.010047386 -0.0072258976 -0.005833369 -0.15509509 0.059587818 0.24477315
-0.45052442 0.17535324 -0.25473022 0.48722956 0.19433855 -0.04472932 -0.21433714 0.06677895
-0.051453777 0.16622151 -0.10007251 0.16099247 0.103078425 -0.24511543 -0.35199836 0.39449206
0.22042151 -0.49285585 0.46204174 0.032544315 -0.020113474 -0.49580163 -0.08639161 -0.09068795
-0.1870402 0.17205384 -0.39399287 -0.6632615 0.5647128 -0.074065864 0.07234134 -0.27694336
-0.16623652 0.0042239204 0.049163856 -0.19515726 -0.29546076 0.22702442 -0.3117181 0.23571454
0.18708456 -0.029688025 -0.5005699 -0.118749306 -0.12786691 0.13774945 0.29361114 0.30278918
0.21040031 -0.45957673 0.11427894 0.11893249 -0.051615514 -0.16232857 -0.17684382 -0.13274224
0.2875312 0.0028501223 0.18495701 0.3881343 -0.021358816 -0.4900704 -0.12525553 0.3159703
00000000: 17ac a33d dd4f 893e 9fee 26bd b3f7 10be
00000010: 6d58 713e aea7 de3e e4d8 3a3e f6fc 603e
00000020: 77d3 25bc 00aa 2ebc 59d1 223f 018b 693e
00000030: 6289 9b3c 17c7 25bd 5d76 bdbe 16ce b4bd
00000040: 71d1 513e 60f3 55be 5e80 023d 3a21 a3be
00000050: 672d 0c3f 6f8d ddbc e970 c9bd c55d f4bd
00000060: 5bea 783e 6344 ccbe 1080 0abf aef8 85bd
00000070: 7e10 f63d 3173 0e3f d85a 183e 8105 35bf
00000080: 4b36 c5be af0c 9cbe e3da 0fbe 8cf4 493e
00000090: b439 82bd 3ad4 903e 25de 3fbd 1d23 c6bd
000000a0: fbd4 f23d 1a11 503e 998c 013e 987a 933d
000000b0: 2543 933e f983 843b 9b05 94be ed66 273e
000000c0: f169 e73e b256 00bf 5b11 8d3e aa14 a43e
000000d0: 93a1 bbbd f9cb 6abe e991 70bd 2c1d 92be
000000e0: cb0d e1be 85d9 dd3d bd9e 9abe 8b69 9bbe
000000f0: d852 cb3e 9cb2 d3bd f4ad a33d 5a4f 19be
00000100: 7ce4 95be 7dd0 903e 8d99 1b3e 4569 b6bd
00000110: 5a58 cfbe 15b4 32be 7282 4f3e edca f1be
00000120: 461c 1cbe b4a2 f6be b311 013e 3f0b 39bf
00000130: 36b9 a2be 21d9 363e 4aff d43e 6f7d 443d
00000140: 0ae9 42be a4b2 133e ddf1 c1be 5486 dcbe
00000150: 672f 7fbd 0e94 543e f48b 34be 4994 8f3f
00000160: d715 903f 6b3e 62be 9d51 833e 8417 113e
00000170: c7f0 59bd 8593 a13d a8cd 003e 7c5b 99be
00000180: da9d 413c 78ed 20bf fdad 25be ce9d 9ebe
00000190: 19e2 dabe bf5d 06be 1703 05be 7574 cebe
000001a0: 7970 48be 0a02 eebe 77cd 71be 23ee 31be
000001b0: 46a4 c5be 1ce2 d13e dba6 18bc b35b 3e3e
000001c0: 554d 9abe 3559 da3e fc16 24be 537d a0bc
000001d0: 051a 26bd 625f 053d b241 113f 8c2a d33e
000001e0: 3250 133e 8187 ba3e b623 823e 4057 e93b
000001f0: 4eb9 173d 418a 30bf c2c2 713d 00e2 a73e
00000200: cb2c 893a c735 c53e 7d7c 643c dd00 293d
00000210: 54a1 6e3e 4366 a73e 621f 653e 3448 163e
00000220: 524a d13e 4a85 cb3e 2181 5d3e 8168 8d3e
00000230: 0851 083f da1e 9cbe a5b3 343d b388 e23a
00000240: 2152 d33e 9230 d9be 37e1 f1bd f57a 413e
00000250: 6b7f 0dbe 6423 b4bd eca4 24bf 86b6 1cbf
00000260: c552 6dbc 74b9 f6be 53b3 68be a6fb 51be
00000270: 1ea2 b5bd 843f f93e 1a03 44bd 7581 eabc
00000280: 2f62 3bbc 353f 62bd 42d8 4bbe bf84 433c
00000290: 0c7d 89be 2dba b33d ce16 3ebe 5780 b6bd
000002a0: fa46 7c3e f477 883d b811 e2bd bd36 b63d
000002b0: 2c62 4c3e be25 7dbd 177a e33d b81c 953e
000002c0: 4940 a73e 1c19 c2be 3e41 a9bd 0f25 9d3e
000002d0: dc02 8abc a985 17be 6efc d3be d7bc f83d
000002e0: b745 28be 154c bf3d cb9d 243c 39c7 ecbb
000002f0: d925 bfbb 3fd1 1ebe 5b12 743d d0a5 7a3e
00000300: 23ab e6be cd8f 333e 006c 82be 2776 f93e
00000310: af00 473e 1736 37bd 327b 5bbe 67c3 883d
00000320: 32c1 52bd f935 2a3e d1f2 ccbd 36db 243e
00000330: c81a d33d 8aff 7abe 2139 b4be ddfa c93e
00000340: 2db6 613e 9a57 fcbe bc90 ec3e 304d 053d
00000350: 03c5 a4bc b6d9 fdbe 16ee b0bd 9bba b9bd
00000360: 7787 3fbe e22e 303e 6fb9 c9be 81cb 29bf
00000370: 0591 103f d8af 97bd b227 943d 85cb 8dbe
00000380: e839 2abe d068 8a3b 0a60 493d 4ed7 47be
00000390: a246 97be 1779 683e 8499 9fbe 275f 713e
000003a0: 1893 3f3e 4d34 f3bc 5925 00bf d632 f3bd
000003b0: 8bef 02be 310e 0d3e 3354 963e 2f07 9b3e
000003c0: 2e73 573e a44d ebbe 140b ea3d e192 f33d
000003d0: ca6a 53bd 7639 26be 8c16 35be 95ed 07be
000003e0: 4a37 933e 1ec9 3a3b 5f65 3d3e 8ab9 c63e
000003f0: aff8 aebc 82ea fabe fc42 00be dcc6 a13e

bias f4 [16]
-0.17922048 0.07749491 0.23025426 0.1086563 -0.11028187 0.12653467 -0.08326866 0.111581266
-0.21096346 0.23937717 0.047742616 0.2519454 -0.14980203 0.028610712 -0.04048089 0.18155706
00000000: 9385 37be a7b5 9e3d c6c7 6b3e 3287 de3d
00000010: 76db e1bd 4e92 013e c288 aabd b884 e43d
00000020: ce06 58be 4a1f 753e c38d 433d fdfe 803e
00000030: b465 19be 0361 ea3c 4acf 25bd 18ea 393e

weight f4 [6, 16]
-0.04830764 0.65305984 0.01857084 0.16766608 -0.23607436 0.6404004 0.52995086 0.515292
0.72448105 0.12752251 -0.25297767 0.4536937 0.6478006 0.011523762 0.34489918 -0.036720112
-0.29072022 -0.4161468 0.18531652 0.094905384 -0.23963286 -0.26140904 -0.39659202 0.28231746
-0.32290024 0.006850614 -0.3769393 -0.017596273 -0.6440527 -0.4606278 0.35317248 -0.451756
0.3966624 -0.10530013 0.20630658 0.18591397 -0.47315964 -0.7333538 0.29400957 -0.6333302
0.021883566 -0.0025141218 0.37668815 0.26465154 0.1808931 0.64896315 -0.19078694 0.08168176
-0.36747414 0.41343555 -1.1500635 0.063640684 0.12530482 0.5782873 -0.16199097 -0.24753343
-0.37216237 0.07545589 0.33824885 -0.5902171 0.34175155 0.42477542 0.1541302 0.26746157
0.10201709 0.050287213 -0.56558615 -0.584162 0.7440876 -0.29738525 0.29989326 -0.29674935
0.7665619 -0.14430593 0.25743884 -0.64003044 -0.07427862 -0.56795883 -0.59305197 0.06778021
0.93575287 0.24326588 0.46667558 -1.0034227 0.84178555 0.14820212 -0.10652278 0.17909607
0.05314857 -1.1154419 -0.051982548 -0.5172212 -0.28999558 -0.03886167 -0.77161485 0.8301357
00000000: 3bde 45bd ee2e 273f e021 983c a8b0 2b3e
00000010: 7abd 71be 48f1 233f dcaa 073f 2dea 033f
00000020: 9777 393f 4395 023e 4a86 81be 8a4a e83e
00000030: 43d6 253f 29ce 3c3c a096 b03e d467 16bd
00000040: 48d9 94be 3211 d5be 9dc3 3d3e c15d c23d
00000050: 5162 75be 68d7 85be 1c0e cbbe ea8b 903e
00000060: 2e53 a5be 1e7b e03b 30fe c0be 0f26 90bc
00000070: a3e0 24bf 68d7 ebbe 06d3 b43e 904c e7be
00000080: 5617 cb3e 98a7 d7bd 0842 533e 3b60 3e3e
00000090: fb41 f2be 13bd 3bbf 6c88 963e ee21 22bf
000000a0: 2a45 b33c f7c3 24bb 45dd c03e 6880 873e
000000b0: 0a3c 393e 7322 263f a75d 43be c448 a73d
000000c0: 9225 bcbe d3ad d33e 4835 93bf 0c56 823d
000000d0: e84f 003e a30a 143f f6e0 25be 6779 7dbe
000000e0: 118c bebe 9e88 9a3d f42e ad3e 7818 17bf
000000f0: 0ffa ae3e 2a7c d93e 4fd4 1d3e b9f0 883e
00000100: 56ee d03d f7f9 4d3d 41ca 10bf a48b 15bf
00000110: 867c 3e3f e142 98be 9c8b 993e 88ef 97be
00000120: 673d 443f efc4 13be 06cf 833e 09d9 23bf
00000130: 641f 98bd c065 11bf 41d2 17bf 5ad0 8a3d
00000140: 808d 6f3f b11a 793e 1af0 ee3e 2870 80bf
00000150: 427f 573f 4cc2 173e 9e28 dabd f664 373e
00000160: 51b2 593d cdc6 8ebf a7eb 54bd 9c68 04bf
00000170: 4d7a 94be 6a2d 1fbd 8d88 45bf c683 543f

bias f4 [6]
-0.03531164 -0.16033469 0.21382259 -0.0766752 -0.5846627 -0.23150615
00000000: f0a2 10bd c72e 24be 4ff4 5a3e e307 9dbd
00000010: 74ac 15bf f30f 6dbe
