src/learning/models/train1_touch_deep_wider_tanh.pt (torch, 11023 bytes, 8 tensors)

weight f4 [32, 6]
0.024845198 -0.06953353 0.20990402 -0.034169894 -0.541492 1.1344378 -0.116531156 -0.065392554
-0.20081025 -0.4392766 -0.4061309 0.9018609 -0.11895762 0.49024105 0.09543346 -0.47757965
0.28689274 0.48512295 0.02790572 -0.48725355 0.045280665 -0.57836074 0.06761154 -0.5268475
0.06583137 -0.24783508 -0.033864226 -0.25076073 0.01571924 0.25564632 -0.43025964 0.05108951
0.47583434 0.00976949 0.007400982 -0.5175015 0.52117246 0.5038637 -0.018285561 0.44551656
0.03446689 0.038832493 0.15999961 -0.5289401 0.67597353 0.067050025 0.36528498 -0.49761343
0.16135842 -0.2180206 -0.255512 0.03636579 0.73238415 0.49224627 -0.020111274 0.00818892
0.49666834 0.102625534 -0.75552773 0.11438854 0.24815288 -0.377695 0.0282558 0.682371
-0.7847913 -0.8165505 0.63682145 -0.0054448503 -0.415104 0.07233872 -0.2512936 0.4941915
0.03381487 0.6995102 0.17114596 -0.2752245 -0.120884754 -0.8430294 -0.3848649 -0.4975406
0.05785288 0.4942235 -0.030570554 0.6956783 -0.15375514 0.024649188 0.116089106 -0.45515552
0.5046484 0.2543656 -0.301994 -0.01417518 -0.22484268 -0.17424153 -0.058850702 -0.62627167
-0.050877318 0.12063529 0.75416994 -0.15123613 -0.34875283 0.48603925 -0.14694305 0.3947146
-0.14459896 0.37878883 0.060765654 -0.56397694 -0.13399908 0.47103682 0.38280976 -0.09925549
-0.22374207 0.61177707 0.30796152 -0.1260378 0.20471977 -0.2838999 -0.20960873 0.34166077
-0.35209554 -0.41393167 -0.3733383 -0.35896417 -0.12477881 -0.013492633 -0.52110493 -0.049686495
-0.20366827 -0.21147159 -0.35825816 0.60590494 0.20717292 0.36295462 0.13770075 0.5209373
-0.73114717 0.18950456 0.25952405 -0.4506981 0.18887283 -0.26496714 0.5641783 -0.22143474
-0.15539038 -0.08736871 0.6307994 -0.43293294 0.12065074 -0.1703227 0.24939246 -0.1745834
0.18806106 -0.22398376 -0.38872203 -0.55338967 -0.79326236 0.059356216 -0.08562847 0.76470894
-0.5811717 -0.10079723 0.06892971 0.6727096 0.119514816 -0.041903287 -0.09342044 0.05601617
0.5066943 -0.03844112 -0.15516712 0.10962987 -0.2291066 -0.70200723 0.18149868 -0.37822223
0.23748714 0.4515964 -0.5665772 0.103123434 -0.13869433 -0.33215296 -0.37303728 -0.08213379
0.123295605 -0.2681678 0.21964635 0.6876968 -0.07592365 0.04521683 0.54677767 -0.09415758
00000000: 2888 cb3c 9867 8ebd 14f1 563e bbf5 0bbd
00000010: 389f 0abf 4235 913f e3a7 eebd 88ec 85bd
00000020: 34a1 4dbe dde8 e0be 64f0 cfbe 5be0 663f
00000030: 0da0 f3bd e000 fb3e 9e72 c33d 5285 f4be
00000040: 9be3 923e 0962 f83e 899a e43c 4c79 f9be
00000050: 3878 393d 730f 14bf eb77 8a3d 7adf 06bf
00000060: 99d2 863d 7bc8 7dbe 37b5 0abd b663 80be
00000070: a3c5 803c 13e4 823e fe4a dcbe 3c43 513d
00000080: 8fa0 f33e 3610 203c f083 f23b fa7a 04bf
00000090: 8f6b 053f 36fd 003f 9acb 95bc bf1a e43e
000000a0: 272d 0d3d d20e 1f3d f0d6 233e 9e68 07bf
000000b0: 9a0c 2d3f 8651 893d a206 bb3e 30c7 febe
000000c0: 243b 253e cb40 5fbe 78d2 82be 4bf4 143d
000000d0: 877d 3b3f b407 fc3e 66c0 a4bc d22a 063c
000000e0: 504b fe3e 562d d23d 446a 41bf 8a44 ea3d
000000f0: ca1b 7e3e 3d61 c1be b578 e73c deaf 2e3f
00000100: 15e8 48bf 7409 51bf bb06 233f b76a b2bb
00000110: 8388 d4be 5326 943d 8ea9 80be ab06 fd3e
00000120: 7681 0a3d 1a13 333f e340 2f3e 3aea 8cbe
00000130: 6d92 f7bd c6d0 57bf 030d c5be a4bd febe
00000140: 24f7 6c3d dd0a fd3e 196f fabc f917 323f
00000150: fd71 1dbe 18ed c93c 20c0 ed3d 250a e9be
00000160: a330 013f 353c 823e f59e 9abe 043f 68bc
00000170: 293d 66be 5f6c 32be 6f0d 71bd 5753 20bf
00000180: bc64 50bd a30f f73d 4811 413f a5dd 1abe
00000190: bb8f b2be 23da f83e 3d78 16be 0818 ca3e
000001a0: c011 14be 9cf0 c13e 68e5 783d cb60 10bf
000001b0: 0e37 09be bd2b f13e a4ff c33e 7646 cbbd
000001c0: a41c 65be 6c9d 1c3f 22ad 9d3e 0e10 01be
000001d0: 0fa2 513e 545b 91be aca3 56be 29ee ae3e
000001e0: de45 b4be daee d3be 3326 bfbe 27ca b7be
000001f0: 088c ffbd 3410 5dbc 2267 05bf 1184 4bbd
00000200: 6a8e 50be 028c 58be 9d6d b7be 961c 1b3f
00000210: 2325 543e 30d5 b93e 6d01 0d3e 265c 053f
00000220: 762c 3bbf 7c0d 423e 56e0 843e e7c1 e6be
00000230: e167 413e c6a9 87be fd6d 103f cabf 62be
00000240: a81e 1fbe 5eee b2bd 127c 213f 63a9 ddbe
00000250: bc17 f73d 1369 2ebe bd60 7f3e fec5 32be
00000260: 1493 403e 005c 65be 9306 c7be f2aa 0dbf
00000270: 3e13 4bbf 811f 733d fb5d afbd f7c3 433f
00000280: abc7 14bf c76e cebd 052b 8d3d b236 2c3f
00000290: 2fc4 f43d c8a2 2bbd 3753 bfbd 3671 653d
000002a0: b8b6 013f 7074 1dbd 21e4 1ebe a085 e03d
000002b0: ec9a 6abe bfb6 33bf cada 393e 58a6 c1be
000002c0: d42f 733e a537 e73e 340b 11bf 6132 d33d
000002d0: e305 0ebe f40f aabe befe bebe c335 a8bd
000002e0: 6882 fc3d 4a4d 89be f9ea 603e e60c 303f
000002f0: dc7d 9bbd 4835 393d 9ff9 0b3f b0d5 c0bd

bias f4 [32]
-0.12627588 -0.09897785 -0.12573385 0.18312217 -0.30024198 -0.07993017 0.27106655 0.24972433
-0.2969257 0.11673513 0.46931407 0.47343835 -0.0019426013 -0.15297057 0.18740354 -0.11727307
0.29601973 -0.74958986 0.60458416 0.2580361 0.20590134 0.17075019 0.05696887 -0.47315395
0.72355705 -0.2054904 -0.07840504 0.16256537 0.8284588 0.3784899 0.9102322 0.1570774
00000000: 774e 01be e6b4 cabd 60c0 00be 6184 3b3e
00000010: 51b9 99be 6eb2 a3bd 3cc9 8a3e bcb7 7f3e
00000020: a506 98be d412 ef3d ef49 f03e 8366 f23e
00000030: e29e feba 51a4 1cbe b7e6 3f3e dd2c f0bd
00000040: e68f 973e 1fe5 3fbf 07c6 1a3f 4f1d 843e
00000050: cdd7 523e 23d9 2e3e 3158 693d 3c41 f2be
00000060: 093b 393f 136c 52be d292 a0bd 8977 263e
00000070: e015 543f 6ec9 c13e fa04 693f e6d8 203e

weight f4 [32, 32]
-0.3052923 0.1875138 -0.071028255 0.062163074 -0.04006749 -0.14763245 -0.10616937 0.11947068
0.35160917 -0.35642552 0.25463828 -0.1156527 -0.44859257 -0.23396803 0.037528493 0.18092534
-0.3538767 0.19671051 -0.0907969 0.00258533 -0.011504214 -0.08556519 -0.000112257054 -0.021835014
-0.034870658 0.23321117 -0.13524233 -0.26662374 0.0806361 0.14740267 0.4756557 0.123851255
-0.2650724 0.055429935 -0.021325162 0.7318281 0.0752799 -0.094842695 -0.19599143 0.18763769
-0.077298634 -0.07269251 -0.058175437 -0.20007046 0.010635384 -0.15651248 0.15441878 -0.16368826
0.06161911 -0.008972255 -0.24719734 0.22612591 0.1515184 -0.043919552 -0.36394125 0.19905034
0.15077677 0.036586896 -0.008264 -0.2608054 0.12353021 0.16254538 0.4536726 -0.28356814
0.21782485 -0.20600343 0.21753387 -0.35601583 -0.31633604 0.18347582 0.045168217 0.019518437
-0.23104048 0.19316217 -0.2487428 0.05309247 0.13767324 -0.034668658 -0.20125616 -0.055600584
-0.21973732 -0.17530489 0.16853167 0.15379141 -0.021148907 -0.014209476 0.3005186 -0.2694087
-0.21024181 -0.019560521 0.04989694 0.31979927 -0.13634059 0.2095567 0.229591 0.12472818
-0.0068810834 -0.17228115 -0.20724602 -0.03430494 -0.2663492 -0.14304253 -0.10268316 0.39480072
0.1291691 -0.24696805 -0.24532722 -0.021813203 -0.1385229 0.10897786 0.07631299 0.03412119
0.2934118 0.110025376 -0.13297373 -0.049085062 -0.18980332 0.049456455 -0.13729067 -0.27639905
0.21388054 0.13541435 -0.3740336 0.002872236 0.19208145 0.028252618 0.13339892 0.37399474
0.25255603 0.1260146 0.20474207 0.015620643 -0.12599844 0.20739913 0.18275972 0.11003941
-0.06421969 -0.18393587 -0.029724885 0.19574897 0.23591691 -0.029422536 -0.1702998 -0.23509686
-0.15025708 -0.051592395 0.34153673 0.19253269 0.3890013 -0.019797746 -0.16909593 0.16256139
-0.3284767 0.033960264 0.3416793 -0.11985521 -0.24178764 0.15341492 0.17829955 0.058195084
-0.019071134 -0.07747288 -0.24759705 0.1759314 -0.22328433 0.21675159 0.15907717 0.07832999
0.24339056 0.0498641 -0.23015451 0.12006605 0.07064822 -0.013350271 -0.21872997 0.1538609
-0.23300017 0.13827288 0.038944542 -0.0113658365 0.009242605 0.06970691 -0.26930898 -0.026777226
-0.2016571 -0.1915077 -0.08885585 -0.0393537 -0.059552774 -0.15177247 0.3009077 0.24160938
0.08369741 -0.120653905 -0.10160591 -0.5671854 -0.26822484 -0.009017563 0.11497038 0.24600525
-0.033430103 0.14982574 0.043608546 0.27816924 -0.24645317 0.12721027 -0.17879175 -0.042324457
-0.21039087 -0.29789954 0.04203459 -0.18670058 -0.0715982 -0.26612887 0.058089707 -0.14960255
0.03485553 -0.042048182 0.37296176 0.22097616 -0.18667187 0.046654347 0.11203759 0.013805235
0.027685126 0.03521162 -0.107054606 0.09090651 -0.26971513 -0.10792288 -0.050717562 0.11060738
-0.0631429 -0.112304874 -0.09243859 -0.086080655 0.06685357 0.19823617 0.121721886 0.23623079
0.1334387 0.12938698 -0.24023685 -0.17224197 -0.20526744 0.22843078 0.057231907 -0.112476446
0.32963645 0.28317082 -0.34105247 0.003017898 0.27004614 0.11248873 0.026060872 0.12805212
00000000: 464f 9cbe 9e03 403e 4377 91bd b59e 7e3d
00000010: cf1d 24bd f62c 17be 546f d9bd 0bad f43d
00000020: 1e06 b43e 687d b6be f35f 823e 53db ecbd
00000030: edad e5be 5195 6fbe 7ab7 193d 7e44 393e
00000040: 542f b5be 7b6e 493e baf3 b9bd a46e 293b
00000050: 2c7c 3cbc cd3c afbd 8c6b ebb8 58df b2bc
00000060: 89d4 0ebd e9ce 6e3e f77c 0abe e882 88be
00000070: 8a24 a53d baf0 163e 2589 f33e baa5 fd3d
00000080: 92b7 87be 800a 633d 1bb2 aebc 1659 3b3f
00000090: 592c 9a3d e33c c2bd fab1 48be 1824 403e
000000a0: bf4e 9ebd d0df 94bd 5e49 6ebd 45df 4cbe
000000b0: 0940 2e3c cf44 20be f51f 1e3e e59d 27be
000000c0: 5264 7c3d 5d00 13bc 4d21 7dbe 8d8d 673e
000000d0: a427 1b3e fde4 33bd 8256 babe dad3 4b3e
000000e0: 3a65 1a3e 24dc 153d ba65 07bc 4988 85be
000000f0: 68fd fc3d 4c72 263e c647 e83e d82f 91be
00000100: 7a0d 5f3e 90f2 52be 33c1 5e3e b547 b6be
00000110: ccf6 a1be 16e1 3b3e 4f02 393d 21e5 9f3c
00000120: e095 6cbe 4ecc 453e 6fb6 7ebe 7d77 593d
00000130: 37fa 0c3e b900 0ebd 1816 4ebe 70bd 63bd
00000140: d202 61be 2083 33be 9193 2c3e 7f7b 1d3e
00000150: 7940 adbc ddce 68bc 93dd 993e f0ef 89be
00000160: a149 57be 633d a0bc bc60 4c3d bbbc a33e
00000170: de9c 0bbe 0896 563e e719 6b3e 7d71 ff3d
00000180: b67a e1bb 786a 30be 4d38 54be 5683 0cbd
00000190: ec5e 88be be79 12be 8c4b d2bd 5223 ca3e
000001a0: e844 043e 31e5 7cbe 0f37 7bbe 9ab1 b2bc
000001b0: f2d8 0dbe c92f df3d fc49 9c3d a9c2 0b3d
000001c0: 123a 963e fc54 e13d 442a 08be 6b0d 49bd
000001d0: cd5b 42be da92 4a3d ed95 0cbe 2d84 8dbe
000001e0: 8003 5b3e 0faa 0a3e 5581 bfbe 203c 3c3b
000001f0: 00b1 443e 0972 e73c ba99 083e 3d7c bf3e
00000200: 064f 813e f909 013e e8a7 513e baed 7f3c
00000210: bc05 01be 7060 543e 5d25 3b3e 585c e13d
00000220: 9d85 83bd af59 3cbe 9a81 f3bc 6b72 483e
00000230: 3494 713e 8807 f1bc 1263 2ebe 3bbd 70be
00000240: fedc 19be 8c52 53bd e7dd ae3e 4a27 453e
00000250: 2e2b c73e e22e a2bc 7c27 2dbe 7e76 263e
00000260: 192e a8be eb19 0b3d 97f0 ae3e a676 f5bd
00000270: 2e97 77be cd18 1d3e 2894 363e f85d 6e3d
00000280: 113b 9cbc 1aaa 9ebd 158a 7dbe 5c27 343e
00000290: a6a4 64be 21f4 5d3e 20e5 223e 796b a03d
000002a0: 603b 793e 4c3e 4c3d a0ad 6bbe 30e5 f53d
000002b0: 04b0 903d 18bb 5abc c0fa 5fbe b68d 1d3e
000002c0: 9997 6ebe 6897 0d3e 5084 1f3d c637 3abc
000002d0: 4c6e 173c 7fc2 8e3d dee2 89be ea5b dbbc
000002e0: 337f 4ebe 981a 44be 0efa b5bd 5831 21bd
000002f0: 9ced 73bd 3e6a 1bbe 9310 9a3e 7368 773e
00000300: 8c69 ab3d 6519 f7bd c216 d0bd 1033 11bf
00000310: c454 89be 67be 13bc 9775 eb3d cde8 7b3e
00000320: 01ee 08bd eb6b 193e e09e 323d 336c 8e3e
00000330: 385e 7cbe 6943 023e 2f15 37be 695c 2dbd
00000340: b470 57be 4a86 98be 762c 2c3d 702e 3fbe
00000350: 14a2 92bd 0b42 88be 79ef 6d3d 6931 19be
00000360: acc4 0e3d b73a 2cbd d8f4 be3e 9347 623e
00000370: e926 3fbe a118 3f3d f773 e53d 5a2f 623c
00000380: ebcb e23c 0f3a 103d 723f dbbd 312d ba3d
00000390: 1a18 8abe ac06 ddbd 38bd 4fbd 1f86 e23d
000003a0: 1151 81bd 1900 e6bd 7250 bdbd 0e4b b0bd
000003b0: 86ea 883d 6cfe 4a3e 5349 f93d 7ce6 713e
000003c0: 28a4 083e 057e 043e a600 76be 3360 30be
000003d0: a131 52be c2e9 693e 016c 6a3d 0d5a e6bd
000003e0: 1cc6 a83e c4fb 903e 6e9e aebe edc7 453b
000003f0: 7d43 8a3e 7e60 e63d 9c7d d53c 1820 033e

bias f4 [32]
0.032848656 -0.13137764 0.098588504 -0.30609146 0.22614774 0.07840461 0.29954696 -0.23813525
-0.12709951 0.08665632 -0.17602873 -0.2856452 0.39176875 0.08866032 0.17338453 0.28636962
0.24745065 0.05234541 0.26487896 -0.23415683 -0.06660305 -0.1043763 0.16968322 -0.15517077
0.07340898 0.22432189 -0.023581453 -0.18251732 0.17535223 -0.25903192 0.26077238 0.3819169
00000000: 508c 063d dc87 06be c5e8 c93d 05b8 9cbe
00000010: 4693 673e 9992 a03d 385e 993e bad9 73be
00000020: 6026 02be de78 b13d e040 34be 1640 92be
00000030: ea95 c83e 8b93 b53d b78b 313e 0a9f 923e
00000040: b463 7d3e 2468 563d 379e 873e cfc6 6fbe
00000050: 2e67 88bd 3ec3 d5bd 70c1 2d3e 16e5 1ebe
00000060: 7357 963d a3b4 653e e42d c1bc d2e5 3abe
00000070: 898f 333e d59f 84be f583 853e 9d8a c33e

weight f4 [16, 32]
0.42996964 -0.14466177 -0.07353543 0.77774066 -0.37773803 -0.2545545 0.19400279 0.07505782
0.43336093 -0.031962935 0.15182465 1.0175681 -0.18031247 0.30364913 0.019546764 -0.8859097
-0.33098307 -0.30743253 -0.6344088 0.32390493 0.19460954 -0.2504264 -1.10143 -0.10396454
-0.17334256 -0.30103704 0.34183344 0.038585063 -0.11019688 0.1607826 -0.0780904 -0.5546653
0.13740924 0.32738197 -0.0010522804 0.3627349 0.102689475 0.3139471 -0.22099985 0.20934287
-0.27464974 0.055573773 0.2374388 0.10224578 -0.09779172 0.13531789 0.07934718 -0.084207825
-0.32991198 -0.08604574 -0.35671705 0.10045697 0.023636406 -0.33805618 0.5328062 -0.055391468
-0.29243904 -0.030714829 0.29304686 0.08916695 -0.49135858 0.21736895 -0.22038177 -0.18211174
0.06708337 0.347266 0.28805822 -0.029806808 0.36231497 -0.21503298 0.0069216317 0.2956079
0.049537465 -0.11911307 0.38776308 -0.05424995 -0.077608705 -0.18844742 -0.43656236 0.21836032
-0.50966525 -0.6504804 -0.02467077 0.5182575 -0.046899945 -0.017879112 -0.11356007 0.2819776
-0.07889637 0.14619616 0.33595642 0.16612346 0.07586263 0.15330347 -0.113499 -0.15134957
0.046388358 0.4107122 -0.3408423 0.26450595 -0.32437408 0.01247333 -0.5818543 0.36793095
-0.2088792 0.35725576 0.2736597 0.23845336 -0.10429143 -0.22348519 -0.3024249 0.057189062
-0.6799736 -0.0859422 -0.3279889 -0.025051132 0.008363705 0.025614649 0.25198847 0.120228365
-0.57773 0.053607013 -0.13057628 0.35081443 -0.258958 -0.035401452 -0.22440612 -0.08133853
0.021955403 0.16348653 -0.2214003 0.025280142 -0.02242588 -0.20347036 0.0319944 -0.07709851
0.032356437 0.4783884 -0.02149473 -0.043979604 -0.018245276 0.027124893 0.1720448 -0.2486748
0.30970538 0.4252393 -0.14348143 -0.5682425 -0.11859259 -0.08606234 -0.5834536 -0.11449841
-0.004370678 -0.2093374 -0.57325685 -0.076510936 0.28515598 0.03321647 0.11426289 0.07743558
-0.061015762 -0.023563365 0.24909826 -0.08590153 0.36149073 0.21682657 0.10567332 0.15372433
-0.06617439 -0.45761654 0.17019098 -0.054803204 -0.14718932 -0.011993763 -0.32410938 0.22176512
-0.1327562 -0.37378174 0.12720673 0.3139616 0.08862409 -0.23857455 0.18252762 0.40383822
0.015699841 0.43024433 0.07865044 -0.020376125 -0.13537182 -0.19602713 0.11039591 0.1239766
-0.61781144 -0.10082823 -0.18087368 -0.27862602 0.06657406 -0.33231202 -0.2313022 0.022656016
-0.4277425 0.34473333 -0.1612083 -0.21606994 -0.087615125 -0.09591022 0.21214297 0.42552826
0.29130518 0.6264986 0.4967229 -0.27214804 -0.46431246 0.46309596 0.18000568 -0.49571568
0.13232182 -0.04840863 -0.34820133 0.37944004 0.10223683 -0.032710373 -0.3031778 -0.053051364
0.05135962 -0.46199554 -0.058020175 0.060791213 -0.53306735 -0.31162637 0.1751747 0.21863493
0.31311628 -0.095341794 0.064122595 -0.37802628 -0.3156837 -0.06152429 0.08827813 0.31247985
0.08244145 -0.053104103 0.5945342 0.32609785 -0.08646522 0.6963843 0.17230004 0.30068046
0.01608041 -0.41601172 -0.22728178 0.14159504 0.051915985 0.11201861 -0.18888298 0.27423966
00000000: fb24 dc3e 3722 14be be99 96bd 031a 473f
00000010: e166 c1be f854 82be aba8 463e eab7 993d
00000020: 7ce1 dd3e 91eb 02bd ec77 1b3e ac3f 823f
00000030: d5a3 38be e677 9b3e 8920 a03c faca 62bf
00000040: 9d76 a9be cc67 9dbe 9d68 22bf ded6 a53e
00000050: b947 473e e437 80be a9fb 8cbf 5ceb d4bd
00000060: b680 31be 8721 9abe cb04 af3e 5f0b 1e3d
00000070: e7ae e1bd 32a4 243e dced 9fbd 8cfe 0dbf
00000080: 02b5 0c3e 9c9e a73e acec 89ba 64b8 b93e
00000090: dc4e d23d adbd a03e c94d 62be fa5d 563e
000000a0: e49e 8cbe 53a1 633d 2823 733e 3c66 d13d
000000b0: 0647 c8bd c690 0a3e c680 a23d 2775 acbd
000000c0: 39ea a8be c038 b0bd 9ea3 b6be 62bc cd3d
000000d0: 23a1 c13c b315 adbe fd65 083f 2ae2 62bd
000000e0: 92ba 95be aa9d fbbc 3d0a 963e 299d b63d
000000f0: 5a93 fbbe f795 5e3e c2ab 61be 807b 3abe
00000100: 0263 893d d9cc b13e 5e7c 933e 682d f4bc
00000110: 5981 b93e 9b31 5cbe dbce e23b eb59 973e
00000120: cce7 4a3d 8ef1 f3bd e288 c63e 3235 5ebd
00000130: 50f1 9ebd 5cf8 40be 1a85 dfbe d999 5f3e
00000140: 6c79 02bf e285 26bf 5b1a cabc 86ac 043f
00000150: 281a 40bd 3777 92bc 2f92 e8bd 5e5f 903e
00000160: 6c94 a1bd 72b4 153e 7b02 ac3e 451c 2a3e
00000170: de5d 9b3d 96fb 1c3e 2a72 e8bd 62fb 1abe
00000180: b801 3e3d df48 d23e e282 aebe 536d 873e
00000190: 5c14 a6be f05c 4c3c 67f4 14bf 7261 bc3e
000001a0: 6ee4 55be 3aea b63e 201d 8c3e 1e2d 743e
000001b0: bf96 d5bd 4dd9 64be 70d7 9abe 143f 6a3d
000001c0: c012 2ebf 7702 b0bd 29ee a7be 0838 cdbc
000001d0: ec07 093c d0d5 d13c a204 813e 4a3a f63d
000001e0: 1de6 13bf 0793 5b3d cab5 05be f39d b33e
000001f0: 2596 84be 1d01 11bd b8ca 65be d194 a6bd
00000200: d1db b33c 0369 273e c3b6 62be 4d18 cf3c
00000210: 7bb6 b7bc 895a 50be 8f0c 033d d3e5 9dbd
00000220: 2f88 043d 53ef f43e b715 b0bc f523 34bd
00000230: 1e77 95bc 0635 de3c 832c 303e 9ba4 7ebe
00000240: b491 9e3e f7b8 d93e ccec 12be 5778 11bf
00000250: ace0 f2bd 7441 b0bd 375d 15bf 247e eabd
00000260: e837 8fbb 8b5c 56be f6c0 12bf c4b1 9cbd
00000270: f7ff 913e fe0d 083d a902 ea3d 8c96 9e3d
00000280: aaeb 79bd f507 c1bc 9d13 7f3e 24ed afbd
00000290: 5015 b93e c907 5e3e 416b d83d e969 1d3e
000002a0: 7086 87bd b74c eabe 8b46 2e3e 5379 60bd
000002b0: ccb8 16be 7d81 44bc aaf1 a5be 6516 633e
000002c0: 3ef1 07be 5260 bfbe 7b42 023e 93bf a03e
000002d0: 8c80 b53d e34c 74be 85e8 3a3e e2c3 ce3e
000002e0: f49c 803c fc48 dc3e 7b13 a13d d5eb a6bc
000002f0: e99e 0abe 56bb 48be 4017 e23d 72e7 fd3d
00000300: e428 1ebf 087f cebd f336 39be 12a8 8ebe
00000310: fb57 883d cd24 aabe 7cda 6cbe 1c99 b93c
00000320: 1101 dbbe e380 b03e ca13 25be 7041 5dbe
00000330: 8f6f b3bd 946c c4bd 023c 593e d7de d93e
00000340: f425 953e 3662 203f 7752 fe3e fd56 8bbe
00000350: 5dba edbe ea1a ed3e 6953 383e 72ce fdbe
00000360: 5f7f 073e 2148 46bd 7247 b2be f745 c23e
00000370: 8b61 d13d 50fb 05bd 1f3a 9bbe 634c 59bd
00000380: 775e 523d ae8a ecbe 90a6 6dbd 3500 793d
00000390: 1a77 08bf 7e8d 9fbe ff60 333e d6e1 5f3e
000003a0: c750 a03e 8f42 c3bd b552 833d a98c c1be
000003b0: 4ba1 a1be e500 7cbd 2acb b43d 5cfd 9f3e
000003c0: 10d7 a83d b083 59bd 6533 183f 4cf6 a63e
000003d0: ad14 b1bd 3e46 323f 6c6f 303e caf2 993e
000003e0: 10bb 833c 7dff d4be 8ebc 68be 4afe 103e
000003f0: dba5 543d 036a e53d 8a6a 41be 2469 8c3e

bias f4 [16]
-0.39839655 0.1526602 -0.3496055 -0.2255136 0.07365427 -0.022766415 -0.122342296 -0.04770743
0.08140604 0.24474908 0.004900667 0.09319864 0.34269032 -0.23444505 -0.02065639 0.18514945
00000000: a2fa cbbe f552 1c3e 7eff b2be 0aed 66be
00000010: 0dd8 963d a280 babc 998e fabd de68 43bd
00000020: 36b8 a63d 819f 7a3e c695 a03b eede be3d
00000030: 1b75 af3e 5d12 70be 9737 a9bc d197 3d3e

weight f4 [6, 16]
-0.18074343 0.42003998 0.23163548 -0.23015264 -0.58343965 0.65155596 -0.34182915 -0.64074713
0.00361254 0.26752144 -0.6662902 0.70812064 -0.027957443 -0.5042209 0.44981524 0.73940843
0.10446867 -0.57703537 -0.36012378 -0.5434242 0.4284861 -0.4155856 0.32850134 0.2678483
0.2286479 0.5342427 0.31757122 -0.20171532 0.27219427 -0.41152063 0.45862037 0.19873434
-0.26218736 0.100174025 -0.46123856 0.4278857 0.070395105 -0.36388308 0.6777757 0.16740966
0.53028286 -0.13764131 0.14057231 0.02008686 0.10159736 0.54993606 -0.39271042 -0.9889234
-0.17488307 0.22764952 0.116834745 0.85877776 -0.58422786 0.611381 -0.38073868 0.17210898
-0.49334976 -0.9405655 0.5484934 -0.37320426 0.20049149 0.021906437 -0.22196873 0.024986472
1.0118316 -0.042501308 0.937978 0.18147117 -0.2728713 0.13448557 -0.45542973 0.4282949
-0.94424295 0.07306648 -0.6894055 -0.68674535 -0.82078385 -0.066915974 0.08667446 -0.50719935
1.1615131 0.45570928 -0.10758327 -0.34805453 0.07246698 -0.6121148 -1.0304754 -0.9255239
-0.8562463 0.109120734 0.13915528 -0.3669422 -0.96864575 0.690532 -0.5204778 0.12364916
00000000: ce14 39be 7b0f d73e da31 6d3e 22ad 6bbe
00000010: 4d5c 15bf 5fcc 263f 3b04 afbe 0108 24bf
00000020: 5dc0 6c3b 92f8 883e ff91 2abf 6547 353f
00000030: 0207 e5bc 9f14 01bf 2f4e e63e df49 3d3f
00000040: acf3 d53d 97b8 13bf 2562 b8be d91d 0bbf
00000050: 8862 db3e a3c7 d4be 5431 a83e 6a23 893e
00000060: ad22 6a3e 21c4 083f b298 a23e 768e 4ebe
00000070: 0c5d 8b3e d5b2 d2be 4ad0 ea3e 0481 4b3e
00000080: 6c3d 86be 0a28 cd3d 7627 ecbe d613 db3e
00000090: 4f2b 903d e24e babe b582 2d3f 706d 2b3e
000000a0: 9ec0 073f d8f1 0cbe 30f2 0f3e 338d a43c
000000b0: 4712 d03d 9cc8 0c3f 5711 c9be 152a 7dbf
000000c0: 8c14 33be f51c 693e 0e47 ef3d dcd8 5b3f
000000d0: f58f 15bf 7783 1c3f 2ef0 c2be 563d 303e
000000e0: 5798 fcbe e7c8 70bf 106a 0c3f a114 bfbe
000000f0: a44d 4d3e 2175 b33c c54b 63be 6eb0 cc3c
00000100: b383 813f da15 2ebd 541f 703f 94d3 393e
00000110: c9b5 8bbe 96b6 093e 162e e9be 7849 db3e
00000120: e8b9 71bf e1a3 953d e17c 30bf 8bce 2fbf
00000130: e41e 52bf 3e0b 89bd 6182 b13d d1d7 01bf
00000140: 76ac 943f ba52 e93e 9e54 dcbd 3434 b2be
00000150: 9169 943d 8eb3 1cbf 9ee6 83bf 22ef 6cbf
00000160: f532 5bbf b17a df3d b97e 0e3e d9df bbbe
00000170: 2bf9 77bf b5c6 303f 083e 05bf c53b fd3d

bias f4 [6]
0.1743931 0.21510684 0.11543155 0.27356225 -0.5253475 -0.46460575
00000000: 1b94 323e f844 5c3e 6067 ec3d 5a10 8c3e
00000010: 2c7d 06bf cee0 edbe
