src/learning/models/train1_touch_deep_wider.pt (torch, 11087 bytes, 8 tensors)

weight f4 [32, 6]
0	0xbebd5183	-0.3697625
1	0xbe5fa01e	-0.21838424
2	0xbe289b81	-0.1646557
3	0x3f1bf6fe	0.60923755
4	0x3eb33447	0.35000822
5	0x3f4414cc	0.76594234
6	0xbe7c5b86	-0.24644288
7	0x3e978296	0.29591817
8	0xbead3b3e	-0.3383426
9	0x3e38f837	0.18063436
10	0x3eac4add	0.33650866
11	0x3f8918fb	1.0710748
12	0x3e25b8bc	0.16183752
13	0xbd181658	-0.037130684
14	0xbd605b83	-0.054774772
15	0xbe041c1c	-0.12901348
16	0xbf0614cd	-0.5237549
17	0xbe94ae5a	-0.2903927
18	0x3dded85f	0.10881113
19	0xbe98cff5	-0.2984616
20	0xbec1fc78	-0.3788793
21	0xbe0a1dfa	-0.13487998
22	0xbda4ffd0	-0.08056605
23	0xbef377ca	-0.4755233
24	0xbe9e078d	-0.30865136
25	0xbdccefb0	-0.10006654
26	0xbe1a0c33	-0.15043716
27	0xbbf11c2e	-0.0073580956
28	0xbe819384	-0.25307858
29	0xbf892639	-1.071479
30	0xbe8ac787	-0.27105352
31	0x3e8fe092	0.2810102
32	0x3c09068a	0.008363375
33	0x3e7e8b4a	0.24857822
34	0xbf43dbe0	-0.7650738
35	0x3dad1f68	0.08453256
36	0xbe81d203	-0.2535554
37	0x3d1022f0	0.03518957
38	0x3ecc0393	0.39846477
39	0x3e815a5e	0.25264257
40	0x3f0e86ca	0.5567442
41	0x3cbd3abd	0.023099298
42	0x3ea541ad	0.3227667
43	0xbe8d6d8d	-0.27622643
44	0xbe97d6f4	-0.29656184
45	0x3df7de7f	0.12102985
46	0x3f404d06	0.7511753
47	0xbe8bf186	-0.27332705
48	0xbe6d2b87	-0.23161136
49	0x3db2e7f2	0.08735646
50	0xbea35ad6	-0.3190524
51	0xbe9d3462	-0.30704027
52	0xbf968ca4	-1.176167
53	0x3dc6b54e	0.0970255
54	0xbe4e85fd	-0.201683
55	0xbedc0445	-0.42972007
56	0xbe075e62	-0.13219598
57	0xbf1a0c88	-0.6017537
58	0x3f15b37e	0.5847701
59	0x3e82b348	0.25527406
60	0xbe5c63a4	-0.21522385
61	0x3f0b0804	0.54309106
62	0xbdc8b54d	-0.098002054
63	0x3e34b983	0.17648892
64	0x3edff8ab	0.43744406
65	0x3f680fd3	0.90649146
66	0xbe4639c1	-0.19357969
67	0xbf2632cd	-0.64921266
68	0x3e70c3ba	0.23512164
69	0xbe16c07f	-0.14721869
70	0x3f0a4223	0.54007167
71	0x3d0bcdd2	0.034131832
72	0x3d0a7444	0.033802286
73	0xbf0aec5c	-0.54266906
74	0x3e4f6420	0.20253038
75	0xbf04f4a2	-0.5193578
76	0xbf2dc790	-0.67882633
77	0x3f1f3f98	0.6220641
78	0x3ea3a141	0.31958964
79	0x3e8261bf	0.254652
80	0x3e115861	0.1419387
81	0x3d21538d	0.03938632
82	0xbf0acffe	-0.5422362
83	0x3e62883e	0.22122285
84	0xbeaebbf0	-0.3412776
85	0x3e1fdd8c	0.15611857
86	0xbf2f4a3c	-0.6847265
87	0x3e06a1ad	0.13147612
88	0x3e1a2f0b	0.15057008
89	0x3e860cae	0.2618155
90	0xbe85b461	-0.2611418
91	0xbe4a229d	-0.19739766
92	0xbbd32e96	-0.0064447625
93	0xbf361418	-0.7112441
94	0xbe212a1d	-0.15738721
95	0xbf031d7a	-0.5121685
96	0xbd95a760	-0.07307315
97	0x3e8fb0bb	0.28064522
98	0x3e8815db	0.26579174
99	0x3e5a9e75	0.21349509
100	0x3f32e652	0.6988269
101	0xbf020705	-0.5079196
102	0xbe19e353	-0.15028124
103	0xbe9d6121	-0.30738166
104	0x3e0f4031	0.13989331
105	0x3e541ee5	0.2071491
106	0xbeab0c45	-0.33407798
107	0x3ec46e70	0.38365507
108	0xbe893013	-0.2679449
109	0x3eea3d43	0.45749864
110	0xbc258775	-0.010103096
111	0x3db9b4b3	0.09067669
112	0x3ca6d8b3	0.020367002
113	0x3f74c57b	0.9561383
114	0x3e2b0482	0.16700938
115	0x3d0c6434	0.03427525
116	0xbee8de70	-0.45482206
117	0xbf2f7345	-0.6853526
118	0xbf0f4ab2	-0.5597335
119	0xbf14d963	-0.58144206
120	0x3dfdb5c5	0.123881854
121	0xbee76382	-0.45193106
122	0x3e01de94	0.12682563
123	0xbeac3145	-0.3363134
124	0x3cb765b2	0.02238736
125	0x3f45626e	0.77103317
126	0xbd4d887f	-0.050179
127	0x3ecd3123	0.4007655
128	0x3e85e075	0.2614781
129	0xbdd20fda	-0.1025693
130	0xbdc3cd6a	-0.09560664
131	0x3f40e388	0.75347185
132	0x3e668ef1	0.22515465
133	0xbf0545da	-0.5205971
134	0xbf190340	-0.59770584
135	0x3e8f8974	0.28034556
136	0x3f0aca22	0.5421468
137	0x3ed516e4	0.41619027
138	0x3e104e4c	0.14092368
139	0x3e590e27	0.21196805
140	0x3e91546a	0.28384715
141	0x3ec69b0a	0.3879016
142	0xbf20b660	-0.6277828
143	0xbe0ef3cd	-0.1396019
144	0xbd279a1e	-0.040918462
145	0xbf215202	-0.6301576
146	0x3d25e22e	0.040498905
147	0x3d9bdabd	0.076100804
148	0xbf041bbe	-0.5160483
149	0x3f79f0d0	0.97633076
150	0x3e3b524e	0.18293115
151	0x3df1e60a	0.118114546
152	0xbe223a3e	-0.1584253
153	0x3f0e7d40	0.55659866
154	0xbf02857d	-0.50984937
155	0x3fa28bc4	1.2698903
156	0xbedcc718	-0.43120646
157	0x3eadf4e8	0.3397591
158	0xbe678d7a	-0.22612563
159	0x3f23b332	0.63945305
160	0xbf048b9a	-0.51775515
161	0x3e9b2586	0.30302066
162	0xbbb75c48	-0.0055957176
163	0x3e088d9d	0.13335271
164	0x3e7dee71	0.2479799
165	0x3e54d021	0.2078252
166	0xbeda631d	-0.42653742
167	0x3aa3e992	0.0012505522
168	0xbed23db9	-0.41062716
169	0xbe41decd	-0.18932648
170	0xbe0013ac	-0.12507504
171	0x3d650e76	0.055921994
172	0x3e9db1ac	0.30799615
173	0xbea9f42f	-0.3319411
174	0x3c85604e	0.016281273
175	0x3eb32279	0.34987238
176	0x3d73613f	0.059418913
177	0x3dd39a92	0.10332216
178	0xbf219337	-0.6311526
179	0xbda1aa18	-0.07893771
180	0x3da7e20b	0.08197411
181	0x3e0c5b3b	0.13706677
182	0xbf0135d6	-0.5047277
183	0x3ecc9afd	0.39961997
184	0x3d82ce96	0.063870594
185	0x3ef4bd7b	0.47800812
186	0xbec326d9	-0.38115576
187	0x3da95f7b	0.082701646
188	0x3de9053d	0.11377952
189	0xbeb9cd97	-0.36289665
190	0x3eedb36d	0.46425954
191	0x3e1b1fd6	0.15148863

bias f4 [32]
0	0xbd78164f	-0.06056815
1	0x3d541368	0.05177632
2	0x3e614518	0.21999013
3	0xbf4dcaf5	-0.8038781
4	0xbebb2a75	-0.3655583
5	0x3f463a43	0.7743265
6	0xbe406707	-0.18789302
7	0x3ef6fed5	0.48241296
8	0x3f44c607	0.76864666
9	0xbd30c27f	-0.043154236
10	0x3ecb5e8c	0.3972057
11	0xbf2b9dec	-0.67037845
12	0xbe766203	-0.24060826
13	0xbf36d47e	-0.7141799
14	0x3f232a08	0.6373601
15	0x3dfdb121	0.123873
16	0xbec04635	-0.37553564
17	0x3edc0d95	0.42979112
18	0x3e0f7864	0.14010769
19	0x3ecd2eba	0.40074712
20	0xbdbe2840	-0.09285021
21	0x3e0fb75e	0.14034793
22	0x3f0f3edc	0.5595529
23	0x3f184035	0.5947297
24	0x3f12f002	0.5739747
25	0x3f08f125	0.5349296
26	0x3e414a95	0.18876107
27	0x3f1d7d72	0.6151954
28	0x3c54282d	0.012949032
29	0x3f407593	0.75179404
30	0xbd0d3edd	-0.03448378
31	0xbf3a979c	-0.7288759

weight f4 [32, 32]
0	0x3da2c923	0.0794852
1	0xbe21ee3a	-0.15813532
2	0xbde1dcef	-0.11028468
3	0xbea911fe	-0.3302154
4	0x3e90e252	0.2829767
5	0x3e24c080	0.16089058
6	0xbeaa0a0b	-0.33210787
7	0xbed92021	-0.42407325
8	0x3dd15b3a	0.10222478
9	0xbeffbeb3	-0.4995018
10	0x3e36d9d3	0.17856531
11	0xbd8d15f2	-0.06888951
12	0xbe6f67b9	-0.23379411
13	0xbcd6ade8	-0.026205972
14	0xbe202b8d	-0.15641613
15	0xbe538df5	-0.20659621
16	0xbd905f90	-0.07049477
17	0x3c699f92	0.014259236
18	0x3e569eb0	0.20958972
19	0xbd2ec896	-0.042671762
20	0xbf2619f9	-0.6488338
21	0x3e595f14	0.21227676
22	0xbf3595a9	-0.7093149
23	0xbd1e736f	-0.038684305
24	0xbd9cb6da	-0.07652064
25	0x3cdced2d	0.026968563
26	0x3dd2617f	0.10272502
27	0x3df00244	0.11719182
28	0xba8f23a4	-0.0010920656
29	0x3e599ecd	0.21251984
30	0xbd027dac	-0.03185813
31	0xbda3ec00	-0.08003998
32	0x3d4830bf	0.048874613
33	0x3d9dda77	0.077076845
34	0xbd5db37a	-0.05412624
35	0x3de08d5e	0.10964464
36	0xbc5d51cc	-0.013508271
37	0xba975137	-0.001154459
38	0x3daa77dc	0.083236426
39	0x3d6c790f	0.057732638
40	0xbc8a8856	-0.016910713
41	0xbf19cfab	-0.600825
42	0xbe74d891	-0.23910739
43	0x3da8d583	0.08243849
44	0x3d980948	0.07423645
45	0x3ded56b5	0.11588804
46	0xbee2a871	-0.44269136
47	0xbec4ba2a	-0.38423282
48	0xbdf34398	-0.11878127
49	0x3e1db400	0.15400696
50	0x3e21e30a	0.15809265
51	0x3d9f4939	0.07777638
52	0xbcdbc2dd	-0.026826316
53	0xbda6dc67	-0.08147507
54	0xbe0ce773	-0.13760166
55	0x3e3b61a6	0.18298969
56	0x3e864baa	0.26229602
57	0xbc1019cb	-0.008795212
58	0x3ce01b06	0.027356636
59	0x3e267508	0.16255581
60	0xbe207ebc	-0.15673345
61	0x3e221aee	0.15830585
62	0xbcbff6a2	-0.023433033
63	0xbd2eb479	-0.04265258
64	0xbd3ab951	-0.045586888
65	0xbde0cc0c	-0.10976419
66	0xbcc1f492	-0.02367619
67	0xbf0f3b76	-0.55950105
68	0xbd733402	-0.05937577
69	0x3e7488e6	0.23880348
70	0x3b8eb329	0.0043548536
71	0xbe9aad95	-0.30210558
72	0x3c896761	0.016772928
73	0xbee501ed	-0.44728032
74	0x3e159cb4	0.14610559
75	0xbe2f6efa	-0.17132178
76	0xbe1f77e0	-0.15573072
77	0x3da59a93	0.08086123
78	0x3e0a83a6	0.13526782
79	0xbea56bf4	-0.32308924
80	0xbe07db59	-0.13267268
81	0x3dce1c24	0.10063961
82	0x3e5f075d	0.21780153
83	0x3e630b04	0.22172171
84	0x3d96a6ab	0.07356008
85	0x3cd7c414	0.026338615
86	0xbf129440	-0.5725746
87	0x3e416db8	0.1888951
88	0x3cff9f60	0.031203926
89	0xbdb53e2e	-0.088497505
90	0x3eb097ef	0.34490916
91	0x3dff816e	0.12475859
92	0xbe187fb3	-0.14892463
93	0x3d8bdee7	0.068296246
94	0xbe716cce	-0.23576662
95	0x3d15cbe4	0.0365714
96	0xbec01060	-0.37512493
97	0x3d0b9d56	0.034085594
98	0xbd305081	-0.043045525
99	0xbd1f569a	-0.03890095
100	0x3e6000a7	0.21875249
101	0x3dcbe400	0.09955597
102	0xbd7baeeb	-0.06144611
103	0xbe46cbfe	-0.19413754
104	0x3e4b9557	0.19881187
105	0xbc62a917	-0.0138342595
106	0x3cc6e498	0.024278924
107	0xbecb846d	-0.3974947
108	0x3e76c598	0.24098814
109	0x3e53573b	0.20638745
110	0xbce690a9	-0.028145151
111	0xbe3b4d28	-0.18291152
112	0x3e35aec0	0.17742443
113	0x3d5eb8c4	0.054375425
114	0xbcbedd1d	-0.023298794
115	0x3e30aca5	0.17253359
116	0x3deb81a2	0.11499335
117	0x3d188a9a	0.037241556
118	0x3d98ce56	0.074612305
119	0x3e97826a	0.29591686
120	0x3d1fdb1c	0.03902732
121	0x3cb2eb26	0.021840643
122	0x3deac196	0.11462705
123	0x3dacfa3e	0.084461674
124	0xbea44fd8	-0.32092166
125	0xbdd06ed3	-0.10177388
126	0xbe02eda3	-0.12785964
127	0xbdd86e47	-0.10567909
128	0x3d8c0a3c	0.068378896
129	0xbde2d55f	-0.110758536
130	0x3e2a441c	0.16627544
131	0x3e0a7143	0.13519768
132	0xbd53145a	-0.05153308
133	0xbc4940af	-0.012283488
134	0xbbf0d164	-0.00734918
135	0xbe762e0b	-0.24041001
136	0x3e747e13	0.23876218
137	0xbe10261b	-0.14077036
138	0xbd2ad066	-0.04170265
139	0x3da8c75a	0.08241148
140	0x3e3280ff	0.1743202
141	0x3e22bb49	0.15891756
142	0x3e673f83	0.22582822
143	0xbc1d3d15	-0.009597083
144	0x3d236d2e	0.039899044
145	0xbdf7eedb	-0.12106105
146	0x3ce80ce7	0.028326465
147	0xbd79707e	-0.060898297
148	0x3d5989de	0.053109996
149	0xbe890d5f	-0.26768014
150	0xbd8414a2	-0.06449248
151	0x3e38e288	0.18055165
152	0xbe27e6d6	-0.1639665
153	0xbde967bf	-0.11396741
154	0x3e32a4a3	0.17445616
155	0x3d884e57	0.06655567
156	0xbdf3aabc	-0.118977994
157	0x3e63eda6	0.22258624
158	0xbe91d606	-0.284836
159	0xbe2e561b	-0.17025034
160	0x3c6f302b	0.0145988865
161	0xbe4341f8	-0.19068134
162	0xbdcf0ede	-0.101102576
163	0x3d0b9c3d	0.034084547
164	0xbe1b286b	-0.15152137
165	0xbe861300	-0.2618637
166	0xbdc0d0ed	-0.094148494
167	0x3ec0a40a	0.37625152
168	0xbe6d8425	-0.2319494
169	0x3cbb6a61	0.022877874
170	0xbec70a4c	-0.38875043
171	0x3d146e68	0.036238104
172	0x3dcd3b2f	0.10021054
173	0x3d181496	0.037129007
174	0xbfa97e01	-1.3241578
175	0x3dd7ea66	0.10542755
176	0x3cd2eb5d	0.025746996
177	0x3df71f86	0.120665595
178	0xbdfe12e6	-0.12405948
179	0xbf245dd2	-0.6420566
180	0x3ea5a7b6	0.32354516
181	0xbe195eae	-0.14977524
182	0xbc1abf6c	-0.009445053
183	0xbd61178a	-0.05495409
184	0x3e56deb1	0.20983388
185	0xbc22f00e	-0.009944929
186	0x3e2353b1	0.15949894
187	0xbd2343e3	-0.039859664
188	0x3d660df8	0.056165665
189	0xbf2d11ba	-0.67605174
190	0xbe69b843	-0.22824197
191	0xbbf0839d	-0.0073399083
192	0xbe71bae7	-0.23606454
193	0xbeffc59c	-0.4995545
194	0x3cad1d7c	0.021132223
195	0xbd68f8f3	-0.05687804
196	0xbeb8b975	-0.36078992
197	0x3e773e2d	0.24144812
198	0x3d611e1c	0.054960355
199	0x3e780917	0.24222218
200	0xbee62768	-0.4495194
201	0x3e04e7cf	0.12979053
202	0xbe68595d	-0.2269034
203	0xbd85af06	-0.06527524
204	0xbd08e8d7	-0.03342518
205	0x3cc87752	0.024470959
206	0x3dac4828	0.084122
207	0x3d8ee7d2	0.0697781
208	0xbe0fe309	-0.14051451
209	0x3e058ce2	0.13042024
210	0x3e78a956	0.24283347
211	0x3e3d5d48	0.18492615
212	0x3c7a623f	0.015282213
213	0xbd264582	-0.04059363
214	0x3e4385b0	0.19093966
215	0x3d6c1f8e	0.05764728
216	0xbc90f12c	-0.017693125
217	0x3e248d8e	0.16069624
218	0xbf0e612b	-0.55617017
219	0x3df05507	0.11734968
220	0xbe08b7cb	-0.13351361
221	0x3dc54b8e	0.096335515
222	0xbd6d82f9	-0.057986233
223	0xbd926c0e	-0.07149516
224	0x3dc4b13a	0.09604116
225	0x3e4f36c0	0.20235729
226	0x3e8f8d8b	0.28037676
227	0xbe7557a9	-0.23959221
228	0xbe144105	-0.14477928
229	0x3d8cda58	0.06877583
230	0xbdb335dd	-0.08750508
231	0xbed6b696	-0.41936177
232	0x3e8e6738	0.27813125
233	0xba53f3f1	-0.00080853613
234	0x3e830322	0.25588328
235	0xbcf38a0f	-0.029728917
236	0xbddf0b60	-0.108908415
237	0x3da1fa6f	0.079090945
238	0xbd9673ad	-0.07346282
239	0xbe86dc47	-0.26339933
240	0xbc278f61	-0.010227055
241	0x3e4bd850	0.19906735
242	0x3e23fa5b	0.16013472
243	0x3e80f95f	0.25190255
244	0x3ddefe78	0.1088838
245	0x3cf7a6e4	0.030230947
246	0xbecc14e3	-0.39859685
247	0x3d5c5581	0.05379248
248	0x3e139750	0.1441319
249	0xbe9003fb	-0.28128037
250	0x3d953280	0.07285023
251	0x3e04a65a	0.12954083
252	0xbdf05b7a	-0.11736198
253	0x3e976cbe	0.2957515
254	0xbd74ec66	-0.05979576
255	0xbe342e13	-0.17595701

bias f4 [32]
0	0xbd5f8cfa	-0.054577805
1	0x3e0ba19e	0.13635871
2	0x3eb9cebe	0.36290544
3	0xbe97fdcd	-0.29685822
4	0x3e46c180	0.19409752
5	0xbf05272f	-0.52012914
6	0x3f2b221d	0.6684893
7	0x3f0828d8	0.5318732
8	0xbe6b1ba7	-0.22959767
9	0xbf0b1e1d	-0.54342824
10	0xbf04e5f5	-0.51913387
11	0xbdbb8fd4	-0.091582924
12	0xbe6bd35e	-0.23029849
13	0x3f00e0cd	0.5034302
14	0x3e99a1cd	0.30006257
15	0x3d9c69b4	0.07637349
16	0x389ff597	7.6274555e-05
17	0x3f201af1	0.6254111
18	0x3dae2373	0.08502855
19	0x3e9f7763	0.31145772
20	0xbe7348fa	-0.23758307
21	0x3e606384	0.21912962
22	0x3e624180	0.22095299
23	0x3ef7393d	0.48285857
24	0x3cf681d6	0.030091207
25	0xbeb967df	-0.3621206
26	0xbdc52f79	-0.09628195
27	0x3f1bddd1	0.6088534
28	0x3e4492c4	0.19196612
29	0xbed3c223	-0.41359052
30	0x3ef291e5	0.47376934
31	0x3eace764	0.33770287

weight f4 [16, 32]
0	0xbf05a079	-0.52197987
1	0xbe376aba	-0.17911807
2	0x3de8b4be	0.11362599
3	0x3e1e7c0e	0.1547701
4	0xbe459ee4	-0.19298893
5	0x3daf0989	0.085467406
6	0xbd7f14aa	-0.062275566
7	0xbe92744c	-0.28604352
8	0xbdedde03	-0.11614611
9	0xbe42c2f9	-0.19019689
10	0xbdb9e823	-0.0907748
11	0x3c4606e7	0.012086607
12	0xbdd6c563	-0.10486867
13	0x3a84795c	0.0010106969
14	0xbe3d4875	-0.18484671
15	0x3d5c61e1	0.053804282
16	0x3cf1b7eb	0.029506644
17	0x3e680f53	0.22662096
18	0x3ea94ad5	0.33064905
19	0x3d5fc3b8	0.05463001
20	0xbe44c9d2	-0.19217613
21	0xbd25433d	-0.040347327
22	0xbea33eea	-0.31883937
23	0xbe179764	-0.14803845
24	0x3e141ae3	0.14463381
25	0xbdb807f2	-0.089858904
26	0x3e0ec0a3	0.13940673
27	0xbebc5810	-0.36785936
28	0xbd894860	-0.067032576
29	0xbe59fb13	-0.21287183
30	0x3dbe3e0b	0.092891775
31	0x3c91ef0b	0.01781418
32	0xbe052390	-0.13001847
33	0xbced9d87	-0.029005779
34	0xbdaa2322	-0.08307482
35	0xbe97c83c	-0.29644954
36	0xbdfebc16	-0.12438218
37	0xbe0d4aff	-0.1379814
38	0x3ecb23ee	0.3967585
39	0x3e60e038	0.21960533
40	0xbe382051	-0.17981078
41	0xbf52fd4e	-0.8241776
42	0xbddacc3b	-0.10683485
43	0x3c6e447e	0.014542697
44	0x3d86b54e	0.0657755
45	0xbcf1b76d	-0.02950641
46	0x3da07949	0.07835633
47	0xbd996d40	-0.07491541
48	0xbdbd8592	-0.09253992
49	0x3ed09c7b	0.40744385
50	0xbe45be22	-0.19310811
51	0x3d9b22a9	0.0757497
52	0x3e1e74e5	0.15474279
53	0xbeb8db90	-0.36105013
54	0xbea1632e	-0.3152098
55	0x3e3252dc	0.17414421
56	0xbcbf9a77	-0.023389084
57	0xbe0bbc81	-0.13646127
58	0x3da5a7da	0.08088656
59	0x3e9813f3	0.2970272
60	0x3de70df4	0.11281958
61	0xbeaab020	-0.33337498
62	0x3e9f4de0	0.311141
63	0xbe6ee8f9	-0.2333106
64	0x3cdf3f84	0.027251966
65	0xbde83a5a	-0.11339255
66	0x3de77da3	0.1130326
67	0xbdd0913c	-0.10183951
68	0x3d76ca3d	0.060251463
69	0x3dd8bc92	0.10582842
70	0x3c073c0d	0.008254063
71	0x3ba3abf2	0.0049948627
72	0xbe30323a	-0.1720666
73	0x3e2e7387	0.17036258
74	0xbb938569	-0.0045019877
75	0xbe491137	-0.19635473
76	0x3e34db02	0.1766167
77	0xbe04a793	-0.1295455
78	0xbe15da0f	-0.14633964
79	0xbd7541eb	-0.059877317
80	0xbd533463	-0.05156363
81	0x3d097873	0.033562135
82	0x3e32aced	0.17448778
83	0xbe39ae9a	-0.18133011
84	0x3d7486d9	0.059698913
85	0x3e3f1bbc	0.18662924
86	0x3d466b5d	0.048442233
87	0x3d8ccdf0	0.06875217
88	0xbd050675	-0.03247686
89	0xbe33190a	-0.1749002
90	0x3cb7f04d	0.022453452
91	0x3d990d1d	0.07473204
92	0x3dc58797	0.09645002
93	0xbb6841fe	-0.0035439725
94	0xbc373ef4	-0.011184443
95	0x3d92083f	0.07130479
96	0xbdb10302	-0.08643152
97	0x3d5f6e3d	0.05454849
98	0x3eb444e7	0.35208818
99	0xbde459d3	-0.11149945
100	0x3e3e1669	0.18563236
101	0xbded5502	-0.115884796
102	0xbe2189b2	-0.15775183
103	0x3ea25362	0.3170424
104	0xbb6802b4	-0.0035402002
105	0x3d3b54b2	0.04573507
106	0xbdef0269	-0.116703816
107	0xbd3e3d44	-0.046445146
108	0xbca56abe	-0.0201925
109	0xbcc5310a	-0.024071235
110	0xbdd8ab0d	-0.105795
111	0x3e72eeb9	0.23723878
112	0x3e04deca	0.12975612
113	0xbe422baa	-0.18961969
114	0x3ddf5e20	0.10906625
115	0x3e6e0f77	0.23248087
116	0x3ec64d12	0.38730675
117	0x3e2ee2a5	0.17078646
118	0xbe219717	-0.15780292
119	0xbddd0e0c	-0.10793695
120	0xbd6e78c6	-0.058220647
121	0xbcde7970	-0.027157515
122	0xbd7b280a	-0.06131748
123	0x3e7e0f9c	0.24810642
124	0xbdc71177	-0.09720128
125	0x3c6cdadf	0.01445648
126	0xbd9f0992	-0.07765497
127	0xbdf4b8b0	-0.11949289
128	0x3dc555d9	0.09635515
129	0x3e0b913a	0.13629618
130	0xbe0a792b	-0.13522784
131	0x3d41ec60	0.047344565
132	0x3e2e7304	0.17036062
133	0x3de6ea42	0.1127515
134	0xbe7e00c8	-0.24804986
135	0x3e090ddd	0.13384195
136	0xbd8d8cd5	-0.06911627
137	0x3e533f35	0.2062958
138	0x3e09cfcf	0.13458179
139	0x3e27e84e	0.16397211
140	0x3ea5d16f	0.32386348
141	0x3e927ea0	0.28612232
142	0xbe6d814d	-0.23193856
143	0xbcc1ee2c	-0.02367314
144	0x3dcfd96f	0.10148894
145	0x3db54f2b	0.08852991
146	0x3f05aa35	0.5221284
147	0xbd6f6e25	-0.05845465
148	0x3f0d3ddc	0.55172515
149	0x3d70955a	0.058736183
150	0x3e33b168	0.17548144
151	0x3e59f030	0.2128303
152	0x3e43f7ab	0.19137447
153	0x3df0355c	0.117289275
154	0xbd70c29c	-0.058779344
155	0x3c4d6494	0.012536187
156	0xbe08ed0c	-0.13371676
157	0xbe1960ad	-0.14978285
158	0x3d956255	0.07294146
159	0x3e347242	0.17621711
160	0xbeee1ca9	-0.4650624
161	0xbe010485	-0.1259938
162	0x3db746ad	0.08949027
163	0x3ec4c6ef	0.38433024
164	0xbdb96f3e	-0.09054421
165	0xbf82eee3	-1.0229152
166	0x3de2ffca	0.11083944
167	0x3e523298	0.20527112
168	0xbc859251	-0.01630512
169	0x3da10d1a	0.07863827
170	0xbd9a6bbc	-0.0754008
171	0x3e4b8570	0.19875121
172	0xbc62a1c7	-0.013832516
173	0x3dee5740	0.11637735
174	0xbe2393b6	-0.15974316
175	0x3e939f41	0.2883244
176	0x3e970342	0.29494673
177	0xbda59ab8	-0.08086151
178	0xbea4b421	-0.32168677
179	0xbebe3b80	-0.3715477
180	0xbe8e8f82	-0.27843863
181	0x3c61c3cc	0.013779592
182	0x3ea113e1	0.3146048
183	0xbd47a584	-0.048741832
184	0x3e6b8442	0.22999671
185	0xbd045508	-0.032307655
186	0x3d04414e	0.032288842
187	0xbd3f4eee	-0.046706133
188	0x3e3fed39	0.18742837
189	0x3e0677e1	0.13131668
190	0x3e1ed346	0.15510282
191	0xbe0e4285	-0.13892563
192	0xbe91abdc	-0.2845143
193	0x3e8ef382	0.27920157
194	0x3eeae297	0.45876
195	0x3c714c94	0.01472773
196	0x3d363272	0.044481702
197	0xbe8da15c	-0.2766217
198	0xbd49053a	-0.04907725
199	0x3cc84a14	0.024449386
200	0xbdbd4545	-0.09241728
201	0xbe31833b	-0.17335217
202	0xbe1a4614	-0.15065795
203	0xbd803ad6	-0.06261222
204	0x3e82090c	0.25397527
205	0x3d9d5f1a	0.07684155
206	0xbe349f08	-0.1763879
207	0x3e0d484a	0.13797107
208	0x3cbb31f5	0.02285097
209	0x3e2303e2	0.1591945
210	0x3d78bb95	0.060725767
211	0x3e65f51c	0.22456783
212	0xbe5931cc	-0.21210402
213	0xbe6a7ed5	-0.22899945
214	0x3e0e0e6f	0.13872693
215	0xbe08781f	-0.13327073
216	0x3da4a98a	0.080401495
217	0xbdcfa44c	-0.10138759
218	0x3e451586	0.19246492
219	0x3e13fdf4	0.14452344
220	0x3d49a134	0.049226
221	0xbe84fba9	-0.2597325
222	0xbd8b90de	-0.068147406
223	0xbef6961d	-0.48161402
224	0x3c5edde4	0.013602708
225	0x3e94d3cc	0.29067838
226	0x3def4405	0.116828956
227	0x3e2aafc9	0.16668619
228	0x3dc2a8c4	0.09504846
229	0x3ed8c210	0.42335558
230	0xb9ee84b2	-0.00045493763
231	0x3e7680e2	0.24072602
232	0x3ee72155	0.45142618
233	0x3edf5465	0.43619075
234	0xbe625eab	-0.22106425
235	0x3e6741db	0.22583716
236	0x3dbfbfde	0.09362768
237	0x3ed9d0b2	0.42542034
238	0xbc08606f	-0.008323773
239	0x3dc3869a	0.095471576
240	0xbdf72a6d	-0.12068639
241	0xbeb1ce60	-0.34727764
242	0x3c76be43	0.01506001
243	0x3dd1e597	0.10248869
244	0x3eb37da0	0.35056782
245	0x3d1b2730	0.03787917
246	0x3e430828	0.1904608
247	0xbc9d2971	-0.0191848
248	0x3e4b2fa1	0.19842388
249	0xbe8ef227	-0.27919123
250	0xbc184f5a	-0.009296263
251	0xbd9e6b62	-0.077353254
252	0x3d843167	0.06454735
253	0x3edf5ae3	0.4362403
254	0x3e2944d2	0.16530159
255	0x3e1fe933	0.15616302

bias f4 [16]
0	0x3db7fd0b	0.08983811
1	0x3f305d04	0.6889193
2	0xbe23cffc	-0.15997308
3	0x3e4e1a5e	0.20127246
4	0xbe7a8b2f	-0.24467157
5	0x3e3c3faa	0.18383661
6	0x3f0206a8	0.50791407
7	0xbf0536b7	-0.52036613
8	0x3e9e716a	0.30945903
9	0xbd88d849	-0.06681878
10	0x3e874adb	0.26424298
11	0xbd9daf5b	-0.07699462
12	0xbe749e83	-0.23888592
13	0xbe9dd874	-0.30829203
14	0x3e8560ee	0.26050514
15	0xbe1c785f	-0.15280293

weight f4 [6, 16]
0	0x3d9d5221	0.076816805
1	0x3dc608c8	0.09669644
2	0x3c95659d	0.01823693
3	0x3e4f6e3d	0.20256896
4	0x3d581486	0.052753948
5	0x3e5aeec0	0.21380138
6	0xbe2141bb	-0.1574773
7	0x3cbe92f3	0.02326343
8	0xbe71f50c	-0.23628634
9	0xbe6542f3	-0.2238882
10	0xbe6fb475	-0.23408683
11	0xbee80999	-0.45319822
12	0x3d948985	0.07252792
13	0xbec3a5a9	-0.38212326
14	0xbe2ae60b	-0.16689317
15	0xbcf870a7	-0.030327154
16	0xbe8f08a6	-0.27936286
17	0x3c253423	0.010083231
18	0xbe2dcaca	-0.16971889
19	0x3e6912f6	0.2276114
20	0xbe231d18	-0.15929067
21	0x3e47c1d0	0.19507527
22	0x3ebc5205	0.36781326
23	0xbe3aaa9b	-0.18229143
24	0xbf5f7c89	-0.872994
25	0xbd964796	-0.07337873
26	0x3ee3791f	0.44428346
27	0x3b1f091f	0.0024266911
28	0xbd871f57	-0.065977745
29	0x3e9940cb	0.29932246
30	0x3dae8ccb	0.08522948
31	0x3bbd4e71	0.005777173
32	0x3ede8908	0.43463922
33	0xbf1b6532	-0.60701287
34	0x3e0bd176	0.13654122
35	0xbe440a30	-0.19144511
36	0x3de23979	0.11046118
37	0xbebc4a85	-0.36775604
38	0xbe302ef1	-0.17205407
39	0x3c3bf57d	0.011472103
40	0xbe3386e2	-0.17531922
41	0x3e19872f	0.14992975
42	0xbebf0483	-0.3730813
43	0x3e984646	0.29741114
44	0xbd88b5f0	-0.06675327
45	0x3e0e7e3b	0.1391534
46	0x3e027548	0.12740052
47	0x3e79f680	0.24410439
48	0xbe75995e	-0.23984286
49	0x3db25dbe	0.08709286
50	0xbe4aa28e	-0.19788572
51	0xbd713d9c	-0.058896646
52	0xbe874db4	-0.2642647
53	0x3e9cf07c	0.30652225
54	0xbef80bca	-0.48446494
55	0x3e6d0a2d	0.23148413
56	0x3ee8cc63	0.45468435
57	0xbd600220	-0.054689527
58	0xbedaaa02	-0.4270783
59	0x3e99cecf	0.30040595
60	0x3e1b579d	0.1517014
61	0x3ec20709	0.37895992
62	0xbd048106	-0.03234961
63	0xbef7490b	-0.48297915
64	0x3eec8fe4	0.4620353
65	0xbe83bf1b	-0.2573174
66	0x3defb499	0.11704368
67	0xbf086531	-0.53279406
68	0xbeacf416	-0.33779973
69	0x3e968b07	0.29402944
70	0x3bce469f	0.00629504
71	0xbec6cd65	-0.3882858
72	0xbe2aa6cc	-0.1666519
73	0x3e169d26	0.14708385
74	0x3ee92898	0.45538783
75	0x3ef4bb25	0.4779903
76	0xbd1836e2	-0.037161715
77	0xbf029023	-0.51001185
78	0xbf051761	-0.519888
79	0xbe0d3723	-0.13790564
80	0xbd49875c	-0.049201354
81	0x3f41af60	0.75658226
82	0x3e3dec8e	0.1854727
83	0xbded4584	-0.11585525
84	0xbf15881a	-0.584108
85	0xbedaee9c	-0.4276017
86	0x3e329917	0.17441212
87	0xbfbdaf87	-1.4819192
88	0x3f45da07	0.7728581
89	0x3d68d0fd	0.05683993
90	0x3ec496fd	0.38396445
91	0xbe6f22a4	-0.23353058
92	0x3d1cbdb3	0.03826685
93	0x3df26f0e	0.11837588
94	0x3d92fe19	0.071773715
95	0xbee4efbe	-0.4471416

bias f4 [6]
0	0xbc0e6840	-0.008691847
1	0xbdb7b965	-0.08970908
2	0xbe1f04ba	-0.15529147
3	0xbe2973f2	-0.16548136
4	0xbe14e45a	-0.14540234
5	0x3ef83607	0.4847872
