src/learning/models/train1_touch_wider_tanh.pt (torch, 8727 bytes, 6 tensors)

weight f4 [32, 6]
00000000: 0968 a83e 348a 40bd dc0e 54bb 170a 80be
00000010: c0b3 0fbc d4be 9ebe 377b 8a3b 8704 613a
00000020: 10ef 91bd e78c 0cbe 4e39 8a3f 0a04 45bf
00000030: 3352 9f3e 93ef 703e a7b0 003e ab31 0a3e
00000040: fd92 01bf c28d 21bf 1be8 ba3e 7615 2a3d
00000050: 1426 e5bd 6eeb 8bbe 441c 39be 62d9 1a3f
00000060: 6567 b03b fdc0 93bd a53e 803d 34cf 26bf
00000070: 1b26 06bf d3f6 373e 27cf e0bd e449 dd3e
00000080: f24b a63e 028d 8bbb fb50 a23d c3b3 633f
00000090: ba02 3f3d 873e c1be f43b 113d f76f 9fbe
000000a0: b8e9 b2bc b77d 22bf 2ecc 0b3e 8f20 81be
000000b0: f8e8 323e e753 c83e b46d d2be 9b5f ad3d
000000c0: 69ae a23e eeef 80be 2f06 16be 8b82 a4be
000000d0: 47e0 e9be c0b1 70be 8281 953e a4ac f53d
000000e0: 893a 793e 5dee 483e af7b 98be 666f 143e
000000f0: 71b1 a0bd 7506 d63d c9e2 063f fc34 e43e
00000100: 7796 17bf 24f9 563e 4848 0fbf 7c82 133e
00000110: 7610 b23e c7fa e23e f91e 9fbc d9c0 993d
00000120: 69ef 4a3e e162 733f 84e1 003e 3dc8 26bf
00000130: 8aa4 c5be 84bd 423d e193 abbd 98ac ff3e
00000140: da90 793d d10f 69be ec9b 36be 38d2 7a3f
00000150: b78b ccbe c133 053e 2718 dd3e 208a d83d
00000160: 1d1a 48bf 5f41 e43e b680 06be d5a2 2fbd
00000170: a81b 20be ae65 c0bd bfe9 03bf 65a8 793f
00000180: 4854 87ba 6263 233f 16c6 f53d 6d96 403e
00000190: ecef a4be 9ed5 1fbf a472 243e 01ed aebe
000001a0: 50e9 903e d5da f43e 9e83 79be 380f b2be
000001b0: 3ee9 343e f7e2 01bf dae4 8c3e c27b 24bf
000001c0: b69e d8be 5532 053f a427 7cbf f62f dd3d
000001d0: 8b3e 1c3e f612 443e 4083 2cbf c50e cbbd
000001e0: ea14 dfbd cf31 143f 4e64 b43d e581 ebbe
000001f0: 5574 f03a f1cb f0bd c08d debe 3623 b23d
00000200: 118b a7be c72c 06bf 980e 0ebe 7ef9 6bbf
00000210: 1a93 a4be cc0b 76bd e6c5 bebe 275b bbbd
00000220: 5f64 143f 473d 0ebf 6c77 acbd ba81 933e
00000230: 07cf 453f 3474 a4be 398b 84be 2e20 183f
00000240: 5eaa 9939 ee7e 83be a9e0 7c3c d328 a7be
00000250: e981 233f 4754 503e 0be8 36be e2ca 51be
00000260: bc92 613d fb81 0bbf 67d0 ef3e 71f2 843f
00000270: cafe 2ebe c55c a63e d36c be3c 92d4 e3bd
00000280: b3f7 b6be 5042 bd3e 9944 8cbc a8b7 ac3c
00000290: 4ffa 25bd 64ab 84bc 7d2e 6c3f 5dc8 67bf
000002a0: 96e6 103f b316 c7be b0a1 1fbe bd6e 70be
000002b0: 48d7 99bd 417b 3e3e c041 5d3e 9e63 1fbe
000002c0: 20eb 49be 38e3 073f ad10 f9bd e2aa 093f
000002d0: 6332 a3be 356b dd3e bfc7 0c3f 9dcd a43e
000002e0: fa27 ae3e 3ba9 6dbe 4eab ea3d 9124 b83e
000002f0: d327 ba3e 8078 e1bd c180 43be 1299 7dbf
0.32891873 -0.0470068 -0.003235749 -0.25007698 -0.008770883 -0.31004965 0.004226114 0.00085837435
-0.07125676 -0.13725625 1.0798738 -0.7695929 0.311174 0.2352889 0.12567388 0.1349551
-0.5061491 -0.6310693 0.36505207 0.041524373 -0.111889035 -0.27328056 -0.18077189 0.6048795
0.0053834193 -0.07214544 0.062619485 -0.65159917 -0.52401894 0.1796525 -0.10977011 0.43220437
0.32479817 -0.004258753 0.07925602 0.8894617 0.04663346 -0.37743017 0.035457566 -0.3114011
-0.021839961 -0.63473076 0.13652107 -0.25220153 0.17471683 0.39126512 -0.41099322 0.08465501
0.3177369 -0.25183052 -0.14650796 -0.32130846 -0.45678923 -0.23505306 0.2920037 0.11995819
0.24338736 0.19622178 -0.29781863 0.1449562 -0.07846344 0.1045045 0.52689797 0.44571674
-0.59213966 0.20993477 -0.5596967 0.14405245 0.34778184 0.44331953 -0.019423949 0.07507486
0.1981789 0.9507275 0.12586027 -0.6514929 -0.38602096 0.047544017 -0.08377815 0.49936366
0.060929157 -0.2275994 -0.17832917 0.9797702 -0.39950344 0.13008024 0.4318249 0.1057322
-0.78164846 0.44581124 -0.13135037 -0.042879898 -0.1563555 -0.09394394 -0.51528543 0.97522575
-0.00103248 0.6382352 0.120006725 0.18807383 -0.32214296 -0.6243533 0.16059357 -0.34165195
0.28303003 0.47823206 -0.24366614 -0.34777236 0.176671 -0.50736946 0.2751835 -0.6425134
-0.42308587 0.52029926 -0.98497987 0.108001634 0.15258233 0.19147858 -0.6738777 -0.099149264
-0.10892661 0.578885 0.08808194 -0.4599754 0.0018345217 -0.11757649 -0.43467522 0.08698122
-0.32723287 -0.52412075 -0.13872755 -0.9217757 -0.3214348 -0.060069844 -0.3726036 -0.09148245
0.57965654 -0.5556225 -0.084212154 0.2880991 0.77269024 -0.32119906 -0.25887468 0.594241
0.00029309368 -0.25682777 0.0154344225 -0.32648334 0.638701 0.2034465 -0.17861955 -0.2048755
0.055071577 -0.5449521 0.46838686 1.0386487 -0.17089382 0.32492653 0.02324525 -0.11124529
-0.35735855 0.36964655 -0.017122554 0.021083668 -0.040521916 -0.016195007 0.92258435 -0.90540105
0.56601846 -0.38884506 -0.15589023 -0.23479743 -0.07511765 0.18601705 0.21607113 -0.15565345
-0.197186 0.53081083 -0.12161384 0.5377637 -0.3187438 0.43245855 0.5499229 0.3218812
0.34014875 -0.23209088 0.11458455 0.35965398 0.36358508 -0.11009312 -0.19092084 -0.9906169

bias f4 [32]
00000000: 8a96 9a3e a687 17bd e187 14be d98f f0be
00000010: 277e b73e a0d1 aa3d 95c4 333f 30fc 9a3e
00000020: 75a1 733b eb29 db3d a66d 45be c71c 4bbe
00000030: 74e3 173e c845 8d3e 9938 383f 5077 94bd
00000040: aa7e 6b3e 18d0 80bd 2f7b 24be 9683 6c3e
00000050: 2df3 093f 1b53 823d a555 5ebf 3b4e 2abe
00000060: e79d 033d d5f1 0ebf 17a6 4b3a 9b73 c73e
00000070: 4460 abbe 86dd 4b3e 872f 91be 9cf5 83bd
0.30192977 -0.0369946 -0.14504959 -0.46984747 0.35838434 0.08340764 0.70221835 0.3027053
0.0037175093 0.107013546 -0.19280109 -0.19835196 0.1483286 0.275923 0.7196136 -0.072493196
0.22997537 -0.06289691 -0.16062616 0.23097071 0.5388668 0.06363507 -0.86849433 -0.16631405
0.03213301 -0.55837756 0.0007768585 0.38955387 -0.33471882 0.19908723 -0.28356573 -0.06443331

weight f4 [32, 32]
00000000: 27c4 d73d 7c66 0dbf 766b 503e 48a4 e23d
00000010: 5670 843e 67d9 1c3f 7d70 c6bd fc0c cdba
00000020: 29ea a6bd 0d4a 97be 52fb 863e cffa 8dbd
00000030: c3a5 f93d 8d17 873e ea1f 8ebd ab7e e53d
00000040: de74 193f 844e 43be ec3a d83d ef38 4cbe
00000050: b9ea a73e cac5 4abd b32f 92be 998a 533f
00000060: 12f2 20bf 9f4b b83c 1e55 bd3e 9d23 22bf
00000070: 5f86 333e 84b0 3abe 44b3 dc3d 6577 af3d
00000080: c98a 233d 010f 3cbe b237 743e 4327 753e
00000090: d98e a23e 0419 edbc b688 2a3e 9c25 83bd
000000a0: 4075 f7bd fef0 593e 2e20 e23e e178 f63b
000000b0: 034e 61be 0a48 ff3d 1651 07bd 58f7 853e
000000c0: 8f91 82be 2e52 86bc 8c90 923e d059 e13d
000000d0: 2f6e 383d 432d 0ebe e324 87be e1f5 e83e
000000e0: 5ba1 a2be 1d60 743c 7b00 be3d 1c3c a8be
000000f0: db97 9fbd 37c2 a7be d88a a03d 29aa 403e
00000100: 1e6e e33d f967 1d3f 0685 e73d 577e b6bd
00000110: c242 bfbe eb29 8dbe 4452 6cbe 3c40 72bd
00000120: 8ca4 843e 01da 533d 6d3a 5a3e e7b7 0cbe
00000130: 1aa5 c23e 9dc3 a3be e2ad 993d 750e 46bc
00000140: fffd 2bbd 86d9 343d 9447 23bb e3aa bfbe
00000150: 730a 22bc 8b0e 193e 241e a63d 1e6e 1f3e
00000160: f7b8 873e a940 363e 68ef 11be 6206 073f
00000170: 2944 a83d cfca 223e 7484 6fbe e51f d3bc
00000180: 13af ac3d 4751 e1bd d516 1dbd f7b5 743e
00000190: e60c 863d 191e 083e c87f d43e ab4d 39bd
000001a0: 9e80 8ebd 6248 adbe 35ef 84be 754e c1bd
000001b0: 54ea 243e 842f 3b3e 87be 093c cc46 f4bc
000001c0: eb10 3bbe 9ba7 f53d cced 90be c35a 27be
000001d0: 45ef ab3e 2f99 403c edc1 adbe 4a76 29be
000001e0: 4dfe 303f ce68 df3d 836d 923e 0f96 afbe
000001f0: ed2b 24bd 065e a63d 135d ff3d 89b9 a2bd
00000200: 99eb 57be 1a4a 94be 4f54 83be bc00 533e
00000210: 2777 02be 6f1d b63e c07f dabb 28ce 773d
00000220: 2c6b 9bbe ce2f 19be 3503 f0be 3461 58bd
00000230: 6425 a73d 056a 993c 6848 55be 0eec 1d3e
00000240: bc31 2bbe 6e64 883e 7c0a 6fbe 1047 323d
00000250: 76f8 383e 5cac fbbd feb3 27b9 9171 c53c
00000260: abb5 81be 3024 013e 0098 44bd a251 7abe
00000270: 1edf 4f3e 80b9 723e 05ca 14be 80f8 81be
00000280: cfed 603b cc01 d3be 1874 71be a8f7 28bc
00000290: 05f6 623e 419d 463e e371 1b3e ce02 94bd
000002a0: cc7d 073b a018 8fbe 1794 f5bd 92ca 81be
000002b0: 518f 7dbe 6e97 74bd 6a04 103d eb21 8c3e
000002c0: 1b91 80be 9934 4ebe 7e46 9cbe 356f 343d
000002d0: ed1e 82be d863 53be 0723 6e3e 25e4 df3e
000002e0: 4311 c6b9 ed6f 8abd 82a0 f8bd 5494 03bf
000002f0: 6010 e83d a6e0 1ebd 13ef 9bbd 2bc1 1abe
00000300: a472 f13d 7a12 13be 185b 023d c2a5 aabe
00000310: d2fa 93bc 904d 5b3d 7789 37bd d2b2 3f3d
00000320: fea3 bb3d 56d4 d7bd 9083 2d3f ad9e 813d
00000330: 3f95 9cbd ff0c cabc c871 b3bd 837d 6c3e
00000340: c5cd 70be c4fa 92bd b0b5 87bd dd18 f9bd
00000350: 48e1 3ebc 8bdc cebc fde4 a2bc e189 b53e
00000360: 0e6d cbba 71de 8e3d 0176 98bd be6f 37be
00000370: 11d6 593e 5d17 46be c214 d7bd fd4c 603d
00000380: d20b f13e 8213 69be cfc4 b63d a9e5 863e
00000390: b70f 053e 8cc7 133e 7a59 1c3e 4153 20be
000003a0: 5181 273e 854e 093e 9b07 ecbc ea3b d8bc
000003b0: 2c29 1ebe dff3 6e3d 97cd 313e 78f8 21be
000003c0: 1644 58be 1191 52be 866d e8be c7f6 63be
000003d0: e581 c83e 0fd5 22be 6579 1a3d ca66 673e
000003e0: a655 883e 65f1 92be ed75 f1bc 677a 31be
000003f0: 43fb c83c ecc2 acbd b4ba 033d 005e 263d
0.1053546 -0.55234504 0.20353493 0.110664904 0.25866956 0.6126923 -0.09689424 -0.0015644128
-0.08150131 -0.29548684 0.26363617 -0.069326036 0.1218982 0.26385155 -0.06939681 0.112058006
0.5994395 -0.1907292 0.105581135 -0.19943593 0.32796267 -0.049505033 -0.28552017 0.8263336
-0.6286937 0.022496996 0.36979002 -0.6333559 0.17531727 -0.18231398 0.1077638 0.085676946
0.039927278 -0.18365099 0.23849371 0.23940758 0.3174961 -0.028942592 0.16653714 -0.06403658
-0.120829105 0.21283337 0.44165176 0.007521734 -0.22002415 0.12464912 -0.033036314 0.2616527
-0.25501677 -0.016396608 0.28625906 0.110034585 0.045026954 -0.13884453 -0.2639533 0.4550009
-0.3176373 0.014915493 0.092774354 -0.3285836 -0.07792636 -0.32765362 0.07838982 0.18814911
0.111049876 0.61486775 0.11304669 -0.08910816 -0.3735562 -0.27571043 -0.23078257 -0.05914329
0.2590679 0.051721577 0.2131135 -0.13742028 0.38016587 -0.3198518 0.07503869 -0.012088408
-0.041990276 0.04415276 -0.002491449 -0.37435064 -0.009890187 0.14946954 0.081112176 0.1556935
0.26508304 0.17798103 -0.14251482 0.52744114 0.082161255 0.15897678 -0.2339037 -0.025772044
0.0843183 -0.110018305 -0.038351852 0.23897539 0.06545429 0.13292731 0.4150374 -0.045240086
-0.069581255 -0.33844286 -0.2596375 -0.094387926 0.16105014 0.18279845 0.008407242 -0.029818915
-0.18268172 0.11994859 -0.28306425 -0.16343217 0.33580986 0.011755272 -0.33937016 -0.1654903
0.6913803 0.10908662 0.28599176 -0.34294173 -0.040080953 0.08123402 0.124689244 -0.07945544
-0.21085967 -0.28962785 -0.2565026 0.20605749 -0.12740766 0.3556933 -0.006668061 0.06049934
-0.30355203 -0.14959642 -0.46877447 -0.052827075 0.081614286 0.018727312 -0.20828402 0.15422079
-0.16718191 0.26639122 -0.23343843 0.0435248 0.1806353 -0.12288734 -0.00015993413 0.024102004
-0.25333914 0.1261146 -0.04799652 -0.24445203 0.20299956 0.23703575 -0.1453019 -0.25384903
0.0034321432 -0.41212308 -0.23579443 -0.010312952 0.22164162 0.19395925 0.15180163 -0.072270975
0.0020674346 -0.27948475 -0.119911365 -0.2534986 -0.24761702 -0.059714727 0.03516046 0.27369627
-0.25110707 -0.20137252 -0.3052253 0.044051368 -0.2541422 -0.20643556 0.2325555 0.43728748
-0.00037778364 -0.067596294 -0.121399894 -0.51398206 0.11331248 -0.03878846 -0.07613959 -0.1511275
0.11789444 -0.14362517 0.031825155 -0.33329588 -0.018063936 0.053540766 -0.04480883 0.046801396
0.091621384 -0.10538547 0.67778873 0.06329093 -0.07645654 -0.0246644 -0.087619364 0.23094754
-0.23515995 -0.07176736 -0.06626451 -0.121629454 -0.011650391 -0.025251647 -0.01988458 0.35456756
-0.0015520172 0.06976021 -0.074443825 -0.1791372 0.21273066 -0.1934485 -0.10502006 0.05476092
0.4707933 -0.22761348 0.08924257 0.26347092 0.12994276 0.1443159 0.15268508 -0.15656759
0.16357924 0.13408859 -0.02881222 -0.026395757 -0.15445393 0.058338042 0.17363583 -0.1581744
-0.21119723 -0.20563151 -0.4539606 -0.22262107 0.39161602 -0.15901588 0.037713427 0.22597805
0.26627845 -0.28699794 -0.029475177 -0.17331849 0.024533873 -0.08435616 0.032160476 0.04061699

bias f4 [32]
00000000: 8669 5f3e 9fe3 193d 0130 83be 667a 52bb
00000010: 8da2 513c 369e 9b3e 51a7 e03d 5172 d73d
00000020: 2aa5 67be 888b e73d a226 713e 664b 71be
00000030: 090a d0bd 3f3b 91bd e660 67bd dc88 08be
00000040: 23b6 403e a68e 00be 89b5 2f3e c615 583e
00000050: 377d 3ebe 8d31 0d3f 77a6 15be ae62 223c
00000060: 04ab 65be f9bf ba3e c631 9cbe 42be 1cbe
00000070: 0a4e 9c3d 7e48 bd3c 92d0 cebe 9327 ce3c
0.21817598 0.037570592 -0.25622562 -0.0032116412 0.012795103 0.30394143 0.10969413 0.10519851
-0.22621599 0.1130591 0.23549893 -0.23563918 -0.10158164 -0.070913784 -0.056488894 -0.13333458
0.1881948 -0.12554416 0.17159094 0.21102056 -0.18602453 0.55153733 -0.14614283 0.009911222
-0.22428519 0.3647459 -0.30506724 -0.15306953 0.07632072 0.023105856 -0.40393502 0.025165355

weight f4 [6, 32]
00000000: 4279 b53e cbfa 1bbe 751b f9bd 3725 3a3f
00000010: da59 0e3f 63b9 2e3c 5c15 97be 4434 f93d
00000020: 8419 58be fbff 5a3d deeb 12bd 4c00 5f3e
00000030: 99e3 fd3d 5c7b d03e a931 c7be ccd5 eabe
00000040: 25c5 25be 870d 23be be9c c3bd 326d 063f
00000050: b938 44be 7c2d 47b8 8a08 c63e 2f21 053f
00000060: df79 993d b753 01be c1bc b1bd 08f5 babe
00000070: d529 5b3e 1220 d5be e8e8 c83e a7be a93e
00000080: 9376 5cbe 67d5 853e 9b86 83be 7fe9 d0be
00000090: 3a0e 043d b47b 963e 559d a73d 7a66 32be
000000a0: 3123 b3be 5723 993e ac25 c03e 898f d3be
000000b0: c8b0 bdbe 142c b5be 54f6 66bd 8c0e ccbc
000000c0: 6ce6 e13e 3f4e 173e fedc 453e bc34 be3c
000000d0: 34cd d8be 3677 5b3e 7bfb c1be fc12 8c3e
000000e0: 9b35 67be 0721 e43d 4c4f 69be 9dab 29be
000000f0: 25c5 6a3e f5f2 d53d 1ce1 ddbe 1c6e 82be
00000100: f5b7 943e eed3 333e ed41 133e 841e 363d
00000110: e009 8ebe f42d 7d3c 775d 003e cc82 173f
00000120: aae5 ba3e da80 e23e 3477 5dbe be8b 2abe
00000130: afaa 9fbd 8d21 9c3e 29c8 db3e 03c6 9b3e
00000140: 01c4 b23e 7aeb aa3e bb0d 7c3e 6360 393d
00000150: 4d46 b93e 4f2a f43d 1a10 60bd a352 13bf
00000160: bd01 0bbd a9da 733e 4e1d de3e 04e0 ae3e
00000170: 7b82 29bf 5a9d 983e bd27 623e 3abe 073e
00000180: 5c54 08bf 7b5b 03bf 96eb b8bd c81c 903d
00000190: 12fd 04bf 67d9 29be 2866 193e 6a01 5fbd
000001a0: 544b 4c3e 9f0b a6be 0d57 29be 5ff2 c73e
000001b0: b0b8 1f3f c856 04be 62d0 e6bd 59fd 64be
000001c0: d4d5 58bf ce25 02be be3f 8ebe 0a7b 4abe
000001d0: 1506 5cbd 44a7 483e 6a0e 02be b41d 9ebd
000001e0: af2e 7dbc 4bee 59bd 1082 5fbe 7039 173f
000001f0: 579a 05be 4809 093f 0539 98be b0e0 be3c
00000200: 3ed9 16bb fef2 db3d 571c 3c3f 7fa7 4bbe
00000210: 4541 a0bd a004 30bf d815 bd3e c058 6bbf
00000220: 4802 193f 7d98 d9be fd12 e7be 5214 ad3e
00000230: a1fa b03e 9a20 14be 4321 95be 37b4 f7be
00000240: 5af0 42bf d401 b93e 25cc fcbe d78f 0abf
00000250: 7f41 e93e e892 9abf c250 373f 061c 023d
00000260: 22a9 d83e c249 2abe 0d9a f13e 6d61 433d
00000270: 1a0f 3f3c 3c8c 28be 2060 f13e 7224 a63e
00000280: 6dfe 0ebf 9fa2 223b bbb3 e63e 040a ea3e
00000290: 9070 73be b373 f2be f89e 84be 2935 3fbe
000002a0: 9753 033f 141f 08bf 18ec 043e 263d 973e
000002b0: 7592 aebd 394b 64be ba8c dd3e 4ef0 343f
000002c0: 092d a13e d504 823e 1503 1cbf 9d5e 4bbf
000002d0: 9f9d 943e 2752 11bf 4151 01bd 93d8 b3be
000002e0: 8d4b 033f 1e30 74bf 43cf 41be b28e debd
000002f0: 5e53 d93e b3c0 d6ba 5a5f 903e f6b7 b43d
0.35444075 -0.15232389 -0.1216344 0.72713035 0.5560585 0.010664317 -0.29508483 0.12168172
-0.21103483 0.05346678 -0.03586947 0.21777457 0.123969264 0.40719116 -0.38905075 -0.4586624
-0.16188486 -0.15923129 -0.095513806 0.5251037 -0.19162263 -4.7487658e-05 0.3867839 0.5200376
0.07493948 -0.12629591 -0.0867858 -0.3651507 0.21402676 -0.4162603 0.39240193 0.3315327
-0.21529607 0.26139376 -0.25688633 -0.40803143 0.03224013 0.29391253 0.081843056 -0.17421904
-0.34987786 0.29909775 0.3752874 -0.41320446 -0.37048936 -0.3538519 -0.05638726 -0.02490928
0.4412111 0.14775942 0.19322583 0.023218505 -0.42344058 0.21432194 -0.37887177 0.27358234
-0.22579043 0.11139112 -0.22784156 -0.16569372 0.22926767 0.10446731 -0.43335807 -0.25474632
0.29046598 0.17561314 0.14380617 0.044462696 -0.2774191 0.015452851 0.12535654 0.59183955
0.36503345 0.4423893 -0.21627504 -0.1665487 -0.07796227 0.30494347 0.42926148 0.30424508
0.34915164 0.3338278 0.24614613 0.045257937 0.36186448 0.11922132 -0.054702856 -0.5754797
-0.033937205 0.23813881 0.43381733 0.34155285 -0.6621472 0.2980755 0.22085471 0.1325616
-0.5325372 -0.51311463 -0.090293095 0.070367396 -0.51948655 -0.16586839 0.14980376 -0.054444708
0.1995061 -0.3243074 -0.16537113 0.39052102 0.62391186 -0.1292373 -0.112702146 -0.2236227
-0.84701276 -0.12709734 -0.27783006 -0.19773498 -0.053716738 0.19595057 -0.12700811 -0.07720509
-0.015453025 -0.05320577 -0.21826959 0.5907202 -0.13047157 0.5352979 -0.29731002 0.023300499
-0.002301767 0.107397065 0.73480743 -0.19888113 -0.07824949 -0.6875706 0.36930728 -0.91932297
0.59769106 -0.42499152 -0.45131674 0.33804566 0.34566215 -0.14465562 -0.2912694 -0.4837968
-0.76148 0.36134207 -0.493745 -0.5412573 0.45557782 -1.2076082 0.716076 0.031765006
0.42316538 -0.16629699 0.47187844 0.047700334 0.011661315 -0.16459745 0.4714365 0.3244968
-0.5585697 0.0024816168 0.45058998 0.45710766 -0.23773408 -0.47353896 -0.25902534 -0.18672623
0.5129942 -0.5317242 0.12980688 0.2953884 -0.08524028 -0.2229432 0.43271428 0.70679176
0.31479672 0.25394312 -0.609422 -0.79441243 0.29026505 -0.5676598 -0.03157163 -0.3512617
0.51287156 -0.9538592 -0.1892672 -0.10867061 0.42446417 -0.0016384333 0.28197747 0.0882415

bias f4 [6]
00000000: 6b0d f43c 8ab3 8cbd 73b1 babc 46d2 c53d
00000010: 0875 f7be 1c3b 09be
0.029791554 -0.06870182 -0.022789693 0.09659247 -0.48331475 -0.13401455
