src/learning/models/train1_touch_deep.pt (torch, 7567 bytes, 8 tensors)

weight f4 [20, 6]
0	0x3e974312	0.29543358
1	0xbe1dfb5b	-0.15427916
2	0xbd92dc4f	-0.07170927
3	0xbee3ac94	-0.44467604
4	0xbf56f42c	-0.83966327
5	0x3def9c12	0.1169969
6	0x3d3512d0	0.044207394
7	0xbf030ee5	-0.511946
8	0x3e234992	0.15946034
9	0xbecdea96	-0.40218037
10	0x3ec03d5e	0.3754682
11	0xbd8bb9dc	-0.06822559
12	0x3df46a15	0.11934296
13	0xbc83a320	-0.016068995
14	0xbda163e8	-0.07880384
15	0x3f273536	0.6531557
16	0x3eca445d	0.39505282
17	0xbe426b21	-0.18986179
18	0xbe96eac4	-0.29475987
19	0xbe14525d	-0.14484544
20	0xbf4e02f7	-0.80473274
21	0xbd817454	-0.06321016
22	0xbf537958	-0.8260703
23	0xbdf44883	-0.11927893
24	0xbea9b548	-0.3314612
25	0xbe173016	-0.14764437
26	0xbd3c4561	-0.045964602
27	0xbf14de6f	-0.58151907
28	0x3ea40d9d	0.32041636
29	0x3f31cc63	0.69452494
30	0x3eab277b	0.3342856
31	0xbeb68f23	-0.3565608
32	0x3d8989ad	0.06715713
33	0xbe74a9db	-0.2389292
34	0xbf2c7753	-0.67369574
35	0x3d6354ed	0.055500913
36	0x3d887f24	0.06664875
37	0xbecc3a14	-0.3988806
38	0x3dc8eb86	0.098105475
39	0x3eda7066	0.42663878
40	0xbe10a2c3	-0.14124589
41	0x3f64fa84	0.89444757
42	0x3e27b56b	0.16377799
43	0x3ebdadeb	0.3704675
44	0xbe901858	-0.28143573
45	0xbe017851	-0.12643553
46	0xbf104f6a	-0.56371176
47	0xbf746184	-0.954613
48	0xbe3377c6	-0.17526159
49	0xbbab3d6b	-0.0052258275
50	0x3ead3ba1	0.33834556
51	0x3e0db20b	0.13837449
52	0xbf3825c6	-0.7193264
53	0xbea741e8	-0.3266747
54	0xbeb7469d	-0.3579606
55	0xbd4d3092	-0.05009515
56	0xbd6f0cbc	-0.058361754
57	0x3e8142c8	0.25246263
58	0xbeee3714	-0.46526396
59	0x3e3b1b82	0.18272212
60	0x3e7e1f9b	0.24816744
61	0xbea19a9f	-0.3156328
62	0xbe28b934	-0.164769
63	0xbe7003d6	-0.23438963
64	0x3f4cb640	0.7996559
65	0xbf13b578	-0.57698774
66	0x3e23cfe4	0.15997273
67	0xbec45f29	-0.3835385
68	0xbeb58fcd	-0.35461274
69	0x3f01542d	0.5051907
70	0x3f336d5c	0.70088744
71	0xbf3c21dc	-0.73489165
72	0xbe9e0063	-0.3085967
73	0xbe1532f5	-0.1457022
74	0xbd9ff9e7	-0.07811337
75	0xbe4998f2	-0.1968725
76	0xbdfc6694	-0.12324253
77	0xbf808796	-1.0041378
78	0x3eb53c99	0.35397795
79	0x3ed2f907	0.41205618
80	0x3d642413	0.055698466
81	0x3f0f26e6	0.5591873
82	0xbf0dd14f	-0.55397505
83	0x3f34456c	0.7041843
84	0x3e995caa	0.2995351
85	0x3ee615a3	0.44938383
86	0xbf2dbab0	-0.6786299
87	0x3e684950	0.22684216
88	0x3eed2631	0.463182
89	0xbdbcd0cc	-0.09219512
90	0x3e3d9549	0.18513979
91	0xbebe0e99	-0.37120512
92	0x3d21df2b	0.03951947
93	0xbf21df6d	-0.63231546
94	0xbd6b58a8	-0.057457596
95	0x3f385335	0.72001964
96	0xbd22367f	-0.039602753
97	0x3e8a9790	0.27068758
98	0x3c1f2dea	0.009715537
99	0x3d91c76f	0.07118117
100	0xbede6e8f	-0.43443725
101	0x3ec37564	0.381755
102	0xbe585a48	-0.2112819
103	0x3f173c6a	0.5907656
104	0xbe3ac8ad	-0.18240614
105	0xbe182079	-0.14856137
106	0xbf4f08e3	-0.80872935
107	0xbefd9933	-0.49530944
108	0xbe8bfdef	-0.27342173
109	0xbe2a2b7b	-0.16618149
110	0x3e3cd1f7	0.1843947
111	0x3da336ed	0.07969461
112	0xbe00f14c	-0.12592047
113	0xbe9a7fd3	-0.30175647
114	0x3d8ac4f8	0.0677585
115	0x3ef5b4d6	0.4798953
116	0xbe56ba0b	-0.20969407
117	0x3df64485	0.12024788
118	0xbe6f9458	-0.23396432
119	0x3ee2faab	0.4433187

bias f4 [20]
0	0x3e5a72ed	0.21332903
1	0xbe9703f0	-0.29495192
2	0xbf3f0403	-0.74615496
3	0x3ee0ec5b	0.43930325
4	0xbef7aac8	-0.48372483
5	0xbe138799	-0.14407195
6	0x3f082e52	0.5319568
7	0x3e04d6a5	0.12972505
8	0x3f060665	0.5235351
9	0xbe4c2611	-0.19936396
10	0xbe6714e2	-0.2256656
11	0x3ef31a12	0.47480828
12	0xbd097acf	-0.033564385
13	0x3ed82b86	0.42220706
14	0xbe0635e4	-0.13106495
15	0x3e2ef6e8	0.17086375
16	0x3f1c8321	0.61137587
17	0x3f04925d	0.5178583
18	0xbe8ddc29	-0.2770703
19	0xbdcbff50	-0.09960806

weight f4 [20, 20]
0	0xbe22fb37	-0.15916143
1	0x3d4a5df5	0.04940601
2	0xbdccf1c7	-0.10007053
3	0x3e3c9640	0.18416691
4	0x3e0ea35d	0.13929506
5	0x3d91da6f	0.07121741
6	0xbf08f71c	-0.5350206
7	0x3e920b8d	0.28524438
8	0xbe6c80e5	-0.23096044
9	0x3dcbf388	0.09958559
10	0xbbc2a724	-0.005940335
11	0xbda4c623	-0.08045604
12	0x3e65770b	0.22408693
13	0x3d26c541	0.04071546
14	0x3e9ec49b	0.31009373
15	0xbe6546bb	-0.22390263
16	0xbcb6943d	-0.022287482
17	0x3e823a12	0.2543493
18	0x3e0336ff	0.12813948
19	0xbc0b7d40	-0.008513749
20	0x3e8905a9	0.2676213
21	0xbe7e3bb3	-0.24827461
22	0xbe98818a	-0.2978633
23	0x3dbb6783	0.09150603
24	0xbe92a0dc	-0.2863835
25	0x3e0b4d09	0.13603605
26	0x3ea892f6	0.32924622
27	0xbcce7010	-0.02519992
28	0x3cd44ae2	0.025914613
29	0xbe27cbdb	-0.16386358
30	0xbe3ebb0d	-0.18626042
31	0xbe0fb658	-0.14034402
32	0x3df5fe44	0.12011388
33	0x3e782015	0.24230988
34	0xbdebf760	-0.115217924
35	0xbe2873cb	-0.16450422
36	0x3e0f5afa	0.13999549
37	0x3e991fc1	0.2990704
38	0x3de94b5b	0.11391326
39	0x3da67a35	0.08128778
40	0x3e68ab6c	0.22721642
41	0xbd10b2b9	-0.035326693
42	0xbe4354c4	-0.19075304
43	0x3e0984f2	0.13429621
44	0xbdb3f908	-0.08787733
45	0x3e64261f	0.22280167
46	0x3e2d308e	0.16913053
47	0xbe8ac15d	-0.2710065
48	0x3d9b49f8	0.07582468
49	0x3cf81090	0.030281335
50	0xbd5a70b7	-0.05333015
51	0xbd180c7c	-0.03712128
52	0x3dff4e57	0.12466114
53	0xbd6d21d6	-0.057893597
54	0xbe730772	-0.23733309
55	0x3e2eca22	0.17069295
56	0xbecbc765	-0.39800563
57	0x3dc29e6d	0.095028736
58	0xbe139fee	-0.14416477
59	0xbe6308b8	-0.22171295
60	0x3e72abaf	0.23698305
61	0xbcc0e963	-0.023548787
62	0xbe9de792	-0.30840737
63	0xbed3da88	-0.41377664
64	0x3e07dd56	0.13268027
65	0x3e424fe4	0.18975788
66	0x3de71d03	0.112848304
67	0x3d972af9	0.07381243
68	0x3e24a300	0.16077805
69	0xbdcfb54a	-0.10142
70	0xbe27d85c	-0.16391128
71	0xbebe6dfd	-0.3719329
72	0x3e0143b8	0.12623489
73	0xbdbe349e	-0.0928738
74	0xbe82c252	-0.2553888
75	0x3eb301ac	0.34962213
76	0xbda215cd	-0.079143144
77	0xbe5ddad2	-0.21665505
78	0xbd429489	-0.047504935
79	0xbe321877	-0.17392145
80	0xbe028963	-0.12747721
81	0xbe26d230	-0.16291118
82	0x3d8915a8	0.06693584
83	0x3c82ff07	0.015990747
84	0x3bf1ce37	0.007379319
85	0x3e82d74c	0.25554883
86	0x3d574bcc	0.05256252
87	0xbcd19f3f	-0.02558863
88	0x3da3c57f	0.07996654
89	0x3e3f53ca	0.18684307
90	0xbe6f9572	-0.23396853
91	0xbdba9223	-0.091099046
92	0xbe19f88c	-0.1503622
93	0x3d8b14e9	0.06791098
94	0xbcf47559	-0.029841112
95	0x3ca0a3ab	0.019609293
96	0x3e38342a	0.17988649
97	0xbd716365	-0.05893268
98	0x3cbaa476	0.0227835
99	0x3e929f10	0.2863698
100	0x3db937d7	0.09043854
101	0xbc06159c	-0.008183863
102	0x3f00168b	0.500344
103	0x3eb376d2	0.3505159
104	0x3de81f05	0.113340415
105	0x3e8d0e30	0.27549887
106	0xbd5fe1b5	-0.05465861
107	0xbe3f811f	-0.187016
108	0x3cceefcc	0.025260828
109	0x3e301fad	0.17199583
110	0x3e0981c9	0.13428415
111	0x3aabb048	0.00130988
112	0xbd55a991	-0.052163664
113	0xbe0886fd	-0.13332744
114	0xbecdf012	-0.40222222
115	0x3e4130dd	0.18866296
116	0xbe55ff97	-0.20898281
117	0x3eaa26d7	0.33232757
118	0x3deee172	0.11664094
119	0xbe521e24	-0.2051931
120	0x3e3114e7	0.1729313
121	0x3ee3141d	0.44351283
122	0x3e2a1f7c	0.16613573
123	0x3ecd89c2	0.40144163
124	0xbdbbda0b	-0.09172448
125	0x3d9d4564	0.07679251
126	0x3e19ba5a	0.15012494
127	0x3e076e80	0.13225746
128	0xbd9f2bd0	-0.077720284
129	0x3e1ad7a2	0.1512132
130	0x3d9224ed	0.07135949
131	0xbce2fe8d	-0.02770927
132	0x3dd6b106	0.10482983
133	0xbeb9eab9	-0.36311892
134	0x3e19ac66	0.15007171
135	0x3ebfb87b	0.37445435
136	0xbd544d84	-0.051831737
137	0xbbd5d8c7	-0.006526086
138	0x3e82fdc1	0.25584224
139	0xbe7723ea	-0.24134794
140	0xbdd49cd8	-0.10381478
141	0xbe212cfb	-0.15739815
142	0x3e65cf48	0.22442353
143	0x3e003adf	0.12522458
144	0x3e6c8793	0.23098592
145	0x3d24a374	0.040194944
146	0xbe90aaba	-0.28255254
147	0x3d8876c3	0.06663277
148	0x3e319d9f	0.17345284
149	0xbe09e36e	-0.13465664
150	0x3de66f72	0.11251725
151	0x3ca36da1	0.019949736
152	0x3d748468	0.059696585
153	0x3e826120	0.25464725
154	0x3d5f1d81	0.054471496
155	0xbe92f065	-0.2869903
156	0x3e5eabe3	0.21745257
157	0x3e9714e6	0.29508132
158	0x3cadc424	0.021211691
159	0x3dc174f5	0.09446136
160	0xbbfc8dee	-0.007707349
161	0x3e11bfbb	0.14233296
162	0x3e29befc	0.16576761
163	0x3e572642	0.21010688
164	0xbdab1f0a	-0.083555296
165	0x3d9e51a7	0.07730418
166	0x3d8ce081	0.06878758
167	0x3e16cf86	0.14727601
168	0xbd071b7d	-0.0329852
169	0xbf231697	-0.63706344
170	0xba58ee94	-0.0008275297
171	0x3e075f60	0.13219976
172	0xbf1b6ea8	-0.60715723
173	0x3d3710b7	0.044693675
174	0x3e8ed3c8	0.2789595
175	0xbe1944a7	-0.14967595
176	0xbd572455	-0.052524883
177	0x3dc0a2eb	0.09406074
178	0xbdbce570	-0.09223449
179	0xbe84c462	-0.25931078
180	0xbe2c347e	-0.16816899
181	0xbe46d44d	-0.19416924
182	0xbe6b51e7	-0.22980462
183	0x3ccecc16	0.0252438
184	0xbeb8d254	-0.36097968
185	0x3e2094cf	0.15681766
186	0x3de251bf	0.11050748
187	0xbe974ff2	-0.2955318
188	0x3e1ac5a7	0.15114461
189	0x3e30381e	0.17208907
190	0x3ea6028b	0.32423815
191	0x3eec2e5a	0.46129113
192	0xbcf523af	-0.029924242
193	0xbecf5186	-0.40491885
194	0xbeed5246	-0.46351832
195	0xbe2e07be	-0.16995141
196	0x3e9da263	0.30787954
197	0x3e90d422	0.28286844
198	0xbe051b6b	-0.1299874
199	0xbe8a782f	-0.27044818
200	0xbe87f4fb	-0.26554093
201	0x3ec9e024	0.39428818
202	0x3f19bd80	0.6005478
203	0xbd7a3db7	-0.061094012
204	0xbdfb0848	-0.12257439
205	0x3d8729e3	0.06599786
206	0x3d073754	0.03301175
207	0xbdf1bdc8	-0.11803776
208	0xbe305c5a	-0.1722273
209	0x3d84cc02	0.06484224
210	0x3dcfc7f6	0.101455614
211	0x3ede5e55	0.43431345
212	0x3ea5b411	0.32363942
213	0x3e2938e7	0.16525613
214	0xbccc2fd5	-0.024925152
215	0x3cbe7002	0.023246769
216	0xbe6c2980	-0.23062706
217	0xbe5d7991	-0.21628405
218	0x3e368032	0.1782234
219	0xbccac0db	-0.024750164
220	0x3eae48fa	0.34040052
221	0x3deaf42c	0.11472353
222	0xbf36c3f2	-0.7139274
223	0x3dcb5095	0.09927479
224	0xbe83fe2a	-0.2577985
225	0x3df9ebb1	0.12203158
226	0xbd355c34	-0.044277385
227	0x3ec151fa	0.37757856
228	0x3e5bbe55	0.21459325
229	0x3d7fe1fa	0.062471367
230	0xbec3da91	-0.3825269
231	0xbe533da7	-0.20628987
232	0xbc979734	-0.018504716
233	0x3d839ca5	0.06426362
234	0xbe8ea6e4	-0.27861702
235	0x3dff2f6d	0.124602176
236	0xbe85afe6	-0.26110762
237	0x3e5020ed	0.2032506
238	0x3c9a2f9d	0.018821532
239	0xbd53d81f	-0.05171978
240	0xbc27a685	-0.010232572
241	0xbe6aa9da	-0.22916356
242	0x3dd10db2	0.1020769
243	0x3d5d7883	0.054070007
244	0xbe2a6609	-0.16640486
245	0x3eade39c	0.33962715
246	0x3df0fcb8	0.11766952
247	0xbe6b2475	-0.22963126
248	0x3d5111bb	0.0510423
249	0x3d1a5f07	0.03768828
250	0xbea052d2	-0.31313187
251	0xbebb2c2e	-0.36557144
252	0x3d7171f1	0.058946554
253	0xbe17246d	-0.14759989
254	0x3de763c0	0.11298323
255	0xbdb83712	-0.08994879

bias f4 [20]
0	0xbe6e5465	-0.23274381
1	0xbd4d9931	-0.050194923
2	0x3d65d68a	0.056112804
3	0x3eef44df	0.46732232
4	0x3e0af57c	0.13570207
5	0xbef70247	-0.48243925
6	0xbeab65d1	-0.33476117
7	0xbf02a0d1	-0.51026636
8	0x3ebd5a4d	0.36982957
9	0x3ec25203	0.37953195
10	0xbf065512	-0.52473557
11	0x3e696501	0.22792436
12	0x3cb80974	0.022465445
13	0x3e8372ec	0.25673616
14	0xbdbc70ea	-0.09201224
15	0x3f1d117a	0.6135479
16	0xbd39e0a3	-0.045380246
17	0x3f44147f	0.76593775
18	0x3f101f4d	0.5629776
19	0x3d9aeb37	0.07564395

weight f4 [16, 20]
0	0x3e809b00	0.25118256
1	0x3e340171	0.17578675
2	0xbdf9fd84	-0.122065574
3	0xbc0a0fcd	-0.008426619
4	0xbcb68ab7	-0.022282941
5	0x3da9ca77	0.0829057
6	0xbe6a3428	-0.22871459
7	0xbd1de9ad	-0.03855293
8	0x3bfab3c9	0.0076508266
9	0x3f056b1e	0.5211657
10	0xbdb45526	-0.08805303
11	0x3c3c9c21	0.011511833
12	0x3e9716dd	0.2950963
13	0x3e497fa9	0.19677605
14	0x3e56ce31	0.20977093
15	0x3de919de	0.11381887
16	0xbd9d387b	-0.076767884
17	0x3d7ed989	0.062219176
18	0xbd1a8134	-0.037720874
19	0x3e0d026a	0.13770452
20	0xbd71f71a	-0.059073545
21	0xbe0625ab	-0.13100307
22	0x3cf9f67a	0.030513037
23	0x3f3668f6	0.7125391
24	0xbe55fb9e	-0.20896766
25	0xbe075aba	-0.13218203
26	0xbcd9a606	-0.026568424
27	0xbe5384b9	-0.20656098
28	0x3e4dffc0	0.20117092
29	0xbf3e81e4	-0.7441695
30	0xbf12c994	-0.57338834
31	0x3eb0247f	0.34402844
32	0xbe601eaf	-0.21886705
33	0x3e14f441	0.145463
34	0xbe2202d3	-0.1582139
35	0x3ce8ec9e	0.02843314
36	0x3e0ca592	0.13735035
37	0x3dece7c8	0.11567646
38	0x3d13fef9	0.036131833
39	0x3dd2c806	0.10292058
40	0x3ea11895	0.31464067
41	0x3dcd9f83	0.1004019
42	0x3e95fd39	0.29294756
43	0x3e8c77bd	0.27435103
44	0x3d98d869	0.07463152
45	0xbdd02040	-0.10162401
46	0x3e3b1bbb	0.18272297
47	0xbe9d04a3	-0.306676
48	0x3e584620	0.211205
49	0x3eaec990	0.34138155
50	0xbee1a882	-0.44073874
51	0xbddf5c33	-0.109062575
52	0x3e4fc64b	0.20290487
53	0x3e9d4d17	0.30722877
54	0xbd865f4f	-0.065611474
55	0x3e633d2d	0.22191305
56	0x3e85b465	0.26114193
57	0xbe4f75cb	-0.20259778
58	0xbeec63df	-0.46169946
59	0x3d761d7b	0.06008671
60	0xbe4e00d4	-0.20117503
61	0x3d6834c0	0.05669093
62	0xbe27a293	-0.16370611
63	0xbdde5e82	-0.1085787
64	0x3e14a851	0.14517333
65	0xbd16296c	-0.036660597
66	0xbd83ed86	-0.064417884
67	0x3e41fc12	0.18943813
68	0x3d04cf0d	0.03242402
69	0xbe6492be	-0.22321603
70	0xbdbe7109	-0.092989035
71	0x3cfebb92	0.0310953
72	0x3e789248	0.24274552
73	0xbd3ab19e	-0.045579545
74	0xbd2dcfd7	-0.04243454
75	0x3e5de642	0.21669868
76	0x3dd1a02c	0.102356285
77	0x3deec236	0.116581365
78	0x3e5b2d7c	0.2140407
79	0x3d80e860	0.06294322
80	0x3d2d5a42	0.042322405
81	0x3ecfe2de	0.40602773
82	0x3de3e740	0.11128092
83	0x3e13e79b	0.14443819
84	0x3d9e4115	0.07727257
85	0x3d14d17a	0.036332585
86	0xbe396609	-0.1810533
87	0x3d24ca27	0.04023185
88	0xbe8b3b08	-0.27193475
89	0x3e9e3c09	0.30905178
90	0xbe468ded	-0.19390078
91	0x3de2a552	0.110666886
92	0xbda7a533	-0.08185806
93	0x3e59a82b	0.21255557
94	0xbdc99c63	-0.098442815
95	0xbe16aa2f	-0.14713357
96	0xbdf00a23	-0.117206834
97	0x3e05cad5	0.13065656
98	0xbe79206c	-0.24328774
99	0x3e8aaac5	0.27083412
100	0xbd19ffce	-0.03759747
101	0xbd299a53	-0.04140694
102	0x3e79ef84	0.24407774
103	0x3d000e9d	0.031263936
104	0x3d7b0022	0.061279424
105	0x3e66dee7	0.22545968
106	0x3df889b6	0.12135641
107	0x3e90f0f7	0.28308842
108	0x3e05a67b	0.13051789
109	0xbec2cd96	-0.38047475
110	0xbdc0f142	-0.09421016
111	0xbeb6be01	-0.35691836
112	0xbd8fad72	-0.07015504
113	0x3e84f22c	0.25966012
114	0x3deff7fa	0.1171722
115	0xbe0a577f	-0.1350994
116	0xbe59d6d2	-0.21273354
117	0xbdcb4a5a	-0.09926291
118	0x3db5d165	0.088778295
119	0x3da6406e	0.08117758
120	0x3d0739e7	0.033014204
121	0x3e0bb35a	0.13642636
122	0x3da360bc	0.07977435
123	0x3e98da3d	0.29854003
124	0xbe2aeff1	-0.16693093
125	0xbd285561	-0.04109705
126	0xbe5d7a17	-0.21628605
127	0xbe2b206d	-0.16711588
128	0x3e89fe9a	0.26952058
129	0xbe82d572	-0.2555347
130	0x3dcb7f6a	0.09936412
131	0xbcabfcd6	-0.020994585
132	0xbe9a4b70	-0.3013568
133	0xbd4767ae	-0.04868286
134	0x3dd4d3bd	0.10391948
135	0x3dbe7000	0.09298706
136	0x3db21fee	0.08697496
137	0x3e25c4d6	0.16188368
138	0xbd809fab	-0.06280454
139	0x3c783808	0.015150078
140	0x3d5d438a	0.05401949
141	0xbdb4467f	-0.088025086
142	0x3c3be24c	0.011467528
143	0x3d8afaf0	0.06786144
144	0x3e768694	0.24074775
145	0xbe1f4953	-0.15555315
146	0xbd8f5480	-0.06998539
147	0xbdf37d84	-0.118891746
148	0x3db67db9	0.089106984
149	0x3f09182c	0.5355251
150	0xbeadeb21	-0.33968452
151	0xbe48d6b7	-0.19613157
152	0x3d6c1350	0.057635605
153	0x3e655507	0.22395717
154	0x3e028ee7	0.12749825
155	0xbd7e5ede	-0.06210219
156	0xbe2c8d3b	-0.1685075
157	0x3df1605c	0.11785957
158	0x3ec88dbd	0.39170638
159	0xbd8e9669	-0.06962282
160	0xbe0818ea	-0.13290754
161	0xbe3c97a7	-0.18417226
162	0xbe366992	-0.1781371
163	0xbd91da9f	-0.07121777
164	0x3d988bb8	0.07448524
165	0x3cadb7ad	0.021205748
166	0xbe6c08fb	-0.23050301
167	0xbd03ef32	-0.032210536
168	0x3bb9b255	0.005667011
169	0x3dd52bbc	0.10408732
170	0xbd9f89b2	-0.07789935
171	0x3c268f28	0.010165967
172	0xbe3ca754	-0.18423206
173	0x3e374250	0.1789639
174	0xbd91c323	-0.071172975
175	0xbe46a2ad	-0.19397993
176	0x3e0e5867	0.1390091
177	0xbce9fcba	-0.028562892
178	0xbe177ec9	-0.14794458
179	0xbc9869bf	-0.018605111
180	0x3dfcc530	0.12342298
181	0x3ee66810	0.45001268
182	0x3e39aea2	0.18133023
183	0x3ea96a3a	0.33088857
184	0xbdea105b	-0.11428901
185	0xbdd6e9de	-0.104938254
186	0xbe884ca5	-0.26620975
187	0x3d80b6e0	0.06284881
188	0x3ddd6eb2	0.10812129
189	0x3dc297f6	0.095016405
190	0x3d30c883	0.043159973
191	0x3e95e16a	0.2927354
192	0xbdefb1ba	-0.117038205
193	0xbd40a306	-0.04703047
194	0x3ddeb61a	0.10874577
195	0x3d06542f	0.032795127
196	0x3c80ae0e	0.015707996
197	0xbeb75dbd	-0.35813704
198	0x3e5d66dc	0.21621269
199	0xbdf2c0c7	-0.118531756
200	0x3c9a054f	0.01880136
201	0x3dd4df4e	0.103941545
202	0xbdcea3e9	-0.10089857
203	0xbd78bbc2	-0.060725935
204	0x3e1a7cfb	0.15086739
205	0x3d2e3005	0.042526264
206	0xbda27209	-0.07931907
207	0x3cf6d723	0.030131882
208	0xbd8d536d	-0.06900678
209	0xbcd2371d	-0.025661046
210	0x3e29ffe8	0.16601527
211	0xbc1848b4	-0.0092946775
212	0xbe2c10eb	-0.16803329
213	0xbe7d5974	-0.24741155
214	0x3e3e1cb9	0.18565644
215	0xbe71f0bd	-0.2362699
216	0xbe07b996	-0.13254389
217	0xbe247155	-0.16058858
218	0xbd937edb	-0.0720193
219	0xbdf74d34	-0.12075272
220	0x3d9450a7	0.07241946
221	0x3e5379ea	0.20651975
222	0x3c7eb36f	0.01554571
223	0xbcb39ca0	-0.02192527
224	0x3e0b8400	0.13624573
225	0x3ddb7ea3	0.107175134
226	0xbe6fcf29	-0.23418869
227	0x3db5bedc	0.08874294
228	0xbd246728	-0.04013744
229	0x3e5b67b2	0.21426275
230	0xbe1e13b6	-0.15437207
231	0xbe87ad0c	-0.26499212
232	0x3e80e4c2	0.25174528
233	0x3d8ebcc1	0.06969596
234	0x3d6a469f	0.057196256
235	0xbd85e2d8	-0.06537408
236	0xbe960259	-0.29298666
237	0xbe3f332c	-0.18671864
238	0xbf65fc34	-0.89837956
239	0xbe063004	-0.13104254
240	0x3e80f1ca	0.2518447
241	0xbe396d7e	-0.18108174
242	0xbd0f94d9	-0.03505406
243	0x3e977b15	0.29586092
244	0xbe7d1e4f	-0.24718593
245	0x3d1f8769	0.038947497
246	0x3dde1938	0.10844654
247	0x3d9b1136	0.07571642
248	0x3e2cde72	0.16881731
249	0xbe7ff04e	-0.24994013
250	0xbe247f54	-0.16064197
251	0xbd94bc6a	-0.072625
252	0xbe97edc4	-0.29673588
253	0xbe6c9330	-0.23103023
254	0xbabcee02	-0.0014414194
255	0x3e125eaf	0.14293931

bias f4 [16]
0	0xbc942eef	-0.018088786
1	0x3f363230	0.7117033
2	0x3eb29213	0.3487707
3	0x3d4112c1	0.047137026
4	0x3ebd2578	0.3694265
5	0xbed9ce82	-0.42540365
6	0x3ed1a008	0.40942407
7	0x3f5f0209	0.8711248
8	0xbdb6fac4	-0.089345485
9	0xbef33e16	-0.47508305
10	0xbe6b287a	-0.2296466
11	0x3ef0ee02	0.47056586
12	0xbbc88cdc	-0.0061203074
13	0xbe110dd3	-0.1416543
14	0xbda5a02b	-0.0808719
15	0x3f5854d3	0.8450443

weight f4 [6, 16]
0	0x3d700dfb	0.058607083
1	0x3e822ed0	0.2542634
2	0x3e0f7b08	0.14011776
3	0x3ca1cd24	0.019751139
4	0xbe26d0f5	-0.16290648
5	0x3e826d92	0.2547422
6	0xbe6bfbcf	-0.23045276
7	0x3d502b2c	0.050822422
8	0xbe17d000	-0.1482544
9	0xbec2c3fc	-0.3804015
10	0x3e0334a0	0.12813044
11	0xbdfc022e	-0.12305103
12	0xbdde941e	-0.10868095
13	0x3b4c07df	0.0031132621
14	0x3eb24abe	0.3482265
15	0xbe6c8cb4	-0.23100549
16	0x3e3b7a56	0.18308386
17	0x3e1ad048	0.15118515
18	0x3e065327	0.13117658
19	0xbdaaf964	-0.08348349
20	0x3ece60c0	0.4030819
21	0xbec6d507	-0.38834402
22	0x3d9bf7af	0.07615601
23	0x3e092722	0.13393834
24	0x3d7cf0e2	0.06175316
25	0xbcbdbfa8	-0.023162678
26	0xbe5c713d	-0.21527572
27	0x3e7ddba7	0.24790822
28	0x3e2e237b	0.17005722
29	0x3e60f45b	0.21968214
30	0xbe46d676	-0.19417748
31	0x3de5b9d0	0.112170815
32	0xbe2797ff	-0.16366576
33	0x3eb717a1	0.35760215
34	0x3e47e00a	0.19519058
35	0xbe7ffe60	-0.2499938
36	0xbd7ef614	-0.062246397
37	0xbcae9b27	-0.021314217
38	0x3d8baedb	0.068204604
39	0xbf03bd37	-0.51460594
40	0xbded181a	-0.11576863
41	0x3e72e453	0.23719911
42	0xbe29d59c	-0.16585392
43	0xbf22a8aa	-0.6353861
44	0x3e176c01	0.14787294
45	0x3e1bc305	0.15211113
46	0x3b5e3257	0.0033904517
47	0xbf4671be	-0.77517307
48	0xbe0709a0	-0.13187265
49	0xbf08428e	-0.53226554
50	0xbe8d242b	-0.27566656
51	0x3da38aa7	0.0798543
52	0x3d4a42ed	0.04938023
53	0x3e1c7e8b	0.15282647
54	0xbe348e6d	-0.17632456
55	0xbf596a84	-0.84928155
56	0xbe7d969a	-0.24764481
57	0x3e12ad0c	0.14323825
58	0xbd6ec3f7	-0.058292355
59	0x3ea9e14b	0.33179697
60	0xbe8658a8	-0.26239514
61	0x3cfe4c3b	0.031042209
62	0x3e843296	0.25819844
63	0x3dc517a6	0.09623651
64	0x3e82cec0	0.25548363
65	0xbfb51dd6	-1.414973
66	0xbf24b9a7	-0.64345783
67	0xbd137a48	-0.03600529
68	0x3e2347d8	0.15945375
69	0x3e91772d	0.28411236
70	0xbe99e5d3	-0.30058154
71	0xbea8a1c9	-0.32935932
72	0x3dccb3da	0.099952415
73	0x3eac94f5	0.33707395
74	0x3da9eee3	0.08297517
75	0xbf61c057	-0.8818411
76	0xbe6a88fe	-0.22903821
77	0xbebedab9	-0.37276247
78	0xbe3570af	-0.17718767
79	0x3e04d8ce	0.1297333
80	0xbe87b40d	-0.26504555
81	0x3f0f169e	0.55893886
82	0x3a397998	0.0007075309
83	0xbe279a15	-0.16367371
84	0xbff39933	-1.9031128
85	0xbf373618	-0.71566916
86	0x3dc9387b	0.09825226
87	0x3f5dc570	0.8662939
88	0xbe1ad8ae	-0.15121719
89	0xbef8a339	-0.4856203
90	0x3b2b6ad4	0.0026156204
91	0xbe91ec5d	-0.28500643
92	0xbe85a2a2	-0.2610064
93	0xbf696e70	-0.9118414
94	0xbfa8ecc6	-1.3197258
95	0x3f4624f4	0.77400136

bias f4 [6]
0	0xbd3c325f	-0.045946475
1	0xbdfb01d3	-0.12256207
2	0xbedc3b81	-0.43014148
3	0xbe5c9203	-0.21540074
4	0xbecd4b48	-0.40096498
5	0x3eeb2174	0.4592396
