src/learning/models/train1.pt (torch, 5655 bytes, 6 tensors)

weight f4 [20, 5]
0	0x3e9d181a	0.3068245
1	0xbebb9344	-0.36635792
2	0x3e47fae3	0.195293
3	0xbc708d3c	-0.01468211
4	0xbf96e31f	-1.1788062
5	0x3ea3d474	0.31998026
6	0xbec75d42	-0.38938338
7	0xbed962ff	-0.4245834
8	0xbce05abd	-0.027387017
9	0x3f824947	1.0178612
10	0x3dffc3cb	0.124885164
11	0xbd0cebca	-0.034404553
12	0x3a7a8ce5	0.0009557738
13	0xbecb9d22	-0.3976832
14	0xbe559351	-0.20856978
15	0xbe809ff1	-0.25122026
16	0xbe63bbd1	-0.22239615
17	0x3e12f897	0.14352642
18	0xbe4c00db	-0.19922201
19	0x3f0f7737	0.5604128
20	0xbed84753	-0.42241916
21	0x3e730ccd	0.23735352
22	0x3e7fa4c5	0.24965198
23	0x3ef13758	0.47112536
24	0x3e4786e8	0.19485056
25	0x3e5c392c	0.21506184
26	0xbf05079c	-0.51964736
27	0xbe324900	-0.1741066
28	0x3f00dcd1	0.5033694
29	0xbe9dbec4	-0.30809605
30	0x3e90abef	0.28256175
31	0x3e09e7e4	0.13467366
32	0x3e8560c2	0.26050383
33	0x3f0bf924	0.54677033
34	0xbd888f26	-0.066679284
35	0xbdaff67c	-0.08591935
36	0xbf01deb1	-0.50730425
37	0xbf37e81b	-0.7183854
38	0x3e028340	0.1274538
39	0xbf302409	-0.68804985
40	0xbe1eb307	-0.15497981
41	0xbe753eeb	-0.23949783
42	0x3cee85e8	0.029116586
43	0xbed4d988	-0.41572213
44	0xbd4a2a12	-0.049356528
45	0x3e8ce91f	0.27521607
46	0xbeb31742	-0.34978682
47	0x3ead4442	0.3384114
48	0x3f242007	0.6411137
49	0xbef8b4a3	-0.48575315
50	0xbdf9311e	-0.121675715
51	0x3f040c26	0.5158104
52	0x3e8cee64	0.27525628
53	0x3c9f4dfb	0.019446364
54	0xbf2f61c1	-0.68508536
55	0xbe83ab14	-0.2571646
56	0x3ed65514	0.41861784
57	0xbe99dd81	-0.30051807
58	0xbee2cbe5	-0.44296184
59	0xbe516155	-0.20447285
60	0xbeb9855c	-0.36234558
61	0xbdba5d47	-0.090998225
62	0xbd180d8d	-0.037122298
63	0x3cdd5234	0.027016737
64	0xbd350ed7	-0.044203606
65	0xbe209218	-0.1568073
66	0xbee3279a	-0.4436615
67	0xbd71baad	-0.05901592
68	0x3e917664	0.28410637
69	0xbf03c081	-0.5146561
70	0xbe3b2db7	-0.18279158
71	0xbcf29932	-0.029614065
72	0xbec1d3af	-0.37856814
73	0x3e9e658c	0.3093685
74	0xbea87d54	-0.32908118
75	0x3e07dd9b	0.1326813
76	0x3f07591f	0.52870363
77	0xbeb82b95	-0.3597075
78	0xbe005d15	-0.12535508
79	0xbfaaba0a	-1.3338025
80	0x3c9ec153	0.019379294
81	0x3e90c50b	0.28275332
82	0x3e6ae1e6	0.22937736
83	0xbea12365	-0.31472316
84	0x3ed5611a	0.41675645
85	0xbee72da8	-0.4515202
86	0xbe9afc8a	-0.30270797
87	0xbede11dc	-0.43373
88	0xbe628585	-0.22121246
89	0x3e7513fa	0.23933402
90	0x3e0f6ead	0.14007063
91	0xbf25e905	-0.64808685
92	0x3e84b133	0.25916442
93	0xbeefb90f	-0.46820876
94	0x3de12069	0.1099251
95	0xbe5001f9	-0.20313253
96	0x3c0dd5f6	0.008656969
97	0xbf2e9428	-0.6819482
98	0xbd05d592	-0.03267438
99	0xbe2f3a6b	-0.17112128

bias f4 [20]
0	0xbe080a87	-0.13285266
1	0x3efd471a	0.4946831
2	0x3f14bf7b	0.58104676
3	0xbe1b4a62	-0.15165094
4	0x3b82a58f	0.0039870213
5	0x3cc2dc0a	0.023786563
6	0xbf6638a5	-0.8993018
7	0xbee75f0f	-0.4518971
8	0x3db2fef8	0.08740038
9	0x3faeb297	1.3648251
10	0x3f4bffc5	0.7968715
11	0x3e96d701	0.2946091
12	0x3ed627f2	0.4182735
13	0xbe0d2bfa	-0.13786307
14	0x3e7f04bb	0.24904148
15	0x3edc317f	0.43006513
16	0xbe551aff	-0.2081108
17	0x3cae80e5	0.021301696
18	0x3d9a0803	0.07521059
19	0x3dac59e0	0.0841558

weight f4 [20, 20]
0	0xbe18ca69	-0.14920963
1	0x3e9aca5e	0.3023252
2	0xbd2aaedd	-0.04167067
3	0x3e0d71ba	0.13812914
4	0x3db162d3	0.08661427
5	0x3e91ea10	0.28498888
6	0xbe8d44f2	-0.27591664
7	0xbecabc52	-0.39596802
8	0xbaa7a66e	-0.0012790689
9	0x3e3a1306	0.1817132
10	0xbd99764f	-0.07493269
11	0x3db9c5fc	0.09070966
12	0xbe2858e1	-0.16440155
13	0x3e215b6a	0.15757528
14	0x3d60f349	0.054919515
15	0xbf9d4431	-1.2286435
16	0x3d90a224	0.07062176
17	0xbb1f9c9f	-0.0024354828
18	0x3e8bec24	0.27328598
19	0xbce85023	-0.028358525
20	0x3d8170d4	0.063203484
21	0x3e4df07a	0.20111266
22	0x3e14b98a	0.14523903
23	0x3de32f8e	0.11093055
24	0xbecc9863	-0.39960012
25	0xbe933dcf	-0.28758094
26	0xbdc4a4ec	-0.09601769
27	0xbf27a996	-0.6549314
28	0xbee53427	-0.44766352
29	0x3e157786	0.14596376
30	0x3d68f6a5	0.056875844
31	0xbe9158e8	-0.28388143
32	0xbf6fa6ca	-0.93613875
33	0xbceed986	-0.029156458
34	0x3da66512	0.081247464
35	0xbde4fdcb	-0.1118122
36	0x3e0648ca	0.13113704
37	0xbd420e23	-0.047376763
38	0x3e219fa9	0.15783562
39	0x3e909491	0.28238347
40	0xbe026851	-0.12735106
41	0x3eb8a665	0.3606445
42	0xbe9b4ce5	-0.30332103
43	0xbe2d2a90	-0.16910768
44	0x3e41fdfb	0.18944542
45	0xbe7872ae	-0.24262497
46	0x3dc4fe17	0.09618776
47	0x3e90b5fe	0.2826385
48	0x3de9dbc6	0.114188716
49	0xbd724eaa	-0.05915705
50	0x3db231ed	0.08700929
51	0x3e0f0440	0.13966465
52	0xbd32a15a	-0.043610908
53	0x3e108db6	0.14116558
54	0xbd6fb302	-0.058520325
55	0xbe7584e4	-0.23976475
56	0xbe89853c	-0.26859462
57	0xbd94f2d9	-0.07272882
58	0xbda2f665	-0.07957152
59	0x3e3dc5f5	0.18532546
60	0x3c932264	0.017960735
61	0x3e222572	0.15834597
62	0xbafa8b35	-0.0019114973
63	0xbdbca409	-0.09210975
64	0x3da451c1	0.08023406
65	0x3e9fded6	0.31224698
66	0xbe12e663	-0.14345698
67	0xbd73c9b8	-0.059518546
68	0xbe575b51	-0.21030928
69	0x3e7f7007	0.24945079
70	0x3e289225	0.16462
71	0x3e80351a	0.25040513
72	0x3dc1f891	0.094712384
73	0xbe3f2f8a	-0.18670478
74	0xbd1ed032	-0.03877277
75	0x3d8d93d4	0.069129616
76	0xbd55e8d9	-0.052224014
77	0xbdd38ced	-0.10329614
78	0xbcbdfbac	-0.023191296
79	0x3dfc1edf	0.12310576
80	0x3ec855eb	0.3912805
81	0xbe2e9bd4	-0.17051631
82	0x3df5f9d0	0.120105386
83	0x3d5a46dd	0.053290237
84	0xbdd9ded1	-0.10638202
85	0x3cb29529	0.02179964
86	0xbd2d1184	-0.042253032
87	0xbe010484	-0.12599379
88	0x3d468066	0.048462294
89	0x3d206188	0.039155513
90	0xbd15a2c2	-0.03653217
91	0xbe364bcb	-0.1780235
92	0x3e4140ed	0.18872423
93	0x3c84733e	0.016168233
94	0xbd8e6399	-0.069525905
95	0xbef76797	-0.4832122
96	0xbcef0f33	-0.029182052
97	0x3e50268c	0.20327204
98	0x3e3c6045	0.18396099
99	0xbcf8f4b5	-0.030390123
100	0x3e19a886	0.15005693
101	0xbeed0920	-0.46296024
102	0xbdc7f1a3	-0.097628854
103	0xbe357cce	-0.1772339
104	0x3dada298	0.08478278
105	0x3e8eeab3	0.27913436
106	0xbe7b4e2e	-0.24541542
107	0xbdd04ad3	-0.101705216
108	0xbe6c5aac	-0.23081464
109	0xbdbb6f27	-0.0915206
110	0x3e927773	0.28606758
111	0x3d1e8fdc	0.038711414
112	0x3d126f82	0.035750873
113	0xbb2e923f	-0.0026637462
114	0x3e51f90d	0.20505162
115	0xbef9a1fe	-0.48756403
116	0xbdeb28c5	-0.114823855
117	0x3d4fbc61	0.05071676
118	0xbd91631f	-0.07098984
119	0x3c392fff	0.011302947
120	0xbe28258c	-0.16420573
121	0x3e43b944	0.19113642
122	0xbd301a05	-0.042993564
123	0x3d828f49	0.06374986
124	0xbe28135e	-0.16413638
125	0x3e71df50	0.23620343
126	0x3c9ce040	0.0191499
127	0x3d0628f4	0.0327539
128	0x3dbe31af	0.0928682
129	0x3ea641c9	0.32472065
130	0x3d54c405	0.05194475
131	0xbdead01c	-0.11465475
132	0xbe4308fd	-0.19046398
133	0x3e3dff7d	0.18554492
134	0xbe5aebb2	-0.21378973
135	0x3daa9e80	0.08331013
136	0xbd8e28ca	-0.06941374
137	0x3e1207f9	0.14260854
138	0x3da1a781	0.07893277
139	0x3e166ed2	0.14690712
140	0x3e3aa165	0.1822563
141	0x3d401b69	0.04690114
142	0x3e943043	0.2894307
143	0xbd8f3591	-0.06992639
144	0x3c83a016	0.016067546
145	0xbd9537f6	-0.07286064
146	0xbea85f97	-0.3288543
147	0x3eb02216	0.34401006
148	0xbd80d5db	-0.0629079
149	0x3da4fc1d	0.08055899
150	0x3e2b75c0	0.16744137
151	0xbef03e08	-0.46922326
152	0xbdbff149	-0.09372193
153	0x3bcd6df1	0.0062692096
154	0xbe723404	-0.23652655
155	0x3cffed75	0.031241158
156	0xbde0cc2f	-0.10976445
157	0xbf242cea	-0.64131033
158	0xbe4328c5	-0.19058521
159	0x3eec88a7	0.46198007
160	0x3e226e31	0.15862347
161	0xbeaf9138	-0.3429048
162	0x3e57a1a4	0.21057755
163	0xbda3c4af	-0.07996499
164	0xbcebc1c8	-0.028778926
165	0xbe918479	-0.2842138
166	0x3e1ed880	0.15512276
167	0x3efa3e49	0.48875645
168	0xbc44f24a	-0.012020657
169	0xbe5bee08	-0.2147752
170	0x3d703196	0.05864104
171	0x3eb803d6	0.35940427
172	0x3e0ea7c6	0.13931188
173	0x3d785e2d	0.060636688
174	0x3e0ba734	0.13638002
175	0x3f0de53e	0.5542792
176	0xbe51b8e0	-0.2048068
177	0xbb3225ca	-0.0027183169
178	0x3e305167	0.17218553
179	0x3e3e64b2	0.185931
180	0x3e629db6	0.22130474
181	0xbf06312c	-0.5241878
182	0x3d8a46fa	0.06751819
183	0xbd79ae77	-0.0609574
184	0x3d64cd6f	0.05585998
185	0x3e53010f	0.20605873
186	0x3d1d7d81	0.038449768
187	0xbdadbafb	-0.08482929
188	0xbbf6d3b3	-0.0075325607
189	0x3e05fcc9	0.13084711
190	0x3c8a21e6	0.016861867
191	0x3e06bf58	0.1315893
192	0xbdc3d2c4	-0.09561685
193	0xbcff21f9	-0.03114413
194	0x3f12c175	0.5732644
195	0xbd146dfb	-0.036237698
196	0x3e5a4fd5	0.21319516
197	0xbf3f5485	-0.7473834
198	0x3d55666d	0.052099634
199	0xbe1e3baf	-0.15452455
200	0x3e0397c4	0.12850863
201	0xbee09f47	-0.4387152
202	0x3ea4dacd	0.32198182
203	0xbe350c71	-0.17680527
204	0x3ca81824	0.020519324
205	0xbe8239c8	-0.2543471
206	0x3b35a35c	0.0027715778
207	0xbecc8df6	-0.39952058
208	0x3d599eed	0.05313008
209	0x3e04045c	0.12892288
210	0x3d9e34ed	0.077249385
211	0x3da55c3a	0.080742314
212	0x3dc66bf7	0.096885614
213	0xbd3675f7	-0.044546094
214	0x3da0d6ec	0.07853493
215	0xbc9b201e	-0.018936213
216	0xbe15f164	-0.14642864
217	0xbe341c29	-0.17588867
218	0x3ea7e9f9	0.32795694
219	0xbdedf6da	-0.11619349
220	0x3ece28a1	0.40265372
221	0xbe873c9a	-0.26413423
222	0xbd8dcbb2	-0.069236174
223	0xbcd266ee	-0.025683846
224	0x3e2fb403	0.17158513
225	0xbcdf21b5	-0.027237752
226	0x3e6e35dd	0.23262735
227	0x3e81124c	0.25209272
228	0xbd36563b	-0.04451583
229	0x3c873cf7	0.016508562
230	0xbd19c589	-0.0375419
231	0xbe69064b	-0.22756307
232	0xbe2a6f4e	-0.16644022
233	0xbcb4eda4	-0.022085972
234	0xbdc09e71	-0.0940522
235	0xbe145e52	-0.14489105
236	0xbccf56a5	-0.02530987
237	0xbe8f9dfc	-0.2805022
238	0xbe04fedb	-0.12987845
239	0xbdcd4e72	-0.10024728
240	0x3c97374d	0.018458987
241	0xbe7c62dd	-0.24647088
242	0x3dbee0dc	0.09320232
243	0xbe3155d6	-0.173179
244	0x3e5d86d8	0.2163347
245	0xbe141bf3	-0.14463787
246	0xbe3c938f	-0.18415664
247	0xbd93004b	-0.0717779
248	0xbe1f6520	-0.1556592
249	0xbd976398	-0.07392043
250	0x3e1dd04e	0.15411493
251	0xbe84b0fb	-0.25916275
252	0xbd5433f6	-0.051807366
253	0x3e7a4954	0.24442035
254	0xbe50bba4	-0.20384079
255	0x3e0ac41a	0.1355137

bias f4 [20]
0	0xbeb3c295	-0.35109392
1	0xbe72cb9b	-0.23710482
2	0x3d85bce0	0.06530166
3	0x3f0bd831	0.54626757
4	0xbf35c678	-0.71005964
5	0x3ec43a21	0.383256
6	0x3f19fa83	0.60147876
7	0x3d98611e	0.07440399
8	0xbe85f79d	-0.26165476
9	0xbda8a255	-0.082340874
10	0x3f218ab0	0.63102245
11	0x3e2e513e	0.17023179
12	0xbcd3234c	-0.025773667
13	0xbf17aa25	-0.59243995
14	0x3daa6168	0.0831936
15	0x3e814ed3	0.2525545
16	0xbf0fdd6b	-0.5619723
17	0xbc4c4a81	-0.012468935
18	0xbee1b9da	-0.44087106
19	0x3f3cd97b	0.7376935

weight f4 [6, 20]
0	0x3e28f35d	0.16499086
1	0xbe8b78ec	-0.27240694
2	0xbd8a18e0	-0.06743026
3	0xbe2f4ecc	-0.17119902
4	0xbc970f56	-0.01843993
5	0xbd89dea6	-0.0673192
6	0xbe4cdb8d	-0.20005627
7	0x3e824acc	0.2544769
8	0x3b57e82f	0.0032944789
9	0xbe97b117	-0.29627296
10	0x3adeebda	0.0017007545
11	0xbe030bec	-0.12797517
12	0xbe3e34dd	-0.18574853
13	0x3dbe76e5	0.09300021
14	0x3e5357e7	0.20639001
15	0x3d560523	0.052250993
16	0x3e39f9bb	0.18161671
17	0x3e621e64	0.22081906
18	0xbc993984	-0.018704183
19	0xbe3ddf70	-0.18542266
20	0xbeae0ed1	-0.3399568
21	0xbbc6f641	-0.006071836
22	0x3e230c6d	0.15922709
23	0x3ce1b1b8	0.027550563
24	0xbd12f977	-0.03588244
25	0xbc3efd62	-0.011657091
26	0x3e5da81b	0.21646158
27	0x3e3ef939	0.18649758
28	0x3d0a916f	0.033830103
29	0x3dc13efc	0.094358414
30	0x3e92f814	0.28704894
31	0x3e65acea	0.22429243
32	0x3e56462e	0.20925209
33	0xbe2a00f2	-0.16601923
34	0xbc2052e6	-0.0097853895
35	0xbeb9c283	-0.36281213
36	0xbe898c71	-0.2686496
37	0x3e184ddd	0.14873452
38	0x3e723dad	0.2365634
39	0xbe801154	-0.2501322
40	0x3c4b094a	0.012392351
41	0x3ee1a6bf	0.4407253
42	0x3e06f081	0.13177682
43	0xbe87d3f6	-0.265289
44	0x3e826137	0.25464794
45	0xbeca1371	-0.39467958
46	0xbe073743	-0.13204674
47	0xbe83e998	-0.25764155
48	0x3e583433	0.21113662
49	0x3e1b6d4f	0.15178417
50	0x3e6e7694	0.23287421
51	0xbd8b35b4	-0.067973524
52	0x3c6bb4d5	0.014386375
53	0xbdb5b02a	-0.08871491
54	0xbd58b0cb	-0.052902978
55	0x3ce03d3a	0.027372945
56	0x3e46fcad	0.19432326
57	0xbd9b9782	-0.07597257
58	0xbe7f842e	-0.24952766
59	0x3edb1e9b	0.42796788
60	0xbd3d7402	-0.04625321
61	0xbeed12d9	-0.46303442
62	0xbf132dbc	-0.5749166
63	0xbe10cf2b	-0.14141528
64	0x3d804875	0.0626382
65	0xbefc8759	-0.49322012
66	0xbe861451	-0.26187375
67	0xbeb5d9d3	-0.3551775
68	0xbe236c44	-0.15959269
69	0xbe661778	-0.2246989
70	0xbefde06a	-0.49585277
71	0x3dae221a	0.08502598
72	0x3ea86913	0.32892665
73	0x3ea422b9	0.3205774
74	0x3e01c5bf	0.1267309
75	0xbdbb3157	-0.0914027
76	0x3d11489e	0.035469644
77	0x3e6510be	0.22369668
78	0x3e77c258	0.2419523
79	0xbd83d48c	-0.064370245
80	0xbe0b330d	-0.13593693
81	0xbfc6ffa2	-1.5546763
82	0xbd7e30d3	-0.06205828
83	0x3d13c20f	0.03607374
84	0xbe80c9aa	-0.25153857
85	0x3db33599	0.08750457
86	0xbd9a74bf	-0.07541799
87	0xbec3dcd7	-0.38254425
88	0xbf277e8a	-0.6542746
89	0x3e680765	0.22659071
90	0xbf1ea96a	-0.61977255
91	0x3dafb95d	0.08580277
92	0x3e3f0946	0.18655881
93	0x3de34891	0.11097825
94	0xbdf2e197	-0.11859434
95	0x3eb9cc20	0.36288548
96	0x3e6c5bf9	0.2308196
97	0xbe018a91	-0.12650515
98	0xbfc210f0	-1.5161419
99	0xbdea52b9	-0.11441559
100	0xbc54cbc2	-0.012988033
101	0xbd32e423	-0.0436746
102	0xbf801f85	-1.0009619
103	0x3e2dafbb	0.16961567
104	0xbf758168	-0.95900583
105	0xbf57fbfa	-0.8436886
106	0x3ecfa22b	0.40553412
107	0xbc844f90	-0.01615122
108	0xbfd6086a	-1.6721318
109	0xbeb0041b	-0.34378132
110	0x3db62610	0.088939786
111	0xbf3379bd	-0.7010763
112	0xbf28a771	-0.65880495
113	0xbf85d28a	-1.0454876
114	0x3e33b104	0.17547995
115	0x3e8148e1	0.25250915
116	0x3e873410	0.26406908
117	0xbe106b55	-0.14103444
118	0xbf8e885d	-1.1135365
119	0x3f326a8d	0.69693834

bias f4 [6]
0	0x3d376f32	0.04478378
1	0x3eadbe2c	0.33934152
2	0xbe8115af	-0.25211856
3	0xbebb0356	-0.36525983
4	0xbed5cf54	-0.4175974
5	0x3f8e932e	1.1138666
