src/learning/models/train1_touch.pt (torch, 5719 bytes, 6 tensors)

weight f4 [20, 6]
-0.14797935 0.53194076 0.049354617 -0.009671582 0.3867198 0.6127487 0.17868541 0.099394985
0.006305053 -0.4451341 0.18337214 -0.3468502 -0.12031209 -0.0016475489 -0.15213355 -0.12581234
-0.67125285 0.7478261 0.29561925 -0.23916106 -0.12616195 -0.05958212 1.0612397 0.009601179
-0.3114683 0.27850696 0.15519206 0.3615938 -0.014745375 0.58823663 0.4154964 -0.15297239
0.058141902 0.37769517 -0.19208424 -0.6150969 0.20688501 -0.5985256 0.1351139 -0.0019426334
-0.5406435 0.9720879 0.24825563 0.33193395 0.022919528 0.70617074 -0.30370346 0.6082701
0.25815722 -0.30182797 0.2145614 -0.079319775 -0.48667994 -0.10953596 0.14691749 0.4525212
0.23847504 0.4109927 -0.9927256 0.23611562 -0.057411667 0.2127869 0.06869097 0.43019447
0.29321888 0.7257641 -0.35792106 -0.30971584 0.18291488 0.13645504 0.2901419 -0.39967424
0.17244771 -0.027289743 0.23778898 0.058410227 0.6999447 0.24899763 0.1456397 0.024490532
0.28803673 -0.23672678 -0.8567503 0.37181664 0.3360367 -0.16365653 0.012610721 0.0077011483
-0.20495947 0.6480163 -0.1937771 -0.15734567 0.0023286513 -0.6380283 0.44007602 0.09343054
0.2536553 0.16580889 -0.75632393 0.585148 0.24826017 0.14993356 -0.16821323 0.22962254
-0.31529072 -0.32188937 0.22310972 1.4125925 0.037411407 0.6740816 -0.48468378 0.40751824
-0.047309082 -0.7685653 -0.09315329 -0.0413875 -0.5559843 -0.2110177 -0.7837538 -0.20912538
00000000: e687 17be 452d 083f 1128 4a3d 8e75 1ebc
00000010: 2300 c63e 19dd 1c3f 4ff9 363e 998f cb3d
00000020: 9e9a ce3b 9ee8 e3be e8c5 3b3e 5996 b1be
00000030: 2f66 f6bd 91f2 d7ba e6c8 1bbe f3d4 00be
00000040: 3ad7 2bbf 8871 3f3f 685b 973e a3e6 74be
00000050: 9930 01be 620c 74bd b4d6 873f 434e 1d3c
00000060: c678 9fbe 7798 8e3e abea 1e3e d322 b93e
00000070: 9696 71bc ad96 163f f2bb d43e cba4 1cbe
00000080: 3426 6e3d 4361 c13e bbb1 44be fe76 1dbf
00000090: aad9 533e f938 19bf 4c5b 0a3e f69f feba
000000a0: 9d67 0abf c1da 783f b936 7e3e 3ff3 a93e
000000b0: bcc1 bb3c 9bc7 343f 057f 9bbe 97b7 1b3f
000000c0: 2f2d 843e 3289 9abe fcb5 5b3e 6872 a2bd
000000d0: 1d2e f9be 6454 e0bd 8a71 163e dcb0 e73e
000000e0: cd32 743e a36d d23e 4423 7ebf 4bc8 713e
000000f0: 7f28 6bbd cfe4 593e daad 8c3d 7342 dc3e
00000100: c920 963e adcb 393f 6e41 b7be 1393 9ebe
00000110: 0a4e 3b3e dfba 0b3e 7b8d 943e 1aa2 ccbe
00000120: 2296 303e bd8e dfbc f47e 733e 903f 6f3d
00000130: 932f 333f 3cf9 7e3e 9322 153e 5ea0 c83c
00000140: 8d79 933e 8168 72be fd53 5bbf c05e be3e
00000150: 010d ac3e 9495 27be 339d 4e3c ea59 fc3b
00000160: e5e0 51be 65e4 253f 816d 46be 391f 21be
00000170: 499c 183b d355 23bf a551 e13e 8358 bf3d
00000180: 1cdf 813e cec9 293e 729e 41bf 42cc 153f
00000190: ea37 7e3e 2f88 193e 1740 2cbe 2c22 6b3e
000001a0: c96d a1be afce a4be e076 643e d5cf b43f
000001b0: b43c 193d 9d90 2c3f 7928 f8be 3ba6 d03e
000001c0: 2bc7 41bd b2c0 44bf 27c7 bebd f085 29bd
000001d0: fd54 0ebf 0615 58be 17a4 48bf f724 56be

bias f4 [20]
-0.18990088 -0.3157573 0.9352394 0.59994096 -0.027597966 0.6984188 -0.63445705 0.49743715
0.019740192 0.6702397 0.41529766 0.25129294 -0.6288175 -0.6058948 -0.21415912 0.07918905
1.117452 0.12646535 -0.5270901 -0.178579
00000000: 6075 42be f1aa a1be d96b 6f3f bb95 193f
00000010: 2115 e2bc 93cb 323f c76b 22bf 15b0 fe3e
00000020: 2fb6 a13c d494 2b3f e5a1 d43e 78a9 803e
00000030: 2ffa 20bf ec1b 1bbf 874c 5bbe de2d a23d
00000040: ab08 8f3f 2280 013e 60ef 06bf 6add 36be

weight f4 [20, 20]
-0.25470406 -0.2557899 -0.018562838 0.35845336 0.20746793 0.28133932 -0.14155695 0.12265966
-0.10096071 0.36339554 0.103867464 -0.09373106 -0.5795721 -0.09518711 0.084541164 0.054127425
0.26713765 -0.408479 -0.52682865 -0.6302056 0.3097582 -0.114727855 0.1759829 -0.14985763
0.2918558 -0.10139078 -0.11243961 0.26361644 -0.29053396 0.32074443 -0.11062434 -0.18773873
0.27620095 -0.010448104 0.2697405 -0.08049389 0.14157583 -0.0019185272 -0.28724024 0.04425957
-0.17731223 0.033407267 0.032298155 0.0006101233 -0.024915198 -0.09909236 0.05906852 -0.11172568
0.007154559 0.084573254 0.08524651 0.23218723 -0.15851875 0.28608006 0.25835684 -0.13103165
-0.02352268 -0.00040038 0.20580693 0.24365485 -0.0023144654 -0.042671636 -0.26541147 0.23336259
0.03789088 -0.0039569503 0.19546206 -0.32991531 0.09203555 -0.12792076 -0.23075143 0.019856174
0.14199057 0.038546294 0.09012634 0.1687524 -0.05267035 0.19013502 -0.13530183 -0.12856734
0.022437764 -0.21715856 0.10476047 0.1389491 0.020791724 -0.10250697 -0.20545964 0.022518009
-0.16455874 0.20885877 0.19671747 -0.106516674 0.07894148 0.30319658 0.0683488 0.02492059
0.1097576 0.35155475 0.2778652 0.023019558 -0.098959975 -0.123059735 -0.22945315 -0.21540324
0.09506839 -0.21954004 0.107437916 -0.24548933 -0.16258371 0.12203335 -0.22708647 -0.103618495
-0.016369406 -0.080677755 0.037820578 -0.22173512 -0.084013805 -0.0054674447 -0.027652547 0.010131749
0.037744112 0.006710515 0.06436522 0.10988688 -0.18094435 0.08429337 0.30262464 -0.016317658
0.065618806 0.31416187 0.21277969 0.02959923 -0.08240786 -0.012601724 -0.16098042 -0.14770356
-0.32593647 0.32756746 -0.07798534 -0.18895349 -0.1558056 -0.13147514 -0.34331876 0.18716721
-0.05095344 0.10962916 -0.106965385 0.24780367 -0.13810551 -0.20419048 0.121632606 0.10769744
0.20278087 0.10473475 0.0617849 0.29382414 0.17857283 0.28023127 -0.20303608 -0.274378
-0.048000526 -0.20699012 0.21003479 0.21784945 -0.08930612 -0.08666569 0.2662462 0.06926337
0.2220581 -0.19646598 -0.075213574 -0.22946507 0.32317638 -0.38238707 -0.065684915 0.22261846
-0.24435504 0.34491208 0.057977177 0.007815518 -0.16926154 -0.060487133 0.6498709 -0.007616586
0.21104945 0.080314174 0.15932143 -0.2159701 0.18573247 -0.08056119 -0.25251064 0.23065948
0.0812276 0.2987567 0.072894 0.00048849045 -0.067474864 0.1695308 0.22170065 0.18220885
-0.15048373 0.21616793 0.58876145 -0.11618582 0.06764556 0.100768544 0.20945758 -0.15078571
0.026771866 0.16701896 0.035637897 0.012390781 0.018255884 0.03210925 0.13619818 -0.09718262
-0.14338912 0.29900125 0.45501715 0.3131838 -0.18172334 0.013589055 -0.18266925 0.1366503
-0.07239124 0.15890461 0.021632131 -0.088262275 0.06097928 0.1979665 -0.24581881 -0.26675025
-0.25548697 0.25913084 -0.2222527 0.06690498 0.18728128 -0.2231728 -0.19730242 0.18375933
0.008416702 0.20787758 -0.5839773 0.37119725 0.0704652 0.10555411 -0.33198482 0.15776883
-0.15341246 -0.21368349 0.116468705 0.041716214 0.10086714 -0.18296897 0.024989195 -0.022093175
00000000: 9268 82be e5f6 82be 1811 98bc 3387 b73e
00000010: 7972 543e b50b 903e 4ef4 10be fd34 fb3d
00000020: 7dc4 cebd fb0e ba3e 77b8 d43d 12f6 bfbd
00000030: d65e 14bf 76f1 c2bd eb23 ad3d b8b4 5d3d
00000040: 44c6 883e 2924 d1be 3ede 06bf 2755 21bf
00000050: a098 9e3e 70f6 eabd dd34 343e 4774 19be
00000060: 206e 953e f8a5 cfbd bd46 e6bd bcf8 863e
00000070: dec0 94be 9d38 a43e 048f e2bd 953e 40be
00000080: 366a 8d3e 862e 2bbc 6d1b 8a3e fbd9 a4bd
00000090: 41f9 103e 1777 fbba 2711 93be 8649 353d
000000a0: 5691 35be 0fd6 083d 124b 043d aef0 1f3a
000000b0: f51a ccbc eff0 cabd d5f1 713d 6fd0 e4bd
000000c0: ca70 ea3b be34 ad3d b995 ae3d 7dc2 6d3e
000000d0: bd52 22be 1679 923e 5947 843e 292d 06be
000000e0: a3b2 c0bc 18ea d1b9 0dbf 523e a880 793e
000000f0: 49ae 17bb 74c8 2ebd 03e4 87be 9af6 6e3e
00000100: 7833 1b3d 4ea9 81bb 3527 483e a9ea a8be
00000110: 227d bc3d a9fd 02be 1a4a 6cbe 6aa9 a23c
00000120: fa65 113e b8e2 1d3d 2994 b83d 6ecd 2c3e
00000130: ddbc 57bd c1b2 423e 908c 0abe 28a7 03be
00000140: 67cf b73c d05e 5ebe a88c d63d ac48 0e3e
00000150: 6853 aa3c 2def d1bd 0364 52be b077 b83c
00000160: 1682 28be 13df 553e 4e70 493e 6a25 dabd
00000170: 12ac a13d 953c 9b3e 75fa 8b3d 4426 cc3c
00000180: 98c8 e03d fcfe b33e 5944 8e3e 8393 bc3c
00000190: 87ab cabd be06 fcbd c4f5 6abe ab92 5cbe
000001a0: 37b3 c23d 1bcf 60be 6908 dc3d 8e61 7bbe
000001b0: 587c 26be 9fec f93d 5b89 68be ef35 d4bd
000001c0: 2219 86bc 613a a5bd c0e9 1a3d 880e 63be
000001d0: 6e0f acbd 4028 b3bb 9887 e2bc a3ff 253c
000001e0: 9299 1a3d e1e3 db3b ead1 833d 5f0c e13d
000001f0: 7a49 39be 01a2 ac3d 9ef1 9a3e 9cac 85bc
00000200: 2763 863d d3d9 a03e ebe2 593e 167a f23c
00000210: 74c5 a8bd 7677 4ebc 0dd8 24be 9a3f 17be
00000220: 25e1 a6be ecb6 a73e c7b6 9fbd 067d 41be
00000230: 818b 1fbe 6ba1 06be 7ac7 afbe c3a8 3f3e
00000240: 8eb4 50bd 4185 e03d ab10 dbbd 3fc0 7d3e
00000250: 886b 0dbe 4f17 51be 841a f93d 7a90 dc3d
00000260: caa5 4f3e 2c7f d63d 2a12 7d3d 1e70 963e
00000270: ccdb 363e 797a 8f3e b1e8 4fbe 467b 8cbe
00000280: 339c 44bd 38f5 53be 5c13 573e ed13 5f3e
00000290: 21e6 b6bd c87d b1bd 6c51 883e f4d9 8d3d
000002a0: 3363 633e 612e 49be 9309 9abd e4f8 6abe
000002b0: 6077 a53e 3dc8 c3be d085 86bd 18f6 633e
000002c0: 3538 7abe 5198 b03e 7a79 6d3d a90c 003c
000002d0: e652 2dbe 5bc1 77bd f05d 263f 8e94 f9bb
000002e0: 591d 583e c27b a43d 2825 233e 4427 5dbe
000002f0: a730 3e3e 44fd a4bd 1349 81be 0032 6c3e
00000300: a85a a63d a3f6 983e 7349 953d 0a0e 003a
00000310: 4330 8abd 7b99 2d3e 7f05 633e f594 3a3e
00000320: 6818 1abe 205b 5d3e 12b9 163f d5f2 edbd
00000330: c189 8a3d bd5f ce3d 0c7c 563e 9267 1abe
00000340: ac50 db3c 0507 2b3e 0bf9 113d b402 4b3c
00000350: 5d8d 953c fd84 033d 8977 0b3e ae07 c7bd
00000360: 99d4 12be b116 993e 02f8 e83e a159 a03e
00000370: af15 3abe a1a4 5e3c a60d 3bbe 0eee 0b3e
00000380: dc41 94bd e4b7 223e de35 b13c dac2 b4bd
00000390: 69c5 793d bbb7 4a3e edb7 7bbe 7d93 88be
000003a0: 30cf 82be ccac 843e 3696 63be 7a05 893d
000003b0: aac6 3f3e 6987 64be a509 4abe 682b 3c3e
000003c0: 35e6 093c dcdd 543e 897f 15bf 910d be3e
000003d0: 0f50 903d c12c d83d eaf9 a9be 278e 213e
000003e0: 2818 1dbe d8cf 5abe 2587 ee3d 9fde 2a3d
000003f0: 6e93 ce3d 385c 3bbe 24b6 cc3c bffc b4bc

bias f4 [20]
0.85043514 -0.25702676 0.16471653 0.40356907 -0.0774682 -0.079894 0.54927015 -0.48989
-0.09166757 -0.41420966 0.20914453 0.065533325 0.9987218 -0.8805369 -0.32548347 0.23558658
0.5046285 -0.60450846 -0.031596668 0.008302716
00000000: 1eb6 593f 0399 83be 73ab 283e 9ba0 ce3e
00000010: a6a7 9ebd 779f a3bd f89c 0c3f ddd2 fabe
00000020: 35bc bbbd 4a13 d4be fc29 563e 5636 863d
00000030: 3bac 7f3f de6a 61bf c5a5 a6be 9c3d 713e
00000040: 552f 013f 11c1 1abf 826b 01bd 1d08 083c

weight f4 [6, 20]
-0.13950264 -0.035431296 -0.0935039 0.043999817 0.20893243 0.08865217 -0.22041042 -0.024783505
0.112924285 0.12554252 0.09992597 -0.044990532 -0.21922845 0.20019625 -0.46866658 0.20448811
0.18480825 -0.06457493 0.040796988 0.15439963 -0.08481486 -0.031865526 0.17146717 -0.058544103
-0.038840722 0.039996408 0.2169071 -0.2705694 -0.33711106 0.056996968 0.10551727 0.0729526
-0.17843796 0.040317744 0.40640473 -0.55744004 0.17985786 0.11412648 0.26032004 -0.18004265
-0.47327015 -0.19127156 0.13990226 0.22725332 -0.18363357 0.129515 0.03980415 0.23288338
-0.1110068 0.17375709 0.12726703 -0.182829 -0.3036363 0.08952121 -0.26341033 0.37034285
-0.2260013 0.29374164 -0.26194394 -0.22184317 -0.38529018 0.23028387 -0.17052588 -0.06384197
0.07495129 0.012761478 0.049425587 0.39452526 0.6236163 -0.23216707 -0.14033939 -0.22265533
0.19978443 0.25926608 0.366637 -0.03212288 -0.19411415 0.16387157 0.09227492 0.095425904
0.24737038 0.41620028 -0.12942384 -0.34037596 -0.15827224 -0.01853562 -0.37586796 0.18030061
-0.49029443 0.104598396 -0.5111485 0.23866597 -1.2086089 -0.4042697 -1.0705698 -0.9279731
-0.3516831 0.07449034 -0.23295008 -0.20292217 0.46791005 -0.41451585 -0.26050955 0.3859457
-0.40067136 -0.1546965 0.27760836 0.0036532506 0.106117345 -0.46424675 -0.3954785 0.06062881
0.6136588 -0.32896495 -0.24892406 -0.43778893 0.10458876 -0.9055786 0.19707417 0.12626204
00000000: c8d9 0ebe 6820 11bd f97e bfbd 2739 343d
00000010: 62f2 553e 458f b53d 45b3 61be c706 cbbc
00000020: d944 e73d 388e 003e fda5 cc3d fe47 38bd
00000030: 6c7d 60be 3f00 4d3e 11f5 efbe 5565 513e
00000040: 603e 3d3e dc3f 84bd be1a 273d f01a 1e3e
00000050: 6ab3 adbd 6d85 02bd 1795 2f3e f1cb 6fbd
00000060: 7317 1fbd 46d3 233d e51c 5e3e 1388 8abe
00000070: d299 acbe a775 693d 7019 d83d 2c68 953d
00000080: 71b8 36be 3824 253d 4814 d03e 64b4 0ebf
00000090: a92c 383e 25bb e93d ab48 853e 1a5d 38be
000000a0: 7750 f2be b1dc 43be 8a42 0f3e 18b5 683e
000000b0: 700a 3cbe 959f 043e ad09 233d fb78 6e3e
000000c0: 8857 e3bd 61ed 313e 4a52 023e 8637 3bbe
000000d0: 3876 9bbe e556 b73d b8dd 86be 949d bd3e
000000e0: e36c 67be 4e65 963e 841d 86be db2a 63be
000000f0: c144 c5be 89cf 6b3e 569e 2ebe 94bf 82bd
00000100: 1080 993d 8515 513c 7c72 4a3d 37ff c93e
00000110: 51a5 1f3f 34bd 6dbe 21b5 0fbe c2ff 63be
00000120: 4a94 4c3e 86be 843e d8b7 bb3e 4893 03bd
00000130: dcc5 46be f3cd 273e a2fa bc3d a86e c33d
00000140: a94e 7d3e 3418 d53e af87 04be c245 aebe
00000150: 1e12 22be 03d8 97bc c471 c0be b9a0 383e
00000160: df07 fbbe af37 d63d a1da 02bf da64 743e
00000170: b2b3 9abf 70fc cebe 6e08 89bf a58f 6dbf
00000180: cf0f b4be 648e 983d 778a 6ebe d4ca 4fbe
00000190: e891 ef3e 6c3b d4be 8261 85be ad9a c53e
000001a0: cc24 cdbe c268 1ebe af22 8e3e 606b 6f3b
000001b0: 0d54 d93d c0b1 edbe 287c cabe ea55 783d
000001c0: be18 1d3f 186e a8be f3e5 7ebe df25 e0be
000001d0: a232 d63d 00d4 67bf d0cd 493e d64a 013e

bias f4 [6]
-0.26500466 0.17714073 -0.16119735 -0.23331824 -0.8810147 0.7357826
00000000: b1ae 87be 6164 353e eb10 25be faea 6ebe
00000010: 2e8a 61bf 405c 3c3f
