src/learning/models/train1_touch_deep_wider_tanh_xav.pt (torch, 11023 bytes, 8 tensors)

weight f4 [32, 6]
0.09658194 -0.1469827 0.3544712 -0.10376873 -0.348401 -0.5292419 0.34274068 -0.23377182
-0.1339847 0.48928213 -0.4284222 -0.31053877 -0.030360192 -0.1739408 -0.1288609 -0.1484122
0.395153 -0.43859828 0.30468923 0.8362192 0.24030168 -0.18841405 0.6649515 -0.006734082
-0.103297085 0.003978566 0.13139655 -0.06162966 0.6049504 -1.191415 0.06601652 -0.24132147
0.15245464 -0.10838526 0.5272942 0.6774773 0.00095585774 0.041030597 -0.26278394 -0.16053881
0.5585019 -0.17315333 0.4936061 -0.05181866 0.4383523 0.07702166 -0.19650505 0.3996139
0.4732288 -0.31185627 -0.0013690849 0.031824175 0.07390076 -0.47902712 -0.098488584 0.17827079
-0.10312023 -0.24292827 -0.27720955 -0.01678686 0.06556601 0.484211 -0.7305569 0.36962235
-0.15934435 -0.7115024 0.1315018 -0.26894444 0.27938685 0.34737065 0.81882596 -0.14181657
0.0243017 0.19703908 -0.0055386247 0.343689 -0.11909455 0.50160265 0.38187438 -0.13890891
-0.08581052 -0.17690544 0.1057695 -0.31271863 -0.0035664206 -0.27015805 0.044029534 -0.23351647
0.36657184 0.70752573 -0.025229068 0.008811415 0.5127937 0.05269121 -0.62228185 -0.115200564
-0.4317736 -0.026339063 0.036900606 -0.13266172 0.4001272 0.60476977 0.21792226 -0.4358565
-0.03014694 0.7250576 -0.20029037 0.19994652 0.007810777 -0.0070804097 0.22025418 0.274855
0.2981541 0.8607186 0.18100677 0.10013396 -0.0954683 0.1579795 0.22198986 0.23038574
-0.10348592 0.48753247 -0.1371535 0.008213891 0.10782796 -0.24653856 -0.21191628 0.28087
-0.21153925 0.032079026 -0.47932196 -0.09093479 -0.26014698 -0.44698358 -0.09806088 -0.097735666
-0.036567412 -0.0015198146 0.40491995 0.2585261 0.23124184 0.13427056 -0.11980975 0.19321966
-0.0010288211 0.13210754 0.03319989 0.16198169 0.5345148 -0.035303287 -0.038790844 0.14057253
-0.3272318 -0.34487218 -0.022611141 0.9629227 0.2916645 -0.102192715 0.7258692 -0.052960087
0.18145107 0.3950502 0.6747696 0.65150565 -0.061493967 -0.063907474 -0.015095351 -0.08775723
-0.20089959 0.10276858 -0.30310923 -0.15750007 -0.37369758 0.6361959 -0.22620593 -0.05329314
0.44574305 -0.38181308 -0.14810506 0.27309266 0.09678491 -0.08883242 -0.78059083 -0.3953177
-0.03474772 0.1560289 0.044572346 -0.30679378 -0.015437457 -0.02214232 -0.2303506 -0.9399552
00000000: c1cc c53d a282 16be 407d b53e b384 d4bd
00000010: 9e61 b2be 667c 07bf b57b af3e e161 6fbe
00000020: 4933 09be 3083 fa3e 285a dbbe f0fe 9ebe
00000030: f0b5 f8bc 891d 32be 1df4 03be 5ef9 17be
00000040: 7e51 ca3e f48f e0be 3a00 9c3e 7612 563f
00000050: a511 763e 9def 40be 433a 2a3f 93a9 dcbb
00000060: 6c8d d3bd a15e 823b d18c 063e 626f 7cbd
00000070: 08de 1a3f 4980 98bf ab33 873d fa1c 77be
00000080: 121d 1c3e 17f9 ddbd c1fc 063f 276f 2d3f
00000090: 8792 7a3a b30f 283d 9e8b 86be 4964 24be
000000a0: fbf9 0e3f 1b4f 31be f0b9 fc3e ce3f 54bd
000000b0: b66f e03e 88bd 9d3d 9f38 49be 319a cc3e
000000c0: 0c4b f23e a0ab 9fbe de72 b3ba 115a 023d
000000d0: 4859 973d 0b43 f5be 62b4 c9bd 9e8c 363e
000000e0: b330 d3bd 30c2 78be 69ee 8dbe 9984 89bc
000000f0: 7947 863d 81ea f73e c705 3bbf 243f bd3e
00000100: 2a2b 23be 0525 36bf 68a8 063e 16b3 89be
00000110: cb0b 8f3e 91da b13e 949e 513f 5d38 11be
00000120: 5c14 c73c 9dc4 493e 5a7d b5bb 01f8 af3e
00000130: d8e7 f3bd 0869 003f 0a85 c33e 233e 0ebe
00000140: 6dbd afbd b326 35be ae9d d83d a81c a0be
00000150: 9cba 69bb 2852 8abe 5058 343d f11e 6fbe
00000160: 4eaf bb3e 6820 353f 31ad cebc c15d 103c
00000170: 7346 033f bdd2 573d dd4d 1fbf 46ee ebbd
00000180: 6e11 ddbe 05c5 d7bc 1725 173d 79d8 07be
00000190: 79dd cc3e 31d2 1a3f 0327 5f3e 9528 dfbe
000001a0: b7f6 f6bc 609d 393f eb18 4dbe c8be 4c3e
000001b0: 8cf1 ff3b c802 e8bb 508a 613e cbb9 8c3e
000001c0: a7a7 983e 0e58 5c3f d759 393e 0913 cd3d
000001d0: e284 c3bd 61c5 213e 4f51 633e 3dea 6b3e
000001e0: 6df0 d3bd db9d f93e f871 0cbe 8e93 063c
000001f0: e8d4 dc3d 9b74 7cbe 9500 59be 31ce 8f3e
00000200: bf9d 58be 4c65 033d b069 f5be 053c babd
00000210: fc31 85be 08db e4be 25d4 c8bd a329 c8bd
00000220: b6c7 15bd 8434 c7ba ab51 cf3e 885d 843e
00000230: a9ca 6c3e 397e 093e d05e f5bd 60db 453e
00000240: 82d9 86ba 3347 073e 9cfc 073d 87de 253e
00000250: f6d5 083f 2e9a 10bd 26e3 1ebd 3ff2 0f3e
00000260: ed8a a7be 1693 b0be 003b b9bc 1a82 763f
00000270: 0d55 953e 6a4a d1bd 90d2 393f adec 58bd
00000280: 4fce 393e 0544 ca3e b3bd 2c3f 13c9 263f
00000290: 19e1 7bbd ece1 82bd 7e52 77bc 10ba b3bd
000002a0: 9fb8 4dbe 5578 d23d 2231 9bbe b347 21be
000002b0: 4a55 bfbe bcdd 223f 87a2 67be e849 5abd
000002c0: 6f38 e43e 017d c3be daa8 17be cdd2 8b3e
000002d0: 2b37 c63d c6ed b5bd cdd4 47bf 1567 cabe
000002e0: a053 0ebd 0ac6 1f3e 7e91 363d 1314 9dbe
000002f0: 63ed 7cbc d063 b5bc 07e1 6bbe e7a0 70bf

bias f4 [32]
0.3882211 0.23195207 0.2608225 -0.36857012 0.6272833 -0.10448188 -0.44905087 -0.4168056
-0.075610906 0.17860433 0.5596552 -0.5083186 0.17717569 -0.022306953 -0.7787683 0.3046338
-0.91610855 0.12002067 0.44723707 -0.33247977 -0.36438477 0.35208222 0.2029572 0.6055008
-0.16589014 0.18631037 -0.563735 -0.2337646 0.5100157 -0.36999574 -0.13837549 -0.13026679
00000000: ebc4 c63e d884 6d3e 878a 853e 39b5 bcbe
00000010: a395 203f 99fa d5bd ffe9 e5be 8b67 d5be
00000020: e4d9 9abd 0ee4 363e 9045 0f3f 2b21 02bf
00000030: 8b6d 353e 12bd b6bc 5c5d 47bf f6f8 9b3e
00000040: 1786 6abf 66cd f53d 42fc e43e ca3a aabe
00000050: a490 babe 1f44 b43e 03d4 4f3e 1a02 1b3f
00000060: 1bdf 29be 25c8 3e3e f050 10bf fd5f 6fbe
00000070: 6490 023f 1570 bdbe 4eb2 0dbe a864 05be

weight f4 [32, 32]
-0.19897713 -0.22394095 -0.22648178 0.0017332667 -0.2773459 0.25878915 0.28644556 -0.15634452
0.29970628 0.17236385 -0.11918444 0.43209887 -0.3744793 -0.21256317 0.6781439 -0.15143618
0.0664634 -0.531586 0.18135758 0.22806627 0.025309825 -0.030203613 -0.013048003 0.022453038
-0.36605448 -0.025012564 -0.13845806 -0.13117343 0.038291067 0.23928003 0.17480086 -0.16702011
-0.034544036 -0.48647526 -0.16910984 -0.15813188 0.3394677 0.26725712 0.2723552 -0.52129656
-0.08537411 -0.12998092 -0.29636687 0.09940158 0.13022758 0.3791935 0.11150346 -0.15242732
-0.0046556746 0.018459227 -0.27043667 0.12071453 0.22413157 0.32846785 0.34830853 0.070952475
0.100807145 0.002832367 -0.0037736145 -0.10406509 -0.13849042 -0.45326588 0.14284207 0.031555586
-0.16189398 -0.26167926 -0.1612115 0.011345149 -0.111956164 -0.14272398 -0.07685375 0.399511
0.46155426 0.08265632 -0.041195262 0.13605735 0.46142846 0.25311282 0.14159419 0.036508188
0.14759645 -0.08236363 0.09306459 -0.06072405 0.01755592 -0.04978759 0.0054690423 -0.1486304
0.27373073 0.29416803 0.12518279 -0.03850965 0.08508112 0.4926433 -0.14944842 -0.61019295
0.23645613 0.041940227 0.03919839 -0.18781699 0.07667324 -0.12822655 0.24300906 -0.21512857
-0.19451497 -0.12920968 0.046583403 0.058870368 0.08686202 -0.1482454 0.23931098 0.034143094
0.27961755 0.3875693 -0.27147612 -0.082751505 0.17239138 0.2654999 0.2339775 0.115411565
0.46333978 0.04368398 0.16852035 -0.59909976 0.09852565 0.08370101 -0.05889291 -0.024020925
0.032745123 -0.18914334 0.21954177 -0.2655476 -0.052519258 -0.30445433 0.0067253974 -0.1486108
0.025945526 -0.20506178 -0.2530894 -0.1335579 0.06376348 -0.068868294 0.048397314 -0.2293574
-0.35340798 -0.21815044 -0.18042554 0.24373366 -0.33259222 0.05680591 -0.05533786 0.058307603
-0.2257704 -0.14453448 -0.16397752 -0.16448721 0.013924575 0.29229116 0.5408025 0.2947029
0.12237897 0.013906778 0.12873131 0.18158267 0.23712146 0.00951549 0.2424284 0.07661869
0.013564608 0.0716501 -0.10503054 -0.07946802 -0.3750869 0.36448276 0.13572107 -0.13414407
-0.13193099 -0.013681533 0.14745504 -0.4291834 0.2329472 0.051404346 -0.66286814 0.29483584
0.061232764 0.23275271 0.038443927 -0.2506091 -0.29033527 0.40935242 0.018546995 0.13749509
-0.21902905 0.09561028 -0.03646775 0.0182441 -0.037484933 0.019361708 0.11011204 0.38683972
0.16929433 -0.38545978 -0.030760428 -0.47305545 0.57092535 -0.13161251 -0.33660826 0.16378132
-0.27258605 0.031918596 -0.3086361 -0.0343727 -0.1205763 0.17875744 0.12173257 -0.23292784
0.16466433 0.070998594 0.14991412 0.077603705 -0.18362416 0.37584597 0.036911704 -0.07413814
-0.32207647 -0.29270154 0.0010226134 -0.15879276 0.117367335 0.12190049 0.25198004 -0.09487847
0.2903027 0.1351412 -0.14448735 0.047478527 0.11556962 0.2760908 0.018552618 -0.2120327
-0.1328978 -0.16531898 0.31932473 0.084653914 0.20566678 -5.71228e-05 -0.12613674 -0.15653947
-0.3745307 -0.05555185 0.20498298 -0.25944844 0.107339025 -0.22844578 -0.32556894 0.30841717
00000000: a9c0 4bbe c750 65be d7ea 67be c82e e33a
00000010: 4800 8ebe 0380 843e fea8 923e c718 20be
00000020: 1a73 993e 2680 303e f916 f4bd 103c dd3e
00000030: c0bb bfbe 29aa 59be d79a 2d3f 1612 1bbe
00000040: f71d 883d 0516 08bf cdb5 393e 348a 693e
00000050: 8d56 cf3c 916d f7bc 4bc7 55bc 6fef b73c
00000060: 7e6b bbbe 26e7 ccbc f3c7 0dbe 5452 06be
00000070: 18d7 1c3d d305 753e fffe 323e 5207 2bbe
00000080: 0c7e 0dbd 4913 f9be 212b 2dbe 53ed 21be
00000090: b6ce ad3e edd5 883e 2472 8b3e b173 05bf
000000a0: 9fd8 aebd b819 05be 66bd 97be 0e93 cb3d
000000b0: 615a 053e a725 c23e ed5b e43d e815 1cbe
000000c0: a18e 98bb ce37 973c ad76 8abe 2e39 f73d
000000d0: bf82 653e f02c a83e 7f55 b23e 884f 913d
000000e0: fa73 ce3d 3c9f 393b bf4e 77bb 1420 d5bd
000000f0: 6fd0 0dbe 7712 e8be 3145 123e 6e40 013d
00000100: 89c7 25be d3fa 85be a114 25be 01e1 393c
00000110: 4649 e5bd 3c26 12be 8065 9dbd b58c cc3e
00000120: d750 ec3e b747 a93d 5dbc 28bd 9e52 0b3e
00000130: 5a40 ec3e 0198 813e 11fe 103e 9c89 153d
00000140: 8623 173e 43ae a8bd a698 be3d c8b9 78bd
00000150: 6fd1 8f3c 12ee 4bbd a735 b33b 9132 18be
00000160: 6f26 8c3e 319d 963e eb2f 003e 4bbc 1dbd
00000170: 033f ae3d be3b fc3e 0209 19be 9b35 1cbf
00000180: 8e21 723e 84c9 2b3d 7e8e 203d 1953 40be
00000190: dc06 9d3d d24d 03be 5ed7 783e aa4a 5cbe
000001a0: ef2e 47be 8b4f 04be 3dce 3e3d 0e22 713d
000001b0: b7e4 b13d a4cd 17be f00d 753e a1d9 0b3d
000001c0: 082a 8f3e 7c6f c63e ebfe 8abe 9f79 a9bd
000001d0: 5e87 303e 9aef 873e cc97 6f3e e65c ec3d
000001e0: df3a ed3e f9ed 323d 9990 2c3e 9a5e 19bf
000001f0: d1c7 c93d 6f6b ab3d b139 71bd 88c7 c4bc
00000200: c01f 063d cbae 41be 8fcf 603e dbf5 87be
00000210: 6f1e 57bd 70e1 9bbe b960 dc3b 6e2d 18be
00000220: b68b d43c b7fb 51be ef94 81be 67c3 08be
00000230: 6d96 823d d20a 8dbd 433c 463d abdc 6abe
00000240: e4f1 b4be d462 5fbe 79c1 38be 5195 793e
00000250: 8749 aabe 50ad 683d f4a9 62bd f4d3 6e3d
00000260: 5b30 67be d900 14be b9e9 27be 566f 28be
00000270: e723 643c 30a7 953e 0872 0a3f 4ce3 963e
00000280: d3a1 fa3d 41d9 633c 24d2 033e cff0 393e
00000290: f8cf 723e dce6 1b3c 273f 783e 42ea 9c3d
000002a0: 173e 5e3c 4abd 923d 401a d7bd 21c0 a2bd
000002b0: 640b c0be 7c9d ba3e 77fa 0a3e 105d 09be
000002c0: eb18 07be 8228 60bc 74fe 163e edbd dbbe
000002d0: b689 6e3e 5d8d 523d bab1 29bf b9f4 963e
000002e0: 35cf 7a3d ba56 6e3e 6177 1d3d d64f 80be
000002f0: d3a6 94be a496 d13e deef 973c 83cb 0c3e
00000300: 2749 60be 53cf c33d 355f 15bd a774 953c
00000310: cd89 19bd 729c 9e3c 6c82 e13d db0f c63e
00000320: 7e5b 2d3e fc5a c5be 4bfd fbbc 5334 f2be
00000330: 2a28 123f 6ec5 06be eb57 acbe 4ab6 273e
00000340: 6690 8bbe 13bd 023d 8d05 9ebe 63ca 0cbd
00000350: b5f0 f6bd 310c 373e ed4e f93d a384 6ebe
00000360: c49d 283e b667 913d 1683 193e b1ee 9e3d
00000370: f907 3cbe e26e c03e ba30 173d bdd5 97bd
00000380: 35e7 a4be fadc 95be 3609 863a 929a 22be
00000390: 495e f03d f7a6 f93d 8703 813e a54f c2bd
000003a0: 8ea2 943e 7462 0a3e 7ef4 13be d878 423d
000003b0: c4af ec3d c65b 8d3e a9fb 973c 1a1f 59be
000003c0: 5c16 08be 6149 29be 887e a33e 085f ad3d
000003d0: 509a 523e 2497 6fb8 fd29 01be e24b 20be
000003e0: 7dc2 bfbe 568a 63bd 0fe7 513e 6dd6 84be
000003f0: 90d4 db3d b1ed 69be f9b0 a6be dbe8 9d3e

bias f4 [32]
0.04343046 -0.032268576 -0.07483087 0.14624676 0.28107953 -0.019562095 0.16820285 -0.28114974
-0.1677668 0.23581634 -0.12926479 0.08070781 0.1914546 -0.12429107 0.2776059 -0.118777685
-0.029770536 0.15985385 0.020666866 0.16500469 -0.31442976 -0.076903194 -0.1832922 0.0027228226
-0.12203557 0.06485724 -0.48134097 -0.07368312 0.19164057 0.19763194 -0.13320833 -0.27371854
00000000: 23e4 313d 0e2c 04bd ed40 99bd b6c1 153e
00000010: a8e9 8f3e b040 a0bc 5e3d 2c3e dcf2 8fbe
00000020: 0fcb 2bbe d779 713e fd5d 04be 234a a53d
00000030: ad0c 443e 518c febd 5c22 8e3e b741 f3bd
00000040: 57e1 f3bc bab0 233e 8f4d a93c fdf6 283e
00000050: f0fc a0be 6c7f 9dbd f3b0 3bbe 6271 323b
00000060: c9ed f9bd dfd3 843d 5372 f6be 2de7 96bd
00000070: 6d3d 443e 0760 4a3e c467 08be d624 8cbe

weight f4 [16, 32]
-0.10085828 0.06419788 0.45494857 -0.02764303 -0.79442996 0.25262752 -0.61197007 -0.053864613
0.28024638 -0.6945674 0.13894278 0.40078375 0.31900904 0.50846744 -0.1768834 0.089552924
-0.0651912 0.20742233 -0.2304776 -0.015582141 -0.14938337 0.03220045 -0.15512574 0.2980739
0.11559797 -0.13291961 -0.35556054 -0.24004118 -0.2062505 -0.03592715 0.12145916 0.34742537
0.1055457 -0.18165646 -0.27566043 -0.35261452 0.15248533 0.008872543 -0.0034733566 -0.104421765
-0.013175232 0.23794936 0.3786527 0.40606064 -0.11951752 0.015980985 -0.058863066 -0.18447734
-0.22422767 -0.009904954 0.4755044 0.21825863 0.07194334 -0.17096658 -0.4849729 -0.02900358
-0.38555613 0.08178312 0.13148862 0.0028292427 0.25604892 -0.6737164 0.22730984 -0.004406931
-0.42687994 -0.16185573 0.26153746 -0.008803365 0.19374958 0.07506185 0.26570955 -0.9157392
-0.39786318 0.26889724 -0.25138646 0.1268741 0.26507807 -0.24739909 0.7040495 -0.44874063
0.16099744 0.02885744 0.024953006 -0.08650008 -0.2156523 -0.1091702 0.41077545 -0.2325868
0.06266975 0.26657203 -0.175702 0.43755084 -0.16100475 0.7692245 -0.47040984 0.058836993
-0.27538082 0.027010664 -0.14338775 0.08831519 0.02379162 0.17534901 -0.32174528 0.34770954
-0.10085232 0.3289483 -0.14966534 0.5242551 -0.22665715 -0.4732144 0.34925246 0.14850873
-0.13069697 -0.05735013 -0.13554795 0.35686713 -0.32231703 0.20436396 0.2786996 0.2147696
-0.12943307 -0.25302103 -0.31839308 -0.002321178 -0.19137982 -0.51286197 -0.020918114 0.54801023
-0.20807534 -0.22495301 -0.5811814 -0.7472726 -0.34759337 -0.076374196 -0.1097958 0.20303914
0.64807117 0.14751238 0.45251542 -0.105264194 -0.16391712 -0.21681003 -0.20456526 0.16892728
-0.03790115 0.3490728 0.03241233 0.3125119 -0.5029607 -0.35092953 0.7024729 -0.15870133
-0.039351307 -0.43176976 0.11031199 0.37769336 0.20163041 -0.268039 0.42226204 0.64149415
-0.34619182 0.22221527 -0.40284008 -0.089598045 0.32381263 0.18441835 -0.38801003 0.24207662
0.3624073 -0.042166345 0.34610108 0.01818015 0.109290406 0.10818573 0.133288 -0.16127405
-0.4233609 0.16140796 0.04620063 -0.1015707 0.038304444 -0.5241214 -0.22508052 -0.45984107
-0.14836012 -0.20553601 0.102224655 -0.15434766 0.2294033 -0.19576696 -0.011945668 -0.26287314
0.13437743 0.24836093 0.006812596 -0.29128054 0.1757607 -0.20510337 0.117970034 0.32708085
0.2105082 -0.022886088 -0.17778243 0.017550515 0.20854028 0.01864946 0.03931209 0.49701333
0.17146583 -0.28618237 -0.097866684 0.5947855 0.13355133 0.41337594 -0.23820283 0.31839564
0.11608721 0.09284699 -0.15857805 -0.3603967 -0.35043132 -0.4877071 -0.8061746 -0.090434864
-0.21288984 0.12159734 -0.47174802 0.26104826 0.12573028 -0.20766616 -0.08645768 -0.37643236
-0.0098291235 -0.095630765 -0.1285803 0.1506179 0.6086579 0.49195167 -0.70549095 0.13197306
0.72046816 0.20377462 -0.20293076 -0.55002344 0.25564265 -0.14815965 -0.6805936 -0.46074402
-0.04372753 -1.0844262 -0.20228559 0.10956458 -0.6132854 0.13122688 0.43913248 -0.0039486806
00000000: c98e cebd 2e7a 833d 05ef e83e a373 e2bc
00000010: c35f 4bbf 6558 813e 12aa 1cbf 24a1 5cbd
00000020: 747c 8f3e 2bcf 31bf 0447 0e3e 8733 cd3e
00000030: 2755 a33e ec2a 023f ec20 35be 8667 b73d
00000040: f782 85bd 8566 543e 5202 6cbe 3c4c 7fbc
00000050: f4f7 18be 9ee4 033d 48d9 1ebe 249d 983e
00000060: a1be ec3d 141c 08be 080c b6be 5bcd 75be
00000070: 5533 53be 5928 13bd 94bf f83d bde1 b13e
00000080: 5828 d83d 2704 3abe 5d23 8dbe e489 b4be
00000090: 1d25 1c3e 255e 113c 41a1 63bb 14db d5bd
000000a0: eedc 57bc ffa8 733e c4de c13e 2ee7 cf3e
000000b0: 9ac5 f4bd 8eea 823c 661a 71bd a1e7 3cbe
000000c0: f09b 65be 6348 22bc 5075 f33e 317f 5f3e
000000d0: 0857 933d dd11 2fbe 5e4e f8be ea98 edbc
000000e0: 9d67 c5be e97d a73d f4a4 063e d16a 393b
000000f0: d818 833e ae78 2cbf e9c3 683e 0468 90bb
00000100: 0290 dabe 82bd 25be 3de8 853e fd3b 10bc
00000110: 4a66 463e 07ba 993d 150b 883e e26d 6abf
00000120: b9b4 cbbe e6ac 893e bab5 80be 49eb 013e
00000130: 50b8 873e 3056 7dbe 973c 343f 55c1 e5be
00000140: 83dc 243e 7066 ec3c 3f6a cc3c f426 b1bd
00000150: f5d3 5cbe a094 dfbd 2951 d23e 3c2b 6ebe
00000160: ff58 803d 217c 883e 3aeb 33be aa06 e03e
00000170: 6ede 24be e6eb 443f 8fd9 f0be 0fff 703d
00000180: b7fe 8cbe 7845 dd3c 3dd4 12be 98de b43d
00000190: a5e6 c23c b18e 333e ccbb a4be fc06 b23e
000001a0: a98b cebd e96b a83e df41 19be 9535 063f
000001b0: d018 68be 2849 f2be 38d1 b23e ac12 183e
000001c0: 6dd5 05be f8e7 6abd 15cd 0abe 4ab7 b63e
000001d0: bd06 a5be c944 513e b7b1 8e3e 90ec 5b3e
000001e0: 1a8a 04be f98b 81be 6b04 a3be e81e 18bb
000001f0: 12f9 43be ec4a 03bf 775c abbc 664a 0c3f
00000200: b411 55be 155a 66be 4ec8 14bf 424d 3fbf
00000210: c2f7 b1be 136a 9cbd 9fdc e0bd 7ee9 4f3e
00000220: fee7 253f 7c0d 173e 1ab0 e73e c194 d7bd
00000230: e4d9 27be 7303 5ebe 8e79 51be 46fb 2c3e
00000240: 3c3e 1bbd acb9 b23e cbc2 043d 8f01 a03e
00000250: 08c2 00bf 09ad b3be 44d5 333f 9a82 22be
00000260: d62e 21bd ed10 ddbe 41eb e13d 0661 c13e
00000270: 3478 4e3e 683c 89be bb32 d83e f638 243f
00000280: 0e40 b1be 668c 633e 0e41 cebe 2e7f b7bd
00000290: c5ca a53e 2ad8 3c3e 40a9 c6be efe2 773e
000002a0: 738d b93e 9eb6 2cbd 2934 b13e 8aee 943c
000002b0: a6d3 df3d 7b90 dd3d a67c 083e 0625 25be
000002c0: c3c2 d8be 2148 253e df3c 3d3d 4d04 d0bd
000002d0: 1fe5 1c3d d22c 06bf 827b 66be 4a70 ebbe
000002e0: b7eb 17be 0878 52be 295b d13d 500d 1ebe
000002f0: b3e8 6a3e 2277 48be c3b7 43bc 4f97 86be
00000300: 3d9a 093e 5452 7e3e 333c df3b b922 95be
00000310: 9dfa 333e 9e06 52be 469a f13d 2477 a73e
00000320: 768f 573e 9b7b bbbc 990c 36be 19c6 8f3c
00000330: 958b 553e c1c6 983c b705 213d 8878 fe3e
00000340: bd94 2f3e 7f86 92be 546e c8bd dd43 183f
00000350: aec1 083e 03a6 d33e 71eb 73be c104 a33e
00000360: 22bf ed3d 9026 be3d 4962 22be eb85 b8be
00000370: bc6b b3be bfb4 f9be 7561 4ebf ea35 b9bd
00000380: cbff 59be 0708 f93d f588 f1be 1ea8 853e
00000390: 70bf 003e 70a6 54be b910 b1bd bebb c0be
000003a0: 550a 21bc 10da c3bd 8eaa 03be 943b 1a3e
000003b0: 01d1 1b3f 17e1 fb3e 0e9b 34bf f223 073e
000003c0: 9a70 383f 4baa 503e 15cd 4fbe 56ce 0cbf
000003d0: 98e3 823e 2ab7 17be 623b 2ebf a4e6 ebbe
000003e0: a31b 33bd 7ace 8abf f423 4fbe 6563 e03d
000003f0: 4600 1dbf 5760 063e f9d5 e03e ef63 81bb

bias f4 [16]
-0.30588293 0.010626464 0.15797952 0.06759701 -0.07161266 -0.06445353 0.14059936 -0.3414721
0.17023206 -0.21729627 0.026247256 0.022875933 0.109921604 0.0858511 -0.2454824 -0.08572051
00000000: b09c 9cbe 9f1a 2e3c 62c5 213e 4d70 8a3d
00000010: a9a9 92bd 3600 84bd 47f9 0f3e 6ed5 aebe
00000020: 5051 2e3e ea82 5ebe 7c04 d73c 4f66 bb3c
00000030: 941e e13d b4d2 af3d bd5f 7bbe 3c8e afbd

weight f4 [6, 16]
-0.34304824 0.38132527 0.21824682 -0.23118268 -0.32998037 0.2893733 -0.32061157 -0.46417972
1.1707035 -0.14244586 0.07931184 0.6794427 0.45504344 -0.25738102 -0.4338464 0.6957145
0.20441684 -0.6254484 0.681722 -0.25051287 -0.5764677 -0.3219578 0.8345018 -0.2379046
0.024620483 -0.03757506 -0.31567642 -0.65606797 -0.5840356 -0.31165677 -0.2611587 0.020665556
-0.57541054 0.47503594 -0.33344132 0.35560527 0.4633073 -0.2846448 0.9574873 -0.71424514
-0.15283929 -0.5883657 0.10267812 0.6644066 0.3764619 -0.5586954 0.7685233 -0.5247763
-0.21795522 0.79754376 0.09763565 0.21525459 0.4765243 -0.081746094 -0.89127994 0.7486178
-0.1737911 -0.12084054 -0.35527584 -0.009643694 0.3020749 1.295609 -0.28487432 -0.44364807
1.0328199 0.04834834 -1.5930424 0.24304532 1.6988991 0.63791436 -0.10166565 0.059581183
0.28309566 1.196585 -0.11874132 -0.5491102 0.6558863 0.27030042 0.012946618 0.34839436
-0.221464 -0.721895 -0.82914686 -0.34775332 0.75699824 -0.12394988 -0.056541786 0.50427747
-0.38584644 1.4244753 1.4770557 0.36291075 0.54842937 0.78399086 0.8050942 -0.67615753
00000000: 05a4 afbe 113d c33e 187c 5f3e 27bb 6cbe
00000010: 30f3 a8be bd28 943e 3327 a4be f7a8 edbe
00000020: 9dd9 953f 54dd 11be 3f6e a23d f5ef 2d3f
00000030: 74fb e83e 72c7 83be 1e21 debe 581a 323f
00000040: a652 513e 631d 20bf 5585 2e3f 3943 80be
00000050: 6393 13bf a7d7 a4be e9a1 553f 439d 73be
00000060: e5b0 c93c 4ee8 19bd 57a0 a1be 12f4 27bf
00000070: 5b83 15bf 7a91 9fbe 98b6 85be d04a a93c
00000080: 1b4e 13bf e937 f33e d2b8 aabe e511 b63e
00000090: 9d36 ed3e f7bc 91be e31d 753f c5d8 36bf
000000a0: e781 1cbe 229f 16bf e848 d23d 8d16 2a3f
000000b0: 9dbf c03e a906 0fbf f1bd 443f bd57 06bf
000000c0: a72f 5fbe d42b 4c3f 33f5 c73d b36b 5c3e
000000d0: fefa f33e 7f6a a7bd ec2a 64bf 6ba5 3f3f
000000e0: 4bf6 31be 3f7b f7bd b7e6 b5be 9600 1ebc
000000f0: 90a9 9a3e 84d6 a53f 0cdb 91be d725 e3be
00000100: 7133 843f e908 463d d0e8 cbbf dfe0 783e
00000110: 8775 d93f 5b4e 233f 1536 d0bd 660b 743d
00000120: eaf1 903e b329 993f a62e f3bd 7c92 0cbf
00000130: 2ae8 273f d164 8a3e 0d1e 543c bf60 b23e
00000140: 75c7 62be 1cce 38bf f842 54bf b90c b2be
00000150: a3ca 413f 6fd9 fdbd 5c98 67bd 5418 013f
00000160: aa8d c5be 3555 b63f 2910 bd3f 70cf b93e
00000170: de65 0c3f a0b3 483f a71a 4e3f a918 2dbf

bias f4 [6]
0.35280702 0.21919507 -0.08357941 0.044259652 -0.389347 -0.15511899
00000000: 1fa3 b43e ac74 603e af2b abbd 9c49 353d
00000010: 7d58 c7be 83d7 1ebe
